checkpoints/model_final_baseline.pt (torch, 49866 bytes, 5 tensors)

fc1.weight f4 [128, 26]
000000 8d e8 a8 3d 5e 4f 25 3d 9d 81 9d bd a8 86 e9 bc
       0.082474805 0.040358894 -0.076907374 -0.028506592
000010 a5 c8 d1 3d 4f 46 19 be 91 44 2c be 5d ef d7 bd
       0.10243348 -0.14968227 -0.16823031 -0.10543702
000020 45 4e 93 3d 88 40 10 3e ad 6f ae 3d f9 5d 12 be
       0.07192663 0.14087117 0.08517394 -0.1429366
000030 cd 8d a1 3d 92 36 00 be 21 01 8f 3d ed 57 3d 3e
       0.078883745 -0.12520817 0.06982637 0.18490572
000040 27 66 d6 bd 5d 6d d7 3d 93 ec 1f be 1c 37 46 be
       -0.10468703 0.10518906 -0.1561759 -0.1935696
000050 f4 ca b6 bd 0a 1f 0b 3c 32 c8 da 3c 1a 51 64 3d
       -0.08925429 0.008491287 0.026706789 0.055741407
000060 7c 8c 09 bd 1d bf ec 3d 46 d0 05 be 72 d2 93 b9
       -0.033581242 0.115598895 -0.13067731 -0.0002819482
000070 af 6c c1 3c 7d b9 41 bd ac 39 d4 3d 73 4a 26 bd
       0.023611395 -0.047296036 0.103625625 -0.040598344
000080 78 3a 62 3d ff 4d 1c 3e 4d 89 46 3a 47 79 2e 3e
       0.05523154 0.15264128 0.000757356 0.17038451
000090 bd d5 9f 3d 8f b6 45 3c ce 81 5f b9 80 4e 62 3e
       0.07804439 0.012067451 -0.00021315293 0.22100258
0000a0 64 c9 5e 3d 0c a0 08 3e 12 ac bc bd 2e 69 d7 bc
       0.05439128 0.13342303 -0.09212507 -0.02629527
0000b0 44 7a 70 bc c0 14 04 3e 54 79 2c bd d2 e9 6a bd
       -0.014677588 0.1289854 -0.042107895 -0.057351895
0000c0 16 53 69 bd 7f a3 4e 3e 18 76 dd 3d f8 62 ae 3d
       -0.056964003 0.20179556 0.1081354 0.085149705
0000d0 04 f1 13 3d eb 4d 08 3e 68 65 fb bd b9 5d 80 3d
       0.036118522 0.13310973 -0.12275201 0.06267876
0000e0 f9 16 1f be 92 10 41 be a0 11 4f be cc ec 4a bd
       -0.15536107 -0.18853977 -0.20221567 -0.049542233
0000f0 6a ef e9 bd b7 48 f4 bc 30 51 d7 3d 54 52 80 bd
       -0.11422618 -0.02981983 0.10513532 -0.06265703
000100 ea 28 2c 3e 65 91 26 be bb 5f 88 39 90 60 fd bd
       0.16812482 -0.16266401 0.00026011266 -0.123719335
000110 02 a3 18 be 54 4f 8b 3d 47 c2 0d be e1 69 1e be
       -0.14905933 0.0680224 -0.13843642 -0.15470077
000120 a6 19 28 3e 3d 17 96 3d db 1a 02 3e 7c d9 2c 3e
       0.16416034 0.07328651 0.12705557 0.16879839
000130 9b 4d 62 3d 58 50 81 3b 7c e7 bb 3d 90 93 a8 bd
       0.05524979 0.0039463453 0.091750115 -0.0823127
000140 27 c9 b0 bd 82 f5 99 3c e2 b6 d0 3c 47 dc 35 3e
       -0.08632117 0.018793825 0.02547783 0.1775981
000150 e0 37 fe bd 44 da e5 3d f0 31 92 bc 8d 88 f6 3d
       -0.12413001 0.112232715 -0.017846078 0.12037764
000160 45 7f 1c be fa d7 16 be 0f 7c d1 3c 30 fa 83 bd
       -0.15282924 -0.14730826 0.025571851 -0.06444204
000170 fb b7 19 3e c0 de ea bb 68 8a 56 3e 9f a3 d6 3c
       0.15011589 -0.007167667 0.20951235 0.026201067
000180 57 2d 26 3e 1e 50 4f 3e 71 4c 12 3b 59 be 24 be
       0.16228233 0.20245406 0.0022323395 -0.16088237
000190 00 25 5b 3e 47 4c b4 bd 4a c1 0f 3e 04 2c e4 3d
       0.21400833 -0.08803611 0.14038578 0.11141208
0001a0 56 e8 c8 3d d7 5b 29 bd a8 95 ff bd cd 59 36 bd
       0.098099396 -0.04134735 -0.124797165 -0.044519234
0001b0 1a a9 49 3d bb 73 48 3e 03 f1 0e be 3b 58 0d be
       0.049233533 0.19575398 -0.13959126 -0.13803189
0001c0 78 25 06 be cd 26 f6 bd 79 de 5a 3e 98 7a ee 3d
       -0.1310023 -0.120191194 0.21373929 0.11644477
0001d0 c5 de 6d 3d 89 04 35 bd 88 4d 4d bd d5 70 fa 3d
       0.058073778 -0.04419378 -0.050122768 0.12228552
0001e0 68 c1 18 3e bc 95 02 3e 86 b2 b4 bd f7 22 4c 3e
       0.14917529 0.12752432 -0.08823113 0.19935213
0001f0 21 37 c7 3c ad 72 13 3e 37 1d 8b 3d c0 62 54 3e
       0.02431828 0.14399214 0.06792682 0.20740795
000200 b3 fb d6 3d b3 9d 84 3d 4b 9f 9c bd 08 a7 26 be
       0.104972266 0.06475391 -0.0764757 -0.16274655
000210 06 bf ba 3d e0 a2 ed 3c 6c ae 29 bd 70 dd 18 be
       0.09118466 0.029008329 -0.041426107 -0.14928222
000220 2a 6d 89 bd df 16 a8 bd cb 5c b3 bd b9 fc de bd
       -0.067102745 -0.08207487 -0.08757933 -0.10888047
000230 ca 16 c2 3d a3 ec 04 3e 74 ea 4f bd 18 9e 01 bd
       0.09477003 0.12980895 -0.0507607 -0.03164491
000240 b6 07 94 3d 78 e8 52 3d a4 38 16 be 36 16 dc 3d
       0.07228033 0.05149123 -0.14670044 0.10746424
000250 a6 19 ea 3d b4 d8 10 be 0c 39 0d be 6b 97 d9 bd
       0.11430673 -0.14145166 -0.13791293 -0.10624584
000260 00 51 bd 3c 51 4a 16 3e a8 2d 17 bd ff 2c f5 bd
       0.023109913 0.14676787 -0.036908776 -0.11971473
000270 3c 28 43 bd 35 e6 2a be cd 78 f9 3a 8e c9 5f 3e
       -0.047645792 -0.1668938 0.0019033194 0.21854231
000280 b5 59 29 be 6d 65 26 3e 27 5e 01 3c f3 f1 df 3d
       -0.16538127 0.16249628 0.007895983 0.1093482
000290 7a d9 b5 bd 45 99 d7 3d 9c b3 77 bd 08 3b 1a be
       -0.08879371 0.10527281 -0.060474023 -0.15061581
0002a0 3a 41 21 3c 06 b1 85 3d 83 f8 27 3d 2a 55 be 3d
       0.009842211 0.06527905 0.041008484 0.092935875
0002b0 6c ef 9e bd 00 c0 9d bd 58 3d 72 3d 39 5f 07 be
       -0.0776051 -0.07702637 0.059140533 -0.13219918
0002c0 dd 1b 8d 3c b8 8a da 3d 06 a4 a3 3d 19 b5 03 3e
       0.0172252 0.1067099 0.07990269 0.12862052
0002d0 39 11 7a bd 8c d9 0f 3d 9d be e6 3d df 89 d8 3d
       -0.06105158 0.03511958 0.11266825 0.10573172
0002e0 b9 ad 7e 3d 12 41 35 be c5 eb 03 be 0a f9 40 be
       0.062177394 -0.17700604 -0.12882908 -0.18845001
0002f0 8f 8a 3e 3d 4c 1a 1a 3b 46 86 0e 3e 17 0b 48 bd
       0.04651886 0.002351421 0.13918409 -0.0488387
000300 a8 d2 44 bd f2 d3 9a 3d 77 37 25 be 83 d2 e6 bd
       -0.04805246 0.075599566 -0.1613444 -0.11270621
000310 8d 3f e2 3d 12 e9 18 be 0c cd 3a 3d ac 2a c0 3d
       0.110472776 -0.1493266 0.045605704 0.09383139
000320 85 87 2e be 99 42 22 3e 91 88 48 be 14 1f 37 3e
       -0.17043884 0.15845717 -0.19583346 0.17882949
000330 f7 51 cb 3c 15 61 07 be 2f 38 11 3d a7 61 3b 3c
       0.024819357 -0.13220628 0.03545397 0.011436856
000340 de ff c7 3d c3 26 ea 3d 15 61 2f 3e 3f 0a 01 3e
       0.097656 0.114331745 0.17126878 0.12601565
000350 47 8a 73 bd 66 e1 aa bd 41 b2 26 3e f5 6b 28 bd
       -0.059458043 -0.083437726 0.16278936 -0.04111858
000360 ed d7 8a bd 9f b0 0f 3e 6b c0 e2 bd 07 d3 69 3e
       -0.06779466 0.1403222 -0.11071857 0.22834407
000370 48 10 e9 bc b9 36 c7 3d b6 f6 a9 3d 60 71 18 3d
       -0.028450146 0.097272344 0.082990095 0.037217498
000380 38 e1 0b 3e 3b 70 18 3e e8 77 ab 3d 84 27 b6 bc
       0.13660133 0.14886563 0.0837248 -0.02223564
000390 5c 8e 04 3e f5 76 1e be 4e d1 db 3d 5f 18 0b bb
       0.12944931 -0.15475066 0.10733281 -0.0021224243
0003a0 a7 92 0c 3e 55 4d 28 be e8 69 8d 3d 01 ec f5 3d
       0.13727818 -0.1643575 0.06904966 0.12007905
0003b0 0d f8 ab b8 77 ec fd bd 03 c3 82 bd a8 83 a9 3d
       -8.2001185e-05 -0.12398618 -0.06384852 0.082770646
0003c0 4a 5a 12 bd 6b e9 7d bd 0d 93 03 3e 4f c6 d7 ba
       -0.035730638 -0.061990183 0.12849064 -0.0016462299
0003d0 26 8a 28 be d2 95 21 be 41 7c f1 bd e6 f3 7f bd
       -0.1645895 -0.15779808 -0.11791278 -0.06248846
0003e0 4c 11 31 3e eb 00 3b 3d 32 6c 26 be be 0b 4a be
       0.17291754 0.045655172 -0.1625221 -0.19731042
0003f0 1f a1 31 3d a3 48 bd bd 9e 14 39 3d 67 23 a6 3d
       0.043366548 -0.0924237 0.045185678 0.08112221

fc1.bias f4 [128]
000000 05 9a b2 3d c0 2b 52 3e 40 cd 9b 3d 5a 33 9d bc
       0.08720783 0.20524502 0.07607508 -0.019189525
000010 b9 ba fa bd 12 0e a6 bd 7d 9d 16 bd 7f 35 0c 3e
       -0.12242646 -0.081081524 -0.036771286 0.13692282
000020 ab a8 3a 3e 6c 62 2e 3e a1 4d 3e be 4a d2 dd 3d
       0.18228404 0.17029732 -0.185843 0.10831125
000030 77 8c 19 3e f1 ea cb 3d 37 a3 26 3e 56 07 97 3d
       0.1499499 0.09956921 0.16273199 0.07374446
000040 d4 11 30 bd 36 50 e9 bd 41 68 fd 3d dc 09 64 bd
       -0.042985752 -0.11392252 0.123734005 -0.055673465
000050 b7 57 1b bd 4d 1b a4 bd 03 7d 19 be e6 78 82 3d
       -0.03792545 -0.0801302 -0.14989094 0.06370716
000060 ee 74 df 3d 62 a2 a2 3d dd 5b 32 3d 25 00 10 3c
       0.109109744 0.07941128 0.04354464 0.008789097
000070 8f 5b 07 be c7 43 ed bb 38 04 75 bd 3d bd 9f bd
       -0.1321852 -0.0072407457 -0.059818476 -0.07799766
000080 d7 14 3b 3e c8 39 2e be 8c 12 f3 bd 62 c4 df bd
       0.18269669 -0.1701423 -0.11868772 -0.10926129
000090 bb 00 21 be 4f d7 0e bd e1 de 2f bb 45 41 06 be
       -0.15722935 -0.034873303 -0.0026835727 -0.13110836
0000a0 b9 e0 cc 3d d8 b6 2b 3e 6f 29 10 3e 3c 74 0e be
       0.100038 0.16768968 0.14078306 -0.13911527
0000b0 45 3f 99 bd ad 24 14 3e 85 c6 4b bd ca 37 9d 3d
       -0.07482771 0.14467116 -0.04974987 0.076766565
0000c0 ba 20 32 be 49 10 00 3e c0 a5 fe bb 37 28 80 bd
       -0.17395297 0.12506212 -0.007771224 -0.062576704
0000d0 62 94 af 3d 42 29 1d 3d b8 a5 f1 3c c3 fa 0f be
       0.08573224 0.038369425 0.029497966 -0.14060502
0000e0 37 37 90 3d 1f 88 a5 bd 35 e2 ae bd a5 b3 d2 3d
       0.070417814 -0.08082604 -0.08539239 0.10288171
0000f0 ae 12 ea bd 6c eb 4f be 47 7b d4 39 b5 0b b8 3d
       -0.11429344 -0.2030465 0.0004052764 0.08986608
000100 d5 23 0b 3e 13 e6 ac bd e2 1c 4e 3e b4 34 02 be
       0.13587888 -0.08442321 0.20128205 -0.12715417
000110 93 0e f7 bd ea 4b f7 bc 93 91 47 3e 22 b9 0c be
       -0.12063327 -0.030187566 0.19489126 -0.13742498
000120 7d 59 47 be b6 11 35 bd f1 85 7a bd 73 fe bb 3d
       -0.19467731 -0.044206344 -0.061162893 0.09179392
000130 80 94 ff bc 2e 01 e3 3d 24 e0 08 bd c1 05 13 be
       -0.03119874 0.110842094 -0.033416882 -0.14357664
000140 17 22 46 3d 3b f3 04 3e ae 7b 8a bd 88 73 aa bc
       0.048372354 0.1298341 -0.06761871 -0.020807043
000150 f5 a4 9f bc 59 86 ca bd 70 7d 92 bd a3 f1 38 3e
       -0.019487837 -0.09888906 -0.071528316 0.18060927
000160 d4 35 bd 3b b0 ff 18 be 19 33 51 be d3 a1 1a bd
       0.005774239 -0.14941287 -0.20429648 -0.037751984
000170 35 5d 35 bd 8f 2c 55 3e 49 a4 42 3e 67 01 39 3e
       -0.044278342 0.20817779 0.19007982 0.18066941
000180 e4 5d 02 3e 76 ad 02 be c7 65 9c 3d 4c 3b c0 3d
       0.12731129 -0.12761483 0.076366 0.0938631
000190 e6 0f 05 3e de 42 e7 3d a4 4f fa 3d 1e b7 46 be
       0.12994346 0.11292051 0.122222215 -0.19405791
0001a0 86 98 a4 3d dc 67 28 bd d6 36 33 3e b9 78 5d 3e
       0.08036904 -0.041114673 0.17501387 0.21628083
0001b0 21 4b 83 3d b9 a4 e1 bd a0 ee 39 be de d2 94 bd
       0.06410814 -0.110177465 -0.18157434 -0.07266782
0001c0 ee f2 5f 3d fc ec b9 3d 66 87 ac bd 0a be d3 3d
       0.054675035 0.09078404 -0.08424263 0.103389814
0001d0 57 bd 4d 3d 06 5b 71 3d ff 48 c1 bd 9a d4 09 3e
       0.050229397 0.058924697 -0.09437751 0.13460007
0001e0 c7 49 2f 3e 6a 29 cf 3d df a1 5f 3d 30 87 f8 bd
       0.17117988 0.10115321 0.05459773 -0.1213516
0001f0 6e ca 19 be a0 a4 3c bd 24 ac 02 bd ea 24 3e bd
       -0.15018627 -0.046055436 -0.031902447 -0.046421923

fc2.weight f4 [64, 128]
000000 5c ee f0 3c 8a 00 c5 3d 07 70 d1 3d 7f aa e0 3d
       0.029410534 0.096192434 0.10226446 0.109700195
000010 8c 91 db 3b 1e 60 2a 3d 1a 99 1e 3e 18 07 75 3c
       0.0067007 0.04159557 0.15488091 0.014955305
000020 4e 4b c5 3c c1 2d 19 3d fb 78 43 bd e6 ae 84 3c
       0.02408376 0.03739715 -0.047722798 0.01619668
000030 2d 3c 90 3d aa d0 74 bd e8 47 1f 3c 02 af 09 bd
       0.070427276 -0.05976931 0.009721734 -0.033614166
000040 21 e7 fe 3d 69 de 89 bd f2 81 ce 3d c8 1b e2 bc
       0.12446428 -0.067318745 0.10083379 -0.027601138
000050 d0 fc 09 bd 71 49 c1 3d 2b 20 52 3c 8c f8 06 3e
       -0.033688366 0.09437836 0.012825052 0.1318075
000060 34 0f c6 bc d7 ef 7a bc b8 62 89 bc 9c c9 fd 3d
       -0.024177171 -0.015315971 -0.016770706 0.123919696
000070 47 c0 b2 3d 8d bb 5e 3d be 0d 9b bd f6 e3 39 3c
       0.0872808 0.05437808 -0.075709805 0.011345854
000080 c6 21 ff 3d d0 45 9a bb 20 96 65 bc 0c 79 c9 3c
       0.12457614 -0.0047080293 -0.014012843 0.024593852
000090 e7 29 d7 3c 40 c0 12 3e e7 ec 9e 3d 80 88 00 3d
       0.026265098 0.1433115 0.07760029 0.031380177
0000a0 c0 5d a2 3d 5c 36 3a 3c b5 fa cd 3c e6 c5 86 bd
       0.07928038 0.011365499 0.02514396 -0.06580715
0000b0 63 20 af 3d bc 46 4c bd 17 fb ce 3c a6 bf 77 3d
       0.08551099 -0.049872145 0.025266213 0.060485505
0000c0 11 db 2c 3c fc 46 d1 3d 8a f8 11 bc 8e 7c 54 ba
       0.010550276 0.10218617 -0.008909354 -0.00081057183
0000d0 08 d8 aa 3d fc ae de 3d b6 09 71 bc 5a 01 aa 3d
       0.08341986 0.10873219 -0.014711788 0.08301039
0000e0 39 df 9d bb 8d 53 2b bc 88 ba 46 3d 5c 7d 29 3e
       -0.00481787 -0.010456932 0.048517734 0.16551727
0000f0 e4 c2 81 bc d6 86 95 bc 28 1f 1c bd 34 15 97 3d
       -0.015840001 -0.018252771 -0.03811565 0.07377091
000100 84 9f f6 3c be 3f aa bc e8 be 2e bd 3f 7d 4e 3d
       0.03010536 -0.020782348 -0.04266253 0.050412413
000110 53 6d d0 3d 99 91 a8 bd ed 06 cf 3d e2 fc 8d bd
       0.10177102 -0.082308955 0.10108743 -0.06932999
000120 12 83 65 3d 71 6b ac 3d d7 a2 94 3d c5 63 1a 3e
       0.0560332 0.0841893 0.07257622 0.15077122
000130 76 1a 2a 3d c0 22 95 ba bb 5a d8 bc 8d dc f7 3d
       0.04152914 -0.0011378154 -0.026410451 0.121026136
000140 61 e7 ce bc 25 e6 1e 3d a7 2b bc 3d 1c 3f 05 3d
       -0.025256814 0.0387937 0.091880135 0.03253089
000150 8d 24 9f bd c6 11 e6 3d 79 5f a8 bd f5 9c 14 bd
       -0.077706434 0.11233859 -0.08221335 -0.0362825
000160 be 06 cd 3d 49 e3 ac bc 55 28 d4 3c 2f 72 06 3d
       0.100110516 -0.021104472 0.025898138 0.032823738
000170 94 f8 ae 3d 18 38 d0 3d 6d 9a be 3d 77 c5 09 be
       0.08543506 0.10166949 0.09306798 -0.13454233
000180 ff 81 a2 3b b6 a3 32 bd f4 44 0e 3e 5a 48 d2 3d
       0.0049593444 -0.04361316 0.13893491 0.10267706
000190 53 9c 43 3d 8e 1c 5d 3d 1c d0 c9 3d ea bb 21 3b
       0.047756504 0.05398231 0.09854147 0.0024678656
0001a0 c6 1f 8c bc 5e 3a d1 3a 2b 64 d6 bc 8d 92 59 3d
       -0.017104995 0.0015962829 -0.02617081 0.053118277
0001b0 15 79 18 3d e2 12 ef 3d 43 68 10 3d d9 26 57 bd
       0.037224848 0.116735235 0.03525568 -0.052527282
0001c0 71 fe db 3d b1 40 6d bd a4 c9 1f bc 2e e5 27 3d
       0.1074189 -0.057923023 -0.009752665 0.040990047
0001d0 87 8e 69 bc 91 09 4a bb 05 aa 78 bd 6c c7 d4 bb
       -0.014255173 -0.0030828456 -0.06070902 -0.0064934995
0001e0 4b b4 82 3d 31 ec 8d 3d f1 f2 22 bc 4d db a1 bc
       0.063820444 0.069298156 -0.009945617 -0.019757891
0001f0 1f 9e 47 bd a4 29 5d bd 52 ce fb ba 45 bb 41 3d
       -0.04873478 -0.05399479 -0.0019211269 0.047297735
000200 8c 4c ac 3c 9f 7f e3 3d 2b 79 95 bc 65 52 1d 3d
       0.021032594 0.11108326 -0.018246254 0.038408656
000210 e3 92 42 bd fb 0f a8 3d 9d 6e 13 3e 5f 49 8e bd
       -0.047503363 0.08206173 0.14397664 -0.06947588
000220 cc b8 d4 3b 9f 41 29 bc 0b 41 95 bd 5c 02 d9 3c
       0.006491756 -0.010330587 -0.072877966 0.026490383
000230 46 2a 53 3c d9 a7 88 3d d9 d2 0f 3e 07 4a 6a 3d
       0.012888497 0.066726394 0.14045276 0.057199504
000240 38 4e b4 3c d6 4b 7a 3d 82 a1 c4 bb dc 4c f4 3c
       0.022009954 0.06110748 -0.0060006985 0.029821806
000250 80 e5 7b 3d 43 9a 5f bd 5a 6c c4 bc 40 5f 10 3e
       0.061498165 -0.054590475 -0.023977447 0.14098835
000260 94 ae 00 bd 7d 40 d1 3d e1 e7 98 3c ac 2f 05 3d
       -0.03141649 0.10217378 0.018665256 0.032516167
000270 57 50 03 3e 84 6d 89 bd e5 42 b4 3d b1 14 a8 bc
       0.12823616 -0.067103416 0.088018216 -0.020517679
000280 fc bb 91 bc 01 e2 50 bd 98 a2 8d bc 5a 05 6a 3d
       -0.017789833 -0.050996784 -0.017289445 0.05713401
000290 25 94 9a 3c d2 60 bd bc 09 a5 8e bd ba 87 14 3d
       0.018869469 -0.023117457 -0.06965072 0.03626225
0002a0 0d 08 ff 3d 5c 91 0b 3e 0b 4e 31 bd dc 96 b5 bc
       0.124527074 0.13629669 -0.04328732 -0.022166662
0002b0 42 67 19 3d 72 11 8d bd 68 92 a1 bc f1 e8 b2 3d
       0.03745199 -0.06888093 -0.019723132 0.08735836
0002c0 bc 54 a9 3d 4c 3c a8 3d fb 40 9f 3d 51 01 c7 3c
       0.08268115 0.08214626 0.07776066 0.02429262
0002d0 11 c8 c8 3c 83 3c 2c 3c 94 62 37 bd b8 41 fd 3d
       0.024509462 0.010512474 -0.044771746 0.123660505
0002e0 64 f5 aa 3d f5 98 39 bd 43 27 d7 3c 8d 24 b8 3d
       0.08347586 -0.045311887 0.026263839 0.089913465
0002f0 b6 37 50 3d e0 5a 13 bd ec 2d 8d 3d 25 ef d8 3d
       0.05083438 -0.035975337 0.068935245 0.10592488
000300 d1 d7 f2 3d 69 d2 32 3d 24 85 db 3d e7 5f d2 3c
       0.1185757 0.043657694 0.10718754 0.025680495
000310 fe aa 08 3d 9e 5e 97 bd 11 c3 51 3b d0 be db 3c
       0.033366196 -0.07391094 0.0032007138 0.026824385
000320 30 ed b9 3b 0d ce df 3d fd 8e 8b bd 8a 2f 83 3d
       0.005674027 0.10927973 -0.06814382 0.06405552
000330 18 aa 37 3c 1a 4f 62 3d 80 ea 97 3d 0e c3 aa 3c
       0.011209987 0.05525122 0.07417774 0.020844962
000340 76 aa 92 3c 97 49 f4 3d ed 21 13 bd 18 50 ad bd
       0.017903548 0.11928099 -0.035921026 -0.08462542
000350 73 34 6a 3d f6 e0 49 3c 4c 65 08 bd 35 82 53 bb
       0.057178926 0.012321701 -0.03329973 -0.0032273654
000360 a8 c1 27 3d e2 68 a8 3c 49 3f 65 bd c8 27 5d bb
       0.04095617 0.020557825 -0.055968557 -0.0033745635
000370 61 d8 fe 3c 56 2a 33 3d 07 a1 da bc 3a 91 d1 bd
       0.031109037 0.043741547 -0.026688112 -0.10232778
000380 ba d0 60 3d 80 9b f0 3d e8 ca ec 3d 27 0b 80 3d
       0.054886557 0.11748409 0.11562139 0.06252127
000390 d4 65 c1 39 28 6f 93 bd 35 82 1d bb aa 83 fc bc
       0.00036887696 -0.07198936 -0.0024033908 -0.030824501
0003a0 8b 69 28 3d b1 56 d9 bc fc 96 ca 3c 4e df 93 3d
       0.04111628 -0.026530595 0.024730198 0.07220326
0003b0 e0 06 bc 3d 67 16 b9 3d 65 6f a8 3d 2d b7 99 bd
       0.09180999 0.09037476 0.08224372 -0.07505641
0003c0 39 0d c9 3d 77 0d 53 3c a8 48 e8 3d a4 21 83 bd
       0.09816975 0.012881628 0.11341983 -0.06402901
0003d0 74 10 1b 3d c0 fc 29 3d 9e 93 05 bd ee 47 8e 3d
       0.037857488 0.041500807 -0.03261148 0.06947313
0003e0 5e 28 ed 3d 18 f3 10 3a 43 7d 74 3c 24 59 cd 3d
       0.11579965 0.0005529388 0.014922443 0.10026768
0003f0 73 c1 37 3d bc fc ae 3d b0 7e 3e bd 5e 3d 7e bd
       0.044862222 0.08544299 -0.046507537 -0.062070243

fc2.bias f4 [64]
000000 34 7b ce 3d 99 1d 55 3d 48 ac 3c 3d db ed 45 bd
       0.10082093 0.05203018 0.046062738 -0.04832254
000010 4f 58 b8 3c 25 7d 68 bd 8c 7c dd 3c 14 b3 5c bd
       0.022503046 -0.056759972 0.027036928 -0.05388172
000020 c8 41 a8 bc e8 f8 5a 3c c4 ef b1 3d 1a 99 5a 3c
       -0.02053918 0.013365008 0.0868831 0.013342166
000030 9b 66 d4 bc 9d 05 d3 bb be 5e 09 3c 77 d8 83 bc
       -0.025927832 -0.006439878 0.008384405 -0.01609443
000040 2f 0b ad 3d fa 9a f5 bc 6d aa 1c 3d fa 97 93 3d
       0.08449399 -0.029981125 0.03824847 0.072067216
000050 69 63 2b 3a f8 b4 bc bd 25 3f f8 3a e2 90 6a 3b
       0.00065379456 -0.092142045 0.0018939717 0.0035791923
000060 d3 6b e7 bc c4 5f ba 3c ce ab fc 3d 24 c6 c2 b9
       -0.028249657 0.022750743 0.12337457 -0.0003715019
000070 bc 64 0c 3d de 87 e5 bc 3c b1 1a 3d ce 69 4b 3d
       0.034275755 -0.028018888 0.03776668 0.04966145
000080 22 c3 3f 3d ad 97 72 3c 0e d5 35 3d 12 45 8c bd
       0.046816953 0.01480667 0.044392638 -0.068491116
000090 4f 67 9a bd 82 6d f5 3d a0 31 b2 3d b5 0d 7a 3d
       -0.07539236 0.119837776 0.087008715 0.06104823
0000a0 d4 8e 89 bc 85 ac 19 3c 42 c7 56 3d 36 ab 49 3d
       -0.016791739 0.009379511 0.05243612 0.049235545
0000b0 fb 0a 9a 3d 7e 53 cf bd 74 84 f0 3a b0 74 9b 3d
       0.075216256 -0.10123347 0.0018350021 0.07590616
0000c0 d5 cb 67 3d ca 37 b5 bd 6f 20 2b bd f3 95 85 3c
       0.056590874 -0.088485315 -0.041778978 0.016306853
0000d0 1a 37 a0 bc f9 d6 4d 3c 98 92 f3 3c 2d 09 8d bd
       -0.019557524 0.0125634605 0.029732987 -0.06886516
0000e0 94 15 32 3d 5c 5c 48 3d 65 8e 10 bc 29 01 6a 3d
       0.04347761 0.048916206 -0.008823012 0.057130013
0000f0 10 e0 1a 3d fc 9e fb bb b4 40 31 3d 0a 8d 2a 3d
       0.03781134 -0.0076788645 0.043274596 0.04163841

fc3.weight f4 [1, 64]
000000 22 aa a7 bd c8 15 bc bd f4 f7 6c bd 80 c5 97 3d
       -0.08186747 -0.09183842 -0.057853654 0.07410717
000010 89 9c 3f bd 1c 69 90 3d f1 0b 06 be 9c 93 8c 3d
       -0.046780143 0.07051298 -0.13090493 0.06864092
000020 57 8d db bd 60 77 d7 3b c8 4f 02 be 97 45 d8 3d
       -0.10720318 0.00657551 -0.12725747 0.10560148
000030 6f 7f b4 bd 25 c1 95 3d b1 33 24 3d 6a 72 24 be
       -0.088133685 0.0731223 0.04008836 -0.1605927
000040 6c 8e 8b bd 28 38 6a 3d c7 2c 09 be 45 41 21 be
       -0.06814274 0.05718246 -0.13395987 -0.15747555
000050 8c 84 21 3d 4c 74 da 3d 5b 48 93 bd 7b ac 98 3d
       0.039433047 0.10666713 -0.07191535 0.07454773
000060 5a d3 1d 3c dd 59 01 be 9b 46 4e bd bb 71 96 3d
       0.00963291 -0.12631936 -0.050360303 0.07345911
000070 d6 5e cf 3d bc d8 0f be 6e 80 ee bd 54 54 5d bd
       0.101255104 -0.14047521 -0.1164559 -0.0540355
000080 00 0b eb 3c f6 ae 30 3d 00 dc bd ba 16 c9 f7 bd
       0.028691769 0.043135606 -0.0014485121 -0.12098901
000090 46 b8 9d 3d cb 08 15 be c1 be 26 be 69 6b 15 be
       0.07701163 -0.14554136 -0.16283704 -0.14591755
0000a0 2c 75 61 3c bc 93 27 3d 66 27 ca bd 70 1a b9 3d
       0.013760846 0.040912375 -0.09870796 0.09038246
0000b0 40 c7 ff bd 2e 21 24 3d 62 fb 69 3d d6 f2 0d be
       -0.12489176 0.040070705 0.057124503 -0.13862166
0000c0 8c a1 93 bd 20 e7 da 3d e1 cc e8 bd d8 99 13 be
       -0.07208547 0.10688615 -0.113672026 -0.14414155
0000d0 30 fe 8d 3d d4 f0 fd 3b 22 44 cb 3d da 41 a9 3d
       0.06933248 0.007749656 0.09925105 0.08264513
0000e0 75 c7 96 bd 57 e6 6f bd 3e 9c 82 3c 9b ab c7 3c
       -0.07362262 -0.05856928 0.015943643 0.02437382
0000f0 52 a2 e3 bd 40 9c e7 bc d8 3c 70 3d e4 aa 98 bd
       -0.111149445 -0.028272748 0.058651775 -0.0745447
