checkpoints/model_epoch_40_baseline.pt (torch, 49960 bytes, 5 tensors)

fc1.weight f4 [128, 26]
0.082580626 0.04046473 -0.07701321 -0.028400749 0.10253931 -0.14957646 -0.1681245 -0.10533118
0.07203248 0.14097698 0.08527976 -0.14283079 0.07898959 -0.12510236 0.06993219 0.18501152
-0.10458119 0.1052949 -0.15607008 -0.1934638 -0.089148454 0.008597132 0.026812628 0.055847228
-0.033475403 0.11570474 -0.12557316 2.9724906e-06 0.024065405 -0.090649 0.11040185 -0.033582073
0.06253548 0.15984057 0.007859053 0.17776555 0.0852165 0.019255087 0.00695987 0.22836033
0.06191675 0.1406773 -0.08500471 -0.018958004 -0.0072838184 0.13606676 -0.034892052 -0.050284944
-0.049590606 0.20906407 0.1270061 0.09841719 0.034743678 0.12969501 -0.12106832 0.06257995
-0.15542303 -0.18852416 -0.20231481 -0.049543846 -0.11402075 -0.02966504 0.105309784 -0.06255401
0.16807294 -0.16251677 0.00011925517 -0.12370363 -0.14919807 0.06799641 -0.13861276 -0.15489338
0.16385522 0.07316344 0.12702224 0.16868412 0.054868437 0.0038580599 0.09609302 -0.07867658
-0.084016405 -0.02353419 0.032145295 0.18456472 -0.11693421 0.119409315 -0.010864514 0.12770636
-0.14569192 -0.14016116 0.032716632 -0.0571882 0.15756774 1.7048325e-05 0.21660002 0.033450905
0.16964291 0.2094484 0.009402163 -0.15386827 0.22136456 -0.08085305 0.15519258 0.12447296
0.10495989 -0.042846274 -0.12380971 -0.08813296 0.05680907 0.20363997 -0.1313697 -0.12999345
-0.12305317 -0.11195647 0.22177443 0.12457056 0.06602941 -0.036015872 -0.04172672 0.13037646
0.15717156 0.13567926 -0.080049425 0.20726702 0.03232688 0.15190342 0.07617755 0.21556446
0.12051476 0.07890249 -0.0764757 -0.16274655 0.09118466 0.029008333 -0.04142611 -0.14928222
-0.067102745 -0.08207487 -0.08757933 -0.10888047 0.09477004 0.12980895 -0.050760705 -0.031644907
0.07228032 0.051491227 -0.14670044 0.107464224 0.114306726 -0.14145164 -0.13791293 -0.10624584
0.023109915 0.14676787 -0.036908776 -0.11971473 -0.054524872 -0.19004287 -0.003132756 0.11547766
-0.18004906 0.1499362 -0.004735411 0.0964649 -0.10199643 0.09313695 -0.07359199 -0.1636777
-0.0029674182 0.0533924 0.028940639 0.079766735 -0.090497755 -0.08950308 0.04712999 -0.14559783
0.004227417 0.09397364 0.06800828 0.11663911 -0.07306132 0.0407215 0.1131924 0.10723636
0.063655816 -0.17670983 -0.12827204 -0.18792684 0.047030356 0.0029940566 0.13963313 -0.048333578
-0.04763034 0.07606302 -0.16069016 -0.11223749 0.11094807 -0.14868507 0.0461183 0.094354086
-0.1697977 0.15905586 -0.19520539 0.17949167 0.025357878 -0.13142139 0.036031373 0.012154647
0.101466574 0.11644286 0.1742364 0.081240736 -0.0528264 -0.07650047 0.1699681 -0.033998743
-0.060806014 0.14760754 -0.10361813 0.23546113 -0.021352412 0.10452338 0.09041072 0.04435469
0.14363077 0.156105 0.09098512 -0.0152899055 0.1365482 -0.14780338 0.114610024 0.0050396537
0.15233591 -0.15066661 0.071548164 0.118866995 0.000222483 -0.12354216 -0.063505486 0.083371304
-0.035151403 -0.061480165 0.12927464 -0.0008073852 -0.16397467 -0.1571811 -0.11744185 -0.061914537
0.17353494 0.046236157 -0.16213334 -0.19661087 0.04382976 -0.09224882 0.045523982 0.081312895
00000000: 0820 a93d 58be 253d 1ab9 9dbd b0a8 e8bc
00000010: 2100 d23d 922a 19be d428 2cbe e0b7 d7bd
00000020: c485 933d 455c 103e 28a7 ae3d 3c42 12be
00000030: 4bc5 a13d d51a 00be 9c38 8f3d a973 3d3e
00000040: aa2e d6bd daa4 d73d d6d0 1fbe 601b 46be
00000050: 7793 b6bd fcda 0c3c 28a6 db3c 10c0 643d
00000060: 811d 09bd 9bf6 ec3d 4096 00be 007b 4736
00000070: d024 c53c 2fa6 b9bd 5d1a e23d 5b8d 09bd
00000080: 9a12 803d 3fad 233e 42c3 003c 2c08 363e
00000090: fd85 ae3d d8bc 9d3c 9f0f e43b 4ad7 693e
000000a0: 6b9c 7d3d b60d 103e f316 aebd d14d 9bbc
000000b0: 19ad eebb 1655 0b3e f8ea 0ebd 96f7 4dbd
000000c0: 851f 4bbd e414 563e e30d 023e f48e c93d
000000d0: 634f 0e3d c5ce 043e abf2 f7bd eb29 803d
000000e0: 3727 1fbe 7a0c 41be 9d2b 4fbe 7dee 4abd
000000f0: b683 e9bd 1904 f3bc a8ac d73d 511c 80bd
00000100: 501b 2c3e cc6a 26be a218 fa38 5458 fdbd
00000110: 61c7 18be b441 8b3d 81f0 0dbe 5f9c 1ebe
00000120: aac9 273e b7d6 953d 1e12 023e 88bb 2c3e
00000130: babd 603d 81d7 7c3b 6bcc c43d 3021 a1bd
00000140: cb10 acbd c6ca c0bc c9aa 033d 89fe 3c3e
00000150: 347b efbd df8c f43d 1301 32bc 75c5 023e
00000160: 4330 15be 6886 0fbe e001 063d 2d3e 6abd
00000170: 7059 213e 0003 8f37 65cc 5d3e d103 093d
00000180: dfb6 2d3e a479 563e 880b 1a3c a58f 1dbe
00000190: 64ad 623e 4996 a5bd ceea 1e3e aeeb fe3d
000001a0: 36f5 d63d 937f 2fbd f28f fdbd 0e7f b4bd
000001b0: a1b0 683d ff86 503e c785 06be 011d 05be
000001c0: 4d03 fcbd 6f49 e5bd d618 633e da1e ff3d
000001d0: 6d3a 873d 6185 13bd a3e9 2abd 6881 053e
000001e0: 95f1 203e 81ef 0a3e f4f0 a3bd ce3d 543e
000001f0: 3169 043d 928c 1b3e fa02 9c3d eebc 5c3e
00000200: 71d0 f63d a197 a13d 4b9f 9cbd 08a7 26be
00000210: 06bf ba3d e2a2 ed3c 6dae 29bd 70dd 18be
00000220: 2a6d 89bd df16 a8bd cb5c b3bd b9fc debd
00000230: cb16 c23d a3ec 043e 75ea 4fbd 179e 01bd
00000240: b407 943d 77e8 523d a438 16be 3416 dc3d
00000250: a519 ea3d b3d8 10be 0c39 0dbe 6b97 d9bd
00000260: 0151 bd3c 514a 163e a82d 17bd ff2c f5bd
00000270: 7955 5fbd 999a 42be ed4e 4dbb 8d7f ec3d
00000280: c85e 38be e088 193e 822b 9bbb 648f c53d
00000290: 81e3 d0bd 96be be3d 66b7 96bd 219b 27be
000002a0: 0479 42bb fdb1 5a3d eb14 ed3c be5c a33d
000002b0: e356 b9bd 644d b7bd 600b 413d 9917 15be
000002c0: 2586 8a3b 4075 c03d ed47 8b3d 7ce0 ee3d
000002d0: 2ca1 95bd 96cb 263d 6bd1 e73d bd9e db3d
000002e0: fb5d 823d 6cf3 34be bf59 03be e56f 40be
000002f0: e7a2 403d ef37 443b fdfb 0e3e 6ef9 45bd
00000300: 0818 43bd eec6 9b3d f68b 24be c5dc e5bd
00000310: be38 e33d e640 18be 8be6 3c3d b73c c13d
00000320: 73df 2dbe 8adf 223e ece3 47be aacc 373e
00000330: 53bb cf3c 5493 06be a295 133d 4924 473c
00000340: b5cd cf3d 9879 ee3d 076b 323e 8b61 a63d
00000350: 7f60 58bd 47ac 9cbd 1e0c 2e3e 4442 0bbd
00000360: ba0f 79bd 6e26 173e be35 d4bd b91c 713e
00000370: 41eb aebc 5b10 d63d 4129 b93d 43ad 353d
00000380: f213 133e fdd9 1f3e 6856 ba3d 8382 7abc
00000390: 4bd3 0b3e c559 17be a9b8 ea3d ae23 a53b
000003a0: f2fd 1b3e 5948 1abe d887 923d 8a70 f33d
000003b0: 534a 6939 ac03 fdbd 2a0f 82bd 93be aa3d
000003c0: ebfa 0fbd a0d2 7bbd 9260 043e b4a6 53ba
000003d0: fae8 27be 15f4 20be 5a85 f0bd 199a 7dbd
000003e0: 25b3 313e 2062 3d3d 4806 26be 5c54 49be
000003f0: d686 333d f3ec bcbd 5b77 3a3d 6087 a63d

fc1.bias f4 [128]
0.08731368 0.21253003 0.07603521 -0.011964241 -0.11429148 -0.081081524 -0.049233876 0.13751294
0.18946968 0.17091313 -0.18080749 0.11592673 0.16007847 0.10683989 0.17237164 0.085747376
-0.035615705 -0.11392252 0.13220721 -0.04917646 -0.0356509 -0.07201886 -0.13193877 0.074584655
0.109109744 0.087358706 0.050762527 0.017348893 -0.12907694 -0.00032345083 -0.059818473 -0.06981633
0.19077045 -0.16946885 -0.11868772 -0.10926129 -0.15176931 -0.03593285 -0.0025777314 -0.121387206
0.1106546 0.17657927 0.11020121 -0.13911529 -0.07482771 0.17767428 -0.047338445 0.07676656
-0.15611398 0.13497499 0.0009906599 -0.061207186 0.09263104 0.046402216 0.037852563 -0.13171902
0.07926734 -0.07155967 -0.09619322 0.106522195 -0.10746305 -0.1995409 0.008823689 0.098662175
0.14374284 -0.07526104 0.21017238 -0.11939531 -0.118003674 -0.07541974 0.20128833 -0.13742496
-0.19467731 -0.036107484 -0.059936367 0.06384931 -0.031198746 0.1108421 -0.012207883 -0.13641317
0.049634956 0.13985321 -0.061527673 -0.02080705 0.023069017 -0.09160159 -0.071528316 0.19421779
0.01691951 -0.16480662 -0.20402049 -0.024368161 -0.03300069 0.21378686 0.1851823 0.14027536
0.101470314 -0.11867645 0.08862216 0.10090985 0.1040374 0.1129205 0.12930854 -0.19081992
0.09451915 -0.020774923 0.18112455 0.22530156 0.071196795 -0.116259076 -0.15721355 -0.13605271
0.06625641 0.090906076 -0.07461737 0.10338981 0.065535836 0.06085783 -0.085497536 0.14473875
0.17751308 0.11139152 0.06173291 -0.11170865 -0.13990419 -0.03803549 -0.016359102 -0.046206336
00000000: 84d1 b23d 79a1 593e 59b8 9b3d aa05 44bc
00000010: a711 eabd 120e a6bd 76a9 49bd 31d0 0c3e
00000020: 5704 423e da03 2f3e 9925 39be fe6a ed3d
00000030: 9ceb 233e dfce da3d 3182 303e 529c af3d
00000040: c6e1 11bd 3650 e9bd 5461 073e 416d 49bd
00000050: ae06 12bd a07e 93bd f51a 07be d7bf 983d
00000060: ee74 df3d 1fe9 b23d 5eec 4f3d 441f 8e3c
00000070: bf2c 04be d694 a9b9 3704 75bd ddfb 8ebd
00000080: 5459 433e 3e89 2dbe 8c12 f3bd 62c4 dfbd
00000090: 6a69 1bbe 532e 13bd 28ef 28bb db99 f8bd
000000a0: e19e e23d 32d1 343e 2cb1 e13d 3d74 0ebe
000000b0: 453f 99bd 3ff0 353e f5e5 41bd c937 9d3d
000000c0: 58dc 1fbe e236 0a3e 08d9 813a 63b4 7abd
000000d0: 58b5 bd3d 4010 3e3d 4a0b 1b3d 5ae1 06be
000000e0: ea56 a23d e08d 92bd f300 c5bd 4f28 da3d
000000f0: 9615 dcbd 7354 4cbe 3c91 103c 650f ca3d
00000100: 5331 133e 7622 9abd 6e37 573e 8785 f4bd
00000110: e9ab f1bd aa75 9abd 871e 4e3e 21b9 0cbe
00000120: 7d59 47be 71e5 13bd d67f 75bd 6dc3 823d
00000130: 8394 ffbc 2f01 e33d 9303 48bc e5af 0bbe
00000140: 064e 4b3d ae35 0f3e 7104 7cbd 8c73 aabc
00000150: 3cfb bc3c 9d99 bbbd 707d 92bd 07e1 463e
00000160: c99a 8a3c 11c3 28be bfea 50be bd9f c7bc
00000170: bb2b 07bd f1ea 5a3e 6ea0 3d3e 58a4 0f3e
00000180: abcf cf3d a30c f3bd 897f b53d d3a9 ce3d
00000190: 8f11 d53d dd42 e73d 7569 043e 4c66 43be
000001a0: 4293 c13d 2c30 aabc b778 393e 74b5 663e
000001b0: a0cf 913d 3d19 eebd 97fc 20be 6751 0bbe
000001c0: 71b1 873d f72c ba3d fed0 98bd 09be d33d
000001d0: a737 863d 0f46 793d 5519 afbd 6536 143e
000001e0: fdc5 353e 3d21 e43d a6db 7c3d 81c7 e4bd
000001f0: 0b43 0fbe 1acb 1bbd 8603 86bc db42 3dbd

fc2.weight f4 [64, 128]
0.029410534 0.1120903 0.09765907 0.121741585 0.023230447 0.04159558 0.08167671 0.014955304
0.028250337 0.036875553 -0.044982925 0.031683825 0.07489034 -0.046863396 -0.020389969 -0.032800656
0.1250911 -0.067318745 0.12105439 -0.032509476 -0.02881515 0.11074464 0.05028471 0.1163375
-0.024177171 0.0010838261 -0.0028320744 0.09410797 0.08062731 0.053643838 -0.075709805 0.02508048
0.12521297 -0.004709236 -0.014012847 0.024593856 0.037791677 0.13217208 0.07760029 0.04409598
0.07358813 -0.0022093891 -0.012018606 -0.06580715 0.08551099 -0.033278298 0.02653913 0.060485512
0.017233068 0.10007123 -0.0141162835 0.0356087 0.08998785 0.13001692 -0.015508379 0.07655575
0.0041775713 -0.0014428722 0.084141865 0.11440125 -0.017051047 -0.013656647 -0.008333856 0.08958879
0.029285485 -0.02125781 -0.034838054 0.019490188 0.097888336 0.00024595222 0.11151102 -0.06932999
0.0560332 0.08165088 0.06671241 0.07075779 0.041529145 -0.0011378174 0.0084603615 0.07584446
-0.028476482 0.034668602 0.09437064 0.032530885 -0.03589097 0.11170405 -0.08221335 -0.040897947
0.10740359 -0.008717116 0.026020486 0.009552944 0.08946045 0.12340999 0.079125546 -0.054610703
-0.029231666 -0.035770595 0.115491025 0.10977522 -0.0013715205 0.053982303 0.11679533 0.00341047
-0.028913477 0.019854931 -0.031293076 0.043856524 0.025798649 0.10280086 0.05022465 0.039186656
0.08371536 -0.06555903 -0.009997641 0.040990043 0.018694434 -0.0066022314 -0.0437007 0.006084441
0.0627653 0.04626252 -0.00068100425 -0.017078094 -0.032384995 -0.04220318 0.018135158 0.058334213
0.02092675 0.12622097 -0.02297981 0.049870443 -0.032279648 0.08206172 0.062529095 -0.06968769
0.010395662 -0.009517039 -0.07220717 0.040972523 0.016874233 0.07857351 0.110585585 0.057500567
0.022458043 0.061107483 0.013594186 0.024905493 0.065551974 -0.038854633 0.012264247 0.12551744
-0.03141649 0.11775841 0.03175047 0.0007322319 0.11562998 -0.0662089 0.08801822 -0.007642277
-0.017221725 -0.051607367 -0.017289449 0.057134014 0.027846882 -0.03492486 -0.06975655 0.049102616
0.118411995 0.122576185 -0.08090931 -0.02216666 0.037451982 -0.05179836 -0.019321335 0.08735836
0.088750415 0.07956314 0.072813965 0.05503712 0.030666806 0.031372763 -0.045637384 0.11745327
0.09172902 -0.036908403 0.036313515 0.03892164 0.04960601 -0.03338093 0.098748185 0.12141599
0.11772025 0.04306 0.114418976 -0.0042479644 0.028972633 -0.01448111 0.0128315175 0.026824383
0.0056740297 0.106763326 -0.06829039 -0.016375793 0.011209987 0.05525122 0.10876819 -0.024642339
0.014626762 0.115275614 -0.03371079 -0.08462542 0.094539516 0.01161332 -0.03329973 -0.008217519
0.046481002 0.030040992 -0.055859633 -0.026103448 0.03458456 0.06658319 -0.041661944 -0.027529946
0.031451344 0.12485043 0.09281444 0.068986274 -0.036388803 -0.07198936 0.014798806 -0.030027738
0.030525578 -0.0132770045 0.01767288 0.063006654 0.08050989 0.07677839 0.09210409 0.01061813
0.074593686 0.012364841 0.11304263 -0.06402901 0.06834377 0.039351817 -0.016745443 0.08187812
0.11418636 -0.022602102 0.023749843 0.10270671 0.06083405 0.09667087 -0.032896865 -0.061066758
00000000: 5cee f03c 998f e53d 7a01 c83d a753 f93d
00000010: c74d be3c 2060 2a3d 1e46 a73d 1707 753c
00000020: 406d e73c d20a 173d 0440 38bd e6c6 013d
00000030: 1b60 993d d5f3 3fbd dd08 a7bc fb59 06bd
00000040: e217 003e 69de 89bd 5deb f73d a828 05bd
00000050: c00d ecbc 16ce e23d 57f7 4d3d 5b42 ee3d
00000060: 340f c6bc 2b0f 8e3a 539a 39bb aebb c03d
00000070: ee1f a53d a4b9 5b3d be0d 9bbd 9475 cd3c
00000080: d437 003e ef4f 9abb 2496 65bc 0e79 c93c
00000090: 72cb 1a3d 1e58 073e e7ec 9e3d fc9d 343d
000000a0: 60b5 963d 66cb 10bb b0e9 44bc e6c5 86bd
000000b0: 6320 af3d d34e 08bd 9768 d93c a8bf 773d
000000c0: 5d2c 8d3c 25f2 cc3d fc47 67bc 6eda 113d
000000d0: 8d4b b83d 2823 053e db16 7ebc 43c9 9c3d
000000e0: 02e4 883b c21e bdba 9252 ac3d 344b ea3d
000000f0: a3ae 8bbc 21c0 5fbc ba8a 08bc 547a b73d
00000100: 1de8 ef3c dc24 aebc 59b2 0ebd e3a9 9f3c
00000110: ae79 c83d 26f3 8039 e45f e43d e2fc 8dbd
00000120: 1283 653d 9438 a73d 84a0 883d 76e9 903d
00000130: 771a 2a3d d122 95ba 549d 0a3c 5754 9b3d
00000140: 8347 e9bc aa00 0e3d 6545 c13d 1b3f 053d
00000150: 6902 13bd 18c5 e43d 795f a8bd 9b84 27bd
00000160: 6af6 db3d 3cd2 0ebc ea28 d53c f483 1c3c
00000170: 0a37 b73d 60be fc3d 930c a23d 79af 5fbd
00000180: 3f77 efbc 3084 12bd 8f86 ec3d d5d1 e03d
00000190: 97c4 b3ba 8c1c 5d3d 6432 ef3d 3182 5f3b
000001a0: f5db ecbc cfa6 a23c 2b2d 00bd e6a2 333d
000001b0: b057 d33c 4289 d23d 5db8 4d3d 3082 203d
000001c0: f572 ab3d d043 86bd 25cd 23bc 2de5 273d
000001d0: 1225 993c 8857 d8bb 81ff 32bd fe5f c73b
000001e0: 188b 803d c57d 3d3d 6c85 32ba 5ce7 8bbc
000001f0: 21a6 04bd 3edd 2cbd 2f90 943c dbef 6e3d
00000200: 936e ab3c 1240 013e 2840 bcbc f344 4c3d
00000210: aa37 04bd fa0f a83d 410f 803d 6bb8 8ebd
00000220: 9152 2a3c 5bed 1bbc 5ae1 93bd ced2 273d
00000230: d53b 8a3c 26eb a03d b27a e23d b785 6b3d
00000240: eef9 b73c d74b 7a3d 26ba 5e3c 9b06 cc3c
00000250: 1d40 863d 0926 1fbd fbef 483c a587 003e
00000260: 94ae 00bd 522b f13d c80c 023d 40f3 3f3a
00000270: 69cf ec3d 8898 87bd e642 b43d 116c fabb
00000280: 9314 8dbc 3f62 53bd 9aa2 8dbc 5b05 6a3d
00000290: 251f e43c 5f0d 0fbd 86dc 8ebd d31f 493d
000002a0: fd81 f23d 3909 fb3d c8b3 a5bd db96 b5bc
000002b0: 4067 193d 842a 54bd c747 9ebc f1e8 b23d
000002c0: c7c2 b53d 00f2 a23d 7d1f 953d 9a6e 613d
000002d0: f438 fb3c ba80 003d 44ee 3abd 578b f03d
000002e0: 6ddc bb3d 442d 17bd 7bbd 143d 4c6c 1f3d
000002f0: ac2f 4b3d 71ba 08bd 7d3c ca3d f2a8 f83d
00000300: 5017 f13d af5f 303d 7f54 ea3d 8232 8bbb
00000310: 0458 ed3c 2d42 6dbc 493b 523c cfbe db3c
00000320: 36ed b93b bba6 da3d d5db 8bbd 8726 86bc
00000330: 18aa 373c 1a4f 623d dbc1 de3d bbde c9bc
00000340: 16a5 6f3c 9f15 ec3d 5314 0abd 1850 adbd
00000350: ef9d c13d cb45 3e3c 4c65 08bd c6a2 06bc
00000360: dd62 3e3d 8718 f63c 12cd 64bd e6d6 d5bc
00000370: 8aa8 0d3d c45c 883d b7a5 2abd 7b86 e1bc
00000380: 20d3 003d 95b1 ff3d 7f15 be3d ad48 8d3d
00000390: 6d0c 15bd 286f 93bd b176 723c bbfc f5bc
000003a0: c710 fa3c cb87 59bc b7c6 903c a209 813d
000003b0: 5fe2 a43d fd3d 9d3d 12a1 bc3d aaf7 2d3c
000003c0: 93c4 983d e795 4a3c e582 e73d a421 83bd
000003d0: d2f7 8b3d 5f2f 213d bd2d 89bc b7af a73d
000003e0: 8ada e93d 0b28 b9bc 088f c23c e557 d23d
000003f0: 202d 793d 61fb c53d ddbe 06bd 2321 7abd

fc2.bias f4 [64]
0.104836114 0.055417582 0.05064099 -0.04832254 0.03041842 -0.056759972 0.029780507 -0.053037275
-0.017428488 0.013365008 0.08966523 0.013454171 -0.022455988 -0.0057595563 0.008786402 -0.013706922
0.088756084 -0.029698394 0.0031497604 0.07535921 0.0015950892 -0.092008196 0.0060486044 0.0039932113
-0.028143816 0.02557215 0.12916644 -0.00026566323 0.034275755 -0.025288533 0.040816933 0.05460011
0.04681695 0.017545197 0.04439263 -0.068491116 -0.07509857 0.1224668 0.0895755 0.06383291
-0.015773583 0.010221686 0.052436117 0.04792138 0.07802128 -0.10064163 0.0024218913 0.078855224
0.06252809 -0.0892347 -0.038653225 0.019018857 -0.018793061 0.012932897 0.02973299 -0.06888491
0.047441717 0.053798802 -0.008450608 0.056698453 0.040710066 0.008064793 0.04338043 0.045869704
00000000: 51b4 d63d 8cfd 623d ed6c 4f3d dbed 45bd
00000010: 0d30 f93c 257d 68bd 40f6 f33c 9d3d 59bd
00000020: 30c6 8ebc e8f8 5a3c 67a2 b73d e26e 5c3c
00000030: 9ff5 b7bc a9ba bcbb d7f4 0f3c ff92 60bc
00000040: c0c5 b53d 0c4a f3bc 366c 4e3b ee55 9a3d
00000050: 5012 d13a cb6e bcbd 5f33 c63b 7cd9 823b
00000060: dc8d e6bc af7c d13c 3544 043e b748 8bb9
00000070: bc64 0c3d e629 cfbc a82f 273d 5da4 5f3d
00000080: 21c3 3f3d f2ba 8f3c 0cd5 353d 1245 8cbd
00000090: 47cd 99bd e0cf fa3d 5c73 b73d d4ba 823d
000000a0: 9a37 81bc dc78 273c 41c7 563d 3549 443d
000000b0: 9fc9 9f3d 331d cebd 98b8 1e3b d97e a13d
000000c0: ba0e 803d afc0 b6bd d852 1ebd 6fcd 9b3c
000000d0: e8f3 99bc 80e4 533c 9992 f33c 8813 8dbd
000000e0: 3f52 423d 225c 5c3d 6b74 0abc a33c 683d
000000f0: 99bf 263d 3222 043c aeaf 313d dfe1 3b3d

fc3.weight f4 [1, 64]
-0.084084354 -0.0947295 -0.06327036 0.07410717 -0.050541986 0.07051298 -0.13565919 0.06938672
-0.109382495 0.00657551 -0.13196284 0.10552556 -0.09152654 0.07375469 0.04028784 -0.1606111
-0.070778534 0.05740717 -0.09852907 -0.15851663 0.040066734 0.10692778 -0.078227945 0.07474536
0.00973875 -0.12966077 -0.05447528 0.07356495 0.101255104 -0.14356427 -0.1190005 -0.06324059
0.028691769 0.04471652 -0.0014485121 -0.12098901 0.07716976 -0.14981484 -0.16601314 -0.1508111
0.014384581 0.041551024 -0.09870796 0.08999863 -0.12682237 0.040304463 0.057488378 -0.14117053
-0.079883315 0.10728784 -0.11735162 -0.1466764 0.07015129 0.00790774 0.09925105 0.08253329
-0.0762632 -0.06455376 0.016350728 0.023571193 -0.113841355 -0.03519798 0.058757607 -0.075323
00000000: 6b34 acbd 8a01 c2bd e493 81bd 80c5 973d
00000010: 1d05 4fbd 1c69 903d 3eea 0abe a01a 8e3d
00000020: ee03 e0bd 6077 d73b 4421 07be c91d d83d
00000030: 4472 bbbd b30c 973d dd04 253d 3c77 24be
00000040: 56f4 90bd c823 6b3d 9cc9 c9bd 2f52 22be
00000050: 041d 243d f4fc da3d f935 a0bd 1814 993d
00000060: 478f 1f3c cbc5 04be 7921 5fbd 38a9 963d
00000070: d65e cf3d 8302 13be 89b6 f3bd 4884 81bd
00000080: 000b eb3c ab28 373d 00dc bdba 16c9 f7bd
00000090: 2e0b 9e3d 1069 19be 59ff 29be 3a6e 1abe
000000a0: 4ead 6b3c 6831 2a3d 6627 cabd 3451 b83d
000000b0: b9dd 01be 4b16 253d ef78 6b3d 028f 10be
000000c0: dd99 a3bd bab9 db3d 0c56 f0bd 5732 16be
000000d0: 7bab 8f3d 778f 013c 2244 cb3d 3707 a93d
000000e0: e12f 9cbd c334 84bd f6f1 853c 6018 c13c
000000f0: a825 e9bd c22b 10bd d1ab 703d f242 9abd
