checkpoints/model_epoch_80_baseline.pt (torch, 44840 bytes, 5 tensors)

fc1.weight f4 [128, 16]
0	0xbe2c7f82	-0.16845515
1	0xbe3a75c4	-0.18208987
2	0x3e3996a0	0.18123865
3	0xbde6c39c	-0.11267778
4	0xbe68910a	-0.22711578
5	0xbe19f660	-0.15035391
6	0xbddf0244	-0.10889104
7	0x3d3d2e98	0.046187013
8	0xbdfe7a08	-0.12425619
9	0xbd6b9f90	-0.057525218
10	0xbe150ee8	-0.14556468
11	0x3e68696e	0.22696468
12	0x3c0cef00	0.008601904
13	0x3e2fa7b4	0.17153817
14	0xbe206888	-0.15664876
15	0xbddbf438	-0.107399404
16	0xbe294020	-0.16528368
17	0x3d727548	0.05919388
18	0xbe17dc54	-0.14830142
19	0x3e5fb330	0.21845698
20	0xbd6ed330	-0.058306873
21	0x3d72f358	0.059314102
22	0x3e6645b8	0.22487533
23	0xbe632ef8	-0.22185886
24	0xbdd23f64	-0.10265997
25	0x3e65f6ea	0.22457471
26	0x3e1bfefc	0.15233988
27	0x3d845398	0.06461257
28	0x3e34c0e0	0.17651701
29	0xbdc9bba8	-0.09850246
30	0xbcc06be0	-0.023488939
31	0xbe6f4c64	-0.23368984
32	0x3da661a4	0.08124092
33	0x3e37e34c	0.179578
34	0xbe5051e2	-0.20343736
35	0xbe1bd470	-0.15217757
36	0xbe2ed62e	-0.1707389
37	0xbe3f3434	-0.18672258
38	0x3e1ef076	0.15521416
39	0xbdf9ed24	-0.12203434
40	0x3d4f4178	0.050599545
41	0xbe0166fc	-0.12636942
42	0xbd05ed80	-0.0326972
43	0x3cd28c60	0.025701702
44	0xbe7691bc	-0.24079031
45	0x3d1eddd8	0.038785785
46	0x3e018138	0.1264695
47	0xbd497e80	-0.049192905
48	0xbdd97c18	-0.10619372
49	0xbe3d6c44	-0.18498331
50	0xbe7fcbc0	-0.24980068
51	0xbe2ce682	-0.16884807
52	0xbc539c00	-0.012915611
53	0x3e4fe0e2	0.2030063
54	0xbe15c7ba	-0.14626971
55	0xbda4fa94	-0.080556065
56	0xbc49cd40	-0.012317002
57	0x3e39532c	0.18098134
58	0xbe2c8210	-0.1684649
59	0xbd75c998	-0.060006708
60	0xbe416f2c	-0.18890065
61	0x3e0882ec	0.13331193
62	0xbe397fbc	-0.18115133
63	0xbe70c51e	-0.23512694
64	0xbe7bf6be	-0.24605843
65	0xbdfae4f0	-0.122506976
66	0x3e211a70	0.15732741
67	0x3d1da878	0.038490742
68	0xbe5d3348	-0.21601593
69	0x3d85efe0	0.06539893
70	0x3e075c22	0.1321874
71	0xbe2d1a40	-0.16904545
72	0x3c22aaa0	0.0099283755
73	0xbe18cd72	-0.14922121
74	0xbe0e4200	-0.13892365
75	0x3e53f146	0.20697507
76	0x3e17f42e	0.14839241
77	0x3c8388d0	0.016056448
78	0xbdb16e24	-0.08663586
79	0xbdd56420	-0.10419488
80	0xbe2149f8	-0.15750873
81	0xbd6f0870	-0.058357656
82	0xbe6f4e34	-0.23369676
83	0x3e30ef7a	0.17278853
84	0x3dac8850	0.08424437
85	0x3dc0095c	0.09376785
86	0xbdfa3010	-0.122161984
87	0x3bbf7080	0.0058422685
88	0x3e171b72	0.14756563
89	0xbe0ea450	-0.13929868
90	0xbde00a38	-0.10939449
91	0x3df25dac	0.11834273
92	0x3d5bc2e0	0.053652644
93	0x3cfb9630	0.030711263
94	0x3d3b4500	0.0457201
95	0x3e6f5418	0.23371923
96	0xbe7d495c	-0.24735016
97	0x3da68160	0.08130145
98	0xbd3af6f0	-0.045645654
99	0xbc35ce80	-0.011096597
100	0xbe3cb172	-0.18427065
101	0xbd1e65b0	-0.038671196
102	0xbd42f838	-0.0476
103	0xbdf41ba4	-0.119193345
104	0xbdaabd10	-0.08336842
105	0x3e3827ec	0.17983979
106	0x3e0906b2	0.1338146
107	0xbd0fb5e8	-0.03508559
108	0xbe1acea4	-0.1511789
109	0x3da9a938	0.08284229
110	0x3e57b0e2	0.21063569
111	0xbcc395e0	-0.023875177
112	0x3d17f008	0.037094146
113	0xbd39c010	-0.04534918
114	0x3e3da280	0.1851902
115	0xbc76dce0	-0.015067309
116	0x3e3a7c7a	0.18211547
117	0xbdd9a7e0	-0.10627723
118	0xbceae520	-0.028673708
119	0xbda08eb0	-0.078397155
120	0x3d069128	0.032853276
121	0xbc8458b0	-0.01615557
122	0xbe443f50	-0.19164777
123	0xbe6e6800	-0.2328186
124	0xbc8a8ae0	-0.016911924
125	0x3c28a1c0	0.01029247
126	0x3da46900	0.0802784
127	0xbd156a98	-0.03647861
128	0x3e117634	0.14205247
129	0x3e25879a	0.16165009
130	0x3cf73960	0.030178726
131	0x3d220f38	0.039565295
132	0xbe5e9882	-0.21737865
133	0xbd324990	-0.043527186
134	0xbc54dae0	-0.012991637
135	0x3e37bd80	0.17943382
136	0xbd740aa0	-0.059580445
137	0x3e43cf30	0.19122005
138	0xbe7b6f8c	-0.2455427
139	0xbe4c6288	-0.19959462
140	0x3d9cdd1c	0.07659361
141	0xbdf9dc58	-0.1220023
142	0xbd15e4e0	-0.036595225
143	0xbe3761a2	-0.17908338
144	0xbd2cf168	-0.04222241
145	0xbe0e2e6e	-0.13884899
146	0xbe51389a	-0.20431748
147	0x3e20a7aa	0.15688959
148	0xbe285fe0	-0.16442823
149	0xbe249a6a	-0.1607453
150	0xbdaab78c	-0.0833579
151	0xbe57c8ec	-0.2107274
152	0x3ce956b0	0.028483719
153	0xbdbd6388	-0.092475
154	0xbdca15a0	-0.09867406
155	0xbe347246	-0.17621717
156	0xbe71dcfe	-0.23619458
157	0x3e3fe14a	0.18738285
158	0xbe3e32f2	-0.18574122
159	0x3dca0aec	0.098653644
160	0xbb903e40	-0.004401952
161	0x3a6fea00	0.0009151995
162	0x3e027132	0.12738493
163	0x3e13e7e4	0.14443928
164	0x3e081d1e	0.13292357
165	0x3cbd8c20	0.023138106
166	0xbe03a6a2	-0.12856534
167	0x3e2ab734	0.16671449
168	0xbe6be2ba	-0.23035708
169	0x3e304f2c	0.17217702
170	0x3e056c86	0.1302968
171	0xbe7597fa	-0.23983756
172	0xbe726c78	-0.2367419
173	0xbd2c4210	-0.04205519
174	0x3ca4e990	0.020130903
175	0xbd75bf58	-0.059996933
176	0xbd3c90e0	-0.0460366
177	0xbc00bc20	-0.0078573525
178	0xbd8cb404	-0.06870273
179	0x3dd81090	0.10550034
180	0x3ceca480	0.028887033
181	0xbdef8d54	-0.11696878
182	0x3df32ad4	0.11873403
183	0x3be5da80	0.0070145726
184	0xbe764b9e	-0.24052283
185	0xbe38621a	-0.18006173
186	0xbe293e7e	-0.16527745
187	0xbe422da6	-0.18962726
188	0xbd864380	-0.06555843
189	0x3e22a26e	0.15882275
190	0x3e1317de	0.14364573
191	0xbe4f4aae	-0.20243332
192	0xbe064c9e	-0.13115165
193	0xbe3ec08a	-0.18628135
194	0x3e5a6d5a	0.21330777
195	0xbe65dac0	-0.22446728
196	0xbe35ca84	-0.17753035
197	0x3e508ad6	0.20365462
198	0xbc021ee0	-0.0079419315
199	0x3d87d370	0.066321254
200	0xbe6c58a4	-0.23080689
201	0xbe2650f8	-0.16241825
202	0xbdce3db4	-0.10070363
203	0xbdd76058	-0.10516423
204	0xbdf2cef8	-0.118558824
205	0x3e7deafa	0.24796668
206	0xbdef0114	-0.116701275
207	0xbda2ae18	-0.07943362
208	0x3e6e8150	0.23291516
209	0xbe7fc73a	-0.24978343
210	0x3dadb298	0.0848133
211	0xbdbc3bf4	-0.09191123
212	0x3e51a9ce	0.20474932
213	0x3e7834e2	0.24238923
214	0x3e769c54	0.24083072
215	0xbd8f2790	-0.06989968
216	0x3d5fc370	0.054629743
217	0xbe460fc4	-0.19341952
218	0xbe0430c8	-0.12909234
219	0xbe6f7870	-0.23385787
220	0xbdf461b4	-0.11932698
221	0x3d233988	0.039849788
222	0xbe743ccc	-0.23851317
223	0x3e7ab7d8	0.24484193
224	0x3e68c748	0.2273227
225	0xbe0cc9e2	-0.13748887
226	0xbdb0fa84	-0.08641532
227	0x3e22e2d0	0.15906835
228	0x3cb14610	0.021639854
229	0xbdda0314	-0.10645118
230	0xbe692f5e	-0.22771975
231	0x3d384aa0	0.044993043
232	0x3dde3178	0.10849279
233	0x3db87570	0.090067744
234	0x3e591e56	0.21202978
235	0xbe209640	-0.15682316
236	0xbe4ab4b4	-0.19795495
237	0xbe47094a	-0.19437137
238	0x3e12bd8e	0.14330122
239	0x3d0ccc80	0.034374714
240	0x3e187e9a	0.14892045
241	0xbe6c99f2	-0.231056
242	0x3e7a3d6a	0.2443749
243	0xbdcab94c	-0.09898624
244	0x3d3346a0	0.043768525
245	0x3ccff3d0	0.025384814
246	0xbd30e2d0	-0.043185055
247	0x3e1254e0	0.1429019
248	0x3d468070	0.04846233
249	0x3e418248	0.18897355
250	0x3de35218	0.110996425
251	0x3e66cb0e	0.22538397
252	0xbde7e5bc	-0.11323115
253	0xbe7b4578	-0.24538219
254	0xbe77b50a	-0.24190155
255	0x3da341bc	0.07971522

fc1.bias f4 [128]
0	0x3dcab564	0.09897879
1	0xbde3ba1c	-0.11119482
2	0xbc866910	-0.01640752
3	0xbd4769b0	-0.048684776
4	0x3e4fe180	0.20300865
5	0xbe7fc812	-0.24978665
6	0xbe06342a	-0.13105837
7	0xbd9292b0	-0.07156885
8	0x3e0eaa3e	0.1393213
9	0x3c5a37c0	0.013318956
10	0x3d7a7900	0.06115055
11	0x3d35c308	0.04437545
12	0x3e164fba	0.14678851
13	0xbe27144e	-0.1631634
14	0xbd6f9298	-0.058489412
15	0x3e37321e	0.17890212
16	0xbe4d8f10	-0.20074105
17	0x3e71f570	0.23628783
18	0xbe46b718	-0.19405782
19	0xbe3d332a	-0.18476549
20	0xbe704d20	-0.23466921
21	0xbe5aa96a	-0.21353689
22	0xbd80168c	-0.062543005
23	0x3d958b80	0.07301998
24	0xbe0130c2	-0.12616256
25	0x3e4a0534	0.19728547
26	0xbd1d3a60	-0.03838575
27	0x3e1951ee	0.1497266
28	0x3e1db728	0.154019
29	0x3dd00014	0.10156265
30	0xbe214490	-0.15748811
31	0x3e6e3d14	0.23265487
32	0x3ded66e4	0.115918905
33	0xbca3d0d0	-0.01999703
34	0xbe414600	-0.18874359
35	0x3e550e84	0.20806319
36	0x3d9bc57c	0.076060265
37	0xbd5eb7a8	-0.054374367
38	0x3e31fed8	0.17382371
39	0x3d96cc20	0.073631525
40	0xbd7728a8	-0.060341507
41	0xbe502c2e	-0.20329353
42	0xbdfa1f3c	-0.12212989
43	0x3dcce574	0.10004702
44	0xbdc54d20	-0.09633851
45	0xbcaa6ad0	-0.020802885
46	0xbdcc1654	-0.09965196
47	0x3e43eab0	0.19132495
48	0xbe65104c	-0.22369498
49	0xbe6254c8	-0.22102654
50	0xbddc6914	-0.107622296
51	0xbe36dcaa	-0.17857614
52	0xbdbe935c	-0.0930545
53	0x3e2deb8e	0.16984388
54	0x3df0acf0	0.11751735
55	0xbd922978	-0.07136816
56	0x3e733656	0.23751196
57	0x3d9364dc	0.07196972
58	0xbd25c6a0	-0.040472627
59	0x3e3c6a22	0.18399861
60	0x3e33dfe6	0.17565879
61	0xbd0d79d8	-0.034540027
62	0x3e165d28	0.14683974
63	0x3e070816	0.13186678
64	0xbdab7554	-0.08371988
65	0xbde3bcb8	-0.111199796
66	0x3e42e1f4	0.19031507
67	0xbe043b88	-0.12913334
68	0xbe192758	-0.14956415
69	0xbe7f2e2c	-0.24919957
70	0x3dba7650	0.091045976
71	0xbe29a768	-0.16567767
72	0xbe3e686a	-0.18594518
73	0xbe6a2fe0	-0.22869825
74	0xbe3422f8	-0.17591465
75	0xbcc62d50	-0.024191529
76	0x3dc9c918	0.09852809
77	0xbcb3fb70	-0.02197048
78	0xbe4c1b90	-0.1993239
79	0x3df5dd80	0.120051384
80	0x3dba6fe0	0.0910337
81	0x3b29d200	0.0025912523
82	0xbde8fa34	-0.113758475
83	0x3d2235e8	0.03960219
84	0x3e07d14c	0.13263434
85	0x3ceb8c20	0.02875334
86	0x3c4fed20	0.012690812
87	0x3d58f120	0.05296433
88	0xbe3a044e	-0.18165705
89	0x3e0f0b04	0.13969046
90	0xbe60c2ae	-0.21949264
91	0x3e3bb376	0.18330178
92	0xbe0cfb98	-0.1376785
93	0x3d8b5364	0.06803015
94	0x3e537f58	0.20654047
95	0x3e784048	0.24243271
96	0x3e3acabc	0.182414
97	0xbe018a96	-0.12650523
98	0xbe369958	-0.17831933
99	0x3d8271f0	0.06369388
100	0xbbdb7780	-0.006697595
101	0xbe619ec2	-0.22033218
102	0xbda3ef20	-0.08004594
103	0xbcca3720	-0.024684489
104	0x3e2bb4c8	0.16768181
105	0xbe65ee8a	-0.22454277
106	0x3dac0294	0.08398929
107	0x3d427678	0.04747626
108	0x3da60bfc	0.081077546
109	0x3d02c418	0.03192529
110	0xbe369ed0	-0.1783402
111	0xbd4e7c70	-0.05041164
112	0x3d9a9b44	0.07549146
113	0x3da73db4	0.08166066
114	0xbdf4da38	-0.119556844
115	0xbdd9adbc	-0.1062884
116	0x3e510f7e	0.20416066
117	0xbe0666fa	-0.1312522
118	0x3bf68cc0	0.007524103
119	0x3e6cddc2	0.23131469
120	0xbda94e84	-0.08266929
121	0x3e72116a	0.23639455
122	0xbe442aa0	-0.19156885
123	0x3e52548e	0.20540068
124	0xbcce3390	-0.025171071
125	0xbbc6be80	-0.00606519
126	0x3e5e9ce2	0.21739534
127	0x3e2ae7ae	0.16689941

fc2.weight f4 [64, 128]
0	0xbda2ae81	-0.0794344
1	0xbc867a36	-0.016415697
2	0x3d152b36	0.036418162
3	0xbd9f76f0	-0.077863574
4	0xbda1bd35	-0.078974165
5	0xbdb2ba9f	-0.087270014
6	0xbd949c04	-0.0725632
7	0xbad73aca	-0.0016420719
8	0xbd82c92e	-0.06386028
9	0x3cc631e7	0.024193717
10	0xbc9824ae	-0.018572178
11	0xbc4ec95e	-0.012621252
12	0x3c896282	0.016770605
13	0x3d5f3848	0.054497033
14	0x3d837721	0.064192064
15	0xbb4eca9d	-0.0031553872
16	0x3c95880a	0.018253345
17	0xbcc6d0cd	-0.024269486
18	0x3c64bf52	0.01396163
19	0xbd85a055	-0.065247215
20	0xbc537d1c	-0.012908246
21	0x3cd95ab4	0.026532508
22	0xbd8d3e2d	-0.06896625
23	0xbc86f8ef	-0.016476123
24	0xbd476518	-0.048680395
25	0xbdbb5523	-0.09147098
26	0x3d5def78	0.054183453
27	0x3c557035	0.0130272405
28	0xbd41e12d	-0.047333885
29	0xbcf35d95	-0.02970771
30	0xbd750780	-0.059821606
31	0x3cbcec87	0.023062004
32	0xbdd4a488	-0.10382944
33	0xbcdfabd3	-0.027303612
34	0xbc2eebac	-0.010676306
35	0xbc5f6a1d	-0.013636139
36	0x3c6e4657	0.0145431375
37	0xbd8fa02a	-0.07012971
38	0xbda0524c	-0.07828197
39	0xbd9497a7	-0.07255488
40	0x3d910cdc	0.07082531
41	0xbd224c50	-0.03962356
42	0x3ce84360	0.02835244
43	0xbd5ea64b	-0.054357808
44	0x3c9f1ee1	0.019423904
45	0xbcec268a	-0.02882697
46	0xb81dceda	-3.7624362e-05
47	0xbb61a738	-0.0034431946
48	0x3d35cc56	0.044384323
49	0x3d8d71b6	0.06906454
50	0xbc173119	-0.009228014
51	0xbd938acf	-0.0720421
52	0xbc655fa6	-0.013999855
53	0x3d49dafe	0.049281113
54	0x3d0e4f19	0.034743402
55	0x3c596cc7	0.013270563
56	0xbd8c8852	-0.068619385
57	0xbb15762a	-0.0022806027
58	0x3d93110b	0.07180985
59	0xbdc12cb5	-0.09432355
60	0xbdc92c3d	-0.09822891
61	0x3bb5f9c4	0.005553456
62	0x3d6a93a0	0.057269692
63	0x3d88ba0e	0.06676112
64	0x3d8cfd27	0.068842225
65	0x3cb05a18	0.021527335
66	0x3d6ac561	0.05731714
67	0x3c2abdc8	0.010421224
68	0x3a4001b7	0.0007324474
69	0x3d753bfe	0.059871666
70	0xbd15bec2	-0.036558874
71	0x3be90fa1	0.007112459
72	0xbd666b8e	-0.056254916
73	0xbda18e52	-0.078884736
74	0xbdc20ab8	-0.09474701
75	0x3cd4c6bc	0.02597367
76	0x3be89a1d	0.00709845
77	0xbd4db4a6	-0.050221108
78	0xbdb6caed	-0.08925424
79	0xba83b4fe	-0.0010048447
80	0x3d90b0f3	0.070650004
81	0xbdb4aa36	-0.08821528
82	0x3d14d73a	0.03633807
83	0xbc8a2574	-0.016863562
84	0xbd8fe8fb	-0.070268594
85	0xbd50def7	-0.050993886
86	0xbda97b18	-0.082754314
87	0x3c91f1cc	0.017815493
88	0xbcf00dc2	-0.029303435
89	0x3c466e7a	0.012111301
90	0x3d849099	0.06472892
91	0xbdc1f9b0	-0.09471452
92	0xbdae9df9	-0.08526225
93	0xbc92c038	-0.017913923
94	0x3c0282c3	0.007965746
95	0xbcac8a26	-0.021061968
96	0xbd9169c5	-0.07100252
97	0xbd89aaba	-0.06722017
98	0xbb67f7a2	-0.0035395403
99	0x3d0deb6f	0.034648355
100	0xbd7966c1	-0.06088901
101	0x3d8adc53	0.06780305
102	0x3a64f459	0.00087339204
103	0x3d03bb56	0.03216108
104	0x3c22a3c5	0.009926741
105	0x3d82d2e4	0.063878804
106	0xbc064a1e	-0.008196382
107	0xbdb23948	-0.08702332
108	0x3c65188c	0.013982903
109	0xbc26c885	-0.0101796435
110	0xbdb38094	-0.08764759
111	0xbd83dd46	-0.06438689
112	0xbd85f777	-0.06541341
113	0x3c492375	0.01227652
114	0xbda3364b	-0.0796934
115	0xbd6c2a61	-0.057657603
116	0xbd885b3c	-0.066580266
117	0x3d88a332	0.06671752
118	0xbdc3e576	-0.095652506
119	0xbda9bbd1	-0.08287776
120	0xbccb9df3	-0.02485559
121	0xbd3a00cd	-0.04541092
122	0x3cc139a8	0.023587063
123	0xbc9ab1d1	-0.018883618
124	0x3ccf176a	0.02527972
125	0xbc060e90	-0.008182183
126	0xbcdefafd	-0.02721929
127	0xbd186408	-0.037204772
128	0xbd51d037	-0.05122396
129	0xbd561966	-0.052270316
130	0x3cd0905e	0.025459465
131	0x3d467855	0.0484546
132	0xbda960f2	-0.08270444
133	0xbd9ec30b	-0.07752045
134	0x3d899768	0.067183316
135	0xbcf3bc60	-0.02975291
136	0xbd797455	-0.06090196
137	0xbdbbb6ba	-0.09165712
138	0x3cec8433	0.028871631
139	0xbcf94297	-0.03042726
140	0x3d33038f	0.043704566
141	0x3ca60eb2	0.02027068
142	0xbca459d8	-0.020062372
143	0x3d8f1211	0.06985868
144	0x3cba7706	0.022761833
145	0x3c591c79	0.013251417
146	0xbd96c096	-0.073609516
147	0xbc4a3244	-0.012341086
148	0xbd02b363	-0.031909358
149	0x3cabc4ed	0.020967925
150	0x3d5e32f8	0.054247826
151	0x3c2c3d11	0.010512606
152	0xbd73cd80	-0.059522152
153	0xbd1be07e	-0.03805589
154	0xbd22212c	-0.039582416
155	0xbd1a29c7	-0.0376375
156	0x3ccb6266	0.024827193
157	0x3d326fff	0.04356384
158	0xbd68d3c2	-0.056842573
159	0xbd8791e2	-0.06619622
160	0xbd078584	-0.033086315
161	0xbc5e44d7	-0.013566217
162	0x3d008c62	0.03138388
163	0xbcf4a676	-0.029864531
164	0xbda9ea0b	-0.08296593
165	0x3c917586	0.017756235
166	0xbd249858	-0.04018435
167	0x3d965f4d	0.07342396
168	0xbd9cde06	-0.07659535
169	0xbc0dd68c	-0.008657109
170	0xbd81726a	-0.06320651
171	0x3d5db453	0.05412705
172	0x3d2b52d0	0.041827023
173	0x3d5f9f02	0.054595
174	0x3cf3fc79	0.029783474
175	0xbd009c9b	-0.03139935
176	0x3c8c1e76	0.017104369
177	0xbd8fbdff	-0.07018661
178	0x3d8e2a58	0.0694167
179	0xbdca046d	-0.098641254
180	0x3d13a967	0.036050227
181	0x3b436421	0.002981432
182	0xbc65ac61	-0.014018149
183	0x3d068ac5	0.032847185
184	0x3d4fde34	0.05074902
185	0x3c73a453	0.014870721
186	0x3d88346f	0.06650626
187	0x3cafa6b2	0.021441791
188	0xbd8da594	-0.06916347
189	0x3b1e4978	0.0024152678
190	0xbdbe7628	-0.0929988
191	0xbcd7583f	-0.026287196
192	0xbd2f0e87	-0.042738464
193	0xbdc8a1f9	-0.09796519
194	0xbd5f4eb4	-0.054518417
195	0x3d3c7cd3	0.04601748
196	0xbd934093	-0.07190051
197	0xbd969554	-0.07352701
198	0x3c560678	0.013063066
199	0xbc0f9a78	-0.008764856
200	0xbd52d199	-0.05146942
201	0x3adeb1ae	0.0016990209
202	0x39c6c7e9	0.00037914448
203	0xbd927ec3	-0.07153084
204	0xbdd050be	-0.1017165
205	0x3d44a025	0.04800429
206	0xbda45c2f	-0.08025395
207	0xbd531cdc	-0.051541194
208	0xbdac3762	-0.08409001
209	0x3d447257	0.047960605
210	0x3d36563b	0.04451583
211	0xbd40dc55	-0.047085125
212	0xbda9a4e0	-0.082834005
213	0xbdbb31dd	-0.0914037
214	0x3d7f3f07	0.062315967
215	0xbd8a3ed2	-0.06750263
216	0x3d76ec1c	0.060283765
217	0xbd92d056	-0.07168643
218	0x3d628106	0.055298828
219	0xbdd10ce8	-0.1020754
220	0x3bd6f6b2	0.00656017
221	0xbda0f6cc	-0.07859573
222	0xbdb0827c	-0.08618638
223	0x3d199c53	0.037502598
224	0x3d6cca29	0.057809982
225	0xbd629c69	-0.055324946
226	0xbdcd9eb0	-0.10040033
227	0xbd2a909a	-0.04164181
228	0xbd571b59	-0.052516315
229	0xbc6bfb5d	-0.014403191
230	0xbcfecef8	-0.03110455
231	0xbcd7091b	-0.026249459
232	0x3b651197	0.0034953111
233	0x3cd2a901	0.025715353
234	0xbd06c5c2	-0.03290344
235	0xbdac9ffc	-0.08428952
236	0xbdcc878e	-0.099867925
237	0x3d294c60	0.041332603
238	0xbda18e1b	-0.078884326
239	0x3c9b05e7	0.018923713
240	0x3c732bc5	0.014841978
241	0xbc8220b2	-0.015884731
242	0x3c1bb502	0.009503605
243	0xbdc6e621	-0.09711862
244	0x3d36081a	0.04444132
245	0xbdd6010d	-0.10449419
246	0xbd0e7c67	-0.034786608
247	0x3cad7739	0.021175014
248	0xbd929c85	-0.0715876
249	0x3d02e7f0	0.031959474
250	0xbd181779	-0.03713176
251	0xbd7e57e6	-0.062095545
252	0xbd1618d2	-0.036644764
253	0xbc691418	-0.014225982
254	0x3d740809	0.059577975
255	0x3cdabe8a	0.026702184

fc2.bias f4 [64]
0	0xbc1e6c2d	-0.009669346
1	0xbd412b4f	-0.047160443
2	0x3dabe6f7	0.083936624
3	0x3d0320ab	0.032013576
4	0x3dbfbe87	0.09362512
5	0x3c04e39d	0.008110908
6	0x3da505fe	0.080577835
7	0xbdd4b70e	-0.103864774
8	0xbd428992	-0.04749448
9	0xbcecc79d	-0.028903777
10	0x3cc312b7	0.023812635
11	0x3e0232fc	0.12714761
12	0x3d801f80	0.06256008
13	0xbd919e6c	-0.07110295
14	0x3da25664	0.07926634
15	0x3e0b259d	0.13588567
16	0x3dfa599b	0.12224122
17	0xbd01c5e7	-0.031682875
18	0xbdc2f859	-0.09520025
19	0x3d073540	0.033009768
20	0x3e0f10ad	0.13971205
21	0xbda29f31	-0.079405196
22	0xbdb5acff	-0.08870887
23	0x3d8dcb22	0.0692351
24	0xbd7974f9	-0.06090257
25	0xbc833d93	-0.016020572
26	0x3da33dea	0.079707935
27	0x3d7cb30f	0.0616942
28	0xbd82ecb0	-0.06392801
29	0xbc3e240e	-0.011605276
30	0x3ba85876	0.0051374985
31	0x3e24e864	0.16104275
32	0x3e2846c4	0.16433245
33	0x3d77db96	0.060512148
34	0x3b001008	0.0019540805
35	0x3ce98bbf	0.028509019
36	0x3dbee31c	0.093206614
37	0xbc4b0b2c	-0.0123928
38	0xbd975091	-0.07388414
39	0x3d64657f	0.055760857
40	0xbdc0b900	-0.09410286
41	0x3d956e9b	0.07296487
42	0x3e2dc91f	0.16971253
43	0x3dee135a	0.11624785
44	0x3de527c7	0.111892276
45	0x3ce484f1	0.027895423
46	0x3d319c50	0.04336196
47	0xbd8542d6	-0.065068886
48	0x3e1e67de	0.1546931
49	0x3e371fba	0.17883196
50	0xbd97a866	-0.07405166
51	0xbd8a6d3f	-0.06759118
52	0x3cc34277	0.023835404
53	0xbd5e6a08	-0.054300338
54	0x3dc521a1	0.09625555
55	0x3c3f89f8	0.011690609
56	0xbd85c28e	-0.06531249
57	0x3e255d9f	0.16148995
58	0xbdd76760	-0.10517764
59	0xbd96cdb1	-0.07363451
60	0x3c3c842c	0.011506122
61	0xbdca622a	-0.098820046
62	0x3e2a02f7	0.16602693
63	0xbd965662	-0.07340695

fc3.weight f4 [1, 64]
0	0x3dd4c4a0	0.10389066
1	0x3d8d0f18	0.068876445
2	0xbe1cd145	-0.15314205
3	0xbe015629	-0.12630524
4	0xbe54b6a2	-0.20772794
5	0xba920c0b	-0.0011142505
6	0xbde397d1	-0.11112941
7	0x3c361db8	0.011115484
8	0x3c319b55	0.010840257
9	0x3dd33a9c	0.10313913
10	0xbdfdc40b	-0.12390908
11	0xbe057fde	-0.13037059
12	0x3db5b63b	0.08872648
13	0x3c63f00d	0.013912213
14	0xbd3811b2	-0.04493875
15	0xbdeb3c9a	-0.11486168
16	0xbdd2554e	-0.10270177
17	0x3d8aabf7	0.06771081
18	0x3d88d871	0.06681908
19	0x3cdd7e43	0.027037745
20	0xbe042070	-0.12902999
21	0x3c793978	0.0152114555
22	0x3d808eb1	0.06277216
23	0xbb624364	-0.0034525031
24	0x3d3792c4	0.0448177
25	0x3a773966	0.0009430855
26	0xbe54bf38	-0.20776069
27	0x3dd29790	0.102828145
28	0x3d90ef1d	0.07076857
29	0x3d4d4c25	0.050121445
30	0xbe4371b9	-0.1908635
31	0xbe16ac0b	-0.14714067
32	0xbe5abafe	-0.21360394
33	0xbe172d26	-0.14763317
34	0xbe4178bf	-0.18893717
35	0x3d268a87	0.040659454
36	0xbe483b1f	-0.19553803
37	0x3d22f8e0	0.039788127
38	0x3cc72351	0.024308832
39	0xbe3a4262	-0.18189386
40	0x3d5fd087	0.054642227
41	0xbe4ad5aa	-0.19808069
42	0xbde2f407	-0.11081701
43	0xbe2000e0	-0.15625334
44	0xbe46f635	-0.19429858
45	0xbde79ba8	-0.11308986
46	0x3d3083ed	0.043094564
47	0x3d884b27	0.06654959
48	0xbdf8e588	-0.121531546
49	0xbe02cbd2	-0.12773064
50	0x3dc01682	0.09379293
51	0xbc3edad8	-0.011648856
52	0x3d0026d5	0.031287033
53	0x3c55a200	0.013039112
54	0xbdd16621	-0.10224558
55	0x3d62cbaa	0.05537001
56	0x3c4947f9	0.012285226
57	0xbe57a853	-0.21060304
58	0x3d1ab993	0.037774634
59	0x3db524c2	0.088449016
60	0x3caf53ad	0.021402204
61	0x3dc2a597	0.0950424
62	0xbe17edf0	-0.1483686
63	0x3de385cb	0.11109503
