checkpoints/model_epoch_40_policy.pt (torch, 487144 bytes, 13 tensors)

customer_encoder.conv1d.weight f4 [128, 1, 24]
0.15606198 0.169433 -0.04782206 0.18860255 -0.043120597 0.04102256 -0.09902544 0.11931115
0.17975195 -0.14973225 0.17681774 0.039218802 0.14954197 0.027972128 0.09737963 -0.02842755
0.157533 0.029143747 -0.09523062 0.052251037 -0.09501989 -0.023368038 -0.08289366 0.13425216
-0.16111417 -0.09413095 -0.05765007 -0.1213338 0.02105661 -0.20190443 0.1846494 -0.17392257
0.15785101 0.03381374 -0.06650813 0.12647165 0.03071353 0.16538975 0.021224163 -0.0638813
0.055000592 -0.056458473 0.08631051 0.18232831 0.11732421 -0.08850798 0.11810617 0.035611782
0.103597924 -0.12440068 -0.20207307 -0.0801017 -0.15820213 0.16754368 0.05820738 0.085035175
0.06442816 -0.0035475602 0.16012283 -0.14539802 0.013966729 -0.13995588 0.06423381 -0.07095489
0.06224632 -0.041449696 0.16862674 -0.12098643 -0.12093372 -0.12235849 0.18361229 0.068855576
0.19636875 -0.1685468 -0.20243612 -0.158373 -0.13560976 0.08238102 0.07333601 0.1693295
-0.10523468 -0.13922544 0.108015664 -0.0819871 0.12286821 -0.047970172 0.115672775 -0.15809077
-0.10279728 0.06120829 0.043517083 -0.05190688 0.120899215 0.13938957 -0.14784114 -0.10989881
0.18689781 -0.068884164 -0.072374836 -0.19881645 -0.118492395 0.050996203 -0.02754843 -0.14804359
0.0045504677 -0.13917264 -0.17298904 -0.112676464 -0.17760985 -0.13058577 0.20532425 0.03794594
0.06257661 -0.1894892 -0.1347309 -0.06791329 0.032795623 -0.18025617 -0.08817662 -0.12147585
0.0005358065 -0.075959876 -0.014152576 -0.13964072 -0.14182352 -0.11910948 -0.07039213 -0.16079496
0.17099373 -0.0404202 0.17595832 0.063045576 -0.17175253 0.14068572 -0.054958373 -0.07878259
-0.16954443 -0.2019282 0.057748176 -0.04469899 0.08029715 -0.1680885 0.15149182 -0.1489913
-0.035247616 0.04261053 0.10540813 0.16353798 0.18428542 -0.16183157 0.05083872 -0.08726623
-0.022479441 -0.15284562 0.1862618 -0.1503093 0.11023832 0.071125135 0.067607105 -0.110942595
0.18539321 0.045886762 0.02559352 -0.17999528 0.08651916 -0.031196652 -0.09352256 0.17615056
0.045500528 -0.11293958 -0.10332507 -0.008769522 0.115385264 -0.05250673 -0.11604151 -0.07011018
-0.1524817 0.07288079 0.15750507 -0.1917635 0.04626917 0.10636392 0.035447624 -0.071803115
0.106745 0.10609062 0.07677557 -0.03581093 -0.05469591 0.022267768 -0.036149397 -0.06159362
0.13044564 0.17543401 -0.02018115 -0.047037423 0.0012875834 -0.0117942 0.04851188 0.05778655
-0.1854767 -0.07526776 0.17220554 0.07918579 -0.008962118 -0.12357397 -0.123742215 -0.18336198
-0.06651822 0.07011661 0.12952574 0.09417774 -0.17964648 -0.12349598 -0.03248658 0.19831525
0.029503712 -0.052872956 0.0844181 -0.0763045 -0.13027482 0.14864486 -0.092525974 -0.04129424
-0.2028533 0.13648468 0.15427169 0.07524968 -0.14347817 -0.20123796 -0.1667126 0.1525091
0.09794766 0.17075351 0.107199006 0.051916275 -0.0027739725 -0.15448053 -0.17472258 -0.19206129
0.08355773 -0.10023583 -0.04108564 -0.11629476 -0.0357528 -0.14346355 -0.13280636 0.067615025
-0.060602434 0.12587874 -0.06591993 -0.14924611 -0.037022293 -0.098342694 -0.063836195 -0.19368057
00000000: b6ce 1f3e d87f 2d3e 10e1 43bd 0721 413e
00000010: 399f 30bd 4607 283d dacd cabd 6759 f43d
00000020: e510 383e 6953 19be b60f 353e e5a3 203d
00000030: 8821 193e ce25 e53c f96e c73d e5e0 e8bc
00000040: 5550 213e debe ee3c 4508 c3bd 2f05 563d
00000050: ca99 c2bd 546e bfbc 27c4 a9bd 6679 093e
00000060: 1dfb 24be bac7 c0bd 7b22 6cbd db7d f8bd
00000070: e97e ac3c 09c0 4ebe bb14 3d3e c218 32be
00000080: b2a3 213e 4780 0a3d 6a35 88bd c981 013e
00000090: f19a fb3c ee5b 293e 4cde ad3c 33d4 82bd
000000a0: 4d48 613d 0041 67bd 91c3 b03d 46b4 3a3e
000000b0: ad47 f03d ac43 b5bd a6e1 f13d a9dd 113d
000000c0: 262b d43d c9c5 febd 3eec 4ebe 5c0c a4bd
000000d0: bdff 21be 9290 2b3e dd6a 6e3d ec26 ae3d
000000e0: e9f2 833d 2f7e 68bb 3df7 233e 38e3 14be
000000f0: b5d4 643c 9850 0fbe 048d 833d cc50 91bd
00000100: fff5 7e3d 28c7 29bd 7dac 2c3e bcc7 f7bd
00000110: 19ac f7bd 1797 fabd dc04 3c3e 2704 8d3d
00000120: e414 493e 8897 2cbe 6a4b 4fbe 882c 22be
00000130: 49dd 0abe 61b7 a83d 3131 963d b664 2d3e
00000140: 4885 d7bd 1d91 0ebe 5137 dd3d dae8 a7bd
00000150: 54a2 fb3d 5f7c 44bd d9e5 ec3d 8ce2 21be
00000160: 6187 d2bd 8bb5 7a3d f83e 323d 4f9c 54bd
00000170: 029a f73d 24bc 0e3e ab63 17be a112 e1bd
00000180: 2462 3f3e 2413 8dbd 4239 94bd 8a96 4bbe
00000190: 24ac f2bd 65e1 503d 3fad e1bc bd98 17be
000001a0: 171c 953b 4683 0ebe 0a24 31be ebc2 e6bd
000001b0: 5bdf 35be 47b8 05be 8540 523e 346d 1b3d
000001c0: 2a28 803d 7509 42be e6f6 09be 1f16 8bbd
000001d0: b454 063d 1395 38be f295 b4bd 55c8 f8bd
000001e0: 5e75 0c3a da90 9bbd 35e0 67bc fafd 0ebe
000001f0: 2f3a 11be acef f3bd c029 90bd 6fa7 24be
00000200: fb18 2f3e a78f 25bd 6b2e 343e 0a1e 813d
00000210: e5df 2fbe eb0f 103e 081c 61bd c458 a1bd
00000220: 0e9d 2dbe 44c6 4ebe 5a89 6c3d 4a16 37bd
00000230: d572 a43d 641f 2cbe ac20 1b3e 2d91 18be
00000240: ce5f 10bd 6188 2e3d 38e0 d73d 8076 273e
00000250: 51b5 3c3e 2db7 25be 433c 503d a3b8 b2bd
00000260: ce26 b8bc 9083 1cbe 6abb 3e3e aeea 19be
00000270: a1c4 e13d 0eaa 913d 9875 8a3d df35 e3bd
00000280: b8d7 3d3e c2f3 3b3d 80a9 d13c af50 38be
00000290: f530 b13d 1f90 ffbc c288 bfbd d060 343e
000002a0: c35e 3a3d de4c e7bd 189c d3bd 0bae 0fbc
000002b0: 1c4f ec3d 4c11 57bd 2ca7 edbd ed95 8fbd
000002c0: 2a24 1cbe 8642 953d 0249 213e a75d 44be
000002d0: be84 3d3d 54d5 d93d 8731 113d 830d 93bd
000002e0: 1f9d da3d 0a46 d93d 833c 9d3d 7bae 12bd
000002f0: d208 60bd e56a b63c 6411 14bd 9749 7cbd
00000300: 8b93 053e f9a4 333e f052 a5bc 50aa 40bd
00000310: 21c4 a83a 763c 41bc 65b4 463d 97b1 6c3d
00000320: 9bed 3dbe fc25 9abd a656 303e 292c a23d
00000330: d9d5 12bc 5914 fdbd 8f6c fdbd 3ec3 3bbe
00000340: b43a 88bd 4c99 8f3d 65a2 043e 42e0 c03d
00000350: 3ff5 37be 76eb fcbd a610 05bd 2713 4b3e
00000360: c5b1 f13c 5091 58bd 66e3 ac3d 8945 9cbd
00000370: c366 05be 5c36 183e 427e bdbd 2624 29bd
00000380: c7b8 4fbe a4c2 0b3e 66f9 1d3e 811c 9a3d
00000390: f1eb 12be 5311 4ebe b5b6 2abe 582b 1c3e
000003a0: c898 c83d 02da 2e3e 278b db3d 29a6 543d
000003b0: 89cb 35bb 2530 1ebe 7aea 32be b7ab 44be
000003c0: 5120 ab3d 7148 cdbd 6b49 28bd f22b eebd
000003d0: 8771 12bd 1ce8 12be 64fe 07be bf79 8a3d
000003e0: 423a 78bd 5be6 003e 0701 87bd f9d3 18be
000003f0: b0a4 17bd e567 c9bd 8dbc 82bd 3354 46be

customer_encoder.conv1d.bias f4 [128]
-0.05134573 0.01835398 -0.054652583 -0.19984816 -0.021138158 0.09959874 -0.023741253 -0.10051885
0.0063918163 0.03719793 -0.056999564 -0.15826195 -0.10949839 -0.033388205 0.073522955 0.1815035
0.003808925 0.07299108 0.1174547 -0.08903736 -0.06775028 0.1354062 0.14615953 0.048401117
-0.15769826 0.11581885 -0.16870749 0.10200544 0.024104318 0.06592704 -0.19893232 -0.071790874
0.08676473 0.15711771 -0.058461707 0.18205108 -0.04553155 -0.12317954 -0.08838346 0.0126193585
-0.036379054 0.098828726 -0.11293977 -0.05809265 -0.20228074 0.16657615 -0.038489394 -0.16090387
-0.009849294 -0.00036191748 0.056652058 -0.022420133 0.12841596 -0.07037847 -0.06110429 -0.048467748
0.036507964 0.16352952 -0.009428596 0.1570873 0.16031373 -0.10626509 -0.017556915 -0.0963649
0.084926106 -0.0718612 0.062268756 0.012203089 -0.13403876 -0.13724168 -0.19937128 -0.11415782
0.057010435 0.012430557 0.15355393 -0.17954518 -0.005978777 -0.18302064 0.0012122364 0.07437382
-0.18310955 0.18018593 -0.063416615 0.18082632 -0.034237638 0.11582284 0.1855666 -0.07436717
-0.049599435 0.10708033 -0.17474599 0.120810784 -0.12819141 0.18970256 -0.13370669 -0.084070995
0.15227136 -0.08885272 0.1750178 0.14044964 0.18658549 -0.19782424 0.0022956969 -0.06717957
0.04861915 -0.15412486 0.083709285 -0.009669292 -0.09651988 -0.18361607 0.10677386 -0.0738883
0.15061748 0.036343332 0.062053844 -0.030981267 -0.028305879 -0.06935426 -0.17668398 0.1283609
-0.1285625 0.11897052 -0.06883277 0.12786147 0.17492996 -0.12487421 0.16853487 0.0049749054
00000000: e64f 52bd 165b 963c 63db 5fbd ffa4 4cbe
00000010: ee29 adbc 6dfa cb3d 047d c2bc d4dc cdbd
00000020: 7172 d13b db5c 183d 6078 69bd 6c0f 22be
00000030: b140 e0bd 12c2 08bd 3493 963d 0edc 393e
00000040: 289f 793b 597c 953d 178c f03d 3859 b6bd
00000050: a9c0 8abd eca7 0a3e d8aa 153e 4040 463d
00000060: a77b 21be 6f32 ed3d a8c1 2cbe 3ae8 d03d
00000070: 6b76 c53c c204 873d eab4 4bbe 1807 93bd
00000080: b5b1 b13d 77e3 203e 8b75 6fbd 996b 3a3e
00000090: 4a7f 3abd 8e45 fcbd 6302 b5bd 6dc1 4e3c
000000a0: 3402 15bd b766 ca3d f74c e7bd 8ff2 6dbd
000000b0: af22 4fbe f092 2a3e 0ea7 1dbd fcc3 24be
000000c0: ef5e 21bc bebf bdb9 fd0b 683d 6daa b7bc
000000d0: 797f 033e 9622 90bd 7e48 7abd 1e86 46bd
000000e0: 6089 153d 4874 273e 667a 1abc 7edb 203e
000000f0: 4829 243e 83a1 d9bd 85d3 8fbc f65a c5bd
00000100: bded ad3d f72b 93bd 860d 7f3d 77ef 473c
00000110: 7541 09be 1589 0cbe fc27 4cbe 93cb e9bd
00000120: c683 693d 89a9 4b3c 3e3d 1d3e b1da 37be
00000130: 9ee9 c3bb c369 3bbe e7e3 9e3a 4d51 983d
00000140: 1281 3bbe a982 383e 92e0 81bd 892a 393e
00000150: c43c 0cbd 8634 ed3d 2c05 3e3e d14d 98bd
00000160: c728 4bbd ef4c db3d 9df0 32be a56b f73d
00000170: 9c44 03be 6341 423e 68ea 08be 6a2d acbd
00000180: 06ed 1b3e 6af8 b5bd de37 333e 08d2 0f3e
00000190: 4410 3f3e 7092 4abe 6773 163b 7195 89bd
000001a0: e024 473d e8d2 1dbe c66f ab3d f36b 1ebc
000001b0: 37ac c5bd da05 3cbe 41ac da3d c052 97bd
000001c0: 783b 1a3e bfdc 143d 2c2c 7e3d 6dcc fdbc
000001d0: bbe1 e7bc 9b09 8ebd a5ec 34be 0a71 033e
000001e0: e3a5 03be d1a6 f33d 32f8 8cbd 1eee 023e
000001f0: d720 333e 0dbe ffbd 6894 2c3e 8804 a33b

vehicle_encoder.lstm.weight_ih_l0 f4 [512, 2]
-0.067738734 0.03586854 0.050222702 0.07767987 -0.08574866 0.0785662 0.06860264 0.08832864
0.048020676 -0.04315078 0.06730227 0.08074564 -0.03301092 -0.013625456 0.06905654 0.07137399
0.05699518 0.066487536 -0.04551481 -0.015566963 -0.0355 0.04588873 0.021633217 -0.06874927
-0.010370027 -0.07119293 -0.084201716 0.079700775 -0.043943956 0.039702937 -0.019484885 -0.017884836
-0.00040967233 0.06876493 -0.013125449 0.07250226 0.050915528 0.05981274 -0.07970837 -0.040983938
-0.0718947 -0.018660812 -0.01737225 0.018883849 0.080443874 0.040458176 -0.060471144 -0.054259833
0.0656798 0.007872336 0.025186965 -0.045746565 -0.010329742 0.025571866 -0.059556756 0.05621991
0.04398876 -0.05148391 -0.035512064 -0.020223826 0.013615919 -0.033281118 0.0851838 -0.08436858
-0.049470786 -0.052841026 0.02259573 0.011037086 -0.024792466 0.075624056 -0.07613802 0.03137913
-0.048393715 -0.01982039 -0.08614225 -0.067030974 -0.07461785 0.038780272 -0.03443777 0.045092158
-0.046883494 -0.020828936 0.009747491 0.07311098 -0.024248665 0.050867103 0.022568453 0.05204172
0.057338778 0.03733937 -0.027053127 -0.025372839 0.03418506 0.047870297 -0.0054512513 0.04370275
-0.051508322 0.051861454 -0.010118403 -0.060237847 -0.042052127 -0.06681159 0.017618695 -0.052719157
-0.024403527 -0.004691684 -0.052987665 0.0034159336 -0.010831653 0.028587328 0.064972185 -0.052256607
0.04873017 -0.00111803 -0.051341884 -0.041166008 0.021212608 0.017142488 -0.0031091303 -0.0443195
0.044795673 0.013241253 -0.0847884 -0.014959573 -0.025022462 -0.038968787 -0.047211003 -0.070161775
0.08676653 -0.0813472 0.08091978 -0.07074545 -0.023567885 -0.03826574 -0.047177415 0.031456437
0.050271485 -0.059194133 -0.03972809 0.04644 -0.009148987 0.023057291 0.04542206 -0.033082526
-0.050598904 0.03138258 -0.03194426 -0.05847855 -0.044939753 -0.040448084 0.08883034 0.017616343
0.03642751 0.009660007 -0.05919718 0.06419705 -0.014631784 -0.023334203 0.072040625 -0.045235485
0.019417118 -0.074057296 0.045446973 0.03516653 -0.071588755 0.050512683 0.01076258 -0.044656973
0.07529712 0.038000252 0.030951574 -0.03294998 -0.04797234 -0.046821468 0.034142632 0.024676574
-0.052791573 0.080315694 0.053152595 -0.033262882 0.046014503 -0.037305433 0.027198816 0.07283611
-0.07847276 -0.044389047 -0.00564855 0.012473951 -0.073793665 -0.059031367 -0.008613327 -0.013221491
0.017876437 0.010141185 0.018505594 0.006379955 0.009316277 -0.0050066016 0.032145977 0.06055576
-0.04455256 -0.046094663 0.03759064 -0.064967744 0.057986896 0.04132718 0.013332422 -0.038125236
0.003674967 -0.06862261 -0.07964336 0.082995474 -0.08112718 -0.07519252 -0.034009382 0.005539607
0.021175206 -0.042574517 -0.008362062 -0.019714614 0.074353285 0.077304326 0.036058486 -0.00078502885
0.06556492 -0.071984425 0.0372732 -0.051230337 0.0696834 -0.07756619 0.033009555 -0.072845586
0.050099183 0.014738848 0.07487613 -0.06748452 0.05727125 -0.05859911 -0.047122154 0.0342651
-0.013437346 -0.06832081 -0.07516405 -0.022909874 0.02496073 0.07797365 0.06433732 0.0006670654
-0.054580748 -0.079087205 0.07872006 -0.0496872 -0.01360243 -0.06960091 -0.059683222 0.01869043
00000000: 9bba 8abd e4ea 123d 52b6 4d3d a016 9f3d
00000010: fe9c afbd 51e7 a03d 8a7f 8c3d a5e5 b43d
00000020: 54b1 443d dfbe 30bd c6d5 893d f85d a53d
00000030: 7536 07bd 4e3d 5fbc 846d 8d3d 872c 923d
00000040: c773 693d 9e2a 883d bd6d 3abd 930c 7fbc
00000050: 7368 11bd d2f5 3b3d 2538 b13c 6bcc 8cbd
00000060: 0ce7 29bc 99cd 91bd f371 acbd 293a a33d
00000070: 94fe 33bd 8c9f 223d c49e 9fbc 3883 92bc
00000080: 4ac9 d6b9 a1d4 8c3d 200c 57bc 117c 943d
00000090: cd8c 503d 34fe 743d 243e a3bd c6de 27bd
000000a0: 873d 93bd 8fde 98bc 4050 8ebc 4db2 9a3c
000000b0: c2bf a43d 79b7 253d 97b0 77bd 8f3f 5ebd
000000c0: 2283 863d f8fa 003c e554 ce3c c060 3bbd
000000d0: 143e 29bc 177c d13c c9f1 73bd d946 663d
000000e0: 8f2d 343d cbe0 52bd 1975 11bd 70ac a5bc
000000f0: 4e15 5f3c c851 08bd d874 ae3d 6fc9 acbd
00000100: e1a1 4abd d56f 58bd ae1a b93c e5d4 343c
00000110: 9219 cbbc c9e0 9a3d 40ee 9bbd 6787 003d
00000120: 7d38 46bd 5f5e a2bc 596b b0bd 8947 89bd
00000130: 3ed1 98bd 10d8 1e3d 9e0e 0dbd 8eb2 383d
00000140: e808 40bd 72a1 aabc f1b3 1f3c 36bb 953d
00000150: 23a5 c6bc 065a 503d 7ae1 b83c b329 553d
00000160: 11dc 6a3d 2bf1 183d 859e ddbc b3da cfbc
00000170: a205 0c3d a513 443d 69a0 b2bb a801 333d
00000180: 64fa 52bd ad6c 543d a8c7 25bc f6bb 76bd
00000190: da3e 2cbd 84d4 88bd 1555 903c 0bf0 57bd
000001a0: e8e9 c7bc b3bc 99bb 9809 59bd dbdd 5f3b
000001b0: 3f77 31bc f92f ea3c 2310 853d 060b 56bd
000001c0: 4999 473d dd8a 92ba de4b 52bd b09d 28bd
000001d0: 10c6 ad3c 676e 8c3c 8dc2 4bbb 5d88 35bd
000001e0: ab7b 373d d7f1 583c 8aa5 adbd ff18 75bc
000001f0: e8fb ccbc bc9d 1fbd 5360 41bd fab0 8fbd
00000200: a7b2 b13d 5c99 a6bd 45b9 a53d fee2 90bd
00000210: 7011 c1bc 89bc 1cbd 1b3d 41bd 77d8 003d
00000220: 79e9 4d3d 8c75 72bd ecb9 22bd df37 3e3d
00000230: a2e5 15bc a5e2 bc3c 7b0c 3a3d 8b81 07bd
00000240: cc40 4fbd 058b 003d fcd7 02bd 3487 6fbd
00000250: bf12 38bd e4ac 25bd aeec b53d 2650 903c
00000260: 0335 153d 0245 1e3c be78 72bd be79 833d
00000270: 26ba 6fbc 5f27 bfbc 098a 933d d848 39bd
00000280: a610 9f3c 5aab 97bd 9b26 3a3d c80a 103d
00000290: 209d 92bd 63e6 4e3d 8855 303c 3bea 36bd
000002a0: 6035 9a3d 27a6 1b3d 288e fd3c 8ff6 06bd
000002b0: a57e 44bd dec7 3fbd 25d9 0b3d 8726 ca3c
000002c0: fa3b 58bd 8e7c a43d 89b6 593d a93e 08bd
000002d0: b479 3c3d 95cd 18bd 0dd0 de3c 192b 953d
000002e0: 54b6 a0bd 4ad1 35bd 7917 b9bb 8b5f 4c3c
000002f0: 2221 97bd e0ca 71bd e91e 0dbc f49e 58bc
00000300: 9b71 923c 3627 263c 0b99 973c f10e d13b
00000310: 4ca3 183c 6b0e a4bb 80ab 033d 5109 783d
00000320: bf7c 36bd c2cd 3cbd a5f8 193d cf0d 85bd
00000330: ab83 6d3d b046 293d 3b70 5a3c 3529 1cbd
00000340: b7d7 703b 038a 8cbd 0f1c a3bd 88f9 a93d
00000350: 0226 a6bd 89fe 99bd 6c4d 0bbd 9785 b53b
00000360: a077 ad3c 9e62 2ebd 0801 09bc 8b80 a1bc
00000370: 8946 983d bb51 9e3d 10b2 133d 65ca 4dba
00000380: e746 863d 926c 93bd c8ab 183d e7d6 51bd
00000390: 2cb6 8e3d 06db 9ebd 0735 073d 1130 95bd
000003a0: cd34 4d3d 367b 713c a858 993d 5335 8abd
000003b0: 4295 6a3d 9f05 70bd 2903 41bd 9059 0c3d
000003c0: 5028 5cbc c8eb 8bbd 9cef 99bd 7dad bbbc
000003d0: 727a cc3c a6b0 9f3d 49c3 833d 00de 2e3a
000003e0: 1090 5fbd 79f8 a1bd fc37 a13d ce84 4bbd
000003f0: badc 5ebc ec8a 8ebd 6576 74bd ac1c 993c

vehicle_encoder.lstm.weight_hh_l0 f4 [512, 128]
-0.060910765 -0.069304824 0.06363454 0.009895605 0.00037358006 -0.085037954 0.07697932 -0.058119945
0.039128818 -0.010081512 0.0025266837 0.043045424 -0.022912763 -0.024184406 0.06994612 -0.066991754
0.03977006 -0.023182843 -0.029454127 0.059680983 0.014389619 -0.0826422 0.078798845 -0.043282185
0.07649169 -0.027300125 0.08671384 0.026787119 -0.0038522184 0.033250567 -0.0028853528 -0.044158727
0.048773125 0.057676878 -0.011312187 0.08371889 0.006077401 -0.047127772 -0.04866941 0.059952553
-0.03512726 0.05541216 -0.08553894 0.0033677877 -0.060576208 0.03135596 0.07227466 0.03424442
-0.029971901 -0.08259094 -0.04226723 -0.05257053 0.08489443 -0.0481536 0.033914573 0.07090442
0.031362258 -0.077868894 -0.009485401 -0.025888592 0.057303865 -0.00712288 -0.005119826 0.07893858
0.020794071 0.041312817 -0.028337194 0.057547525 0.012466097 -0.01760911 0.017201232 -0.06986317
0.0029915909 0.04085457 -0.08274578 -0.046586055 0.055226598 0.0019724853 -0.003454759 0.008672599
-0.040029623 0.07286115 -0.008721485 -0.03176272 0.046901245 -0.07345361 -0.01592238 0.008383672
-0.026867414 0.04864628 -0.075136036 -0.024960063 -0.03740712 0.08153707 0.035474207 -0.064866334
0.03371175 -0.0023504796 0.080633946 0.0492928 -0.051751144 0.07917402 -0.015530119 -0.020549318
0.025966486 0.08813999 0.027379578 -0.08575604 -0.028692298 0.080659896 -0.03160862 -0.0421832
-0.06996802 -0.048306543 -0.04873587 0.021551358 0.035633683 0.08468457 0.058881864 0.0017567908
0.047562063 0.050669704 -0.07657333 0.044141166 -0.060121935 0.068926014 -0.038987536 0.018586563
-0.00078185165 0.040956106 0.01359276 -0.06479628 0.036056764 0.052204855 -0.04603377 -0.057467584
-0.059939176 -0.043316044 -0.0106861675 0.0069181374 -0.0006836978 -0.023616083 0.05499177 0.0044558397
-0.05166211 -0.022990182 -0.052615855 -0.031521983 -0.083019786 0.015820483 -0.06801893 0.033986267
0.059786785 -0.065730765 -0.046831142 -0.07039842 0.023148201 0.017346244 -0.046916753 0.05353983
0.03637831 -0.08019069 -0.0045664106 -0.038340364 -0.015654933 0.049814 -0.0092389565 -0.061808586
0.061662737 -0.08057927 -0.03111031 0.033525135 0.07821431 0.08525129 -0.020774588 0.029631173
-0.07784326 -0.017175287 -0.027316455 0.025248572 -0.058297735 0.01930908 0.04587358 0.06909108
-0.014995584 0.08108908 -0.08347279 -0.025356675 0.033153307 0.022210566 0.042001054 -0.059129525
0.054858193 -0.08271863 -0.06065378 -0.005260713 -0.08586281 -0.084771365 -0.078609675 0.07118965
0.019870037 -0.028549623 -0.00437841 -0.077228755 -0.08286737 -0.060938 -0.085236795 0.058366466
-0.030459652 -0.023553684 -0.07662076 0.014270613 -0.013740729 -0.060220335 0.05646742 0.07447558
-0.06334742 0.04867264 -0.014735607 -0.0006456401 0.03835542 -0.016040912 0.074280955 0.052989684
-0.057372198 -0.053739768 -0.08609175 0.028213395 -0.06682665 -0.07423316 -0.05725914 -0.08702218
-0.07214851 0.07836834 0.048916917 0.07805828 -0.043288726 -0.036461174 -0.0308758 0.0016923435
-0.063275814 0.012849481 -0.05652205 0.013554272 0.08076217 0.01466132 0.06371161 -0.06345067
-0.011799729 -0.05543995 -0.0094941035 -0.034931995 -0.04985086 -0.08576785 -0.032180883 0.012549912
00000000: 917d 79bd b0ef 8dbd d352 823d 2d21 223c
00000010: 11dd c339 6128 aebd 55a7 9d3d 2e0f 6ebd
00000020: 8a45 203d ed2c 25bc b896 253b 6650 303d
00000030: 8cb3 bbbc 601e c6bc e93f 8f3d f932 89bd
00000040: eee5 223d f2e9 bdbc c849 f1bc 0c74 743d
00000050: 70c2 6b3c 5040 a9bd 4a61 a13d a948 31bd
00000060: ada7 9c3d 83a4 dfbc 0797 b13d a970 db3c
00000070: 8075 7cbb bf31 083d 3018 3dbb c8df 34bd
00000080: 54c6 473d 973e 6c3d c056 39bc cf74 ab3d
00000090: ef24 c73b 0d09 41bd 9359 47bd cf90 753d
000000a0: 9ae1 0fbd dcf7 623d 0a2f afbd 1ab6 5c3b
000000b0: c21e 78bd 1b6f 003d bd04 943d e043 0c3d
000000c0: a287 f5bc 7025 a9bd 6720 2dbd 3254 57bd
000000d0: 22dd ad3d b63c 45bd 02ea 0a3d 5636 913d
000000e0: b675 003d ba79 9fbd a868 1bbc 5014 d4bc
000000f0: 75b7 6a3d 0c67 e9bb 37c4 a7bb 8daa a13d
00000100: 5458 aa3c a137 293d 6723 e8bc f4b6 6b3d
00000110: 9a3e 4c3c fb40 90bc 99e9 8c3c 6c14 8fbd
00000120: 910e 443b 1f57 273d 9f76 a9bd 05d1 3ebd
00000130: 4935 623d d044 013b 3d69 62bb 8417 0e3c
00000140: 1af6 23bd 3a38 953d 8fe4 0ebc a019 02bd
00000150: 851b 403d d96e 96bd a76f 82bc ab5b 093c
00000160: 0d19 dcbc 5241 473d ece0 99bd 0c79 ccbc
00000170: 3538 19bd e8fc a63d 674d 113d a4d8 84bd
00000180: 5515 0a3d 810a 1abb 6923 a53d 3fe7 493d
00000190: 02f9 53bd fd25 a23d 0a72 7ebc 0b57 a8bc
000001a0: abb7 d43c bd82 b43d 234b e03c dda0 afbd
000001b0: 1c0c ebbc 0431 a53d 0a78 01bd 4bc8 2cbd
000001c0: 654b 8fbd 15dd 45bd 439f 47bd 798c b03c
000001d0: a0f4 113d 1b6f ad3d 1c2e 713d 1e44 e63a
000001e0: 70d0 423d 098b 4f3d 7ad2 9cbd 5ecd 343d
000001f0: 6b42 76bd 1529 8d3d 65b1 1fbd d942 983c
00000200: 2df5 4cba 97c1 273d 2bb4 5e3c e9b3 84bd
00000210: 42b0 133d c2d4 553d e88d 3cbd 2163 6bbd
00000220: c882 75bd 2a6c 31bd 0915 2fbc 8bb1 e23b
00000230: 2f3a 33ba 8476 c1bc 0d3f 613d 4b02 923b
00000240: a69b 53bd e855 bcbc b983 57bd 321d 01bd
00000250: 4706 aabd f599 813c 824d 8bbd 2f35 0b3d
00000260: fde2 743d da9d 86bd 03d2 3fbd 0c2d 90bd
00000270: 4ca1 bd3c b619 8e3c c82b 40bd 954c 5b3d
00000280: 6c01 153d 043b a4bd d4a1 95bb c90a 1dbd
00000290: c63e 80bc c409 4c3d fe5e 17bc 002b 7dbd
000002a0: 1192 7c3d bf06 a5bd 0ddb febc a751 093d
000002b0: d32e a03d 3a98 ae3d 782f aabc 13bd f23c
000002c0: 496c 9fbd 30b3 8cbc c2c6 dfbc 18d6 ce3c
000002d0: 9bc9 6ebd 132e 9e3c efe5 3b3d a07f 8d3d
000002e0: 0ab0 75bc 0812 a63d c8f3 aabd cdb8 cfbc
000002f0: c3cb 073d eff2 b53c 4c09 2c3d cd31 72bd
00000300: fcb2 603d 6368 a9bd 1970 78bd 0f62 acbb
00000310: d7d8 afbd 9c9c adbd 1cfe a0bd e1cb 913d
00000320: 7dc6 a23c e6e0 e9bc c478 8fbb 1c2a 9ebd
00000330: 5eb6 a9bd 209a 79bd a190 aebd ad11 6f3d
00000340: 8586 f9bc a8f3 c0bc 58eb 9cbd 4acf 693c
00000350: cb20 61bc 99a9 76bd 624a 673d a786 983d
00000360: 4bbc 81bd f65c 473d 9e6d 71bc 2c40 29ba
00000370: 931a 1d3d 3b68 83bc 9d20 983d b60b 593d
00000380: 1cff 6abd 3b1e 5cbd df50 b0bd c71f e73c
00000390: 69dc 88bd 8e07 98bd 8f88 6abd af38 b2bd
000003a0: 99c2 93bd 957f a03d 1b5d 483d 05dd 9f3d
000003b0: 854f 31bd 5058 15bd 3fef fcbc a0d1 dd3a
000003c0: c096 81bd a186 523c aa83 67bd bd12 5e3c
000003d0: a366 a53d 0836 703c 3c7b 823d 6df2 81bd
000003e0: a753 41bc 0015 63bd 288d 1bbc da14 0fbd
000003f0: 6a30 4cbd 0ea7 afbd 1ad0 03bd 259e 4d3c

vehicle_encoder.lstm.bias_ih_l0 f4 [512]
0.042271033 0.03657223 0.00011480929 -0.031945415 -0.076470874 0.04541664 0.061159845 0.023909558
0.03196501 0.08657424 -0.07137523 -0.05840289 -0.00962949 0.036426306 0.078783005 0.08816035
0.014145392 0.043423377 0.07832572 0.048773367 -0.0053898855 -0.033492833 -0.022563688 0.08337317
-0.08519112 0.013896267 0.014626808 -0.019688861 -0.056133628 -0.06816933 -0.0026086848 -0.055271402
0.037088923 -0.06738125 -0.021347983 -0.011330678 0.036226448 0.06379441 0.08074024 0.0053024194
-0.08675103 -0.024965733 0.012356871 0.029957216 0.07909114 -0.08435073 -0.026585672 0.056300487
0.050201297 -0.03192868 0.025810242 0.056912486 0.00022483614 -0.007562613 0.010100138 -0.035903744
-0.08708143 0.043103453 0.024807107 -0.06113252 0.014794155 -0.028340025 0.076644264 -0.04189846
0.07839498 0.03556325 0.008188468 0.02441997 0.012066115 0.049920212 -0.038870934 -0.024817768
-0.043306064 0.017015131 -0.046785366 0.047560494 -0.01955407 0.086539045 0.03284607 -0.08275437
0.01492664 0.034334447 -0.05613879 0.013962457 0.030991836 -0.08383434 -0.07742573 -0.0036201063
0.03265549 -0.04769607 -0.04715857 -0.045636654 0.0190233 -0.03257497 -0.03935886 0.0071548633
-0.011443264 -0.012175314 0.056232784 -0.07042299 -0.0095908055 -0.0106454445 0.034115653 -0.04957559
0.013992948 -0.082619525 0.06846467 0.017200783 -0.010206326 -0.07627314 0.066026114 0.060247917
0.06097399 -0.057984862 -0.0001202273 -0.05404775 -0.05366018 -0.06837206 0.05652919 -0.017584266
0.04688987 -0.016624058 -0.0067672427 -0.0016105844 -0.06776341 -0.08027098 0.036848824 -0.001219512
-0.0012885435 0.0038867528 0.005634041 0.053687762 -0.017237386 -0.023327347 -0.07293416 0.01378806
0.054638978 -0.04712969 -0.033410914 -0.044704575 0.08591329 -0.08209122 0.048480313 -0.04938999
-0.07064099 0.07694263 0.017276278 0.041185483 -0.025981305 -0.07767136 0.015111366 0.035306692
0.07550504 -0.047708113 0.086060375 0.08561415 -0.052081324 -0.029614039 0.07742333 0.03389883
-0.0739107 -0.07973291 -0.08447687 -0.047355838 0.03607211 -0.04453417 0.086418316 -0.01294034
0.054960337 -0.053765785 0.07905788 0.023517953 0.06603862 0.040269744 -0.072269134 0.058567766
-0.023624057 -0.055319227 0.058510642 -0.07236934 0.028338935 -0.07507921 -0.06976707 0.04182652
0.023003848 0.07866988 0.065862305 -0.07263446 0.07364657 0.08230888 0.0018269155 0.049096413
0.06306877 -0.0710679 0.049575616 0.055913296 -0.08545154 0.02634458 0.043636695 0.02742628
-0.025172869 0.015759796 0.059835892 0.03745861 -0.064886056 -0.025549872 0.08783095 0.053961255
-0.042965636 -0.07102662 0.06257706 0.083203845 -0.05448279 -0.06865718 -0.016652286 -0.009678294
0.021046614 0.048260316 -0.029620804 0.05659449 -0.06336266 0.048428454 0.012120257 -0.039343372
0.010978671 0.020435015 0.042401176 -0.030859996 0.008760464 -0.051430218 -0.051194523 -0.06479696
0.03176111 -0.010357317 0.015319116 -0.041053057 0.03412286 -0.075190485 0.018242039 -0.067158006
-0.08736512 -0.07083321 0.08118304 0.079243936 0.04134201 0.021570677 0.08128158 -0.045583464
0.062682666 0.038701635 0.06397058 0.039283507 -0.009043939 -0.07311296 -0.035995092 -0.00010277785
00000000: 6424 2d3d c3cc 153d c5c5 f038 32d9 02bd
00000010: c39c 9cbd cc06 3a3d bf82 7a3d fadd c33c
00000020: beed 023d d64d b13d 2d2d 92bd de37 6fbd
00000030: 02c5 1dbc c033 153d fc58 a13d 6a8d b43d
00000040: 13c2 673c b6dc 313d 3c69 a03d 95c6 473d
00000050: a39d b0bb c82f 09bd 7cd7 b8bc 8dbf aa3d
00000060: af78 aebd 2bad 633c 48a5 6f3c 894a a1bc
00000070: 60ec 65bd 5d9c 8bbd 78f6 2abb 4464 62bd
00000080: 8eea 173d 2eff 89bd f7e1 aebc 4fa4 39bc
00000090: 2f62 143d a5a6 823d 245b a53d ebbf ad3b
000000a0: 86aa b1bd f084 ccbc 7974 4a3c d668 f53c
000000b0: 89fa a13d 13c0 acbd 32ca d9bc 579b 663d
000000c0: e09f 4d3d a6c7 02bd 0070 d33c 111d 693d
000000d0: fec1 6b39 cccf f7bb 0d7b 253c ce0f 13bd
000000e0: c057 b2bd 3f8d 303d 4638 cb3c 1866 7abd
000000f0: 2f63 723c 5729 e8bc abf7 9c3d b89d 2bbd
00000100: 8c8d a03d c5aa 113d ed28 063c 640c c83c
00000110: f4b0 453c 2379 4c3d 2137 1fbd a24e cbbc
00000120: b361 31bd 5163 8b3c 03a2 3fbd cbce 423d
00000130: db2f a0bc 623b b13d 9a89 063d 207b a9bd
00000140: de8e 743c 47a2 0c3d caf1 65bd cac2 643c
00000150: 97e2 fd3c 57b1 abbd 6291 9ebd 4e3f 6dbb
00000160: c3c1 053d f45c 43bd 5829 41bd 80ed 3abd
00000170: c0d6 9b3c 556d 05bd c236 21bd 5873 ea3b
00000180: 877c 3bbc f87a 47bc 5954 663d ee39 90bd
00000190: c122 1dbc 3b6a 2ebc dbbc 0b3d c60f 4bbd
000001a0: ae42 653c 6d34 a9bd 3437 8c3d a8e8 8c3c
000001b0: 6f38 27bc 1835 9cbd b338 873d 85c6 763d
000001c0: ddbf 793d 8981 6dbd 8a22 fcb8 2c61 5dbd
000001d0: c7ca 5bbd a706 8cbd 278b 673d e10c 90bc
000001e0: 980f 403d 2d2f 88bc bfbf ddbb 3f1a d3ba
000001f0: 8bc7 8abd 1d65 a4bd cbee 163d 08d8 9fba
00000200: 58e4 a8ba e4b8 7e3b c39d b83b b3e7 5b3d
00000210: 6b35 8dbc fe18 bfbc 815e 95bd 51e7 613c
00000220: 1fcd 5f3d 100b 41bd e2d9 08bd 251c 37bd
00000230: 4ff3 af3d 711f a8bd 4b93 463d 284d 4abd
00000240: 39ac 90bd 1994 9d3d fb86 8d3c 1cb2 283d
00000250: bfd6 d4bc 2912 9fbd aa95 773c c09d 103d
00000260: 63a2 9a3d 9569 43bd 6c40 b03d 7956 af3d
00000270: 3a53 55bd 2499 f2bc 1f90 9e3d 80d9 0a3d
00000280: 7e5e 97bd 024b a3bd 3602 adbd 32f8 41bd
00000290: 59c0 133d 7669 36bd 16fc b03d b803 54bc
000002a0: 171e 613d 8339 5cbd 19e9 a13d b9a8 c03c
000002b0: 423f 873d e3f1 243d d701 94bd c1e4 6f3d
000002c0: 3d87 c1bc 6a96 62bd dba8 6f3d 6036 94bd
000002d0: 0e27 e83c 21c3 99bd 0ae2 8ebd 4952 2b3d
000002e0: 9172 bc3c ad1d a13d d1e2 863d 60c1 94bd
000002f0: 03d4 963d 8f91 a83d 1d75 ef3a 5219 493d
00000300: 332a 813d 0c8c 91bd cd0f 4b3d 5705 653d
00000310: 3801 afbd 97d0 d73c 64bc 323d 14ad e03c
00000320: 5537 cebc b01a 813c 7b16 753d 336e 193d
00000330: fbe2 84bd f74d d1bc b7e0 b33d 7a06 5d3d
00000340: bcfc 2fbd 6876 91bd 6728 803d c766 aa3d
00000350: 5929 5fbd 239c 8cbd 606a 88bc b591 1ebc
00000360: f369 ac3c 9cac 453d 54a7 f2bc a0cf 673d
00000370: 48c4 81bd ea5c 463d 0b94 463c 8426 21bd
00000380: e2df 333c 5567 a73c dbac 2d3d 1ace fcbc
00000390: 0d88 0f3c 7ea8 52bd 59b1 51bd 45b4 84bd
000003a0: f017 023d bcb1 29bc 08fd 7a3c 4027 28bd
000003b0: 69c4 0b3d 78fd 99bd 5470 953c 238a 89bd
000003c0: 7cec b2bd 0111 91bd 4b43 a63d a54a a23d
000003d0: 3d56 293d fdb4 b03c f576 a63d bab5 3abd
000003e0: c55f 803d 9b85 1e3d 0203 833d bee7 203d
000003f0: 082d 14bc 3fbc 95bd 976f 13bd 708a d7b8

vehicle_encoder.lstm.bias_hh_l0 f4 [512]
0.003913196 -0.039162055 -0.025588254 -0.023892002 0.073148586 -0.017549988 -0.06527952 -0.05028263
0.04949846 -0.08229385 -0.02327634 -0.057826772 -0.014474409 -0.07698379 -0.069084376 -0.043137807
0.010282847 0.07668229 -0.0794516 -0.037655927 0.08039518 0.060301706 -0.08072459 -0.014338179
-0.062306266 0.0068870173 0.04339791 -0.08415248 -0.014230956 -0.08638187 -0.060589034 -0.004224992
-0.042020712 0.054238718 0.05980516 0.0120976055 -0.026434816 -0.075245716 -0.031986132 0.010847599
0.074161746 -0.07772476 -0.014123767 0.06316449 0.08393023 0.044896435 0.03651693 0.014034563
-0.0794962 -0.02251788 -0.08443674 -0.051883634 -0.052413285 0.07014189 0.065007165 0.05194
0.073261544 0.031571563 0.046536434 0.0199918 -0.0044809147 -0.032934297 0.02867472 0.016612636
0.06779584 -0.067435205 -0.041399073 -0.039078776 -0.07997024 -0.027381677 -0.012836564 0.068811186
-0.08612397 0.07507902 0.020598054 -0.0053065396 -0.06631608 -0.042464096 -0.0754834 0.040056475
0.039810114 -0.054376617 -0.07548374 -0.0059480197 0.0585172 0.01669328 -0.06630827 -0.08355587
0.05357736 0.0366621 -0.0786265 -0.07398645 0.014873351 -0.0004237756 -0.0484353 0.00069084234
-0.060066145 0.06316497 0.018672012 0.055983447 -0.07800189 -0.026784489 0.025607103 0.0074834055
0.042077318 -0.06996114 0.0032873082 -0.03491281 0.049947176 0.0014038183 0.023142852 0.065548524
-0.024216825 -0.07901659 0.0028552741 0.07233517 0.076047465 -0.037963595 -0.01654204 -0.04714545
0.08368711 0.023916094 -0.037054807 -0.047900897 -0.078057505 0.0516505 -0.029428858 -0.07785346
0.015901385 -0.03244109 0.06474091 -0.0464413 0.083260976 0.033199225 -0.0046785017 0.015557238
-0.08027128 0.051667657 0.045689803 0.051458508 0.002926023 -0.04501105 0.012054947 0.025448972
-0.06483374 0.03391235 0.08264836 0.08593358 0.029083991 0.08044079 -0.04381757 -0.0016268004
-0.0509326 -0.038348656 -0.021477137 -0.032675005 0.07251586 -0.010901048 0.05074294 0.0025902954
0.039158493 -0.022566246 -0.010663758 -0.048727855 -0.08089128 -0.060562804 0.07530518 0.009459786
-0.016084632 0.0037698855 0.004616096 0.002794516 0.06735544 -0.0049528307 0.08596545 -0.0010571205
0.045628652 -0.015555066 0.019396616 -0.0020702318 0.08007539 0.089697614 -0.05038742 0.012411429
-0.07241552 -0.023359347 -0.08868625 -0.003889696 0.013589411 0.061080597 0.04295781 -0.069287576
0.03828383 -0.08246477 0.057341833 0.05438554 0.025488056 0.04964624 0.08314817 0.016759083
-0.003551901 0.036272682 -0.0796999 -0.032900788 0.0027808866 0.036121298 -0.083431676 -0.013506122
-0.083021976 0.05325111 -0.0517635 -0.083028026 -0.014850096 0.026681727 -0.003201286 0.013565573
0.00612533 0.058315456 -0.034164555 0.021387208 0.07212647 0.048431896 0.056585178 -0.013453661
-0.03508736 -0.07946355 0.01783421 -0.006201403 -0.057969645 -0.011938973 -0.07853767 0.005532406
-0.06428359 -0.073114656 -0.025429994 -0.0050658025 0.032743927 0.06284995 -0.0017562436 0.070648074
-0.039877523 0.052088108 0.08224327 -0.067741215 -0.045383915 0.05210886 -0.035369657 0.065061726
-0.081977814 -0.05839203 0.006921488 0.011590109 0.065110065 -0.062673 0.011585014 -0.028492138
00000000: 443a 803b 6468 20bd 759e d1bc 29b9 c3bc
00000010: edce 953d fec4 8fbc 45b1 85bd 29f5 4dbd
00000020: e6be 4a3d ae89 a8bd 06ae bebc c4db 6cbd
00000030: 1226 6dbc ada9 9dbd 1c7c 8dbd 45b1 30bd
00000040: 6379 283c 9b0b 9d3d 85b7 a2bd 1a3d 1abd
00000050: 3aa6 a43d ecfe 763d ef52 a5bd aeea 6abc
00000060: db34 7fbd 7dac e13b 02c2 313d 2358 acbd
00000070: f528 69bc fae8 b0bd 352c 78bd cd71 8abb
00000080: e91d 2cbd 6b29 5e3d 41f6 743d 0935 463c
00000090: d48d d8bc 6d1a 9abd e403 03bd 21ba 313c
000000a0: 1de2 973d 292e 9fbd 5f67 67bc 625c 813d
000000b0: 9de3 ab3d 53e5 373d c792 153d 39f1 653c
000000c0: e7ce a2bd 6b77 b8bc 2bed acbd ef83 54bd
000000d0: 50af 56bd 8da6 8f3d 7a22 853d 0abf 543d
000000e0: 260a 963d 2f51 013d fd9c 3e3d d8c5 a33c
000000f0: a3d4 92bb 1de6 06bd 3fe7 ea3c 3917 883c
00000100: 8cd8 8a3d 781b 8abd 1392 29bd 1111 20bd
00000110: 70c7 a3bd 8a4f e0bc 7450 52bc e1ec 8c3d
00000120: c461 b0bd 07c3 993d 40bd a83c 7be2 adbb
00000130: bad0 87bd d5ee 2dbd 0a97 9abd 4212 243d
00000140: ee0f 233d 04ba 5ebd 3897 9abd 9be7 c2bb
00000150: bbaf 6f3d 58c0 883c a1cc 87bd 571f abbd
00000160: ef73 5b3d 002b 163d ee06 a1bd 3586 97bd
00000170: 5baf 733c 332e deb9 1864 46bd a519 353a
00000180: eb07 76bd a35c 813d 0cf6 983c e64e 653d
00000190: 74bf 9fbd 256b dbbc fdc5 d13c 5b37 f53b
000001a0: 4459 2c3d c947 8fbd e16f 573b bc00 0fbd
000001b0: 6995 4c3d 5300 b83a 1496 bd3c 4e3e 863d
000001c0: 5d62 c6bc 73d3 a1bd 8d1f 3b3b 7624 943d
000001d0: c6be 9b3d b77f 1bbd 2c83 87bc 961b 41bd
000001e0: 2664 ab3d afeb c33c c8c6 17bd bb33 44bd
000001f0: 9ddc 9fbd 7a8f 533d ca14 f1bc a371 9fbd
00000200: 9f43 823c f3e0 04bd e296 843d 3c39 3ebd
00000210: bb84 aa3d e9fb 073d 1e4e 99bb c9e3 7e3c
00000220: 4565 a4bd 77a1 533d 3b25 3b3d 28c6 523d
00000230: 85c2 3f3b 825d 38bd 1d82 453c 5d7a d03c
00000240: 8dc7 84bd ade7 0a3d 8b43 a93d f2fd af3d
00000250: 8d41 ee3c 24be a43d 0d7a 33bd 5d3a d5ba
00000260: b49e 50bd 7b13 1dbd d2f0 afbc 3ad6 05bd
00000270: 3283 943d 4f9a 32bc d4d7 4f3d f2c1 293b
00000280: a864 203d d9dc b8bc 0bb7 2ebc dc96 47bd
00000290: 54aa a5bd b410 78bd 9a39 9a3d 38fd 1a3c
000002a0: ebc3 83bc 2f10 773b 9f42 973b 3324 373b
000002b0: a6f1 893d 5b4b a2bb a70e b03d 148f 8aba
000002c0: 1ce5 3a3d adda 7ebc a7e5 9e3c baac 07bb
000002d0: 91fe a33d 62b3 b73d 0a63 4ebd 4e59 4b3c
000002e0: 974e 94bd 1a5c bfbc 23a1 b5bd 45ea 7ebb
000002f0: 1fa6 5e3c a62f 7a3d 87f4 2f3d a5e6 8dbd
00000300: 81cf 1c3d 4ae3 a8bd 45df 6a3d 5fc3 5e3d
00000310: 54cc d03c db59 4b3d 9649 aa3d 584a 893c
00000320: 03c7 68bb aa92 143d b339 a3bd fac2 06bd
00000330: 893f 363b edf3 133d 3ade aabd c848 5dbc
00000340: 6d07 aabd d61d 5a3d f705 54bd 990a aabd
00000350: d14d 73bc a393 da3c abcc 51bb 2342 5e3c
00000360: feb6 c83b 30dc 6e3d 22f0 0bbd 3a34 af3c
00000370: 0bb7 933d 8660 463d dcc5 673d bf6c 5cbc
00000380: c3b7 0fbd c9bd a2bd 0d19 923c 2435 cbbb
00000390: 9471 6dbd af9b 43bc 5cd8 a0bd 2f49 b53b
000003a0: 1da7 83bd 23bd 95bd 9052 d0bc 08ff a5bb
000003b0: 7f1e 063d 79b7 803d c231 e6ba f0af 903d
000003c0: 9d56 23bd 575a 553d 296f a83d e8bb 8abd
000003d0: 7ce4 39bd 1a70 553d c6df 10bd 153f 853d
000003e0: fce3 a7bd 7b2c 6fbd a6cd e23b 71e4 3d3c
000003f0: 6d58 853d b45a 80bd 12cf 3d3c 5868 e9bc

attention.wq.weight f4 [128, 128]
0.030446801 -0.005773039 -0.04959627 -0.047972284 -0.050955392 0.0036625217 0.056932542 -0.029974518
-0.08529333 0.017686982 0.06782086 -0.06626721 0.050110653 0.000509025 0.027003363 0.08326732
0.06412517 -0.023867348 -0.025188856 -0.08800359 -0.08292037 -0.015611789 -0.051877018 0.0043685287
-0.05165083 0.0767545 -0.040811703 -0.017294804 -0.0072268755 -0.02643174 0.02629642 0.08341006
-0.037275173 0.084838524 -0.031347062 0.06459666 -0.04196427 0.05131072 0.0060577863 0.07974219
0.02132317 -0.057154406 0.07629504 -0.037345532 -0.07188252 0.055180315 -0.0036190625 -0.04070191
-0.052538235 -0.032438267 -0.0036082328 0.050718263 0.021883022 0.024047537 0.07996364 0.025362035
-0.006670398 -0.05872767 0.008452873 -0.01849271 -0.034891523 0.037738662 -0.013445986 -0.017559
0.06343853 -0.049417038 0.024716884 -0.04338728 0.044849917 -0.01500272 -0.07455935 -0.030023716
-0.0542025 0.07505562 -0.029665537 0.058027323 -0.06601155 0.08294194 -0.064653285 -0.0814746
-0.076843195 0.07391973 0.028677698 -0.057503823 0.06918171 -0.04400913 0.0688274 0.071497954
-0.030302497 0.02935053 -0.07791778 -0.00028471986 -0.03373589 -0.062425766 -0.0672452 -0.060611382
0.014225633 0.0768886 -0.06777426 -0.078667246 0.08011509 0.007521008 -0.012774628 -0.016338494
-0.07810064 0.019373685 -0.00600464 -0.066906735 0.025186302 -0.06810909 0.042584404 -0.06941817
0.053994864 -0.08468699 0.052920453 0.027965063 -0.032516513 -0.08362413 -0.06713125 0.07264768
-0.02042607 -0.082492985 0.046604734 0.08790994 -0.030505285 0.022636453 0.04378907 0.026400471
0.017686691 -0.042087004 -0.075005606 0.084144175 0.0059693083 -0.08063783 0.04356365 0.022487877
0.06927353 -0.0078560505 -0.016375085 0.028042274 0.00993352 -0.020385183 -0.0052143624 0.06806623
-0.07987108 -0.026213698 -0.0088716885 -0.01421199 0.032725215 0.07831619 -0.03463663 -0.06907219
0.015529677 0.025227267 0.075697854 -0.07031414 -0.076005064 -0.06758326 0.03910422 0.07449231
0.050017823 -0.06999036 -0.03545862 0.07823522 0.046765752 0.077893406 -0.0523694 0.07041941
0.031489164 0.057580013 0.074529774 -0.07926862 -0.025253778 -0.056340415 -0.04151194 0.07956959
0.045976102 -0.047031637 0.039590195 -0.047726355 -0.07667838 -0.01040304 0.039038837 0.03948493
-0.040865984 0.08762389 0.0683508 0.046550352 0.08016043 -0.011727469 -0.063183695 -0.021102589
-0.01132459 0.05182812 -0.00067273265 0.012134971 -0.02584623 -0.07854827 -0.051359538 0.07790679
0.036692183 0.0052740835 0.058606233 0.056530222 0.06291795 -0.009500522 0.02204956 0.06883981
0.052961383 0.033895545 -0.022393111 0.034906823 0.05291191 -0.06857628 0.023101775 0.03881274
0.08703302 -0.061071046 0.062217265 -0.019885695 -0.051444575 0.003313671 -0.08328506 -0.07650626
-0.06942183 0.053331006 -0.07580798 -0.07145697 -0.026154079 -0.064804696 -0.016360693 -0.07157333
0.084645145 -0.017340934 -0.07301741 0.0741061 -0.08505041 -0.069562815 0.056234155 0.081098706
0.01951194 0.06911991 0.031037748 0.08330412 -0.008215613 -0.0190189 -0.038318116 -0.023389237
0.07844814 0.07642317 -0.053677168 -0.06808921 -0.030534536 0.0253072 -0.016795035 0.021859821
00000000: 926b f93c c32b bdbb 7525 4bbd 967e 44bd
00000010: 9ab6 50bd eb06 703b 1932 693d 1f8d f5bc
00000020: 45ae aebd 4ae4 903c aae5 8a3d 1ab7 87bd
00000030: d440 4d3d 1770 053a 2836 dd3c 0f88 aa3d
00000040: 0f54 833d 7585 c3bc dc58 cebc 3a3b b4bd
00000050: 28d2 a9bd 97c8 7fbc ff7c 54bd e025 8f3b
00000060: d28f 53bd 7731 9d3d 2c2a 27bd d5ad 8dbc
00000070: 6dcf ecbb 6087 d8bc 976b d73c e5d2 aa3d
00000080: daad 18bd d2bf ad3d c765 00bd 414b 843d
00000090: bae2 2bbd 312b 523d 6580 c63b e04f a33d
000000a0: eead ae3c bd1a 6abd 9340 9c3d a1f7 18bd
000000b0: 2537 93bd c104 623d cb2d 6dbb 0cb7 26bd
000000c0: 5532 57bd fddd 04bd 1a78 6cbb f4bd 4f3d
000000d0: 0644 b33c 57ff c43c fac3 a33d 0bc4 cf3c
000000e0: 5b93 dabb 6d8c 70bd eb7d 0a3c 067e 97bc
000000f0: 6aea 0ebd db93 1a3d 8e4c 5cbc e4d7 8fbc
00000100: 0fec 813d 8569 4abd 107b ca3c dcb6 31bd
00000110: 8cb4 373d f8cd 75bc 93b2 98bd 4cf4 f5bc
00000120: 7103 5ebd c3b6 993d 2405 f3bc 0fae 6d3d
00000130: 1031 87bd 77dd a93d f168 84bd 28dc a6bd
00000140: f75f 9dbd 3a63 973d 7eed ea3c 2189 6bbd
00000150: 24af 8d3d eb42 34bd 61f5 8c3d 856d 923d
00000160: f13c f8bc 8670 f03c 5b93 9fbd 7446 95b9
00000170: a52e 0abd 29b2 7fbd dab7 89bd a443 78bd
00000180: a112 693c c577 9d3d 3bcd 8abd 4b1c a1bd
00000190: 6113 a43d ca72 f63b ac4c 51bc 4ed8 85bc
000001a0: 3af3 9fbd 90b5 9e3c 92c2 c4bb 6606 89bd
000001b0: 8153 ce3c c77c 8bbd fc6c 2e3d 1d2b 8ebd
000001c0: b829 5d3d 5f70 adbd 1ec3 583d fd16 e53c
000001d0: 0930 05bd 2143 abbd 1c7c 89bd 4fc8 943d
000001e0: 9354 a7bc 15f2 a8bd 9be4 3e3d 200a b43d
000001f0: 38e6 f9bc 1570 b93c 2b5c 333d cd45 d83c
00000200: aee3 903c 6c63 2cbd 8a9c 99bd c853 ac3d
00000210: 309a c33b 7225 a5bd cc6f 323d 7f38 b83c
00000220: 48df 8d3d aab6 00bc 0b25 86bc e9b8 e53c
00000230: 34c0 223c d4fe a6bc 3edd aabb 4f66 8b3d
00000240: 7393 a3bd 1cbe d6bc 8f5a 11bc 68d9 68bc
00000250: e00a 063d 3d64 a03d 24df 0dbd b875 8dbd
00000260: 3070 7e3c 6aa9 ce3c 7a07 9b3d dc00 90bd
00000270: 8ba8 9bbd 1869 8abd bf2b 203d 6d8f 983d
00000280: 7ddf 4c3d 1b57 8fbd 0f3d 11bd c939 a03d
00000290: 728d 3f3d 9486 9f3d 4c81 56bd 0d38 903d
000002a0: c8fa 003d 05d9 6b3d 11a3 983d 9657 a2bd
000002b0: 03e1 cebc 35c5 66bd 6d08 2abd 62f5 a23d
000002c0: 7051 3c3d 3fa4 40bd 5429 223d b67c 43bd
000002d0: 8e09 9dbd 8371 2abc 30e7 1f3d f3ba 213d
000002e0: 1763 27bd 2774 b33d 81fb 8b3d 95ab 3e3d
000002f0: 272b a43d 9224 40bc 7466 81bd 56df acbc
00000300: c68a 39bc b949 543d 535a 30ba c2d1 463c
00000310: 79bb d3bc eadd a0bd 615e 52bd 988d 9f3d
00000320: 8b4a 163d 38d2 ac3b 170d 703d 3c8c 673d
00000330: 20db 803d 14a8 1bbc 47a1 b43c e3fb 8c3d
00000340: 09ee 583d 0ed6 0a3d c271 b7bc 75fa 0e3d
00000350: 29ba 583d b871 8cbd ef3f bd3c 1cfa 1e3d
00000360: 5e3e b23d a225 7abd 88d7 7e3d 53e7 a2bc
00000370: 8cb7 52bd 2d2a 593b 5c91 aabd 50af 9cbd
00000380: 082d 8ebd 9d71 5a3d 3741 9bbd 0858 92bd
00000390: 1441 d6bc 53b8 84bd dc06 86bc 0a95 92bd
000003a0: 6f5a ad3d 930e 8ebc 278a 95bd f0c4 973d
000003b0: e92e aebd f376 8ebd c955 663d 1417 a63d
000003c0: 81d7 9f3c bd8e 8d3d e042 fe3c 5a9b aa3d
000003d0: c79a 06bc 86cd 9bbc 75f3 1cbd c99a bfbc
000003e0: 6ba9 a03d c083 9c3d 97dc 5bbd 5b72 8bbd
000003f0: 9023 fabc 0c51 cf3c be95 89bc 5e13 b33c

attention.wq.bias f4 [128]
-0.07406964 0.04057271 0.08096718 -0.029603615 0.0103929425 0.019815218 -0.02214307 -0.062114693
-0.03451566 -0.013422228 -0.054140676 0.02685672 0.009006576 0.08312053 -0.06336127 -0.02422807
0.019266486 0.041459966 0.05690744 0.048453312 0.0026129317 -0.08131283 0.07491031 -0.043571882
-0.049556226 -0.0005420419 -0.08361105 0.005134338 0.0777567 -0.03418061 -0.08446053 -0.004076742
0.010628681 -0.022871109 -0.035226613 -0.057756357 0.052978043 -0.08150743 -0.06255311 -0.043916944
-0.082963474 -0.00701019 -0.07991443 0.02523936 -0.011472914 0.021587878 -0.029639391 0.005809207
-0.0034297109 -0.027277654 -0.04397258 -0.013449355 -0.05351437 0.0025524474 -0.05769029 -0.012234032
-0.07477549 0.057422232 -0.05972034 0.05192402 -0.021185704 -0.05468772 -0.045690536 -0.03324953
-0.016575785 0.02599368 0.014693838 -0.011021222 -0.043307412 0.05239712 -0.087522075 0.06750085
-0.0772181 -0.052217398 -0.016857974 0.03679739 0.08348134 0.07969363 0.086025216 -0.0062802266
0.060236625 0.08291141 -0.04729163 0.03460193 0.0050045927 0.019993078 -0.08691341 -0.06627182
0.0027963875 -0.003045712 0.015419684 -0.04631145 -0.008659302 0.07659614 0.07469236 0.06770101
0.08062691 0.0019294707 -0.025194878 0.06027197 0.064601734 0.08069073 0.04329002 -0.039179716
0.07638559 -0.07002324 -0.04145983 -0.03613128 0.010132593 0.01568373 0.066959485 -0.063713
0.0055110436 -0.061438974 0.058916863 0.012890154 0.06628597 0.07549137 0.06937589 -0.0685836
-0.039917093 0.07128493 -0.070621654 -0.027159855 0.08288859 -0.07752958 0.06998282 -0.02814785
00000000: d3b1 97bd 922f 263d 1fd2 a53d 4883 f2bc
00000010: 2947 2a3c 8653 a23c 6265 b5bc fa6b 7ebd
00000020: 4b60 0dbd e8e8 5bbc 9dc2 5dbd a002 dc3c
00000030: 5190 133c 193b aa3d 8ec3 81bd f279 c6bc
00000040: c0d4 9d3c edd1 293d c717 693d fb76 463d
00000050: b83d 2b3b 5787 a6bd 946a 993d 6e78 32bd
00000060: 78fb 4abd d117 0eba 453c abbd f33d a83b
00000070: e83e 9f3d f800 0cbd a4f9 acbd 3196 85bb
00000080: eb23 2e3c 315c bbbc c849 10bd ee91 6cbd
00000090: 81ff 583d 5eed a6bd d81b 80bd 41e2 33bd
000000a0: c1e8 a9bd bcb5 e5bb 2daa a3bd c6c2 ce3c
000000b0: e4f8 3bbc 10d9 b03c 4fce f2bc 295b be3b
000000c0: 00c5 60bb 6375 dfbc 981c 34bd af5a 5cbc
000000d0: e231 5bbd f646 273b a74c 6cbd 4071 48bc
000000e0: e423 99bd 9333 6b3d 519d 74bd 48ae 543d
000000f0: a48d adbc 3b00 60bd 0026 3bbd a930 08bd
00000100: f1c9 87bc b3f0 d43c 6cbe 703c 5b92 34bc
00000110: 1d63 31bd 5d9e 563d c63e b3bd e33d 8a3d
00000120: 8624 9ebd e9e1 55bd bc19 8abc dcb8 163d
00000130: 44f8 aa3d 6a36 a33d fd2d b03d 5cca cdbb
00000140: aeba 763d 75cd a93d deb4 41bd c1ba 0d3d
00000150: 91fd a33b 86c8 a33c a8ff b1bd 85b9 87bd
00000160: 9943 373b 919a 47bb d8a2 7c3c 13b1 3dbd
00000170: bfdf 0dbc 70de 9c3d 4ff8 983d d4a6 8a3d
00000180: b91f a53d 4be6 fc3a 7d65 cebc bedf 763d
00000190: ea4d 843d 2e41 a53d e050 313d e97a 20bd
000001a0: 0c70 9c3d 5868 8fbd c8d1 29bd 65fe 13bd
000001b0: 2d03 263c 2a7b 803c 0e22 893d f67b 82bd
000001c0: fc95 b43b 6fa7 7bbd cf52 713d 3931 533c
000001d0: f0c0 873d 389b 9a3d f214 8e3d 8f75 8cbd
000001e0: 1b80 23bd d5fd 913d 16a2 90bd 587e debc
000001f0: 7ec1 a93d d4c7 9ebd 2753 8f3d 5296 e6bc
