checkpoints/model_epoch_20_baseline.pt (torch, 42280 bytes, 5 tensors)

fc1.weight f4 [128, 11]
000000 80 93 c3 3b 6a a9 37 be 36 59 91 3e 78 c2 66 3d
       0.005968511 -0.1793572 0.28388375 0.056337804
000010 84 d3 38 3e f4 d4 9f 3d 78 7c 2b 3e 59 c8 2d be
       0.18049437 0.078042895 0.167467 -0.16970958
000020 a0 89 7c 3e 10 3d 86 3c 2a 88 86 3e 12 03 00 be
       0.24661875 0.016386539 0.2627576 -0.12501171
000030 3c e6 ba bd f8 69 08 3e e0 a3 51 3e a8 e2 66 3d
       -0.09125945 0.13321674 0.2047267 0.0563685
000040 20 6c 87 bc bc 41 b1 3d d8 c3 a0 3d 3a c7 b6 bd
       -0.01653105 0.08655116 0.07849854 -0.08924718
000050 40 41 bc bc 9c 3b 56 3e d4 4a ee 3d 68 fa 7d be
       -0.022980332 0.20921177 0.11635366 -0.24802554
000060 20 a8 73 3e bb 6f 31 be 90 8d 7e be 1a 34 84 3e
       0.23794603 -0.17327778 -0.2485869 0.25821
000070 b0 89 74 be a6 20 34 3e eb fe 1c be e1 38 96 be
       -0.23880649 0.1759058 -0.15331618 -0.2934027
000080 86 6d 78 be 74 53 f4 3d c0 eb 61 bd 74 cb 04 be
       -0.2426053 0.1192998 -0.05515647 -0.12968236
000090 82 ad 91 3e 89 49 2d be 3c 2f 49 3e c0 91 de 3b
       0.28452688 -0.16922583 0.19646925 0.006792277
0000a0 94 97 5e bd 08 e2 71 3d d8 66 1e be 20 56 b9 bd
       -0.054343775 0.05905345 -0.1546892 -0.0904963
0000b0 e0 3a 50 bc f0 0e 01 3d 78 53 0d 3e c6 49 3f 3e
       -0.012709349 0.031508386 0.13801372 0.18680486
0000c0 10 fe ed 3d 44 da 5d bd 40 75 a0 3d 13 04 8c be
       0.11620724 -0.054163232 0.07834864 -0.27346858
0000d0 b0 08 0a 3e 73 27 25 be 2c 37 c4 3d 01 43 8d be
       0.13479877 -0.1612833 0.09580836 -0.27590182
0000e0 40 55 90 be d0 f6 57 3e 40 86 11 3d 70 95 96 3e
       -0.2819004 0.21090245 0.03552842 0.29410887
0000f0 68 bd 95 3e b2 0f 5e be e6 af 4b be 84 99 2f be
       0.29246068 -0.21685675 -0.19891319 -0.17148405
000100 cc 0a 5c 3e 9a 02 1d 3e 56 46 93 bd fa ba 4a 3e
       0.21488494 0.15333024 -0.0719115 0.19797888
000110 e0 85 6a bc 2c 5e 3c be a4 69 5d 3e 52 9e 13 3e
       -0.014314145 -0.18395299 0.2162233 0.14415863
000120 8c 8e 42 be f2 e6 94 be 46 77 ea bd e0 d2 d7 3d
       -0.1899969 -0.29082447 -0.11448531 0.10538268
000130 67 84 78 be 00 ea ed ba bc 88 8d be 26 d9 32 3e
       -0.24269257 -0.0018151402 -0.27643383 0.17465648
000140 22 c5 00 3e a4 14 82 3e 06 ec 94 be 20 a0 3c bd
       0.125752 0.25406373 -0.29086322 -0.046051145
000150 35 ff 50 be a4 c7 1e 3e 90 86 38 be 58 14 44 3e
       -0.20409854 0.15505844 -0.18020082 0.19148386
000160 9c 49 54 3e 60 59 24 3c a8 1a a8 bd 06 78 44 be
       0.20731205 0.010031074 -0.08208209 -0.1918641
000170 98 f1 99 3e dc ef 88 be c0 10 61 3e b1 d6 68 be
       0.30067134 -0.26745498 0.21979046 -0.22738148
000180 26 40 2d be a0 f4 e1 bc 00 4d 80 3e fc 95 96 3e
       -0.16919002 -0.027582467 0.25058746 0.29411304
000190 9e 22 43 be cc 65 96 3e 74 63 8e 3d 78 8e e7 bd
       -0.19056174 0.2937454 0.06952563 -0.11306471
0001a0 68 8e dc 3d a4 21 92 bd b2 a7 77 be 08 11 9d 3d
       0.10769349 -0.07135323 -0.24185064 0.07669264
0001b0 36 09 9f bd 94 12 6b 3e 68 be d2 3d 10 ba 0d bd
       -0.07765429 0.22956306 0.10290223 -0.03460127
0001c0 16 55 29 be 00 18 98 3a 32 c0 99 bd 92 2f 01 3e
       -0.16536364 0.0011603832 -0.075073615 0.12615803
0001d0 1a b6 0e be 34 28 3d 3e 48 1d 9d 3d 00 c0 36 3d
       -0.13936654 0.18472368 0.076716006 0.0446167
0001e0 fa 54 90 be e8 ca 16 3e 98 f7 09 3e 3a 9e 87 be
       -0.28189832 0.1472584 0.13473356 -0.26487905
0001f0 b4 a1 cf bd cc f1 64 3e 51 19 51 be 46 14 8a 3e
       -0.10138264 0.22357863 -0.20419814 0.26968592
000200 c0 b0 0d 3e 10 0c 72 3e c4 e4 91 3e 00 63 a2 3a
       0.13836956 0.23637414 0.28494847 0.0012389123
000210 d4 48 c5 3d 35 60 97 be 53 b2 88 be 6c 00 93 bd
       0.096330315 -0.29565588 -0.2669855 -0.07177815
000220 35 73 83 be 90 64 25 3e 18 a8 66 be 9c 1f e6 3d
       -0.25673833 0.16151643 -0.2252506 0.11236498
000230 d0 db 1d 3e 6b a3 69 be 58 9a 4d 3e 30 9e 7a 3d
       0.15415883 -0.22816245 0.20078409 0.061186016
000240 52 4d 91 3e f2 16 07 3e 10 bf e1 3c 30 ca 5a 3e
       0.28379303 0.13192347 0.027556926 0.21366191
000250 ea 9d 26 3e 20 4f cf bc 60 e4 08 bd 46 bf 73 be
       0.16271177 -0.025306284 -0.03342092 -0.23803434
000260 30 77 03 3d 8e 6e 96 bd 3e 64 8d 3e 70 df 71 3d
       0.032096088 -0.073453054 0.2761554 0.059050977
000270 a0 38 aa bd 5a 49 47 3e 04 1e 71 3e 18 a6 c7 3d
       -0.083115816 0.19461575 0.23546606 0.09748477
000280 76 3e 0c 3e 04 43 25 3e 34 35 1d 3e d8 6a 6f 3e
       0.13695702 0.16138846 0.15352327 0.23380601
000290 38 98 2e bd 24 0a 90 be 6c 38 89 be 40 dd 94 bc
       -0.042625636 -0.28132737 -0.2680086 -0.018171906
0002a0 15 5a 8a be e0 7e 2f 3d 58 af 53 3e c4 d6 b5 3d
       -0.27021852 0.042845607 0.20672357 0.08878854
0002b0 c0 6d 28 bd 82 29 46 be 6e 16 71 be 92 8e d0 bd
       -0.04112029 -0.19351771 -0.23543712 -0.10183443
0002c0 1e 00 f9 bd f7 4d 92 be 2f c0 91 be 30 4d 11 3d
       -0.121582255 -0.28575107 -0.28466937 0.035474002
0002d0 6a 83 65 be 3e 42 91 bd e0 d8 49 3d 5e b7 8e be
       -0.22413412 -0.07092713 0.049279094 -0.27874273
0002e0 9c fb 55 be 64 9e 99 3e 7e 3a 0f 3e 54 70 a8 bd
       -0.20896763 0.30003655 0.13987157 -0.0822455
0002f0 c9 e2 1e be e3 bf 0b be d2 99 ec bd f2 a9 d6 bd
       -0.15516199 -0.13647418 -0.115527764 -0.10481633
000300 9b da 99 be 70 44 0f 3e 48 ca 8b 3e 00 28 6c be
       -0.30049595 0.1399095 0.27302766 -0.23062134
000310 98 06 1c 3d 56 3f ed bd 70 21 e2 3d d0 05 63 3e
       0.038092226 -0.11584346 0.11041534 0.22170186
000320 34 b2 0a be fc 94 3f 3e fc e0 3a 3e 6c 4f 80 3e
       -0.13544542 0.18709177 0.18249887 0.25060594
000330 da c3 8e 3e 90 49 41 bd d2 5f 8d be 28 bc fb 3d
       0.27883798 -0.047189295 -0.27612168 0.12291747
000340 c0 74 3d 3e 74 0c 86 3e b0 fc 41 3d ec 41 8b 3d
       0.18501568 0.26181376 0.047360122 0.06799683
000350 c2 d4 cb bd 68 88 b8 3d 64 6d 90 3d e0 02 d5 3c
       -0.0995269 0.090103924 0.070521146 0.026002347
000360 98 6b 4a 3e e6 b9 ef bd 71 cb 8e be da 0c 69 be
       0.19767606 -0.11705379 -0.27889588 -0.22758809
000370 10 45 cc bc f8 d0 2e 3e aa d4 41 3e b0 03 97 be
       -0.024935275 0.17071903 0.18928781 -0.29495
000380 96 61 82 3e 4a 82 8a 3e 44 df e4 3d 2a ff 15 3e
       0.25465077 0.27052528 0.11175397 0.14648119
000390 a9 be 01 be ac ea a1 bd 74 e8 dd bd f8 70 40 bd
       -0.12670387 -0.07906088 -0.108353525 -0.046982735
0003a0 b8 90 3f 3d d8 26 47 be 60 d2 e4 bd 9a e0 29 be
       0.046768874 -0.19448411 -0.11172938 -0.16589585
0003b0 2d 2f 90 be 48 f2 03 bd ba b3 47 3e 6b 6d 93 be
       -0.28160992 -0.03221348 0.19502154 -0.28794417
0003c0 88 06 f4 3d 80 d1 51 bb b1 76 92 be 2e f1 42 3e
       0.11915308 -0.003201574 -0.2860618 0.19037315
0003d0 25 14 8c be 49 a9 0d be 98 8d 81 be 21 17 47 be
       -0.2735912 -0.13834108 -0.2530334 -0.19442417
0003e0 1e 65 86 bd 16 14 86 3e c6 26 2d 3e e8 39 6e 3e
       -0.06562255 0.261872 0.16909322 0.23264277
0003f0 06 44 11 3e 90 fa 80 3d 70 eb 0a 3d b9 d5 2f be
       0.14186105 0.06297791 0.033915937 -0.17171372

fc1.bias f4 [128]
000000 50 88 45 3d 58 76 02 3d 0d d9 94 be b6 d4 8f 3e
       0.0482257 0.031851143 -0.29071847 0.28091973
000010 40 30 4d bc 30 9d 3c 3e a8 0b 1e 3e 10 22 5a 3e
       -0.012523711 0.18419337 0.15434134 0.21302056
000020 00 52 9d 3b 00 4a 64 3a 76 07 93 be d4 6c 44 3e
       0.004801035 0.00087085366 -0.2871663 0.1918214
000030 f2 46 8f be c3 71 77 be a8 2a 71 3e b6 c5 4a be
       -0.27983814 -0.2416449 0.23551428 -0.19801983
000040 bc ff b0 3d ec 51 68 3e b0 90 5f be 14 51 9b 3d
       0.086425275 0.226875 -0.21832538 0.07583824
000050 40 b1 6f 3e 4a fe c8 bd 9a 5e ee bd 10 33 1b be
       0.2340746 -0.09814127 -0.116391376 -0.15156198
000060 4c 68 b1 3d 6c ec 84 3e 16 7e 76 be 4e ff 07 3e
       0.08662471 0.25961626 -0.24071535 0.13280985
000070 f6 48 11 3e 64 e9 07 3e 4e 4e 47 3e 94 6b 5a 3e
       0.14187989 0.13272625 0.19463465 0.213301
000080 cb 9c 5a be d0 82 05 bd c8 49 0f bd ca 8c 01 3e
       -0.21348874 -0.032595456 -0.034982473 0.12651363
000090 60 b7 8c 3e 5c 69 b6 3d 28 69 1f 3e 3e 1d 91 3e
       0.27483654 0.089068145 0.15567458 0.28342623
0000a0 0c 0a 30 3e 43 19 3a be d4 2f c6 3d 76 cc 13 3e
       0.17191333 -0.18173699 0.09677091 0.14433464
0000b0 28 bd 99 3e 9c 57 d1 3d 6b 8f 28 be ba 4b 3d 3e
       0.30027127 0.10221788 -0.1646096 0.18485919
0000c0 d2 48 80 3e 92 ed 8a 3e 38 85 2c 3e f0 47 7f 3d
       0.25055557 0.27134377 0.16847694 0.062324464
0000d0 ec a4 f3 3d 16 9f 36 be 58 16 7f bd 8c 95 46 3e
       0.11896691 -0.17834124 -0.062277168 0.19392985
0000e0 90 81 54 be 94 3d 17 3e 59 06 3d be 77 46 92 be
       -0.20752549 0.14769584 -0.18459453 -0.28569385
0000f0 bc 26 30 be aa 63 eb bd 4e c6 29 3e 26 66 e0 bd
       -0.17202276 -0.11493619 0.16579553 -0.10956983
000100 cb 0d 94 be d2 d7 85 be 58 35 41 be 28 d4 31 bd
       -0.28916773 -0.2614122 -0.18868005 -0.04341522
000110 40 6a c9 3d e0 d2 7a 3c 4c 1e 34 3e 84 c2 e8 3d
       0.09834719 0.015309066 0.17589682 0.11365226
000120 84 4b d3 3d 0e 0f 47 be 84 c0 06 3e 4a 7e 46 be
       0.10317138 -0.19439337 0.13159376 -0.19384113
000130 15 20 69 be e2 6b 93 3e 84 17 6b 3e e2 92 5a be
       -0.22766145 0.28793246 0.22958189 -0.21345094
000140 ca 18 82 3e 8e 5a 37 3e 6c eb bc 3d f0 5c 1a bd
       0.25409538 0.17905638 0.09224591 -0.03768629
000150 7c fb 2b 3e 20 7f 34 3e 97 9a 26 be fc b4 fc 3d
       0.16795152 0.1762662 -0.16269909 0.123392075
000160 50 0c 66 3e d2 0c 2f 3e ea 1d 90 3e 74 04 1c be
       0.22465634 0.17094734 0.28147823 -0.15236074
000170 00 a7 ae 3b 8e 24 96 3e fc b6 7b 3e 80 1b af 3c
       0.0053299665 0.29324764 0.24581522 0.021375418
000180 ad be 47 be fc c1 62 3e d8 e4 7a be e0 f4 d9 3c
       -0.19506331 0.22144312 -0.2450136 0.026606023
000190 d4 cc 05 3e a4 d5 05 be de 5c c7 bd 00 db 9f bb
       0.13066417 -0.13069779 -0.0973451 -0.0048784018
0001a0 92 83 85 3e 72 68 27 be 32 f8 2c 3e 3e f1 d0 bd
       0.26076943 -0.16348436 0.16891554 -0.10202263
0001b0 69 43 45 be a8 a1 6e be 2c ba 49 3e 60 44 45 3e
       -0.19263996 -0.23303854 0.19699925 0.19264364
0001c0 44 62 e2 bd 24 2c 96 3e a4 04 56 bd 16 2a 1b 3e
       -0.11053899 0.29330552 -0.05225052 0.15152773
0001d0 98 8a f4 bd a8 89 50 be d8 c6 61 3d 08 61 d1 3d
       -0.11940497 -0.20365012 0.055121273 0.10223585
0001e0 95 29 06 be 80 2e 12 bd 8c a8 5c be a0 9c c8 3c
       -0.131018 -0.035688877 -0.2154867 0.024488747
0001f0 40 21 67 3d 00 13 ce bc d6 3e d5 bd a0 06 db bc
       0.056428194 -0.025155544 -0.10412376 -0.026736557

fc2.weight f4 [64, 128]
000000 01 02 21 3d aa 86 d2 3d cb c6 b3 bb df 78 41 bc
       0.03930855 0.102795914 -0.0054863445 -0.011808603
000010 ee 46 8b 3d 02 ee 79 bc 47 05 64 3d 53 6c a2 3d
       0.06800638 -0.015254499 0.055669095 0.079308175
000020 92 03 87 bd 83 e0 67 bd 75 28 44 bd fc 3c d1 3d
       -0.06592478 -0.056610595 -0.047890145 0.1021671
000030 29 a1 06 3c a3 62 0b 3d c9 c3 07 3d 0d 62 d1 3d
       0.0082171345 0.034029614 0.0331457 0.1022378
000040 61 27 33 bc e6 1a 83 bd 55 ca 42 bd 48 7d 9a 3d
       -0.010934682 -0.06401615 -0.04755624 0.07543427
000050 d3 e8 a0 bc 49 97 7c 3d 03 ca 01 bd 33 03 81 bb
       -0.01964227 0.061667714 -0.031686794 -0.003937149
000060 fd ba 54 3d 8d 85 83 bd 78 71 4f 3d 72 46 c0 3d
       0.05193614 -0.06421957 0.05064532 0.093884364
000070 be 6d 80 39 e9 cb c2 3d 82 66 8c 3d d3 46 53 bd
       0.00024495827 0.09511549 0.06855489 -0.051581215
000080 e4 12 79 bd 5e 3a a5 bc f5 45 91 bd 56 28 b4 3d
       -0.06080903 -0.020169433 -0.07093421 0.08796756
000090 6f eb b0 3d 33 62 23 3d 1e 2d a4 3c ad 3b 9e bc
       0.086386554 0.039888572 0.020041045 -0.019315565
0000a0 ec 07 84 3d 34 6d cd bc e6 c8 60 bd f8 f1 52 3d
       0.064468235 -0.025076486 -0.05487909 0.05150029
0000b0 6d 7b df 3c 3f ac fb 3c a2 91 80 bc 55 d5 89 3d
       0.027280534 0.030721782 -0.015694443 0.06730143
0000c0 ca 09 db 3d 22 87 04 3d ef a1 d0 3d 0b 20 7f 3d
       0.106952265 0.032355435 0.101871364 0.062286418
0000d0 11 44 56 bb a4 f8 83 3d 7e 10 cf 3d 73 26 00 3d
       -0.003269438 0.06443909 0.101105675 0.031286668
0000e0 64 87 3e bd 80 c6 c9 3c e3 42 ca 3d 06 41 3b 3d
       -0.046515837 0.024630785 0.09876039 0.045716308
0000f0 1c 9d 8b bd 52 c9 a3 3d e0 cb 22 bc 52 33 3f 3d
       -0.068170756 0.07997383 -0.009936303 0.046679802
000100 62 01 e5 bc 6d f0 9d bc 0b 37 a6 3d 30 d3 73 bd
       -0.027954761 -0.019279683 0.08115967 -0.059527576
000110 c0 92 8f 3c cc 5e 21 3c 33 8f 50 3c 5b 14 8a bd
       0.01752603 0.0098492615 0.012729454 -0.06742164
000120 af 00 ae 3d 26 36 41 3b 81 39 a3 bc 60 3c 79 bd
       0.08496224 0.0029481738 -0.019924881 -0.060848594
000130 c8 50 aa 3c 16 e4 4c 3d c3 34 d3 3d d5 ab 41 bd
       0.020790473 0.050022207 0.10312798 -0.047283012
000140 97 3e 91 3d 19 71 d3 3d d8 65 82 bc c0 63 1e bd
       0.07092016 0.10324306 -0.015917704 -0.038669348
000150 17 cd c8 3d b7 f8 f1 3c 20 5a 26 bd a4 97 21 3d
       0.09804743 0.029537542 -0.040613294 0.039451256
000160 0d fb 03 bd ef f6 97 bc bc c6 99 3b 50 d9 b0 bc
       -0.032221843 -0.018550364 0.0046928804 -0.021587998
000170 e3 89 53 bd d3 3d ae 3d fa 66 65 3d 99 c0 9c 3d
       -0.05164517 0.08507886 0.05600641 0.076539226
000180 3b 45 60 3d 1d d0 37 bd 18 7a 35 3b ee b8 43 bc
       0.054753523 -0.044876207 0.0027691182 -0.011945946
000190 42 6f ba 3c f4 11 49 bd 5f 33 77 3d bf b0 57 3b
       0.02275813 -0.049089387 0.060351726 0.0032911745
0001a0 2e ca 27 3d 82 06 76 bb 02 ac 7a 3c 79 e6 1c bd
       0.040964298 -0.00375405 0.015299799 -0.038305733
0001b0 43 70 89 bd 3f ed 32 bc 16 42 97 3a f9 0c 76 bd
       -0.06710865 -0.010920822 0.0011540081 -0.060070965
0001c0 23 7e 84 bd 8e 22 1c 3d 9c f1 78 3d e8 f3 d0 3c
       -0.06469371 0.03811889 0.06077729 0.025506929
0001d0 92 5c bf 3d 9b 05 5e bd 34 ce d6 3d ba 04 5b 3d
       0.09343828 -0.054204565 0.10488549 0.053471304
0001e0 5a 65 2e bd e7 09 ce 3d ed 24 45 3d 52 65 65 bd
       -0.042577125 0.100604825 0.04813092 -0.05600483
0001f0 a7 c2 6c bc 57 5b 3f bd 09 69 89 3d 5f 91 30 3d
       -0.014450706 -0.046717968 0.06709487 0.043107387
000200 bf 32 40 bd 32 5f 8c bd 5b ed 41 3d 67 6a 59 3d
       -0.046923395 -0.068540946 0.0473455 0.05307999
000210 4b 24 4c bd ac 86 d5 3d 5b 8f c3 3d 49 9d f3 3b
       -0.0498393 0.10426077 0.09548827 0.0074345213
000220 35 4b 2e 3d d0 9b 7f 3d d9 d8 b0 3d da 4c 83 3d
       0.04255219 0.062404454 0.086351104 0.06411143
000230 10 2b bc 3d dc ad a3 3d b0 7a 70 3d b5 a7 c6 bc
       0.09187901 0.079921454 0.058710754 -0.02424989
000240 94 37 87 3b b6 96 a8 3d ab 12 80 bd 55 84 23 bd
       0.0041264985 0.08231871 -0.06253561 -0.039921124
000250 46 0d 47 bd f5 37 30 3d 35 bb 76 3d d0 4c 52 3d
       -0.048596643 0.043022115 0.06023713 0.051342785
000260 69 9b eb bb 60 fb 13 3d 18 ef 51 bd 2b a0 4e 3c
       -0.007190157 0.0361284 -0.05125341 0.012611429
000270 c5 30 4a bd bd 3c b0 3d 5f 97 06 3d 33 8d 84 bc
       -0.049362916 0.08605335 0.032859202 -0.01618061
000280 6e e1 25 3d 0a 52 5e bd 42 6d a8 3c e8 57 74 bd
       0.04049819 -0.054277457 0.02055991 -0.059654146
000290 75 ae ec 3c 0f 98 8c 3d 23 bb 80 bc 9b 41 89 3c
       0.028891781 0.068649404 -0.015714234 0.016754916
0002a0 ef 74 2b 3d 3f 9b 8b bb 5d 3f 42 bd c6 58 9b 3d
       0.041859563 -0.00426045 -0.04742371 0.075852916
0002b0 15 86 ff bc 4e 05 2d 3d ff 02 9b 3d 63 a5 14 3d
       -0.031191865 0.042241387 0.07568931 0.036290538
0002c0 a7 23 aa 3d b0 a7 a2 3d 14 c7 bb 3d 3b e2 3e 3d
       0.083075814 0.0794214 0.091688305 0.04660247
0002d0 d8 d6 b7 3d ef ba 17 bd 90 a4 35 bd 3e 4f fc bb
       0.08976525 -0.03704351 -0.044346392 -0.007699876
0002e0 18 88 fa 3b 77 fb 32 bd f5 b1 76 3d 56 f9 8f 3d
       0.007645618 -0.043696847 0.060228307 0.07029979
0002f0 7f e0 4d 3c a8 a4 dc 3c 67 2d 15 3b c3 79 26 3d
       0.012565731 0.026933983 0.0022762658 0.040643465
000300 bb 55 47 bb 8b d5 51 bc 65 68 b3 3d c0 ec 71 3d
       -0.003041609 -0.01280726 0.08760146 0.059063673
000310 cb 3c 51 3d 9c e0 b6 3b 58 51 12 bd fe c2 b1 3d
       0.051083367 0.0055809747 -0.035722107 0.0867977
000320 d0 46 cf 3d 94 e0 9a 3d 52 74 8f 3d 02 b6 69 bd
       0.10120928 0.07562366 0.07004608 -0.05705834
000330 b4 8e 82 3c 10 ed 75 3d 25 86 9b bc 95 43 e3 3c
       0.015937187 0.060040534 -0.018984864 0.027742187
000340 0c 2d a2 3d 66 28 b9 3d 91 6c aa 3d 66 35 63 bc
       0.07918748 0.090409085 0.08321489 -0.013867712
000350 5e 41 bf 3b 51 64 ca 3d 49 da d8 bc 87 a2 11 3d
       0.00583665 0.09882415 -0.026471274 0.03555539
000360 87 ea 0b 3d 79 28 cb 3d 57 dc 4a 3b 6c 0d a7 3d
       0.03415921 0.09919829 0.0030954087 0.08156857
000370 39 4b 14 3d e6 06 d0 3c 41 9f 47 3d cf 1f 65 bd
       0.03620455 0.025393914 0.04873586 -0.05593854
000380 26 d8 c4 3d fa 07 89 bd 9a 83 57 3c ab c8 30 bc
       0.096115395 -0.066909745 0.013153935 -0.0107900305
000390 63 6a 84 bc 6d ed 72 3d 3b d9 32 bd 12 8b 37 bd
       -0.01616401 0.059308458 -0.0436642 -0.044810362
0003a0 b6 06 1f 3d 28 d1 ab 3d 4b e6 6a 3d aa ff a5 3d
       0.03882476 0.08389503 0.05734853 0.08105405
0003b0 10 7b 06 3d ec 1b 34 bc 87 26 8f ba 77 0b 30 bd
       0.032832205 -0.010992985 -0.0010921516 -0.042979684
0003c0 1b 75 6b 3d f7 ae 9d 3c 9c 60 81 3d 84 04 25 bd
       0.057484727 0.019248469 0.06317255 -0.04028751
0003d0 54 94 86 3d f0 f8 c8 3c dc f6 f1 bb d4 de 69 bd
       0.0657126 0.024532765 -0.0073841643 -0.05709727
0003e0 4d e9 3c bd bf e1 5e 3d 19 fa bd 3d eb 32 82 bd
       -0.04612093 0.054414507 0.09276218 -0.06357368
0003f0 75 03 f1 3c 58 d1 58 3d b7 f9 43 3c e2 41 53 3d
       0.029420594 0.05293402 0.011961392 0.051576503

fc2.bias f4 [64]
000000 6c 13 8c bc 4a 15 43 3b 2f 73 f2 3c d5 e6 93 3d
       -0.017099105 0.0029767328 0.02959594 0.07221762
000010 02 b8 13 3d 2e e1 40 3d f0 13 f5 3a e4 f0 c1 bc
       0.036064155 0.047089748 0.0018697958 -0.023674436
000020 a8 d8 cd 3d ad 8f 48 3d 26 8a 87 bd 5b 06 77 3d
       0.100510895 0.048965145 -0.066181466 0.060308795
000030 45 01 af 3c 0d 78 00 3c da a5 bf bd 0c a9 47 3d
       0.02136291 0.007841122 -0.093578056 0.0487452
000040 21 4f 48 bd 04 60 cd bd cc 23 9c 3c b2 7d 86 3d
       -0.04890359 -0.10028079 0.019060038 0.06566943
000050 7a 79 43 bd ba 50 78 3c 74 a5 a9 3d b7 7e a5 3c
       -0.04772327 0.015155965 0.08283511 0.020202024
000060 f0 98 3c 3d d7 1c da 3d 16 a4 58 3d 6f e5 a0 bc
       0.04604429 0.10650032 0.05289086 -0.019640652
000070 56 d9 aa bc cc d8 cc 3d 46 b2 1e bd 10 78 1c bd
       -0.020855587 0.10002288 -0.038744234 -0.038200438
000080 a5 71 4b 3d 5b d3 5f bc f7 00 ea 3c 99 75 7f 3c
       0.049668927 -0.013661231 0.028564913 0.015592002
000090 b4 86 3f 3d ad 73 fd 3b 06 98 3b bd 7a 46 c2 bc
       0.046759322 0.007734737 -0.045799278 -0.023715246
0000a0 85 8d ed bc 5b 11 20 bd 90 ef a4 bd 36 8c 46 bd
       -0.028998146 -0.03907905 -0.080535054 -0.04847356
0000b0 d0 08 d7 3c aa b9 0b 3d 90 2b 7f 3d d8 2d d6 bc
       0.02624932 0.03411261 0.062297404 -0.026144907
0000c0 d2 35 03 bd c1 62 17 3d b0 1e b0 3c 4f 95 bc bd
       -0.03203375 0.036959413 0.021499008 -0.09208166
0000d0 3c bd 53 3d 43 bd b6 3d 66 cc bc bd 41 8e ab 3d
       0.05169414 0.089228176 -0.092186734 0.08376742
0000e0 37 67 68 bd 4d f6 6c bd aa 5e 11 3d 17 04 c7 3b
       -0.05673906 -0.05785208 0.03549067 0.0060734856
0000f0 c6 95 7a bd c9 a5 bf bd 32 1c 66 bd 25 58 b2 bd
       -0.06117799 -0.09357793 -0.056179233 -0.087082185

fc3.weight f4 [1, 64]
000000 be de e4 bd a9 dc 0e be 56 80 06 be f0 5c d3 bd
       -0.11175297 -0.13951363 -0.13134894 -0.10320461
000010 88 0f 0e be 33 b8 1a bd 58 20 4c 3d 5f 3b 0f bd
       -0.13873112 -0.037773322 0.049835533 -0.03496873
000020 2b 6a 83 bd dc 5c 9d 3d f8 13 d8 3d 6f 51 9e 3d
       -0.06416734 0.07683727 0.10550684 0.07730376
000030 44 13 35 bd 2c 06 1a 3d 92 3b bf 3d 65 89 1c 3d
       -0.044207826 0.037603542 0.09337534 0.038216967
000040 5a 82 74 bd 2e 76 90 3c 93 20 63 3c 13 d7 53 bd
       -0.059694625 0.017634477 0.013862747 -0.051718783
000050 82 31 3c bd 6b 85 1e 3d 18 09 d2 bc 0a 07 d7 bd
       -0.04594565 0.038701456 -0.025639102 -0.104993895
000060 1b 84 b8 bd 8e 80 03 be 00 93 12 be 00 b1 9f bd
       -0.09009572 -0.12842008 -0.14313889 -0.07797432
000070 94 a5 05 be 9e 6d c8 bd 32 3a 12 be 46 db 84 bd
       -0.13051444 -0.09786533 -0.14280012 -0.064871356
000080 b9 eb 12 3d 2f c9 fd bd 94 46 88 3d 7a 78 05 3d
       0.035869334 -0.12391888 0.06654087 0.0325856
000090 ca 0a 12 3d 34 6e 66 3d 98 b5 8f 3d 76 63 8d 3d
       0.03565482 0.05625744 0.07017058 0.06903736
0000a0 eb 94 67 3d 94 32 84 3d b7 40 e4 3d 6a f9 ac bd
       0.056538504 0.064549595 0.11145156 -0.084460095
0000b0 50 1f ee bd 65 af bf 3d 7d 83 a1 3c a1 d7 cd 3d
       -0.11627066 0.09359626 0.019716019 0.100508936
0000c0 68 6b 9e 3d 19 4d 0f be 61 7a b5 bd 3c 93 6a 3c
       0.0773533 -0.13994254 -0.088612325 0.01431733
0000d0 8a 58 df bd c9 e6 a0 bd 8c 1e 18 3d ce 4a 65 bd
       -0.10905559 -0.07856519 0.037138507 -0.055979542
0000e0 68 5e f9 bd 81 3e d7 ba 54 af 33 3d 82 72 77 3d
       -0.1217621 -0.0016421826 0.043868378 0.060411938
0000f0 bf ae 36 3d 5a 18 38 3d 87 a0 cb 3d 17 99 a2 3d
       0.044600245 0.0449451 0.099427275 0.07939356
