checkpoints/model_epoch_40_baseline.pt (torch, 49960 bytes, 5 tensors)

fc1.weight f4 [128, 26]
000000 0a 20 a9 3d 58 be 25 3d 1a b9 9d bd b0 a8 e8 bc
       0.08258064 0.04046473 -0.07701321 -0.028400749
000010 22 00 d2 3d 92 2a 19 be d4 28 2c be e0 b7 d7 bd
       0.102539316 -0.14957646 -0.1681245 -0.10533118
000020 c2 85 93 3d 45 5c 10 3e 2a a7 ae 3d 3c 42 12 be
       0.07203247 0.14097698 0.08527978 -0.14283079
000030 4a c5 a1 3d d5 1a 00 be 9e 38 8f 3d a9 73 3d 3e
       0.07898958 -0.12510236 0.06993221 0.18501152
000040 aa 2e d6 bd da a4 d7 3d d6 d0 1f be 60 1b 46 be
       -0.10458119 0.1052949 -0.15607008 -0.1934638
000050 77 93 b6 bd f7 da 0c 3c 2a a6 db 3c 14 c0 64 3d
       -0.089148454 0.008597127 0.026812632 0.055847242
000060 82 1d 09 bd 9a f6 ec 3d 32 84 07 be db 65 0c 3b
       -0.033475406 0.11570473 -0.13234022 0.0021423015
000070 6f 3d d1 3c 5b b3 bc bd 2c 42 db 3d 75 f2 16 bd
       0.02554199 -0.09213897 0.10705981 -0.03685232
000080 e5 4c 72 3d 12 32 20 3e f3 e4 95 3b 94 98 32 3e
       0.059155364 0.156441 0.004574412 0.17441016
000090 0d 99 a7 3d 6d 3c 82 3c 56 3d 6d 3b c0 49 66 3e
       0.08183489 0.015897954 0.003619989 0.22489071
0000a0 37 cc 6f 3d 9a 95 0c 3e 00 14 b5 bd 68 d4 b6 bc
       0.058544364 0.13728943 -0.08841705 -0.02231808
0000b0 b0 26 2f bc ec e7 07 3e 80 c1 1c bd 33 d1 5b bd
       -0.010690376 0.13272065 -0.038270473 -0.053666305
0000c0 97 cd 58 bd 6d af 52 3e e4 f3 f5 3d 1b 12 c3 3d
       -0.05293044 0.20574732 0.12009409 0.09524938
0000d0 c6 24 0d 3d 3f e2 06 3e 21 64 f8 bd 3a d1 7f 3d
       0.034458898 0.13172244 -0.12128473 0.062455393
0000e0 b9 3a 1f be 75 39 41 be d0 3a 4f be b1 91 4b bd
       -0.15549745 -0.18869574 -0.20237279 -0.04969949
0000f0 ce 37 ea bd d6 92 f5 bc 05 07 d7 3d cd 71 80 bd
       -0.11436425 -0.029977243 0.10499386 -0.06271706
000100 03 07 2c 3e d1 a5 26 be d6 e8 f1 38 88 99 fd bd
       0.1679955 -0.16274191 0.000115351446 -0.123827994
000110 63 c9 18 be e7 eb 8a 3d 63 da 0d be 4d 85 1e be
       -0.14920573 0.06783276 -0.13852839 -0.15480538
000120 87 e9 27 3e 32 be 95 3d 35 f5 01 3e a9 b6 2c 3e
       0.16397677 0.073116675 0.12691195 0.16866554
000130 e1 5d 61 3d fa da 76 3b 56 14 b8 3d 72 d6 a0 bd
       0.05502117 0.0037667141 0.08988254 -0.07853402
000140 6b 26 ac bd 47 73 cf bc 42 51 e9 3c 4f 48 39 3e
       -0.08405765 -0.025323523 0.02848113 0.1809399
000150 01 fe f6 bd 7a da ec 3d e6 6e 6c bc 77 e3 fd 3d
       -0.12060166 0.115651086 -0.014430737 0.12396901
000160 75 06 19 be f2 46 13 be 9b 1b ee 3c 1d d1 79 bd
       -0.1494387 -0.14382532 0.029065898 -0.06099044
000170 2f 87 1d 3e 6a e9 70 bb bf ef 59 3e 9e f3 f3 3c
       0.153836 -0.003676022 0.21282862 0.029779252
000180 84 dc 29 3e 7e b2 52 3e bf b2 b9 3b 10 67 21 be
       0.16588026 0.20575902 0.00566706 -0.15761971
000190 c7 e4 5e 3e 1a 0f ad bd b9 a1 1a 3e d1 b4 f7 3d
       0.21766959 -0.08450146 0.15100755 0.12095035
0001a0 6f aa c5 3d cb 7f 28 bd e5 e3 fb bd 18 87 b9 bd
       0.09651648 -0.041137498 -0.12299327 -0.0905897
0001b0 47 ed 58 3d da 97 4c 3e 4b 93 0a be f8 32 09 be
       0.05296066 0.19979802 -0.1353275 -0.1339835
0001c0 2a f7 01 be 4d 3b ed bd b1 1a 5f 3e af de f6 3d
       -0.12691942 -0.11583576 0.21787526 0.12054192
0001d0 4b 66 7e 3d b9 a5 23 bd 3c 13 3b bd 60 6f 01 3e
       0.062109273 -0.039952967 -0.04567264 0.12640142
0001e0 cf e6 1c 3e da f0 06 3e d5 03 ac bd f5 46 50 3e
       0.15322421 0.13177815 -0.083991684 0.20339568
0001f0 fe d3 e8 3c 98 77 17 3e 18 ff 93 3d bc b4 58 3e
       0.028421398 0.14791715 0.0722639 0.21162695
000200 f5 58 ef 3d 4d f1 99 3d 4b 9f 9c bd 08 a7 26 be
       0.11686889 0.075167276 -0.0764757 -0.16274655
000210 06 bf ba 3d e0 a2 ed 3c 6c ae 29 bd 70 dd 18 be
       0.09118466 0.029008329 -0.041426107 -0.14928222
000220 2a 6d 89 bd df 16 a8 bd cb 5c b3 bd b9 fc de bd
       -0.067102745 -0.08207487 -0.08757933 -0.10888047
000230 ca 16 c2 3d a3 ec 04 3e 74 ea 4f bd 18 9e 01 bd
       0.09477003 0.12980895 -0.0507607 -0.03164491
000240 b6 07 94 3d 78 e8 52 3d a4 38 16 be 36 16 dc 3d
       0.07228033 0.05149123 -0.14670044 0.10746424
000250 a6 19 ea 3d b4 d8 10 be 0c 39 0d be 6b 97 d9 bd
       0.11430673 -0.14145166 -0.13791293 -0.10624584
000260 00 51 bd 3c 51 4a 16 3e a8 2d 17 bd ff 2c f5 bd
       0.023109913 0.14676787 -0.036908776 -0.11971473
000270 78 a0 68 bd 8e 81 3d be 1c af e2 bb f2 e3 05 3e
       -0.05679366 -0.18506452 -0.0069178473 0.13075235
000280 5f 95 2a be 45 ce 26 3e 91 50 10 3c 52 0d e1 3d
       -0.16658543 0.16289623 0.008808271 0.10988869
000290 a8 3a b5 bd bd 16 da 3d a4 34 75 bd c6 e0 19 be
       -0.088490784 0.10648868 -0.059864655 -0.1502715
0002a0 79 5e 2c 3c 6d 89 87 3d 51 e3 2d 3d b0 49 bf 3d
       0.010520571 0.06618009 0.042453114 0.09340227
0002b0 35 93 9d bd 62 94 9b bd 91 00 77 3d eb 6f 07 be
       -0.07694093 -0.07596661 0.060303275 -0.13226287
0002c0 66 b3 91 3c af 8e db 3d 83 18 a6 3d 9f c7 04 3e
       0.01778574 0.10720574 0.08110144 0.12966774
0002d0 89 de 70 bd 65 7e 5e 3d 67 87 e7 3d ca 74 da 3d
       -0.058805976 0.054319758 0.11305123 0.10666807
0002e0 14 9a 80 3d 11 0c 35 be 85 8a 03 be 60 9c 40 be
       0.06279388 -0.17680384 -0.1284581 -0.18809652
0002f0 25 f7 3f 3d ee 1e 35 3b 6e d8 0e 3e de a5 46 bd
       0.046866555 0.0027636844 0.13949749 -0.048498027
000300 6f a1 43 bd 22 7a 9b 3d 93 c9 24 be 0f 2a e6 bd
       -0.047761377 0.07591654 -0.1609252 -0.11238491
000310 76 ea e2 3d ec 7d 18 be 16 3d 3c 3d 9a e1 c0 3d
       0.11079876 -0.14891785 0.045956694 0.0941803
000320 a4 1a 2e be 9c a9 22 3e 2e 1d 48 be 34 8b 37 3e
       -0.1700235 0.15885013 -0.19542381 0.17924196
000330 4a 45 ce 3c e5 e0 06 be 0c c0 12 3d b6 7e 43 3c
       0.025179524 -0.13171728 0.03582768 0.011932066
000340 03 fe c4 3d 17 8c f0 3d 42 78 32 3e f9 3f a3 3d
       0.096187614 0.1174547 0.17428687 0.07971186
000350 84 28 66 bd 30 76 a3 bd 05 90 2a 3e fe 70 19 bd
       -0.056190982 -0.07981527 0.16656502 -0.037461273
000360 81 56 83 bd 9e ac 13 3e 05 36 db bd d2 a1 6d 3e
       -0.06412984 0.14421317 -0.10703663 0.23206261
000370 07 b2 ca bc 05 e7 ce 3d 5f 2d b2 3d f6 a0 27 3d
       -0.024743093 0.10102657 0.0870006 0.04092499
000380 e1 8c 0f 3e ac 62 1c 3e ee 5b b3 3d 84 ce 98 bc
       0.14018585 0.15272015 0.087577686 -0.018653162
000390 48 54 08 3e 3b d7 1a be 0c c5 e3 3d 15 28 dc 3a
       0.13313401 -0.15121166 0.11121568 0.0016796613
0003a0 8b ab 17 3e d8 92 1d be f7 d4 92 3d 72 28 f6 3d
       0.14811532 -0.15388048 0.07169526 0.12019433
0003b0 c0 97 32 3b 59 39 fe bd 30 ac 82 bd 5b 68 a9 3d
       0.0027251095 -0.12413282 -0.063804984 0.08271857
0003c0 a4 aa 12 bd a1 82 7d bd 2a a0 03 3e 98 1f e2 ba
       -0.035807267 -0.061892156 0.12854066 -0.0017251847
0003d0 ea a1 28 be ad 9c 21 be 2a 50 f1 bd ea fc 7f bd
       -0.16468015 -0.15782423 -0.11782868 -0.062497057
0003e0 91 f9 30 3e a7 e9 3a 3d c0 74 26 be 81 0e 4a be
       0.17282702 0.045632984 -0.16255474 -0.19732095
0003f0 e6 f3 31 3d 41 35 bd bd cc 68 39 3d a5 0b a6 3d
       0.04344549 -0.09238673 0.045265958 0.0810769

fc1.bias f4 [128]
000000 82 d1 b2 3d b4 2e 56 3e 52 85 9b 3d df 6a 80 bc
       0.08731367 0.20916253 0.07593788 -0.01567596
000010 93 24 f2 bd 12 0e a6 bd d8 48 13 bd c3 9a 0c 3e
       -0.11823382 -0.081081524 -0.03595814 0.13730912
000020 df 86 3e 3e 7d 66 2e 3e 5f 08 3c be b0 80 e6 3d
       0.18606137 0.17031284 -0.18362568 0.11255014
000030 30 40 1e 3e 24 90 d3 3d 2f 6d 2d 3e d7 76 a9 3d
       0.15454173 0.10330227 0.16936181 0.0827462
000040 2b 43 1f bd 36 50 e9 bd e2 4a 04 3e 32 6e 57 bd
       -0.038882416 -0.11392252 0.1291919 -0.052595325
000050 1e 23 1e bd fc 42 9b bd fd a3 08 be 89 2e 91 3d
       -0.03860771 -0.07581136 -0.13343807 0.07088954
000060 ee 74 df 3d 94 fa ac 3d 09 55 43 3d 4b b1 83 3c
       0.109109744 0.084462315 0.047688518 0.01607575
000070 35 94 fb bd ed 8e b7 bb 38 04 75 bd 0c ee 95 bd
       -0.122841276 -0.005601755 -0.059818476 -0.073207945
000080 f0 db 3f 3e cd c7 2d be 8c 12 f3 bd 62 c4 df bd
       0.18736243 -0.16970749 -0.11868772 -0.10926129
000090 ac 39 19 be 5a 21 1e bd 2c ef 28 bb 98 cb ff bd
       -0.14963406 -0.038606025 -0.0025777323 -0.12490004
0000a0 e9 9a dc 3d e9 70 31 3e ac 5d 17 3e 3c 74 0e be
       0.10771734 0.17328228 0.14781827 -0.13911527
0000b0 45 3f 99 bd ae c6 16 3e 9e 9b 46 bd ca 37 9d 3d
       -0.07482771 0.14724228 -0.048488252 0.076766565
0000c0 16 c3 28 be a4 24 07 3e 42 6d 13 bb 1b 6c 60 bd
       -0.1648067 0.13197571 -0.0022495543 -0.054790597
0000d0 21 09 b7 3d 84 19 2f 3d 6b 16 0d 3d a8 68 0a be
       0.08937288 0.042748943 0.034445208 -0.13516486
0000e0 55 4a 9b 3d 3e db 98 bd 3c cb cb bd 8f 10 d7 3d
       0.07582537 -0.07463692 -0.09950873 0.10501205
0000f0 b6 31 e3 bd 64 ce 4e be c6 21 9c 3b 6d 53 c4 3d
       -0.11093466 -0.2019592 0.0047647683 0.09586225
000100 a1 9d 0f 3e 01 3f a1 bd 56 91 53 3e fe 67 f9 bd
       0.14024974 -0.07873345 0.2066091 -0.12178038
000110 29 fd 01 be 50 77 9d bd c7 d8 4a 3e 22 b9 0c be
       -0.12694229 -0.07688773 0.19809256 -0.13742498
000120 7d 59 47 be 5f 07 22 bd 09 90 75 bd 57 d2 b0 3d
       -0.19467731 -0.03955781 -0.059951816 0.08633869
000130 80 94 ff bc 2e 01 e3 3d 6d 6a a8 bc ff 61 0e be
       -0.03119874 0.110842094 -0.02055856 -0.1390457
000140 86 95 4c 3d de 96 0b 3e 33 d3 84 bd 88 73 aa bc
       0.049947284 0.1363177 -0.064855956 -0.020807043
000150 ae cb 49 bc 8f 40 c2 bd 70 7d 92 bd ec e1 43 3e
       -0.012316627 -0.0948497 -0.071528316 0.19129151
000160 42 50 2f 3c 1a cd 10 be 98 e8 4f be 60 e7 e5 bc
       0.010700287 -0.1414074 -0.20303571 -0.02806443
000170 1a b7 15 bd a6 19 5b 3e e2 9c 4c 3e ff 1d 19 3e
       -0.036551572 0.21396503 0.19981721 0.14952849
000180 5c c2 d1 3d eb 23 fa bd 00 bd ab 3d 5f 18 c8 3d
       0.10242149 -0.12213882 0.08385658 0.097702734
000190 a0 19 d7 3d de 42 e7 3d f7 9b 01 3e a8 26 46 be
       0.105029345 0.11292051 0.12657152 -0.19350684
0001a0 44 d9 b6 3d e7 42 c8 bc 21 44 34 3e 17 2e 63 3e
       0.08928159 -0.024445964 0.17604114 0.2218555
0001b0 12 29 87 3d 51 54 d2 bd 61 6b 29 be d8 a5 0e be
       0.065996304 -0.10269988 -0.16544868 -0.13930452
0001c0 83 f9 80 3d c4 41 ba 3d 27 ae 9f bd 0a be d3 3d
       0.062975906 0.09094575 -0.07796889 0.103389814
0001d0 27 b9 88 3d 11 ad 75 3d b6 da b6 bd 1d 89 10 3e
       0.0667594 0.059979502 -0.089284346 0.14114805
0001e0 c4 98 37 3e 4f 69 e0 3d 02 a4 6e 3d 2d b0 ec bd
       0.17929369 0.10957586 0.05826188 -0.1155704
0001f0 10 3e 13 be 20 f8 2a bd c5 af a6 bc 88 b3 3d bd
       -0.14379144 -0.041740537 -0.020347485 -0.046313792

fc2.weight f4 [64, 128]
000000 5c ee f0 3c bb 67 dd 3d ba 65 cd 3d 1c 18 f1 3d
       0.029410534 0.10810801 0.100291684 0.117721766
000010 34 9e 9b 3c 1e 60 2a 3d e4 01 b4 3d b3 88 a2 3c
       0.018996336 0.04159557 0.08789423 0.019840574
000020 8e 91 c9 3c 94 9d 21 3d 1c 30 40 bd bd a3 e3 3c
       0.024605539 0.03945692 -0.04692088 0.027788037
000030 cf a1 92 3d e7 64 4f bd bf b2 b9 bc 03 01 14 bd
       0.07159769 -0.050633337 -0.02266824 -0.036133777
000040 47 d0 f9 3d 69 de 89 bd b5 69 ee 3d c7 7d 11 bd
       0.12197929 -0.067318745 0.11641256 -0.03552034
000050 65 d6 09 bd 8d 01 da 3d 4f ce 32 3d bb f3 e8 3d
       -0.03365173 0.10644827 0.043653782 0.11374613
000060 34 0f c6 bc 3a 57 42 bb da 44 d8 bb 5b 96 c0 3d
       -0.024177171 -0.0029654042 -0.0066000046 0.09403678
000070 60 5e a7 3d 54 fa 60 3d be 0d 9b bd 4c 47 ae 3c
       0.081722975 0.05492623 -0.075709805 0.021274231
000080 e9 b9 f8 3d bc c2 99 bb 20 96 65 bc 0c 79 c9 3c
       0.121448345 -0.0046924036 -0.014012843 0.024593852
000090 44 65 10 3d b5 2d 02 3e e7 ec 9e 3d 02 6a 28 3d
       0.035252824 0.12712748 0.07760029 0.041116722
0000a0 12 9e 90 3d cb 86 a8 bb fb 5b c0 3c e6 c5 86 bd
       0.070613995 -0.0051430217 0.02348136 -0.06580715
0000b0 63 20 af 3d db 27 4e bd 70 1e db 3c a6 bf 77 3d
       0.08551099 -0.050330978 0.026747912 0.060485505
0000c0 5b 78 5e 3c 14 5c c6 3d fd a7 8f bc 61 3b 0a 3d
       0.0135785 0.09685531 -0.017536158 0.033748034
0000d0 3a 8b b0 3d 0d cb 00 3e d6 50 98 bc 09 5b 96 3d
       0.08620305 0.12577458 -0.018593233 0.07341582
0000e0 8d 78 2e 3a d1 ac aa bb 9c a7 bd 3d ae eb e7 3d
       0.00066555367 -0.0052085896 0.092604846 0.11324249
0000f0 8a c5 a6 bc f5 10 83 bc 35 86 59 bc f8 57 ae 3d
       -0.020357866 -0.015999297 -0.013276626 0.085128725
000100 3f d9 d7 3c 71 28 c9 bc b9 dd 1c bd 49 bb 8d 3c
       0.026348708 -0.024555417 -0.03829739 0.017301219
000110 87 ba bb 3d 58 89 ce ba 1f 07 dd 3d e2 fc 8d bd
       0.09166437 -0.0015757484 0.10792374 -0.06932999
000120 12 83 65 3d b9 39 a1 3d 85 a0 88 3d a7 a4 b5 3d
       0.0560332 0.07872338 0.06671242 0.088692956
000130 76 1a 2a 3d c0 22 95 ba fa 54 80 3a 1c 2e 98 3d
       0.04152914 -0.0011378154 0.000979095 0.0743067
000140 11 97 e0 bc de 69 02 3d 13 8e ba 3d 1c 3f 05 3d
       -0.027415784 0.031839244 0.0910913 0.03253089
000150 96 a3 92 bd 9d 8e de 3d 79 5f a8 bd 80 fd 33 bd
       -0.07160108 0.10867045 -0.08221335 -0.04394293
000160 2f bd d4 3d 4b 7b 85 bb ee f8 c1 3c 1b f8 f0 3b
       0.103876464 -0.0040735356 0.02367827 0.007353795
000170 3e af b0 3d 61 b3 01 3e c3 6b bd 3d 40 eb 76 bd
       0.08627175 0.12666084 0.092490695 -0.060282946
000180 d4 55 e5 bc 52 67 22 bd de ae e6 3d d2 a3 d9 3d
       -0.027995028 -0.039649315 0.11263822 0.10626949
000190 83 50 32 ba 8e 1c 5d 3d 99 72 e5 3d 48 8d d6 3a
       -0.00068021583 0.05398231 0.112034984 0.0016369009
0001a0 09 0c ff bc bf 89 86 3c 2b 2d 00 bd 99 a6 27 3d
       -0.031133668 0.016423104 -0.031293076 0.040930364
0001b0 1b 3e be 3c a2 63 eb 3d 62 00 3d 3d 2e 25 0e 3d
       0.023222974 0.11493613 0.046142943 0.034703426
0001c0 2e d9 a6 3d 25 47 73 bd c0 8b 56 bc 2e e5 27 3d
       0.081468925 -0.05939402 -0.013094842 0.040990047
0001d0 b1 61 7b 3c e6 a0 41 bb 08 b8 43 bd c5 80 28 3b
       0.015343116 -0.0029545366 -0.047782928 0.0025711518
0001e0 db 54 76 3d ae 51 33 3d d5 61 91 bb 5c 86 a9 bc
       0.06013952 0.043779068 -0.0044367113 -0.02069395
0001f0 a2 3c 16 bd 98 a0 3c bd c9 cd 75 3c 99 5e 73 3d
       -0.036678918 -0.04605159 0.015002676 0.059416387
000200 94 6e ab 3c 1a 0e fa 3d 8c 98 9f bc d6 59 3b 3d
       0.020926751 0.12209721 -0.01948192 0.04573997
000210 20 af 15 bd fb 0f a8 3d 94 7c 9e 3d b2 7b 8e bd
       -0.036543965 0.08206173 0.07738605 -0.06957187
000220 16 22 da 3b 2c a2 1b bc 2e 61 94 bd ca 86 17 3d
       0.0066568954 -0.009499114 -0.07245098 0.03699378
000230 7c b8 5d 3c f3 2a 99 3d 2a 3e de 3d 84 67 5e 3d
       0.013532754 0.07478895 0.108517006 0.05429794
000240 68 0b 9e 3c d6 4b 7a 3d 75 2e 10 3c db 78 b4 3c
       0.019292548 0.06110748 0.008800139 0.022030285
000250 0a c1 7a 3d 05 48 31 bd b9 a5 db 3b 71 f9 fb 3d
       0.061219253 -0.043281574 0.0067031053 0.123034365
000260 94 ae 00 bd fd ba e8 3d 5e 23 e4 3c 5c 19 25 3b
       -0.03141649 0.1136379 0.027848896 0.0025192117
000270 f2 86 fb 3d e2 f2 86 bd e5 42 b4 3d 56 5c 3d bc
       0.12281598 -0.06589295 0.088018216 -0.011557659
000280 b9 8e ac bc 5d 75 53 bd 98 a2 8d bc 5a 05 6a 3d
       -0.02106415 -0.0516256 -0.017289445 0.05713401
000290 da b5 d3 3c c2 2c 20 bd 86 dc 8e bd 60 72 3a 3d
       0.02584355 -0.039105184 -0.06975655 0.045519233
0002a0 eb de ec 3d b2 f1 f5 3d 14 c0 39 bd dc 96 b5 bc
       0.11565956 0.1200899 -0.045349196 -0.022166662
0002b0 42 67 19 3d 23 fe 89 bd 7c 20 9d bc f1 e8 b2 3d
       0.03745199 -0.06737926 -0.019180529 0.08735836
0002c0 41 11 ae 3d 88 13 9d 3d 6c d8 8d 3d c9 50 74 3d
       0.08499385 0.07669741 0.06926045 0.059647355
0002d0 76 b3 db 3c 90 8d dc 3c 0e c9 47 bd 26 db e9 3d
       0.026818972 0.026922971 -0.048775725 0.11418752
0002e0 5b 83 b4 3d 32 ee 26 bd 67 e0 20 3d 35 c9 1a 3d
       0.088141166 -0.040754505 0.039276507 0.037789542
0002f0 a2 62 3d 3d 58 9a 15 bd 27 37 bf 3d c1 4c ef 3d
       0.04623664 -0.036524147 0.09336691 0.116845615
000300 02 df ea 3d 33 d1 22 3d 41 04 e3 3d 23 13 d4 bb
       0.114683166 0.03975029 0.11084796 -0.006472008
000310 10 0e c4 3c dc 48 4e bc 97 37 16 3c d0 be db 3c
       0.023932487 -0.012590613 0.009168527 0.026824385
000320 30 ed b9 3b 79 90 d4 3d 35 db 8b bd a0 51 9c 3a
       0.005674027 0.103791185 -0.0682892 0.0011926182
000330 18 aa 37 3c 1a 4f 62 3d e8 7b ce 3d 0b 7f d4 bc
       0.011209987 0.05525122 0.10082227 -0.025939485
000340 78 ee 82 3c ca 56 e6 3d e4 b0 17 bd 18 50 ad bd
       0.015982851 0.112470224 -0.03703393 -0.08462542
000350 1d ee 8c 3d 49 66 0b 3c 4c 65 08 bd 29 dd 34 bc
       0.06881354 0.008508273 -0.03329973 -0.011039057
000360 73 cd 32 3d c2 25 0c 3d 80 57 69 bd 8c 73 eb bc
       0.043652963 0.034215696 -0.056968212 -0.02874162
000370 3e 9e 00 3d bb 8f 8b 3d 01 d1 e2 bc 77 a5 df bc
       0.03140091 0.06814524 -0.027687551 -0.02730058
000380 0e fe 07 3d cd 85 f7 3d ac 78 b6 3d 1c 0b 86 3d
       0.03320127 0.12086067 0.08909735 0.06545088
000390 c8 e3 17 bd 28 6f 93 bd ca 92 26 3c d0 f6 f9 bc
       -0.037082464 -0.07198936 0.010166833 -0.030513197
0003a0 13 f0 dc 3c 60 0b 77 bc 9d 6a ba 3c 3f 19 76 3d
       0.026969945 -0.015078396 0.022755915 0.06008267
0003b0 3c 2d 9f 3d cf ad ae 3d f3 2a b9 3d ed f5 38 3c
       0.077723 0.08529245 0.09041395 0.011289102
0003c0 7a 6e 94 3d f0 7e 4f 3c 77 28 e1 3d a4 21 83 bd
       0.07247634 0.012664542 0.10994046 -0.06402901
0003d0 5e 8a 86 3d 49 12 28 3d c3 6b ab bc 4a d6 9f 3d
       0.0656936 0.041033063 -0.020925408 0.07804544
0003e0 a8 45 e5 3d 0c e5 ca bc 34 c2 a2 3c f3 ce ca 3d
       0.111949265 -0.024767421 0.019867994 0.09902754
0003f0 a2 ed 66 3d 29 bd bd 3d a4 20 08 bd ca bc 7b bd
       0.056378968 0.09264595 -0.033234254 -0.06145934

fc2.bias f4 [64]
000000 9a c4 d0 3d dd 46 57 3d b7 94 42 3d db ed 45 bd
       0.10193749 0.052557815 0.047505107 -0.04832254
000010 38 1d db 3c 25 7d 68 bd 8e f1 dd 3c e8 65 5b bd
       0.026747331 -0.056759972 0.027092721 -0.053563982
000020 50 a5 a4 bc e8 f8 5a 3c 4e 18 b2 3d 92 a9 5f 3c
       -0.020098358 0.013365008 0.08696042 0.013651269
000030 a6 99 cf bc aa ff c2 bb bb 54 0b 3c 83 6b 82 bc
       -0.02534182 -0.0059508877 0.008504088 -0.015920406
000040 7e 82 af 3d b8 2f f4 bc 51 d9 20 3d f8 72 94 3d
       0.08569811 -0.02980791 0.03926975 0.07248491
000050 1e fb dd 3a f2 7f bc bd f5 7f 3d 3b 77 d9 82 3b
       0.0016935801 -0.09204091 0.002891538 0.003993209
000060 dd 8d e6 bc b4 58 bb 3c 99 e4 00 3e 49 48 8b b9
       -0.028143818 0.022869445 0.12587203 -0.00026566003
000070 bc 64 0c 3d 62 e0 e4 bc 4f d3 1c 3d f4 51 52 3d
       0.034275755 -0.027939025 0.038287457 0.051347688
000080 22 c3 3f 3d 84 c8 6e 3c 0e d5 35 3d 12 45 8c bd
       0.046816953 0.014574174 0.044392638 -0.068491116
000090 11 22 9a bd 5f 5c f5 3d 71 2b b2 3d 1d 1b 7a 3d
       -0.07526029 0.11980509 0.08699692 0.061061013
0000a0 d3 99 7d bc 3e 96 1c 3c 42 c7 56 3d e7 91 4a 3d
       -0.015478569 0.009557305 0.05243612 0.04945555
0000b0 d4 3d 9a 3d 3d c9 cd bd e3 8e 08 3b 5e ab 9c 3d
       0.07531324 -0.10048149 0.002083712 0.07649873
0000c0 db 3e 73 3d 2b 27 b5 bd b8 28 29 bd 57 e2 85 3c
       0.059386116 -0.08845361 -0.041298598 0.016343279
0000d0 99 46 9e bc 1f 18 51 3c 98 92 f3 3c 24 02 8d bd
       -0.019320773 0.012762099 0.029732987 -0.06885174
0000e0 23 0f 36 3d d0 0b 4f 3d 65 a4 08 bc 1f bd 6a 3d
       0.04444803 0.050548375 -0.008339976 0.057309266
0000f0 6a 32 1c 3d 39 04 3a 3b ae af 31 3d 68 66 2f 3d
       0.038134016 0.0028383865 0.04338043 0.04282227

fc3.weight f4 [1, 64]
000000 ff 34 a5 bd 5d ae ba bd 6d bc 73 bd 80 c5 97 3d
       -0.08066749 -0.091152884 -0.05950587 0.07410717
000010 70 05 3f bd 1c 69 90 3d 8b ff 06 be 48 f7 8c 3d
       -0.046636045 0.07051298 -0.1318342 0.06883103
000020 54 f9 d8 bd 60 77 d7 3b ce 68 03 be 7d c5 d8 3d
       -0.105944306 0.00657551 -0.12832949 0.10584543
000030 d2 da b3 bd 4a b1 96 3d c5 8d 24 3d c6 21 22 be
       -0.08781971 0.07358034 0.040174264 -0.15833196
000040 4e 85 89 bd 51 b8 6a 3d 55 15 0c be a5 98 1e be
       -0.06714879 0.057304684 -0.13680013 -0.15487917
000050 a6 6f 24 3d 4b 71 da 3d f4 43 98 bd 18 14 99 3d
       0.04014554 0.1066614 -0.07434836 0.07474536
000060 47 8f 1f 3c 3d 01 01 be a5 83 4f bd 38 a9 96 3d
       0.00973875 -0.12598129 -0.050662655 0.07356495
000070 d6 5e cf 3d ce 75 0f be 66 cc ec bd d0 d0 73 bd
       0.101255104 -0.14009783 -0.115624234 -0.05952531
000080 00 0b eb 3c 9c e0 30 3d 00 dc bd ba 16 c9 f7 bd
       0.028691769 0.043182954 -0.0014485121 -0.12098901
000090 91 f3 9d 3d 9d a1 15 be 2e 40 26 be 78 89 16 be
       0.07712472 -0.14612432 -0.1623542 -0.14700878
0000a0 d7 91 72 3c 83 40 28 3d 66 27 ca bd 22 5d b9 3d
       0.014805279 0.04107715 -0.09870796 0.09050967
0000b0 3e 98 fc bd 17 18 26 3d f2 d3 6a 3d 3d 63 0d be
       -0.123337254 0.040550318 0.057331033 -0.13807388
0000c0 cf 86 9a bd 34 07 db 3d 8c d5 e9 bd 59 89 12 be
       -0.07545244 0.10694733 -0.11417684 -0.14310206
0000d0 1e 60 8e 3d a1 29 01 3c 22 44 cb 3d 20 88 a9 3d
       0.06951927 0.00788346 0.09925105 0.08277917
0000e0 e6 02 95 bd 2d 02 79 bd af b0 85 3c d9 b1 c8 3c
       -0.072759435 -0.06079309 0.0163196 0.024498867
0000f0 b8 da e1 bd b0 f8 ef bc d2 ab 70 3d dc fa 92 bd
       -0.110280454 -0.029293388 0.05875761 -0.07176754
