checkpoints/model_epoch_40_baseline.pt (torch, 44840 bytes, 5 tensors)

fc1.weight f4 [128, 16]
0	0x3e528f16	0.20562395
1	0x3dc23518	0.09482783
2	0xbd1bc6d8	-0.03803143
3	0x3d5bfdd0	0.05370885
4	0xbd4754d8	-0.048664898
5	0xbe70c29e	-0.2351174
6	0x3e3bf014	0.18353301
7	0xbe7a8c2c	-0.24467534
8	0x3d84dc04	0.06487277
9	0x3d81e098	0.06341666
10	0x3cb2ee40	0.021842122
11	0xbd8603b8	-0.06543678
12	0x3d635ae8	0.055506617
13	0xbd2ce098	-0.042206377
14	0xbe7f800c	-0.2495119
15	0xbe587f98	-0.21142423
16	0x3dc733c4	0.097266704
17	0x3db86bb0	0.09004915
18	0xbdf1787c	-0.11790559
19	0x3b368100	0.0027847886
20	0xbde41e3c	-0.11138579
21	0x3e50a232	0.20374373
22	0xbd118168	-0.035523802
23	0xbe14e6fa	-0.14541236
24	0xbc35f340	-0.011105359
25	0xbe785d62	-0.24254373
26	0xbd219be0	-0.039455295
27	0xbdc24278	-0.09485334
28	0xbe3764b8	-0.17909515
29	0xbe679f96	-0.22619471
30	0xbdc2d8d4	-0.09514013
31	0x3cefabb0	0.029256672
32	0xbe338d82	-0.1753445
33	0xbe5da434	-0.2164467
34	0x3e4af9da	0.19821873
35	0xbe671f54	-0.22570544
36	0x3d94715c	0.07248184
37	0xbe2f62fa	-0.171276
38	0xbdc8f000	-0.09811401
39	0x3cbafba0	0.022825062
40	0x3e4d72c4	0.20063311
41	0x3e4a7408	0.19770825
42	0xbd455f28	-0.04818645
43	0x3ceeef10	0.029166728
44	0xbe48f8aa	-0.19626108
45	0xbe5c4c6a	-0.21513525
46	0xbd8044c4	-0.06263116
47	0x3d4631d8	0.04838738
48	0x3e3cba3a	0.18430415
49	0xbe3f0994	-0.18655998
50	0xbce05420	-0.027383864
51	0x3d5aa420	0.053379178
52	0x3e46edc8	0.19426644
53	0xbd6c7318	-0.05772695
54	0x3e6160c4	0.2200957
55	0x3e319d94	0.17345268
56	0xbdd6ef24	-0.10494831
57	0xbe6677b4	-0.225066
58	0xbcbf92f0	-0.023385495
59	0xbe7a3548	-0.24434388
60	0xbe14e164	-0.14539105
61	0xbe6b9d92	-0.23009327
62	0xbd55cae8	-0.05219546
63	0xbd431dd8	-0.047635883
64	0xbda6bfa8	-0.08142024
65	0x3e47b13e	0.19501206
66	0xbd662970	-0.05619186
67	0xbe770cd8	-0.24125993
68	0x3cb72100	0.022354603
69	0x3e199076	0.14996514
70	0x3dfb6104	0.12274364
71	0x3bbe82c0	0.0058139265
72	0x3da521e0	0.08063102
73	0xbe6dfdf4	-0.23241407
74	0x3e217d6a	0.15770498
75	0x3d9335d0	0.07187998
76	0x3dd7c4f0	0.1053561
77	0x3e21082c	0.15725774
78	0x3ccfc0e0	0.025360525
79	0xbda6da94	-0.08147159
80	0x3d5e0538	0.054204196
81	0x3dc0198c	0.09379873
82	0xbdba22bc	-0.09088656
83	0x3e27dd98	0.16393125
84	0x3be25f00	0.0069082975
85	0x3e03ee1e	0.12883803
86	0xbd2de5f8	-0.042455643
87	0x3e3e2084	0.18567091
88	0xbdf41d3c	-0.119196385
89	0x3dbee598	0.09321135
90	0x3d778710	0.06043154
91	0xbe54fa6c	-0.20798653
92	0xbe74fd46	-0.23924741
93	0x3e0e40ca	0.13891903
94	0xbe7513d4	-0.23933345
95	0x3dfc0348	0.12305313
96	0xbe5ba206	-0.21448526
97	0xbe517f66	-0.20458755
98	0xbdd6cf08	-0.10488707
99	0x3e0c8948	0.13724244
100	0x3e2c7464	0.16841274
101	0x3cb97860	0.022640407
102	0xbe5bc218	-0.2146076
103	0x3dd20b1c	0.10256025
104	0xbe4ac58e	-0.19801924
105	0x3d8ee8f0	0.06978023
106	0x3dc5ae1c	0.09652349
107	0xbb613b00	-0.0034367442
108	0xbe0edb48	-0.13950837
109	0xbe53a57a	-0.20668593
110	0xbe52e864	-0.20596462
111	0xbe0ec42a	-0.13942018
112	0x3e0be070	0.13659835
113	0xbe338a38	-0.17533195
114	0x3e36dcee	0.17857715
115	0x3dab2350	0.08356345
116	0xbe36fc4e	-0.17869684
117	0x3d045168	0.032304198
118	0xbd473678	-0.04863593
119	0xbe297d12	-0.16551617
120	0xbdffcdec	-0.12490448
121	0xbdc8748c	-0.097878546
122	0xbe7051b0	-0.23468661
123	0xbe5e8096	-0.21728739
124	0x3e6a28f0	0.22867179
125	0x3e6c84b8	0.23097503
126	0xbe41a4f8	-0.18910587
127	0x3dfee724	0.1244643
128	0x3dabffa0	0.08398366
129	0x3d40c3c8	0.04706171
130	0xbe10e8dc	-0.14151329
131	0x3e156266	0.14588317
132	0x3e45d056	0.19317755
133	0x3e1f2f38	0.15545356
134	0x3c9a4c50	0.018835217
135	0x3e52b2e2	0.20576051
136	0xbd8a1fa0	-0.06744313
137	0x3deb4f4c	0.11489734
138	0x3e11f2e0	0.14252806
139	0xbd1e9fd8	-0.038726658
140	0x3d47a188	0.048738033
141	0x3e651bcc	0.22373885
142	0x3b276b80	0.0025546253
143	0x3da1a2c8	0.07892376
144	0xbe144f02	-0.14483264
145	0xbdaca01c	-0.08428976
146	0x3e5e3afe	0.21702191
147	0x3c4b9300	0.012425184
148	0xbd3dc868	-0.0463337
149	0xbe33ae98	-0.17547071
150	0x3d89f7b8	0.06736702
151	0xbde56e8c	-0.11202726
152	0xbdf4986c	-0.11943135
153	0x3de07c3c	0.10961196
154	0x3d56ea58	0.05246958
155	0x3dc7fc24	0.09764889
156	0x3e7f86c0	0.24953747
157	0x3da79b80	0.08183956
158	0x3d943730	0.07237089
159	0x3d9c1e40	0.07622957
160	0x3c4a0220	0.012329608
161	0x3e5cdb02	0.2156792
162	0xbe73f5ac	-0.23824185
163	0x3b0a9d00	0.0021150708
164	0xbdf80558	-0.12110394
165	0x3e28ae36	0.16472706
166	0x3cc65d90	0.024214536
167	0x3cd7a490	0.026323587
168	0x3cbd08d0	0.023075491
169	0xbd95df58	-0.0731799
170	0xbdabcd34	-0.08388749
171	0xbdcd76e4	-0.10032442
172	0x3e3521e0	0.17688704
173	0xbe6d8cc2	-0.23198226
174	0xbc9a7aa0	-0.0188573
175	0xbdb21fbc	-0.08697459
176	0xbe782c76	-0.2423571
177	0xbe0c0bca	-0.13676372
178	0x3e7ddf3c	0.24792188
179	0xbbe8c540	-0.007103592
180	0x3e4c50cc	0.19952697
181	0xbdb25658	-0.08707875
182	0x3caf5420	0.021402419
183	0xbe6a256c	-0.22865838
184	0xbe5e1b24	-0.21690041
185	0x3e1f40b2	0.15552023
186	0x3dfe0edc	0.12405178
187	0xbe362a68	-0.17789614
188	0x3d9394e4	0.07206133
189	0x3d3db030	0.046310604
190	0xbc95dc30	-0.01829347
191	0xbe4b6218	-0.19861639
192	0x3daad518	0.08341426
193	0xbe1abc0e	-0.151108
194	0x3e1471e6	0.14496574
195	0x3d4c6908	0.049904853
196	0xbcb8c7f0	-0.022556275
197	0x3e71c5be	0.23610589
198	0x3e5df5c4	0.21675783
199	0xbdb6ae64	-0.08919981
200	0xbe5ae938	-0.21378028
201	0x3e182ab8	0.14860046
202	0xbe4b88a0	-0.19876337
203	0x3d229450	0.039692223
204	0xbe2a2854	-0.16616946
205	0x3e08cb28	0.13358748
206	0xbe068f4e	-0.13140604
207	0x3e1cbefa	0.15307227
208	0x3e621c50	0.22081113
209	0x3e109d46	0.14122495
210	0x3c2bd920	0.010488778
211	0xbdf1daf8	-0.11809343
212	0x3e7405e2	0.23830369
213	0x3e4d1a7c	0.20029634
214	0xbdd8e90c	-0.10591325
215	0x3e611250	0.21979642
216	0x3d8ae180	0.06781292
217	0x3d91c0ac	0.07116827
218	0x3c83a240	0.016068578
219	0xbcc80320	-0.024415553
220	0x3e51e2b4	0.20496637
221	0x3dbdd670	0.09269416
222	0xbce7a070	-0.028274745
223	0x3db1c63c	0.08680388
224	0xbd58ac58	-0.052898735
225	0x3e17104e	0.14752313
226	0x3dbac73c	0.09120032
227	0xbe3e441e	-0.18580672
228	0x3dc0f070	0.0942086
229	0xbd673998	-0.05645141
230	0xbe7cf08a	-0.24701133
231	0xbe5d4578	-0.21608531
232	0xbd394898	-0.045235246
233	0x3cf218c0	0.029552817
234	0xbe1b007a	-0.151369
235	0xbd9c8774	-0.07643023
236	0x3e301e36	0.17199025
237	0x3e1fde0c	0.15612048
238	0xbc081c60	-0.008307546
239	0x3e6a83a8	0.22901785
240	0xbcebd9d0	-0.028790385
241	0xbcdf74f0	-0.02727744
242	0x3df8749c	0.121316165
243	0xbdb3f350	-0.087866426
244	0x3e4b88c8	0.19876397
245	0x3e5403cc	0.20704573
246	0x3e76f52a	0.2411696
247	0x3e373e34	0.17894822
248	0x3e092ce8	0.13396037
249	0xbd4c8528	-0.049931675
250	0xbcc932d0	-0.024560362
251	0x3e47f5d6	0.19527373
252	0xbcc3ea10	-0.02391532
253	0x3ce56a20	0.028004706
254	0x3e63a2c4	0.22230059
255	0x3d9da264	0.07696989

fc1.bias f4 [128]
0	0xbd507ad0	-0.050898373
1	0x3ce5c5d0	0.028048426
2	0x3e2c2cca	0.1681396
3	0x3d8df134	0.069307715
4	0xbdfec920	-0.12440705
5	0x3e219026	0.15777645
6	0xbd4495e8	-0.047994524
7	0xbc6952c0	-0.014240921
8	0xbd89d58c	-0.06730184
9	0x3e2028be	0.15640542
10	0xbe2670be	-0.16253945
11	0xbe5ddf08	-0.21667111
12	0xbe560694	-0.20900947
13	0x3d3e4d38	0.04646036
14	0xbe03868e	-0.12844297
15	0x3e52441a	0.20533791
16	0x3db3ba4c	0.08775768
17	0xbe2334b8	-0.1593808
18	0xbd870f1c	-0.06594679
19	0x3c7dc760	0.015489429
20	0x3e67adc6	0.22624883
21	0xbe318958	-0.17337549
22	0xbe326aee	-0.17423603
23	0xbd1986e8	-0.037482172
24	0xbe5ca93a	-0.2154893
25	0x3e04f14c	0.12982672
26	0xbdf908fc	-0.12159917
27	0xbd8c4d68	-0.068507016
28	0x3e1f3fe4	0.15551716
29	0x3db126e0	0.08649993
30	0x3e758d2c	0.23979634
31	0xbdf87ff8	-0.12133783
32	0xbd83d548	-0.064371645
33	0x3c4df6a0	0.012571007
34	0x3cff8be0	0.031194627
35	0xbe0a6456	-0.13514838
36	0x3e5b1224	0.21393639
37	0xbe3c4b8a	-0.18388191
38	0xbd224a50	-0.03962165
39	0x3dd517e4	0.104049474
40	0xbb1a7d00	-0.002357304
41	0x3e4159e4	0.18881947
42	0x3e5b8ea4	0.21441132
43	0xbe6824a6	-0.2267023
44	0x3e60b2c0	0.21943188
45	0xbe116b7a	-0.14201155
46	0x3dcf1e18	0.10113162
47	0xbca53b90	-0.020170003
48	0x3d7aa8a8	0.061196
49	0x3e418ad4	0.18900615
50	0x3d94b1c4	0.072604686
51	0x3e30c026	0.17260799
52	0x3d90a438	0.07062572
53	0xbe38960a	-0.18025985
54	0x3db78b0c	0.08962068
55	0x3e75db68	0.24009478
56	0x3e6eee4a	0.23333088
57	0xbdb629a0	-0.08894658
58	0xbe7cc53c	-0.24684614
59	0x3e0d314c	0.13788337
60	0x3d8e8e68	0.069607556
61	0x3cce8bb0	0.025213093
62	0x3e7f90ce	0.24957582
63	0x3d61f2b0	0.055163085
64	0x3e1cc604	0.15309912
65	0xbe1a5d08	-0.15074551
66	0xbdc65db4	-0.09685841
67	0x3da82c60	0.08211589
68	0x3c0c89e0	0.008577794
69	0x3e4ecf4a	0.20196262
70	0xbca39920	-0.019970477
71	0xbe40544e	-0.1878216
72	0x3d9905ec	0.07471833
73	0xbe2c8b24	-0.16849953
74	0x3d688510	0.056767523
75	0x3d531858	0.051536888
76	0xbe08604c	-0.13317984
77	0x3e0bfc7e	0.13670537
78	0x3df7aca4	0.120934755
79	0xbe26aa62	-0.16275933
80	0xbd928194	-0.07153621
81	0x3c12c360	0.008957714
82	0x3de65374	0.11246386
83	0x3e4633ca	0.19355693
84	0x3e3f3afc	0.18674845
85	0xbe6c0d06	-0.23051843
86	0xbdd76560	-0.105173826
87	0x3e40278c	0.18765086
88	0xbbbfbc40	-0.0058512986
89	0x3d00c028	0.031433254
90	0xbe1d2314	-0.15345412
91	0x3e239d42	0.15977958
92	0x3e5f9734	0.21835023
93	0x3e7d44b8	0.24733245
94	0xbdbb3de8	-0.09142667
95	0xbe4e6d56	-0.20158896
96	0x3d92a57c	0.0716047
97	0xbc73f280	-0.0148893595
98	0xbe1869a0	-0.14884043
99	0xbe67f2aa	-0.22651163
100	0x3e52cce6	0.20585975
101	0x3dabccb0	0.083886504
102	0xbe33bad6	-0.17551741
103	0xbe0a0616	-0.13478884
104	0x3e7651e2	0.24054673
105	0x3dd5b440	0.104347706
106	0xbdb7bffc	-0.08972165
107	0x3d1ee068	0.03878823
108	0xbe7d81ea	-0.2475659
109	0x3d88d370	0.066809535
110	0xbe4711b8	-0.19440353
111	0xbdbccb94	-0.09218517
112	0x3cb51f50	0.022109658
113	0xbce46610	-0.027880698
114	0xbdc3b728	-0.09556419
115	0x3d831378	0.06400198
116	0xbe5e9570	-0.21736693
117	0xbe235a2a	-0.15952364
118	0x3e3ad974	0.18247014
119	0x3e26393a	0.16232768
120	0x3dbc3a0c	0.09190759
121	0xbdb998b8	-0.09062332
122	0x3e7816c0	0.24227428
123	0xbe76e0da	-0.24109212
124	0xbd04c180	-0.0324111
125	0x3e11d804	0.1424256
126	0x3e317c66	0.1733261
127	0x3dbb16a4	0.09135178

fc2.weight f4 [64, 128]
0	0xbdc10f24	-0.09426716
1	0x3ca23762	0.0198018
2	0xbd9efe6a	-0.077633694
3	0xbdac4a71	-0.08412636
4	0xbdb7e24b	-0.08978709
5	0x3cd97dae	0.026549187
6	0xbdbc1ccc	-0.0918518
7	0x37a32170	1.9446685e-05
8	0x3d5082d9	0.050906036
9	0x3d8d2a4f	0.06892835
10	0x3d70da31	0.058801834
11	0xbdb8d31e	-0.090246424
12	0xbd1aedcd	-0.03782444
13	0xbd0dd209	-0.034624133
14	0xbda247b3	-0.07923832
15	0xbda64f1d	-0.081205584
16	0x3d9f7385	0.077857055
17	0x3d03f0e2	0.032212146
18	0xbdc9c213	-0.0985147
19	0x3d28545f	0.041096088
20	0xbdae3964	-0.0850704
21	0xbd8a7d06	-0.067621276
22	0x3be8847f	0.007095873
23	0xbd850e34	-0.0649685
24	0xbdafcbd0	-0.08583796
25	0x3d83ad5f	0.06429552
26	0xbdc6c2a5	-0.09705094
27	0x3c0bf443	0.008542123
28	0x3d521794	0.051292017
29	0x3d66f3ec	0.056384966
30	0xbcac6659	-0.021044897
31	0x3cd9dfc6	0.026595961
32	0xbc5a2c89	-0.013316282
33	0xbcb41267	-0.021981431
34	0xbd92c12a	-0.07165749
35	0xbd791575	-0.06081148
36	0xbdc8ee37	-0.09811061
37	0x3cde6368	0.02714701
38	0x3b98804f	0.0046539675
39	0xbae8260e	-0.0017711536
40	0x3d713ba8	0.058894783
41	0x3cd0e2a5	0.025498698
42	0xbc4c2b9c	-0.012461569
43	0x3c450fb9	0.012027674
44	0x3c99f44b	0.018793246
45	0xbbed284d	-0.0072374702
46	0x3d0afd6d	0.033933092
47	0xbc8a831f	-0.016908227
48	0x3d360539	0.044438574
49	0x3b32d31b	0.0027286473
50	0x3d519a51	0.05117256
51	0xbdd26a57	-0.10274189
52	0xbd2ea442	-0.042637117
53	0xbd5a32b6	-0.053271018
54	0x3cba5c8a	0.022749204
55	0xb98e33a6	-0.00027122832
56	0xbd82e74e	-0.06391774
57	0x3cc0ca68	0.023534015
58	0xbc60f4c6	-0.013730234
59	0x3bb0944c	0.005388772
60	0xbb4710db	-0.0030375037
61	0xbd7d0a79	-0.061777566
62	0x3d428420	0.047489285
63	0xbd609f4a	-0.05483941
64	0xbdbcce33	-0.09219017
65	0xbdc4e27a	-0.096135095
66	0xbdb4324c	-0.08798656
67	0xbda6cb00	-0.08144188
68	0x3cd54d3a	0.026037801
69	0xbdc66451	-0.096871026
70	0x3d45d75a	0.04830108
71	0xbd80bcac	-0.06285986
72	0x3d1ead6e	0.038739614
73	0xbd2aaa3d	-0.041666258
74	0xbd206640	-0.039160013
75	0x3bf22c6a	0.0073905485
76	0xbd958ea4	-0.07302597
77	0xbd5cb4f3	-0.053883504
78	0x3d7d77ee	0.061881952
79	0xbc4588d3	-0.012056547
80	0xbd2b933e	-0.041888468
81	0xbc98463a	-0.018588174
82	0xbd667560	-0.05626428
83	0x3d8b8936	0.0681328
84	0xbdb9a3c3	-0.09064438
85	0x3d52e870	0.0514912
86	0xbdc63ed2	-0.09679951
87	0x3d995839	0.0748753
88	0xbda2c846	-0.079483554
89	0xbb90b70e	-0.004416353
90	0x3d5beae1	0.053690795
91	0x3d0ac1d5	0.03387626
92	0xbd98894b	-0.074480616
93	0x3b1cfbf1	0.002395388
94	0x3cdc5343	0.026895171
95	0xbd40f676	-0.047110043
96	0xbbfb84a8	-0.007675726
97	0xbd2bd980	-0.04195547
98	0xbce4862d	-0.027896011
99	0xbcf1f868	-0.029537395
100	0xbdadd485	-0.084878005
101	0x3cd2601d	0.025680596
102	0xbdb37cd8	-0.087640464
103	0x3a7b9cd1	0.00095982576
104	0xbd9edcbb	-0.07756945
105	0x3cf1d157	0.029518766
106	0x3d88657f	0.06659984
107	0x3d805430	0.062660575
108	0xbc7c8607	-0.015412814
109	0xbcac29d0	-0.021016032
110	0xbd939a99	-0.072072215
111	0x3c99a4bc	0.01875531
112	0x3cab9774	0.020946242
113	0x3d868b83	0.065695785
114	0xbd83c472	-0.06433953
115	0xbbcf6fbf	-0.00633046
116	0x3d4b5e4a	0.049650468
117	0xbdb6cda8	-0.089259446
118	0x3d33f5b3	0.04393549
119	0xbd55b1df	-0.052171584
120	0x3c56a751	0.013101415
121	0xbdb45a75	-0.08806316
122	0xbcc1d41b	-0.02366071
123	0x3c2424b5	0.010018517
124	0x3d28bf1e	0.04119789
125	0x3d84cfd7	0.06484955
126	0x3d5d70c3	0.054062616
127	0xbd539ad0	-0.051661313
128	0x3d1a9e6f	0.03774875
129	0xbd3e3e19	-0.04644594
130	0x3ca89ded	0.020583117
131	0xb91e0c0c	-0.00015072542
132	0x3df9b637	0.12192958
133	0xbc45ed4a	-0.0120805
134	0x3dc87880	0.097886086
135	0x3de19602	0.1101494
136	0x3dea49b0	0.11439836
137	0x3d9b3a77	0.07579511
138	0xbc33fd2b	-0.010985653
139	0x3de0f7da	0.10984774
140	0x3cb05992	0.021527085
141	0x3c642029	0.013923683
142	0x3c560434	0.013062526
143	0x3c3e80a4	0.01162735
144	0xbcd91db6	-0.026503425
145	0x3ce9b0e4	0.02852673
146	0x3cd557ad	0.026042784
147	0x3ddbfb8d	0.10741339
148	0xbbfe2dc1	-0.007756919
149	0x3beb1e76	0.007175262
150	0x3cb6563f	0.022257922
151	0x3d971a45	0.073780574
152	0x3dad8e20	0.08474374
153	0x3dc9ed8f	0.09859764
154	0x3df03148	0.1172815
155	0x3d87ad68	0.066248715
156	0xbc8c036d	-0.017091477
157	0x3d69c06d	0.057068277
158	0x3dd3e9f0	0.103473544
159	0xbcd0230f	-0.025407342
160	0x3dfe842f	0.12427556
161	0x3ca7649c	0.020433716
162	0x3d9ae768	0.075636685
163	0xbcc81d9a	-0.024428178
164	0x3ddd400c	0.108032316
165	0x3d9f660a	0.07783134
166	0x3dbc6d59	0.09200544
167	0x3da1da2e	0.079029426
168	0x3dd830ba	0.10556169
169	0x3c663ea3	0.01405302
170	0x3d1ebd74	0.038754895
171	0x3d8bdf0f	0.068296544
172	0x3dbafbf6	0.09130089
173	0xbcda4e14	-0.026648559
174	0x3d2a8fbd	0.041640986
175	0x3c592e8c	0.013255727
176	0xbc04d100	-0.00810647
177	0xbb8fe4e3	-0.004391299
178	0xbd077836	-0.033073626
179	0x3dda43d8	0.106574714
180	0x3dcfb728	0.10142356
181	0x3d21ac42	0.03947092
182	0xbc9720f5	-0.018448332
183	0xbd12c1b1	-0.03582925
184	0x3d8fc97b	0.07020851
185	0x3dbbe967	0.09175377
186	0xbc7ff9df	-0.015623539
187	0x3d8f7c62	0.07006146
188	0xbcbb6a18	-0.022877738
189	0x3d9a78be	0.07542561
190	0x3e011e44	0.12609202
191	0x3da0fa50	0.07860243
192	0x3dee85c9	0.11646611
193	0x3dd10172	0.10205354
194	0x3dc3e9b8	0.09566063
195	0x3c55895f	0.01303324
196	0xbd33d117	-0.043900575
197	0x3dfa5b0e	0.122243986
198	0x3d1d86a4	0.03845848
199	0x3d94d14c	0.07266483
200	0x3d9a309b	0.07528802
201	0xbcc7ee34	-0.024405576
202	0x3bcce6cc	0.006253099
203	0xbb288cc1	-0.0025718661
204	0x3b844b07	0.0040372643
205	0x3d46f25c	0.048570976
206	0xbca47efe	-0.020080086
207	0x3da3b284	0.079930335
208	0xb9105640	-0.00013765041
209	0x3c2efbfc	0.010680195
210	0x3c525ecd	0.012839985
211	0x3d794e1f	0.060865518
212	0x3d1d5799	0.038413618
213	0x3dbcde01	0.092220314
214	0x3c8690d6	0.016426485
215	0x3ca45223	0.020058697
216	0x3dca80ef	0.098878734
217	0x3d9f0f75	0.0776662
218	0x3d1fc868	0.03900948
219	0x3cd0d42a	0.025491793
220	0x3d3a395c	0.04546486
221	0x3dca29cb	0.098712526
222	0x3ddc67d4	0.10761991
223	0x3d7bd462	0.06148184
224	0x3b2e987a	0.0026641176
225	0x3d80fedb	0.0629861
226	0x3dea23cd	0.1143261
227	0x3d46951f	0.048482057
228	0x3def07dc	0.11671421
229	0xbd17c015	-0.037048418
230	0x3de37907	0.111070685
231	0xbd420cbc	-0.047375426
232	0x3c3ea1a2	0.011635216
233	0x3dc91871	0.09819115
234	0x3c2fbf24	0.010726724
235	0xbd159682	-0.03652049
236	0xbc8e1876	-0.017345648
237	0x3dfc8dea	0.123317555
238	0x3dcb73b4	0.09934178
239	0x3dc3f557	0.09568279
240	0xbc61d8aa	-0.013784567
241	0x3df84110	0.12121785
242	0x3dabb790	0.08384621
243	0x3db9720d	0.090549566
244	0x3d6747e5	0.05646505
245	0xbc8dd54f	-0.017313628
246	0x3bbf3477	0.0058351117
247	0x3c5f8cc3	0.0136444
248	0xbc311053	-0.010807115
249	0xbc3a92ac	-0.011387508
250	0x3de2044d	0.110359766
251	0x3ced2e48	0.028952733
252	0xbd52b0fc	-0.051438317
253	0x3df72edc	0.120694846
254	0x3d7485ee	0.059698038
255	0x3d92b6bf	0.07163762

fc2.bias f4 [64]
0	0xbd37acd2	-0.04484255
1	0x3d07c7db	0.03314958
2	0x3cc8e26e	0.024522033
3	0xbc634b34	-0.01387291
4	0xbdaf4aa8	-0.085591614
5	0x3dab6512	0.08368887
6	0xba29fe28	-0.00064847106
7	0x3e054020	0.13012743
8	0xbc727279	-0.0147978
9	0x3e0577f3	0.13034038
10	0x3d939975	0.07207004
11	0xbd804243	-0.062626384
12	0x3d753e07	0.059873607
13	0xbcb4715f	-0.022026716
14	0x3d80968e	0.06278716
15	0xbd773625	-0.06035437
16	0xbd4c94f5	-0.049946744
17	0x3dc8362c	0.097759575
18	0xbc6c802a	-0.014434854
19	0x3da175de	0.078838095
20	0x3d988ef2	0.0744914
21	0xbcf5f474	-0.03002379
22	0x3dcce7e2	0.10005166
23	0x3c426c02	0.011866571
24	0xbc484776	-0.012224069
25	0xbd1121e9	-0.03543273
26	0xbd17111a	-0.036881544
27	0x3e01b9b6	0.126685
28	0xbce3bbb8	-0.027799472
29	0xbd31622b	-0.04330651
30	0x3d808276	0.062748834
31	0x3bbc2a9a	0.005742383
32	0x3d2c5497	0.04207286
33	0xbd2b480b	-0.041816752
34	0xbd51ea28	-0.0512487
35	0x3cc27b97	0.023740573
36	0x3daaf93b	0.08348318
37	0xbc03207e	-0.008003352
38	0x3d819f15	0.063291706
39	0x3cc8e536	0.024523359
40	0x3ce60660	0.028079212
41	0x3d658c9c	0.0560423
42	0xbdbf448b	-0.093392454
43	0xbc6cde05	-0.01445723
44	0x3c723674	0.01478349
45	0xbd744660	-0.059637427
46	0x3c9bb798	0.019008443
47	0x3c1cf87c	0.009580728
48	0x3d78871f	0.060675737
49	0x3c3d7b57	0.011565051
50	0xbd11b2dc	-0.035570964
51	0xbc1f31a8	-0.009716429
52	0xbbde908c	-0.0067921337
53	0x3d9c535d	0.07633088
54	0x3b91c6ab	0.004448732
55	0xbd72c489	-0.05926946
56	0xbd41e266	-0.04733505
57	0xbd639365	-0.05556049
58	0xbd562007	-0.052276637
59	0xbdca3bf3	-0.09874716
60	0xbdddc566	-0.108286664
61	0xbdb18cae	-0.08669411
62	0x3dfb105c	0.1225898
63	0x3bd34f30	0.006448649

fc3.weight f4 [1, 64]
0	0xb996a5d8	-0.00028733793
1	0xbe0351c1	-0.12824155
2	0xbda3b3d9	-0.079932876
3	0x3dc6b550	0.09702551
4	0x3ce82f65	0.028342912
5	0xbd3a589e	-0.04549467
6	0xbdc5a3e0	-0.09650397
7	0xbdaaeb54	-0.083456665
8	0x3c9a944f	0.018869547
9	0xbe27dc26	-0.16392574
10	0xbe1f9848	-0.15585434
11	0x3dcba523	0.09943607
12	0xbd7b1594	-0.061299875
13	0x3a438152	0.000745793
14	0xbe2a0b02	-0.16605762
15	0x3d91ba86	0.07115655
16	0x3c8a0b51	0.0168511
17	0xbe0adb27	-0.13560162
18	0xbd8dfc22	-0.06932856
19	0xbde3ed7d	-0.11129282
20	0xbe2362ee	-0.15955707
21	0xbdc7ff7d	-0.097655274
22	0xbd941c38	-0.07231945
23	0xbd8bd30c	-0.06827363
24	0xbe0c319a	-0.13690796
25	0x3d23de8d	0.040007163
26	0xbe1b560f	-0.15169547
27	0xbdd1c9d7	-0.10243576
28	0x3da7f91e	0.08201812
29	0x3d374cc5	0.044750948
30	0x3ced21eb	0.028946837
31	0xbdfa8fd3	-0.122344635
32	0xbd4054e6	-0.046955965
33	0xbd402670	-0.046911657
34	0x3dceb6a4	0.1009343
35	0xbb9a8fb2	-0.004716837
36	0xbd75e1b8	-0.060029715
37	0xbe25347e	-0.16133305
38	0xbe122ce5	-0.14274938
39	0xbbcf088b	-0.006318157
40	0xbe2a0d04	-0.16606528
41	0xbda279c6	-0.07933383
42	0x3b8a6dcf	0.004224516
43	0x3de1ffc9	0.11035115
44	0xbe043f0d	-0.12914677
45	0x3de37f2a	0.11108239
46	0xbd8f4915	-0.06996361
47	0x3ca25a5c	0.019818477
48	0x3c7959c6	0.015219158
49	0xbd9bbfbf	-0.07604932
50	0xbdf5ef0d	-0.12008486
51	0xba50076a	-0.0007935675
52	0xbdb3833d	-0.08765266
53	0xbe11c264	-0.1423431
54	0x3d647986	0.055779956
55	0x3d3fa472	0.046787687
56	0x3d3865b2	0.04501886
57	0x3c190462	0.009339424
58	0x3a9de1d7	0.0012045455
59	0x3c1b1114	0.009464521
60	0x3da7278b	0.08161839
61	0x3d3284d1	0.043583695
62	0xbde1fc0f	-0.110344045
63	0x3cdf54b1	0.027262064
