checkpoints/model_epoch_80_policy.pt (torch, 482024 bytes, 13 tensors)

customer_encoder.conv1d.weight f4 [128, 1, 14]
0	0x3e519a9c	0.20469135
1	0x3e638574	0.22218877
2	0xbd7efc1d	-0.062252153
3	0x3e7ec2b2	0.24878958
4	0xbd6cf676	-0.05785223
5	0x3d5ee954	0.054421738
6	0xbe073ca0	-0.1320672
7	0x3e21fc02	0.1581879
8	0x3e70878a	0.23489204
9	0xbe49baaa	-0.19700113
10	0x3e6e3779	0.23263349
11	0x3d4bcedb	0.04975782
12	0x3e493fd3	0.19653253
13	0x3d158bfb	0.03651045
14	0x3e03fc1e	0.12889144
15	0xbd1a79a7	-0.037713673
16	0x3e52fe8c	0.20604914
17	0x3d165087	0.03669789
18	0xbe00336b	-0.12519614
19	0x3d8c131d	0.06839583
20	0xbdf79b44	-0.120901614
21	0xbd02d8c8	-0.03194502
22	0xbdde32bf	-0.10849523
23	0x3e35a6ab	0.1773936
24	0xbe58e7a7	-0.21182118
25	0xbdfd7ce1	-0.123773344
26	0xbd9a9867	-0.075486
27	0xbe23c356	-0.15992483
28	0x3ccf740e	0.025323894
29	0xbe8719e4	-0.2638694
30	0x3e774299	0.24146499
31	0xbe657732	-0.2240875
32	0x3e53d58c	0.2068693
33	0x3d37d807	0.044883754
34	0xbdb5a7be	-0.08869885
35	0x3e2a42bb	0.16627018
36	0x3d284c1d	0.041088212
37	0x3e5c3df0	0.21508002
38	0x3cf3095c	0.029667549
39	0xbdaccbcd	-0.084373094
40	0x3d919f3f	0.07110452
41	0xbd94212b	-0.07232889
42	0x3de61d5b	0.11236068
43	0x3e7438ed	0.2384984
44	0x3e1e145f	0.15437458
45	0xbdf5e323	-0.120062135
46	0x3e1bd962	0.15219644
47	0x3d41886e	0.04724925
48	0x3e0bca1f	0.13651322
49	0xbe2843f9	-0.1643218
50	0xbe867f4d	-0.26268998
51	0xbdd2c307	-0.10291105
52	0xbe515cdd	-0.20445581
53	0x3e613eca	0.21996608
54	0x3da035a5	0.07822732
55	0x3dde6f22	0.10861041
56	0x3dad39d1	0.08458293
57	0xbb966de2	-0.004590736
58	0x3e563d9a	0.20921937
59	0xbe401346	-0.18757352
60	0x3c8c96ba	0.017161716
61	0xbe398806	-0.18118295
62	0x3da50265	0.08057097
63	0xbdba2e38	-0.09090847
64	0x3da5c0fb	0.08093449
65	0xbd664e09	-0.056226764
66	0x3e62faba	0.22165957
67	0xbe22851d	-0.15871091
68	0xbe242510	-0.16029763
69	0xbe22c088	-0.15893757
70	0x3e75f704	0.2402001
71	0x3db60633	0.08887901
72	0x3e8393b7	0.25698635
73	0xbe64d6c8	-0.22347558
74	0xbe87e88f	-0.26544616
75	0xbe56724b	-0.20942037
76	0xbe35e552	-0.1776326
77	0x3ddb4195	0.10705868
78	0x3dc50e38	0.09621853
79	0x3e64abb6	0.22331128
80	0xbe0d9997	-0.13828121
81	0xbe3a20d9	-0.18176593
82	0x3e123104	0.1427651
83	0xbddc3929	-0.1075309
84	0x3e261516	0.16218981
85	0xbd81ec1c	-0.063438624
86	0x3e1c8982	0.1528683
87	0xbe5374e6	-0.20650062
88	0xbe0a81db	-0.13526098
89	0x3da839b0	0.08214128
90	0x3d5f7fa7	0.054565098
91	0xbd8a29ca	-0.06746252
92	0x3e231dd1	0.15929343
93	0x3e39ab28	0.18131697
94	0xbe459c1a	-0.1929783
95	0xbe11c468	-0.1423508
96	0x3e7a7a4e	0.24460718
97	0xbdbae974	-0.09126559
98	0xbdc1d8e9	-0.094652005
99	0xbe845aa3	-0.258504
100	0xbe1ca083	-0.15295605
101	0x3d903637	0.07041591
102	0xbd0affcc	-0.033935353
103	0xbe45cc99	-0.19316329
104	0x3b9ef5bb	0.0048510707
105	0xbe396aeb	-0.18107192
106	0xbe698e6e	-0.22808239
107	0xbe17a4d7	-0.14808975
108	0xbe6f9afd	-0.23398967
109	0xbe2ee9c4	-0.17081362
110	0x3e88269e	0.26591963
111	0x3d544485	0.051823158
112	0x3da8c160	0.08240008
113	0xbe7f3604	-0.24922949
114	0xbe33b378	-0.1754893
115	0xbdb78b35	-0.089620985
116	0x3d2ecb0e	0.042674117
117	0xbe7188e2	-0.23587373
118	0xbde6ad04	-0.11263469
119	0xbe244daf	-0.16045259
120	0x399b11d9	0.000295772
121	0xbdcb5aa3	-0.09929397
122	0xbc9e4b9e	-0.019323166
123	0xbe39aec9	-0.18133081
124	0xbe3bc62f	-0.1833732
125	0xbe1df7e9	-0.15426601
126	0xbdbb4da6	-0.0914567
127	0xbe57fae7	-0.21091805
128	0x3e657ed4	0.22411662
129	0xbd4c6cc6	-0.049908422
130	0x3e6c2866	0.23062286
131	0x3dabe578	0.08393377
132	0xbe69b2f7	-0.22822176
133	0x3e3ea994	0.18619376
134	0xbd982c58	-0.07430333
135	0xbdd39882	-0.10331823
136	0xbe62d59c	-0.22151798
137	0xbe8831a4	-0.26600373
138	0x3d9aa938	0.07551807
139	0xbd6d8ac8	-0.05799368
140	0x3dd4ec84	0.10396674
141	0xbe60ae80	-0.21941566
142	0x3e4b1938	0.19833839
143	0xbe4c5454	-0.19954044
144	0xbd466c2c	-0.048443004
145	0x3d660b0d	0.056162883
146	0x3e0d860d	0.13820668
147	0x3e5ba464	0.21449429
148	0x3e7a7560	0.24458838
149	0xbe58a882	-0.2115803
150	0x3d89da49	0.06731088
151	0xbdeb0bbd	-0.11476848
152	0xbce8bfa3	-0.028411692
153	0xbe4f1dd6	-0.20226225
154	0x3e793d34	0.24339753
155	0xbe48e7a7	-0.19619618
156	0x3e1239c0	0.14279842
157	0x3db97754	0.09055963
158	0x3db05c40	0.08611345
159	0xbe141b76	-0.144636
160	0x3e7af426	0.24507198
161	0x3d6c2e31	0.05766124
162	0x3d0d4c2a	0.034496464
163	0xbe70156b	-0.2344567
164	0x3de454ff	0.11149024
165	0xbd2486d0	-0.04016763
166	0xbdf9a5fc	-0.12189862
167	0x3e6b425d	0.22974534
168	0x3d740b45	0.05958106
169	0xbe176c40	-0.14787388
170	0xbe0a85c0	-0.13527584
171	0xbc787c49	-0.015166351
172	0x3e18ada9	0.14909996
173	0xbd8ccf47	-0.068754725
174	0xbe19fe44	-0.15038401
175	0xbdbd3bc9	-0.09239919
176	0xbe4c52eb	-0.19953506
177	0x3dc52771	0.096266635
178	0x3e531de5	0.20616873
179	0xbe80dad9	-0.25166968
180	0x3d7fef52	0.062484093
181	0x3e0e3048	0.13885605
182	0x3d4698cd	0.048485566
183	0xbdc2e0a2	-0.095155016
184	0x3e0eddda	0.13951817
185	0x3e0f85fc	0.14015955
186	0x3dc9a317	0.0984556
187	0xbd3f989f	-0.04677641
188	0xbd933885	-0.071885146
189	0x3ce53e0f	0.027983693
190	0xbd3e3004	-0.04643251
191	0xbda4d168	-0.080477536
192	0x3e2f80af	0.17138933
193	0x3e6b4fc3	0.22979645
194	0xbcd363d6	-0.025804441
195	0xbd7d7fa6	-0.061889313
196	0x3b7e01b3	0.0038758337
197	0xbc82ec48	-0.015981808
198	0x3d838a39	0.06422848
199	0x3d9314e8	0.07181722
200	0xbe7912e1	-0.24323608
201	0xbdca9aea	-0.09892829
202	0x3e689dcb	0.22716443
203	0x3dd29039	0.102814145
204	0xbc53bc0c	-0.012923252
205	0xbe23fc7e	-0.16014287
206	0xbe27f9a5	-0.16403826
207	0xbe7508a4	-0.23929077
208	0xbdb0eca3	-0.08638885
209	0x3db95fcc	0.09051475
210	0x3e2e7f03	0.17040639
211	0x3dfcb325	0.123388566
212	0xbe71eb4c	-0.23624915
213	0xbe221f3e	-0.1583223
214	0xbd2c1a55	-0.0420173
215	0x3e847d3a	0.2587679
216	0x3d152ee2	0.036421664
217	0xbd8c4006	-0.06848149
218	0x3de2ff76	0.110838816
219	0xbdd17876	-0.10228054
220	0xbe30687e	-0.1722736
221	0x3e47b00a	0.19500747
222	0xbdf96fc4	-0.12179521
223	0xbd5d03b6	-0.053958617
224	0xbe881ce6	-0.26584548
225	0x3e3730d6	0.17889723
226	0x3e4f5fb2	0.20251349
227	0x3dce38c2	0.100694194
228	0xbe3d9825	-0.1851507
229	0xbe86876c	-0.26275194
230	0xbe5fee02	-0.21868137
231	0x3e4d7dcd	0.2006752
232	0x3e020d1a	0.1270031
233	0x3e657f4b	0.2241184
234	0x3e0f3dfe	0.13988492
235	0x3d88eed7	0.0668618
236	0xbb74bb4c	-0.0037343083
237	0xbe4ef9ac	-0.2021243
238	0xbe6a9896	-0.2290977
239	0xbe800cda	-0.25009805
240	0x3ddfd3eb	0.10929092
241	0xbe09d498	-0.13460004
242	0xbd635de1	-0.05550945
243	0xbe1e1727	-0.1543852
244	0xbd438514	-0.047734335
245	0xbe420451	-0.18946959
246	0xbe31102a	-0.17291322
247	0x3db62749	0.08894212
248	0xbda231c9	-0.07919652
249	0x3e298f94	0.16558677
250	0xbdad7513	-0.08469596
251	0xbe4ac436	-0.19801411
252	0xbd4048bb	-0.04694436
253	0xbe047291	-0.12934329
254	0xbda70684	-0.0815554
255	0xbe808be3	-0.25106725

customer_encoder.conv1d.bias f4 [128]
0	0xbe783d0e	-0.2424204
1	0x3e71a78c	0.2359907
2	0xbca5c63d	-0.020236129
3	0xbe076bfc	-0.13224787
4	0xbdbba213	-0.091617726
5	0xbe55d899	-0.20883407
6	0x3e558d6b	0.20854728
7	0xbd6cf86d	-0.057854105
8	0xbe19d418	-0.15022314
9	0xbe4f881e	-0.20266768
10	0x3e1fe063	0.1561294
11	0xbd1781ce	-0.036989026
12	0xbce600f8	-0.028076634
13	0xbd8e9b4c	-0.06963214
14	0xbe0423da	-0.12904301
15	0x3d42b653	0.04753716
16	0x3e52957d	0.20564838
17	0xbe1eb969	-0.15500416
18	0x3c554850	0.013017729
19	0xbe503419	-0.20332374
20	0xbe0057b0	-0.1253345
21	0x3e7025f0	0.23451972
22	0x3b373fa2	0.0027961512
23	0x3e83ca87	0.25740454
24	0xbd403e33	-0.046934318
25	0xbe155c86	-0.14586076
26	0xbe23e1f2	-0.1600416
27	0x3e728ba9	0.23686089
28	0xbe5276fc	-0.20553201
29	0x3e0facc6	0.14030752
30	0x3d882189	0.06647021
31	0x3da182e9	0.07886297
32	0x3e1a7cab	0.1508662
33	0xbd8f8f48	-0.070097506
34	0x3e295764	0.16537243
35	0xbe59f9a3	-0.21286635
36	0xbdc05135	-0.09390489
37	0x3e485240	0.19562626
38	0x3da2c722	0.07948138
39	0xbd113826	-0.035453938
40	0xbd7fc575	-0.06244417
41	0xbe272436	-0.16322407
42	0x3e2691d3	0.16266565
43	0xbc0af70f	-0.008481755
44	0xbc112ba9	-0.008860507
45	0x3d815c00	0.06316376
46	0x3e49d751	0.19711043
47	0xbe0bd1a2	-0.13654187
48	0xbdbc6596	-0.091990635
49	0x3e3990a0	0.18121576
50	0x3e1a6ea8	0.15081275
51	0xbe069774	-0.13143712
52	0xbe875986	-0.26435488
53	0x3d4a663e	0.049413912
54	0x3e0fe89c	0.14053577
55	0x3d82bb6a	0.06383403
56	0x3e423cac	0.18968457
57	0xbe5930b1	-0.2120998
58	0x3e0a12b4	0.13483697
59	0xbe2a1659	-0.16610087
60	0x3e19f75b	0.15035765
61	0x3e4b5e58	0.19860208
62	0x3dad40b1	0.084596045
63	0x3e5d6911	0.21622111
64	0xbe348715	-0.17629655
65	0xbe749e2b	-0.23888461
66	0xbe83988f	-0.2570233
67	0x3e2be9fb	0.16788475
68	0x3dbf4f68	0.093413174
69	0xbe487282	-0.19574931
70	0x3e04b29e	0.12958762
71	0x3e798f48	0.24371064
72	0xbe86f291	-0.26356938
73	0x3e469dd7	0.19396149
74	0x3d2820d4	0.041046932
75	0x3cca71b1	0.024712415
76	0x3e764528	0.24049819
77	0x3e77d56b	0.24202506
78	0x3de6f9c2	0.11278106
79	0x3e584a8a	0.21122184
80	0x3de3e021	0.111267336
81	0x3d32c0a9	0.043640766
82	0xbe70960f	-0.23494743
83	0x3d4c94e4	0.04994668
84	0xbe42b1bb	-0.19013111
85	0x3da828c4	0.082109004
86	0x3d40b306	0.04704573
87	0x3bc7a94e	0.0060931807
88	0xbe3b2449	-0.1827556
89	0xbe2600ef	-0.16211294
90	0x3e4a4043	0.19751076
91	0x3e0564ed	0.13026781
92	0x3e104696	0.14089426
93	0xbda2d7a0	-0.079512835
94	0xbd3be429	-0.045871887
95	0xbd8bce72	-0.06826486
96	0x3e3c4e73	0.18389301
97	0xbdec3da7	-0.11535197
98	0x3e2c7d35	0.16844638
99	0x3e3cadb4	0.18425637
100	0xbe7a683c	-0.24453825
101	0x3af91cb4	0.0019005747
102	0xbd507230	-0.050890148
103	0xbe1779c4	-0.14792544
104	0x3dec2109	0.115297385
105	0xbd054b63	-0.032542598
106	0x3e6f9592	0.233969
107	0xbe2b4a57	-0.16727577
108	0x3dfe7b5a	0.12425871
109	0xbe69b4e2	-0.22822908
110	0xbe09097d	-0.13382526
111	0x3c951e5e	0.018202957
112	0x3e585616	0.21126589
113	0x3e10416f	0.14087461
114	0xbe60a627	-0.21938382
115	0x3cf1f34f	0.029534964
116	0xbe2172b4	-0.15766412
117	0x3c3dd4dd	0.011586395
118	0xbe64065f	-0.22268055
119	0xbda0bcac	-0.07848486
120	0x3e3bdf5b	0.18346922
121	0xbe7b1059	-0.24517955
122	0xbe827ec0	-0.25487328
123	0x3d475b0c	0.048670813
124	0x3d161da7	0.036649372
125	0xbd47c9f5	-0.048776586
126	0x3e6f1ce8	0.2335087
127	0xbe24b428	-0.16084349

vehicle_encoder.lstm.weight_ih_l0 f4 [512, 2]
0	0xbd4d6acf	-0.05015069
1	0xbd815dfa	-0.06316753
2	0xbc8cf2b5	-0.017205575
3	0xbcc2724c	-0.023736142
4	0x3d6aa709	0.057288203
5	0xbb28f508	-0.0025780816
6	0x3cf27db7	0.029600961
7	0xbd101f30	-0.035185993
8	0x3d992e61	0.07479549
9	0x3d9e7329	0.07736809
10	0xbda41125	-0.080110826
11	0xbcc23d8b	-0.023710987
12	0xbd9c4fed	-0.07632432
13	0x3d114293	0.03546388
14	0xbd9c3e1c	-0.07629034
15	0xbd238479	-0.039921258
16	0x3db41d6c	0.08794674
17	0xbdad77c7	-0.08470111
18	0x3d8540e2	0.06506516
19	0x3be9b56d	0.0071322233
20	0x3d8e6cd7	0.06954353
21	0xbd3c2d37	-0.045941558
22	0x3d780f06	0.060561202
23	0x3c57f0c0	0.013179958
24	0x3c02329f	0.007946639
25	0x3d7c0d76	0.061536275
26	0xbda9b882	-0.08287145
27	0xbd902ecd	-0.070401765
28	0x3dafaedf	0.08578276
29	0xbd57fcc7	-0.0527313
30	0xbd869113	-0.065706395
31	0xbbd33950	-0.006446041
32	0xbce3251b	-0.027727654
33	0xbc52714a	-0.012844393
34	0xbd71dd42	-0.0590489
35	0x3d034a3d	0.03205322
36	0xbd94e6af	-0.07270562
37	0x3c13f4ff	0.00903058
38	0x3d4b747a	0.049671628
39	0x3c72fe4f	0.01483114
40	0x3c33ddb8	0.010978155
41	0x3c60287b	0.013681526
42	0xbcd4cf09	-0.025977628
43	0xbc834f8b	-0.01602914
44	0xbd04b1fd	-0.032396305
45	0xbd609a63	-0.054834735
46	0xbd407d86	-0.04699471
47	0x3db1221e	0.086490855
48	0xbc4a9960	-0.012365669
49	0x3d088644	0.03333117
50	0x3d7856d4	0.06062968
51	0xbbf42ea5	-0.0074518495
52	0xbd4878c7	-0.048943307
53	0xbd79fbcf	-0.06103116
54	0xbd036898	-0.03208217
55	0x3cf2a7ad	0.02962097
56	0xbd915a8c	-0.070973486
57	0xbbf205d6	-0.0073859496
58	0x3d16b77f	0.03679609
59	0x3d9ae84a	0.07563837
60	0x3cd9bb72	0.026578639
61	0x3c92f0ed	0.017937148
62	0x3d838304	0.064214736
63	0x3d35ad18	0.04435453
64	0x3cf05750	0.029338509
65	0xbce08fc4	-0.027412303
66	0xbd90c33a	-0.070684865
67	0xbc99eec3	-0.018790608
68	0xbc9a5a95	-0.018842021
69	0x3b7098ad	0.0036712096
70	0xbc29e16f	-0.010368689
71	0x3d124e8e	0.035719447
72	0x3d71a09a	0.058991052
73	0xbd11f6b9	-0.035635684
74	0xbdabddbd	-0.083919026
75	0xbd388dee	-0.04505723
76	0xbd31717b	-0.043321114
77	0x3d4ac8d1	0.04950792
78	0xbd6b768e	-0.05748611
79	0xbc22b6e9	-0.0099313045
80	0xbc77bcb2	-0.015120672
81	0xbd4e9ce0	-0.050442576
82	0x3d2653c5	0.040607233
83	0xbd15cf2e	-0.036574535
84	0xbba61616	-0.005068551
85	0xbd80ede0	-0.06295371
86	0xbbaa9cde	-0.0052066883
87	0x3c8663d8	0.016405031
88	0xbb99aa9a	-0.0046895267
89	0xbd0aefed	-0.033920217
90	0x3ce9134f	0.02845159
91	0xbca91be8	-0.02064319
92	0xbd3858cd	-0.045006562
93	0xbd776f35	-0.06040879
94	0xbc8f0745	-0.017459521
95	0xbda943df	-0.082648985
96	0x3d98e073	0.07464685
97	0xbd2898a1	-0.041161183
98	0xbd1a2e8e	-0.037642054
99	0x3bde4802	0.0067834863
100	0x3cd8d145	0.026466975
101	0xbba26c10	-0.0049567297
102	0x3d81fe42	0.06347324
103	0xbd458318	-0.048220724
104	0x3d087626	0.0333158
105	0x3ac8bd16	0.0015315141
106	0xbd935108	-0.0719319
107	0xbcfd8c32	-0.03095064
108	0x3cacaeff	0.021079538
109	0x3c816ac0	0.015797973
110	0x3d85bb15	0.06529824
111	0x3d75263c	0.059850916
112	0xbd3bd41e	-0.045856588
113	0xbd0f63da	-0.035007335
114	0xbcb37ebc	-0.021911018
115	0xbd87d2b3	-0.066319846
116	0xbcb8b6ce	-0.022548106
117	0xbd90fbb4	-0.070792586
118	0x3d12d409	0.035846744
119	0x3d847b2d	0.064688064
120	0x3c01d2f5	0.007923831
121	0xbd7fcc9e	-0.062450998
122	0xbd8897b5	-0.06669561
123	0xbd0adcca	-0.033901967
124	0x3ce1a65d	0.027545149
125	0x3b86b30f	0.004110701
126	0x3c6a71f1	0.014309392
127	0x3da7bbf2	0.081901446
128	0x3d2694b3	0.040669154
129	0x3c998725	0.0187412
130	0xbc7b34e8	-0.015332438
131	0x3d35755b	0.044301372
132	0x3ceb937a	0.028756846
133	0xbdaa4cf7	-0.08315461
134	0xbd57125e	-0.05250775
135	0x3b344710	0.0027508177
136	0x3d03aa19	0.03214464
137	0x3d2a1451	0.04152328
138	0xbd58bcb6	-0.052914344
139	0xbdb3c1c0	-0.08777189
140	0xbb9d7a35	-0.004805828
141	0xbc2a91fe	-0.010410784
142	0x3cd47a9e	0.025937375
143	0xbcc48931	-0.0239912
144	0x3d918774	0.07105914
145	0x3c1fc287	0.009750969
146	0x3d80f6b6	0.062970564
147	0xbd806a00	-0.06270218
148	0x3d0cd88b	0.0343862
149	0x3c2324a1	0.0099574635
150	0xbd3ff9f5	-0.046869237
151	0x3d28f882	0.04125262
152	0xbdaf625b	-0.08563682
153	0x3d908f05	0.07058529
154	0x3c22fbb7	0.009947709
155	0x3c3b5f91	0.011436359
156	0x3d299042	0.04139734
157	0x3c026eb2	0.007960962
158	0x3d206b20	0.039164662
159	0x3d6caec7	0.05778387
160	0xbd8a56c3	-0.0675483
161	0x3d75fc7b	0.060055237
162	0xbc3e041b	-0.0115976585
163	0xbc9e96d6	-0.019359034
164	0x3c873b65	0.016507814
165	0x3d8bd5c4	0.06827882
166	0xbd42a22c	-0.04751794
167	0xbd707763	-0.058707606
168	0x3d640caa	0.05567614
169	0xbd267e8e	-0.040648036
170	0x3cda533a	0.026651014
171	0xbc76b01f	-0.015056639
172	0x3cc6fd33	0.024290657
173	0x3d8c0075	0.06836025
174	0xbd35e492	-0.044407435
175	0xbd2ba0c2	-0.041901357
176	0x3d2a5b59	0.041591022
177	0x3b42f413	0.002974753
178	0xbc2170a2	-0.009853514
179	0xbd9db758	-0.07700986
180	0x3d9ad8d7	0.0756089
181	0xbb18936b	-0.0023281227
182	0xbc67f289	-0.014156946
183	0xbd09d1fa	-0.033647515
184	0xbc9cf49c	-0.019159608
185	0x3d282734	0.041053012
186	0xbb4330fa	-0.002978383
187	0x3d980b37	0.07424014
188	0xbb758612	-0.0037463945
189	0xbc46dac6	-0.012137121
190	0x3d4d9ae7	0.050196555
191	0xbb0164df	-0.0019743962
192	0xbc9858c1	-0.018597009
193	0x3ce67283	0.028130775
194	0x3d94adeb	0.07259735
195	0x3cc4deed	0.02403208
196	0x3d80c214	0.062870175
197	0x3d6e63fb	0.058200818
198	0x3cc5266e	0.024066176
199	0x3cf544c1	0.029940011
200	0x3ce6604b	0.028122088
201	0x3c15ebbb	0.009150441
202	0x3d9b58f9	0.075853296
203	0x3da92bba	0.08260293
204	0x3d0c2064	0.034210578
205	0xba9e2696	-0.0012065943
206	0x3da0efef	0.07858264
207	0xbd8e3705	-0.06944088
208	0x3d85ea33	0.065388106
209	0x3d40adf3	0.04704089
210	0x3d6aef87	0.057357337
211	0xbbd89700	-0.0066097975
212	0xbd8aeb47	-0.06783157
213	0x3d7c9339	0.06166384
214	0xbd21dfc1	-0.03952003
215	0x3cba3ad3	0.022733128
216	0x3d4a38f1	0.04937071
217	0xbda7de0e	-0.081966504
218	0x3bc0a200	0.005878687
219	0xbd094fdf	-0.033523437
220	0x3d8127b9	0.063064046
221	0xbd65ab5c	-0.056071624
222	0x3d57fa8f	0.052729186
223	0x3d5ca016	0.053863607
224	0x3d4dd039	0.050247405
225	0x3db01190	0.085971
226	0x3c5895e0	0.013219327
227	0xbda47a15	-0.08031098
228	0x3d84d113	0.0648519
229	0x3c2aa448	0.010415144
230	0x3ba76ff4	0.0051097814
231	0xbda54745	-0.08070234
232	0xbc914be5	-0.017736385
233	0xbd256945	-0.040383596
234	0x3db22491	0.08698381
235	0x3d81fb2d	0.06346736
236	0x3d84b60d	0.06480036
237	0x3d70beb9	0.058775637
238	0xbd63418c	-0.055482432
239	0xbd184a30	-0.037180126
240	0xbd103c34	-0.035213664
241	0xbd12ce18	-0.035841078
242	0x3d900977	0.07033055
243	0x3d048d2c	0.032361194
244	0x3d8d2c50	0.068932176
245	0xbbd1e20b	-0.0064051202
246	0xbd9bf237	-0.07614558
247	0xbcbc9098	-0.023018166
248	0x3d794ca3	0.060864102
249	0x3d58213a	0.052766062
250	0x3cf20d01	0.029547216
251	0xbcbfbafd	-0.023404593
252	0xbda714e1	-0.08158279
253	0xbd3f0bed	-0.046642233
254	0x3d402724	0.046912327
255	0xbd0f00af	-0.03491276

vehicle_encoder.lstm.weight_hh_l0 f4 [512, 128]
0	0x3d8bfc1d	0.06835196
1	0x3b838489	0.004013602
2	0xbb802f50	-0.00391189
3	0x3d91af4d	0.07113514
4	0x3d136206	0.035982154
5	0x3db0c444	0.08631185
6	0x3d97a534	0.07404557
7	0xbd5f59b7	-0.054528918
8	0x3d53c707	0.05170348
9	0x3d2b0260	0.04175031
10	0xbd750faf	-0.05982941
11	0x3d21ca93	0.03949983
12	0xbd302d4e	-0.043011956
13	0xbd4bcbd7	-0.049754944
14	0x3b94645a	0.0045285644
15	0xbc008ff4	-0.007846821
16	0xbcd6d518	-0.026224658
17	0xbd633485	-0.05547001
18	0x3d47ba26	0.04876151
19	0x3dafade4	0.08578089
20	0xbc898cf1	-0.016790839
21	0xbd803540	-0.06260157
22	0xbab4c0a8	-0.0013790326
23	0xbda19e1a	-0.078914836
24	0xbd98c2e1	-0.07459045
25	0xbcdf3b3a	-0.027249921
26	0x3d5cab76	0.053874455
27	0xbd888326	-0.066656396
28	0xbc3819cc	-0.011236619
29	0xbd49be55	-0.04925378
30	0xbdae2f99	-0.08505172
31	0xbcb66d15	-0.022268811
32	0xbb220ed8	-0.0024728086
33	0xbc4d0159	-0.012512528
34	0x3d88c9d6	0.06679122
35	0x3d08ec04	0.033428207
36	0x3d5682b4	0.052370742
37	0x3d015a6b	0.03158037
38	0x3c4cfc91	0.012511388
39	0x3d5025af	0.050817188
40	0xbd70aa2a	-0.05875603
41	0x3d4389ff	0.047739025
42	0x3d2159bd	0.03939222
43	0xbd0d1dc7	-0.034452226
44	0xbb41600b	-0.002950671
45	0xbd8f0886	-0.069840476
46	0xbda53fe9	-0.080688305
47	0xbb6d2494	-0.0036185132
48	0x3c9bc21b	0.019013455
49	0xbcaf47b3	-0.021396494
50	0x3cc3e9e2	0.023915235
51	0xbd851faa	-0.0650018
52	0xbd3af304	-0.045641914
53	0x3d6b17b5	0.057395656
54	0xbdaad977	-0.083422594
55	0x3c3f39db	0.011671509
56	0x3d91e7a5	0.07124261
57	0x3d81ea96	0.06343572
58	0x3ce0cac4	0.027440436
59	0xbda02a54	-0.078205734
60	0x3c58442d	0.013199848
61	0xbcf00e39	-0.029303657
62	0xbcacce93	-0.021094596
63	0x3d8f49a4	0.06996468
64	0xbd0228da	-0.03177724
65	0xbd772c87	-0.0603452
66	0xbd973c2e	-0.07384525
67	0x3d6fb1a0	0.058519006
68	0x3bf87b51	0.00758306
69	0x3db93b9f	0.09044575
70	0x3cb08113	0.021545922
71	0xbda46713	-0.08027472
72	0x3cd147b3	0.025546884
73	0x3d9f990a	0.07792862
74	0x3d656aba	0.056009986
75	0x3cea4eef	0.028602092
76	0xbd84bcce	-0.06481324
77	0xbd4c8fa6	-0.04994168
78	0x3d800030	0.06250036
79	0xbd7cddeb	-0.061735075
80	0x3cb7f24f	0.022454409
81	0xbc032e62	-0.008006664
82	0x3d0601ac	0.03271644
83	0x3c039f90	0.008033648
84	0xbd8f89af	-0.07008683
85	0xbd0518a6	-0.03249421
86	0x3d9e0b37	0.07716983
87	0x3bfbe508	0.0076872148
88	0x3d2c48c4	0.042061582
89	0xbd2a398a	-0.04155878
90	0x3d91a7e1	0.071120985
91	0xbcb3516e	-0.021889415
92	0xbcde9897	-0.02717237
93	0x3c75ade0	0.014995068
94	0xbcf6c9f1	-0.03012559
95	0xbd1c8826	-0.03821578
96	0xbc50c228	-0.012741603
97	0xbbfd8c9d	-0.0077377097
98	0xbd4482ee	-0.047976427
99	0x3d073d89	0.03301767
100	0xbda92424	-0.082588464
101	0x3d514951	0.05109531
102	0x3dae16f1	0.085004695
103	0x3c3814d4	0.011235435
104	0xbcbd1fa0	-0.023086369
105	0xbda02ca5	-0.07821015
106	0x3d254d52	0.04035694
107	0x3d8deca3	0.069299005
108	0x3da10fbf	0.078643315
109	0x3c086503	0.008324864
110	0x3d01fcfd	0.03173541
111	0x3da77377	0.0817632
112	0x3c827101	0.015923025
113	0xbd21ad82	-0.03947211
114	0xbdb256ae	-0.08707939
115	0x3d11c2d0	0.03558618
116	0x3cff7fa1	0.031188788
117	0x3d9ce6a7	0.07661181
118	0xbd2e6d1a	-0.042584516
119	0x3d2976b8	0.041372985
120	0xbd02ab08	-0.03190139
121	0xbcce2e2a	-0.025168497
122	0x3d46fc98	0.048580736
123	0xbda17d7d	-0.07885263
124	0x3d8997d1	0.0671841
125	0x3d1a5156	0.037675224
126	0xbd6437dd	-0.055717338
127	0x3d2cf874	0.04222913
128	0xbcb4c656	-0.02206723
129	0x3c020792	0.007936375
130	0xbccb08f5	-0.024784544
131	0xbdb1f0b4	-0.086884886
132	0xbc0521ad	-0.008125705
133	0x3d2f3d6b	0.042783182
134	0xbc3342c2	-0.010941209
135	0xbd3852fd	-0.04500102
136	0x3b791d42	0.0038011824
137	0x3c89003a	0.01672374
138	0xbcd04e0f	-0.025427846
139	0xbd8aeaaa	-0.0678304
140	0xbd4510b1	-0.04811162
141	0xbc77f91d	-0.015135077
142	0x3cff3fdf	0.031158386
143	0x3d9ebe5b	0.07751151
144	0x3b211bdf	0.0024583263
145	0x3cffc23b	0.031220546
146	0x3d51cdaa	0.051221527
147	0xbd1ca219	-0.038240526
148	0xbcfc8b85	-0.030828247
149	0x3d746ac6	0.05967214
150	0x3d7fa5d2	0.062413998
151	0x3cb1ac43	0.021688586
152	0xbd8a71f1	-0.06760014
153	0x3d4c8e40	0.049940348
154	0xbd95c237	-0.07312434
155	0x3d31ca83	0.04340602
156	0x3c21367b	0.009839649
157	0x3cf184e2	0.029482309
158	0xbdabe348	-0.0839296
159	0xbcfbd8fc	-0.030743115
160	0x3d17805c	0.036987647
161	0x3d8a9893	0.067673825
162	0xbcd1d139	-0.02561246
163	0x3da18318	0.07886332
164	0xbc9c9fb6	-0.019119125
165	0xbd566ecf	-0.05235177
166	0xbd2273f0	-0.039661348
167	0x3b7de2cb	0.0038739915
168	0xbc7ce390	-0.0154351145
169	0x3d2d7041	0.04234338
170	0xbd453525	-0.048146386
171	0xbcd4c6a0	-0.025973618
172	0xbdb25406	-0.087074324
173	0x3d951ee7	0.07281285
174	0xbc7a15c1	-0.015263976
175	0xbd8b3352	-0.06796898
176	0xbbb1e325	-0.005428689
177	0x3a3672f7	0.000695988
178	0x3cd43a17	0.025906606
179	0xbc3202b9	-0.010864907
180	0x3d5f9dcf	0.054593857
181	0xbce6be40	-0.02816689
182	0xbcdd36ff	-0.027003763
183	0xbca99fbb	-0.020706048
184	0x3c6f9143	0.014622035
185	0x3d929137	0.07156604
186	0xbb6f5600	-0.0036519766
187	0x3d8a9c6d	0.06768117
188	0x3d8dede5	0.069301404
189	0xbd3bf6c1	-0.04588962
190	0xbc1ee8ed	-0.0096990885
191	0xbd2bca77	-0.041941132
192	0x3d170a3c	0.036874995
193	0xbd01ff65	-0.031737704
194	0x3ce5207a	0.027969588
195	0x3b8b779f	0.0042562033
196	0xbd72fc49	-0.05932263
197	0xbd782667	-0.0605835
198	0xbdb421e0	-0.08795524
199	0xbd4b616e	-0.049653463
200	0x3cba6dc5	0.02275742
201	0x3bc8ab4c	0.006123936
202	0x3d884b02	0.066549316
203	0xbd9f71fa	-0.07785411
204	0xbb83a53b	-0.0040174997
205	0xbda48202	-0.080326095
206	0x394eb003	0.0001971126
207	0x3d068da8	0.032849938
208	0xbda2fd16	-0.079584286
209	0x3d9d3fbd	0.07678173
210	0xbce7d9b2	-0.028302047
211	0x3da00f03	0.07815363
212	0xbc694812	-0.014238374
213	0x3d4b2104	0.049592033
214	0x3da28243	0.07935002
215	0xbcfebff7	-0.031097395
216	0xbca780d2	-0.020447168
217	0x3d3a9ee0	0.04556167
218	0xbd9a3612	-0.07529844
219	0x3d598d60	0.05311334
220	0xbd6595ca	-0.056051053
221	0x3daae70c	0.0834485
222	0xbd6c1a0b	-0.057642024
223	0xbd12dc73	-0.035854768
224	0x3d85a8e5	0.06526355
225	0xbd1babfc	-0.038005814
226	0x3d9adc0b	0.07561501
227	0x3d7692db	0.060198646
228	0x3da350fb	0.0797443
229	0xbdad35f7	-0.084575586
230	0x399ed797	0.00030296735
231	0xbce75fae	-0.028243866
232	0x3cafab1e	0.0214439
233	0xbd8a0d7f	-0.067408554
234	0x3d134d7f	0.035962578
235	0xbb53335a	-0.0032226653
236	0xbd2f56dd	-0.04280745
237	0xbda507d7	-0.08058136
238	0x3d3b479a	0.04572258
239	0xbcfe85c8	-0.031069651
240	0x3d845b99	0.06462783
241	0x3c6cf915	0.014463683
242	0x3ce34d27	0.02774675
243	0xbc4d2752	-0.012521582
244	0xbc33039a	-0.010926152
245	0xbcf542d9	-0.029939102
246	0xbd9f1cca	-0.07769163
247	0x3d5c79ed	0.053827215
248	0xbd621074	-0.055191472
249	0x3d578d0f	0.05262476
250	0xbceab7d1	-0.028652104
251	0x3d624b63	0.055247676
252	0x3d9aa33d	0.075506665
253	0xbd579b6a	-0.05263845
254	0x3d978b22	0.07399584
255	0x3b30a60e	0.0026954445

vehicle_encoder.lstm.bias_ih_l0 f4 [512]
0	0xbc96b16c	-0.018395148
1	0xbdad2af8	-0.08455461
2	0x3d37718e	0.04478603
3	0xbac13308	-0.001473994
4	0x3d12caba	0.035837866
5	0xbcea7ee9	-0.028624969
6	0xbd5579a2	-0.05211795
7	0x3da694b3	0.08133831
8	0x3ca430dc	0.02004283
9	0x3cada749	0.021197932
10	0x3d77ff5c	0.060546264
11	0x3d31df7a	0.043426014
12	0x3c942fd1	0.018089207
13	0xbd269f45	-0.040679235
14	0x3ce527ed	0.02797314
15	0x3d81c19b	0.063357554
16	0x3d95d80d	0.07316599
17	0xb8d84e18	-0.00010314229
18	0xbda4c2e3	-0.08044984
19	0xbd59bb26	-0.053156994
20	0x3d4ca4d5	0.049961884
21	0x3da6d90a	0.08146866
22	0x3d74c7ac	0.059760734
23	0x3d487dfc	0.048948273
24	0x3db17ab9	0.086659856
25	0xbcd0a323	-0.025468415
26	0x3d7e324e	0.062059693
27	0xbc6b24c2	-0.014352025
28	0x3d8b0f93	0.0679008
29	0x3d35cb7e	0.04438352
30	0xbba739bb	-0.0051033176
31	0xbbe3f32f	-0.00695648
32	0x3d21d245	0.03950717
33	0xbca6797f	-0.020321606
34	0xbbdecf47	-0.0067996117
35	0x3cffd767	0.031230642
36	0xbd320be6	-0.04346838
37	0xbc9192ef	-0.017770259
38	0x3d4002a3	0.046877515
39	0x3c98db09	0.018659132
40	0x3d8bfa36	0.06834833
41	0x3cd47950	0.025936753
42	0x3d3594c4	0.044331327
43	0x3bede880	0.007260382
44	0xbcd4a493	-0.025957381
45	0xbcba721e	-0.022759493
46	0x3d51a89e	0.051186197
47	0x3c0e4cef	0.008685335
48	0xbca9ed49	-0.02074303
49	0xbd94cc29	-0.07265503
50	0xbd24e4f6	-0.040257417
51	0x3d893640	0.066998005
52	0x3c0f7bfc	0.0087575875
53	0x3d420e1b	0.047376733
54	0xbd946c04	-0.07247165
55	0x3da8b343	0.082373165
56	0x3d02cdc5	0.03193452
57	0x3d8bd8d3	0.06828465
58	0xbcb9fcb9	-0.022703515
59	0x3d910752	0.07081474
60	0xbd790ac3	-0.06080128
61	0x3c875e2b	0.016524395
62	0x3c7d1727	0.0154474145
63	0xbd2a503f	-0.041580435
64	0xbbfd5eb8	-0.0077322386
65	0x3d073f94	0.033019617
66	0xbd344709	-0.044013057
67	0x3c181350	0.009281948
68	0x3cb27b14	0.021787204
69	0xbda10548	-0.078623354
70	0xbd04e284	-0.032442585
71	0x3d6bec48	0.057598382
72	0xbd6ff5a6	-0.058583878
73	0x3a8f561b	0.0010935696
74	0x3d7ee841	0.062233213
75	0xbcdad8e9	-0.026714759
76	0x3d67c794	0.056586817
77	0x3d40d1d1	0.047075097
78	0xbd325682	-0.04353953
79	0x3d9e975b	0.077437125
80	0x3d922518	0.07135981
81	0x3d90cd0b	0.07070359
82	0x3cbb061f	0.022830067
83	0x3d6f9a61	0.058496837
84	0xbd1831b6	-0.037156783
85	0xbba4b035	-0.0050258883
86	0x3d8b01ae	0.0678743
87	0xbd991ac7	-0.074758105
88	0x3c55a92f	0.013040825
89	0x3da126ac	0.07868704
90	0x3b28c879	0.0025754257
91	0xbd149682	-0.036276348
92	0xbd88e2da	-0.066838935
93	0xbd3c8e9f	-0.04603445
94	0xbca621d4	-0.020279802
95	0x3c12c094	0.008957047
96	0x3d0d73ab	0.034534138
97	0xbd47c704	-0.04877378
98	0xbd9855e1	-0.07438255
99	0xbbe1ca49	-0.0068905693
100	0xbcdb157b	-0.026743641
101	0xbd160d69	-0.036633883
102	0xbd6b4545	-0.057439107
103	0x3b43752a	0.0029824474
104	0x3ab272fa	0.0013614588
105	0x3cba61b6	0.02275167
106	0xba151bc2	-0.0005688035
107	0xbd31262a	-0.043249287
108	0xbd2aa4ac	-0.04166095
109	0x3b02ccde	0.0019958536
110	0xbccc836a	-0.024965007
111	0xbc84e595	-0.016222754
112	0xbcbdc424	-0.023164816
113	0xbccea895	-0.02522687
114	0x3da81af2	0.082082644
115	0x3c8309de	0.015995916
116	0x3d8f5193	0.06997981
117	0x3d500f9b	0.050796133
118	0x3d8be21b	0.068302356
119	0xbc321efd	-0.010871646
120	0xbd980fa4	-0.07424858
121	0xbd407aa1	-0.046991948
122	0xbc466f63	-0.012111518
123	0x3cc5b3b2	0.024133537
124	0xbcba91b5	-0.022774557
125	0xbda10dd5	-0.078639664
126	0xbd44199d	-0.04787599
127	0x3d96c5f5	0.07361976
128	0xbd459fd7	-0.04824814
129	0xbd6d8a44	-0.05799319
130	0x3d81b457	0.06333225
131	0xbd246710	-0.04013735
132	0xbac2eb72	-0.0014871194
133	0x3da94dc7	0.08266788
134	0x3d98d072	0.07461633
135	0x3d9f5dc9	0.0778156
136	0xbd7281a2	-0.05920566
137	0x3c11a827	0.008890188
138	0xbba5bc53	-0.0050578504
139	0x3b8ecb5d	0.004357739
140	0x3dae8d48	0.08523041
141	0x3d5121ce	0.05105763
142	0xbd9a27d6	-0.07527129
143	0x3dadd699	0.08488197
144	0x3da73739	0.0816483
145	0xbd89dbf6	-0.06731407
146	0xbd938513	-0.07203116
147	0x3d8b2303	0.06793787
148	0xbce2ca3a	-0.02768432
149	0xbd8c48a3	-0.06849792
150	0x3d2c8972	0.042123266
151	0x3ba7c868	0.005120326
152	0x3d670fc9	0.05641154
153	0xbd810bc0	-0.06301069
154	0x3da1eaf1	0.0790614
155	0xbcf87bc6	-0.030332457
156	0xbd474f65	-0.0486597
157	0x3d13214a	0.03592042
158	0xbd930e73	-0.0718049
159	0xbd87f616	-0.06638734
160	0xbc752aa1	-0.014963777
161	0x3be423db	0.006962282
162	0xbd103a67	-0.035211947
163	0xbc167e09	-0.009185323
164	0xbda89e1b	-0.08233281
165	0x3d7d1fb0	0.061797798
166	0xbc16cd87	-0.009204275
167	0x3c59d84f	0.013296201
168	0x3d639e5a	0.055570938
169	0x3d3aa0ae	0.045563392
170	0x3d95bdbe	0.07311581
171	0x3d5f1409	0.054462466
172	0x3cb2c775	0.021823624
173	0xbd4b9105	-0.04969885
174	0x3d898e2e	0.06716572
175	0xbc82f910	-0.015987903
176	0x3d214535	0.03937264
177	0x3dabf086	0.083954856
178	0xbd405da4	-0.046964303
179	0xbbc1aeab	-0.0059107146
180	0xbd7d1968	-0.061791807
181	0xbb5216bc	-0.0032057008
182	0xbcc69091	-0.024238857
183	0xbd76faa2	-0.060297616
184	0xbcd4acc3	-0.025961285
185	0x3cfe6631	0.031054588
186	0xbd7bb087	-0.061447646
187	0xbc1542f4	-0.009110201
188	0x3d81c0d4	0.06335607
189	0x3d9b035d	0.07569001
190	0xbda7f958	-0.082018554
191	0x3d56d930	0.05245322
192	0x3c336eef	0.010951742
193	0x3cf821e2	0.030289594
194	0x3d54617f	0.051850792
195	0x3d8e2b63	0.06941869
196	0xbd399c94	-0.04531534
197	0x3d917716	0.07102792
198	0xbba19f52	-0.0049323225
199	0x3c67032a	0.014099875
200	0x3d0ccd57	0.034375515
201	0xbda177c6	-0.07884173
202	0xbd2d6e76	-0.042341672
203	0xbdb8c598	-0.09022063
204	0x3c75d226	0.015003717
205	0x3d4baa79	0.049723122
206	0xbd0b0d34	-0.03394814
207	0x3cd230aa	0.02565797
208	0xbc68a446	-0.014199322
209	0xbcceedf8	-0.025259957
210	0xbd8230b0	-0.06356943
211	0x3d082183	0.033235084
212	0xbbcefcd2	-0.0063167596
213	0x3d1e1491	0.038593832
214	0x3daa0862	0.0830238
215	0xbd8cd715	-0.06876961
216	0xbbf2d748	-0.0074109174
217	0xbcbb0e60	-0.022834003
218	0x3d634336	0.05548402
219	0x3da4dd73	0.080500506
220	0x3d8ef7da	0.06980868
221	0xbb9e826f	-0.0048373262
222	0x3cd7f235	0.02636061
223	0xbd063b04	-0.032771125
224	0xbdb1cb4c	-0.08681354
225	0xbdb0acae	-0.08626686
226	0x3d0b9989	0.03408197
227	0xbd8887bb	-0.066665135
228	0xbd4f5f4b	-0.050627988
229	0x3cdfdca9	0.027326899
230	0xbd9d7c29	-0.07689697
231	0x3d617439	0.05504248
232	0x3d7a107c	0.061050877
233	0xbbed43ad	-0.0072407336
234	0x3cc5ad6b	0.024130544
235	0x3d6bd8a0	0.057579637
236	0x3d0c6d3e	0.03428387
237	0xbdacb260	-0.0843246
238	0x3d01897f	0.031625267
239	0xbdb969bf	-0.090533726
240	0xbd5cbe55	-0.053892452
241	0xbdb39448	-0.08768517
242	0xbd39f468	-0.0453991
243	0x3b4ec351	0.0031549523
244	0x3c133b33	0.008986282
245	0x3b82b93d	0.0039893673
246	0x3ad209e0	0.0016024671
247	0xbd9b9c0d	-0.07598124
248	0x3c89461e	0.016757067
249	0xbcb99a0e	-0.022656467
250	0x3d58d615	0.05293854
251	0x3d9cf3ae	0.07663666
252	0xbc0b2a72	-0.0084940065
253	0x3c33ef84	0.010982398
254	0xbd4e4de1	-0.05036724
255	0x3d1ab6d5	0.03777202

vehicle_encoder.lstm.bias_hh_l0 f4 [512]
0	0xbd8b8ae5	-0.068136014
1	0x3bb73467	0.0055909636
2	0x3db3b0e0	0.087739706
3	0x3db27a4a	0.08714731
4	0x3d905da1	0.07049108
5	0xbda364aa	-0.079781845
6	0x3d97a9c7	0.07405429
7	0x3ab77568	0.0013996782
8	0x3da23697	0.079205684
9	0xbca26983	-0.019825703
10	0xbd190e23	-0.037366997
11	0x3d555252	0.05208046
12	0x3b9158b7	0.0044356245
13	0xbd8d06bf	-0.06886052
14	0xbb8b0cb0	-0.004243456
15	0x3cd365c3	0.02580536
16	0xbc7928f0	-0.015207514
17	0xbd587787	-0.052848365
18	0xbd2ddbaf	-0.042445835
19	0xbc45ccf7	-0.012072793
20	0xbcceb3fe	-0.025232311
21	0x3db30d72	0.08742799
22	0xbd662f81	-0.056197647
23	0x3d3121dc	0.04324518
24	0xbd824033	-0.06359901
25	0xbcbfaec3	-0.023398763
26	0xbd512a52	-0.05106575
27	0x3b75df82	0.0037517254
28	0xbd9e5c1b	-0.077324115
29	0x3d58f9b6	0.052972518
30	0xbcb4fbec	-0.022092782
31	0x3d529ab1	0.051417056
32	0x3baa8eea	0.005205025
33	0xbd593ef1	-0.05303854
34	0x3da144d0	0.07874453
35	0xbdac88ca	-0.08424528
36	0xbd6abb5a	-0.05730758
37	0xbd38f6a9	-0.04515711
38	0x3d916ccd	0.0710083
39	0xbd2f4406	-0.04278948
40	0x3d4d3904	0.050103202
41	0x3d9ea2e3	0.07745912
42	0x3d8aa842	0.06770374
43	0x3cffbe89	0.031218784
44	0x3d466d8f	0.048444327
45	0x3d966ed9	0.07345361
46	0xbd3c42ee	-0.045962267
47	0x3d85f5fa	0.06541057
48	0xbda8fb09	-0.08251006
49	0xbd44cb53	-0.048045468
50	0x3aad1933	0.0013206362
51	0xbcbd1a24	-0.023083754
52	0xbc839f94	-0.016067304
53	0x3d4b3a0f	0.049615916
54	0x3b8fe39a	0.004391146
55	0x3cb97e6c	0.02264329
56	0x3c324b42	0.010882201
57	0xbd0da748	-0.03458336
58	0x3dae8205	0.08520893
59	0x3d45a16f	0.04824966
60	0xbd273571	-0.04082245
61	0xbd978495	-0.07398335
62	0xbc8fd377	-0.017556889
63	0xbd5d479a	-0.054023363
64	0xbd624c34	-0.055248454
65	0xbd8a79af	-0.067614906
66	0x3d916e4a	0.07101114
67	0xbd2929a8	-0.041299492
68	0xbaf55c79	-0.0018719576
69	0xbd8bcc8a	-0.06826122
70	0x3da3cf7f	0.07998561
71	0xbd7e761a	-0.06212435
72	0xbbf9a785	-0.007618847
73	0xbdb42882	-0.08796789
74	0x3d4984bc	0.04919885
75	0x3d237a11	0.039911333
76	0x3c8d5128	0.017250612
77	0x3d8c0893	0.06837573
78	0xbdaaf14e	-0.083468065
79	0x3cfa30cc	0.030540846
80	0x3cd50eb8	0.026007995
81	0xbd566265	-0.05233993
82	0x3d71c0e6	0.059021853
83	0xbd94e02f	-0.07269322
84	0x3db10dfa	0.08645244
85	0x3ccf0534	0.025271036
86	0x3d90748e	0.07053481
87	0xbd28e371	-0.04123253
88	0x3dae2447	0.08503013
89	0xbd512663	-0.051062
90	0xbc7e78c0	-0.015531719
91	0xbd5ef0cf	-0.05442887
92	0x3d8295f6	0.06376259
93	0xbd142aff	-0.036173817
94	0x3da5e346	0.080999896
95	0x3bb60cfc	0.005555747
96	0x3d92bd12	0.071649686
97	0x3cbde874	0.023182131
98	0xbcef5fe7	-0.029220534
99	0x3d954fb1	0.072905906
100	0x3d8af0f5	0.0678424
101	0xbb44b1a5	-0.003001311
102	0xbc920381	-0.017823936
103	0x3d633d0f	0.055478152
104	0xbd4d422b	-0.05011193
105	0x3d03a823	0.03214277
106	0xbbe131dc	-0.006872399
107	0x3d2071a5	0.03917088
108	0xbd36a0b2	-0.044586845
109	0xbd840862	-0.064469114
110	0x3d8a78f5	0.06761352
111	0xbd9f32c1	-0.077733524
112	0x3d3eb4d3	0.046559166
113	0xbce6fb29	-0.028195934
114	0x3cd5803c	0.026062123
115	0xbda656e9	-0.081220455
116	0x3a817c96	0.0009879048
117	0x3d2f78cf	0.04283982
118	0xbcd13ff3	-0.025543189
119	0x3b5c8839	0.003365053
120	0xbd2f82c3	-0.042849313
121	0x3d01fe91	0.031736914
122	0x3d31c9e8	0.043405443
123	0x3c17dded	0.00926922
124	0x3c1dce99	0.009631776
125	0xbd87da7d	-0.0663347
126	0x3d47d1c1	0.04878402
127	0xbd50f1d6	-0.051011883
128	0xbd63fe42	-0.0556624
129	0x3b045075	0.0020189558
130	0x3b3e10b9	0.0029001667
131	0xbd97908b	-0.07400616
132	0xbd95b273	-0.07309427
133	0xbd6e6398	-0.05820045
134	0xbda63c51	-0.08116973
135	0xbd921f34	-0.07134858
136	0x3d550834	0.052009776
137	0xbd3fe893	-0.04685266
138	0x3da97b60	0.08275485
139	0xbd8bebd2	-0.068320885
140	0xbc9a9850	-0.018871456
141	0xbc3ef821	-0.011655838
142	0x3d999f11	0.07501043
143	0x3d1f09a0	0.03882754
144	0x3c630493	0.013856071
145	0xbd1b5986	-0.037927173
146	0x3d3a7586	0.045522235
147	0xbd8f562c	-0.06998858
148	0x3c9ea5d0	0.019366175
149	0x3d69910c	0.057023093
150	0x3cf91c42	0.030408982
151	0x3d3ee74b	0.046607297
152	0xbc8e52d5	-0.017373482
153	0x3d90da62	0.07072903
154	0x3b12cc8e	0.0022399756
155	0x3d299e30	0.041410625
156	0x3c231f76	0.009956231
157	0x3c761bec	0.0150213055
158	0xbd89632e	-0.0670837
159	0x3d78d815	0.060752947
160	0xbdaaf93e	-0.083483204
161	0xbd1db801	-0.038505558
162	0x3c28a478	0.010293119
163	0x3cdefce0	0.02722019
164	0xbd46c1b7	-0.048524585
165	0xbd0b5011	-0.034011904
166	0xbd19ad72	-0.037518926
167	0xbdb2a9ae	-0.0872377
168	0xbd9abfaa	-0.07556088
169	0x3cc64f83	0.024207836
170	0x3ba0c079	0.004905757
171	0xbc941724	-0.01807744
172	0x3d1cb6bf	0.038260218
173	0x3d083a75	0.033258874
174	0xbd9289cc	-0.07155189
175	0xbc1453de	-0.009053199
176	0x3c080e8a	0.008304248
177	0xbca38892	-0.019962583
178	0x3d958d91	0.07302392
179	0xbd5ae75f	-0.05344331
180	0x3d26973a	0.040671565
181	0x3d4fdb0a	0.050746
182	0xbd903e35	-0.07043115
183	0xbd922361	-0.07135654
184	0x3d4f4488	0.050602466
185	0xbd39cdea	-0.04536239
186	0x3d8a6b7d	0.06758783
187	0x3bdace68	0.0066774376
188	0xbc1cdb40	-0.009573758
189	0x3d9953d1	0.0748669
190	0xbc9ffd31	-0.01952991
191	0x3bb52f75	0.005529339
192	0xbd7e392d	-0.062066246
193	0xbb625191	-0.003453348
194	0x3d9cd8bd	0.07658527
195	0x3da1966b	0.07890018
196	0xbd232496	-0.039829813
197	0xbd17afc9	-0.037032876
198	0x3d9ebd12	0.07750906
199	0x3d9c781d	0.07640097
200	0xbc360ba9	-0.011111178
201	0xbc2aabe4	-0.0104169585
202	0xbd8362b4	-0.064153105
203	0xbda41f00	-0.08013725
204	0x3b9e2ca9	0.0048271012
205	0xbd854350	-0.065069795
206	0x3d1bbddc	0.03802286
207	0x3d91b39c	0.07114336
208	0xbd0fa02e	-0.03506487
209	0xbd5c8659	-0.05383906
210	0xbdacd53f	-0.08439111
211	0xbbd24f0e	-0.0064181155
212	0xbd12588e	-0.035728984
213	0x3db47e6d	0.08813176
214	0x3d358530	0.04431647
215	0x3d8f36ac	0.0699285
216	0x3d982465	0.07428817
217	0x3c0c26b6	0.008554151
218	0xbd52ce02	-0.051465996
219	0xbc54f242	-0.012997212
220	0xbd9840a9	-0.07434208
221	0xbd4bbe83	-0.049742233
222	0xbda228d5	-0.07917944
223	0x3cf6ac15	0.030111352
224	0xbd8bf59b	-0.06833955
225	0x3b317c32	0.0027082083
226	0x3d89f043	0.067352794
227	0xbc551f2e	-0.013007922
228	0x3d8b497e	0.06801127
229	0x3c816ad3	0.015798008
230	0xbcb519ed	-0.022107089
231	0x3cc9e6f6	0.024646264
232	0x3d9fe6ea	0.07807715
233	0x3d28c93a	0.04120753
234	0xbd9c7b84	-0.07640746
235	0xbcb73b51	-0.022367151
236	0xbcae2a15	-0.0212603
237	0xbd26d62d	-0.040731598
238	0xbbe19a3e	-0.006884842
239	0xbdaafb1c	-0.083486766
240	0x3d892019	0.06695575
241	0xbd6b638b	-0.05746798
242	0x3d3920a2	0.045197137
243	0x3ce5a3dc	0.028032236
244	0x3cf0b0a7	0.02938111
245	0xbd8f12eb	-0.0698603
246	0xbd847984	-0.0646849
247	0xbd92cd63	-0.07168081
248	0x3d4d9a41	0.050195936
249	0x3d7ff2b0	0.062487304
250	0x3c87cabb	0.016576162
251	0x3d0bb102	0.034104355
252	0x3d117b10	0.035517752
253	0x3d10a68e	0.03531509
254	0xbd4b013b	-0.04956172
255	0x3cbd7103	0.023125177

attention.wq.weight f4 [128, 128]
0	0xbd0b8333	-0.03406067
1	0x3da2c6e8	0.079480946
2	0xbdad8881	-0.08473302
3	0x3d1a3047	0.037643697
4	0xbd61a195	-0.055085737
5	0xbd3004f2	-0.042973466
6	0xbd355ac2	-0.044276007
7	0xbd88226c	-0.066471905
8	0x3cb1daa4	0.021710701
9	0x3bf170af	0.0073681693
10	0x3d4cd001	0.050003055
11	0xbd24b364	-0.040210143
12	0xbc61f7a1	-0.0137919495
13	0xbd8f5500	-0.06998634
14	0x3d2dbbd5	0.04241546
15	0x3c0f2fef	0.008739456
16	0xbd2c3f8e	-0.042052798
17	0x3ccf11b5	0.025276998
18	0xbda0cbf3	-0.078514
19	0x3da0e78f	0.07856666
20	0xbd1977ae	-0.03746765
21	0x3d698c34	0.057018474
22	0xbd81d8e8	-0.063402
23	0xbd99f943	-0.07518246
24	0x36a96898	5.048769e-06
25	0x3c03c20b	0.008041869
26	0x3d351e0c	0.044218108
27	0x3c9102d8	0.017701551
28	0x3daba6e4	0.08381441
29	0x3ce1c04a	0.02755751
30	0xbc8edaa7	-0.017438246
31	0x3cd57ae3	0.026059574
32	0xbda2f45a	-0.079567626
33	0x3cd4c6bb	0.025973668
34	0x3b9a8e36	0.00471666
35	0xbd8ec2f1	-0.06970776
36	0x3d2e1e6f	0.042509492
37	0xbce23ce3	-0.027616924
38	0xbb5c3f41	-0.0033607038
39	0x3a4dc372	0.0007849253
40	0xbc39a361	-0.0113304565
41	0x3c816b88	0.015798345
42	0x3da38da2	0.07985999
43	0x3bfbf4bc	0.0076890867
44	0x3c0322cf	0.0080039045
45	0xbd5afc07	-0.05346301
46	0xbb06114e	-0.0020457092
47	0x3ce1edc7	0.027579201
48	0x3d6e3f50	0.05816585
49	0x3da56046	0.08075003
50	0x3c5de394	0.013543028
51	0x3c4c5838	0.012472205
52	0xbceb08cf	-0.028690724
53	0xbd6e5fae	-0.058196716
54	0x3d30ecc3	0.043194544
55	0x3c3efcf3	0.0116569875
56	0xbd20086d	-0.039070535
57	0x3d3344c9	0.04376677
58	0x3ca9c7f2	0.020725224
59	0x3d3b3efe	0.04571437
60	0x3b82ccfb	0.0039917207
61	0x3d039f32	0.032134242
62	0xbd4b8732	-0.04968948
63	0xbd7e8fbd	-0.0621488
64	0xbce32883	-0.027729278
65	0x3d4af269	0.049547587
66	0xbcf23f94	-0.029571332
67	0x3d770a89	0.06031278
68	0x3d07ba00	0.033136368
69	0xbd6eec38	-0.058330745
70	0xbd756d0a	-0.05991844
71	0x3d1884f3	0.037236165
72	0x3c722745	0.01477987
73	0x3c7d6c29	0.015467682
74	0xbc5dfa9a	-0.013548518
75	0x3d378337	0.04480287
76	0xbd08ee98	-0.033430666
77	0x3d1c5fd1	0.038177315
78	0x3d586cd8	0.052838176
79	0x3d2c5d86	0.04208138
80	0xbcfd6131	-0.030930134
81	0x3d25cec6	0.040480398
82	0x3c933c4a	0.017973084
83	0xbd881ad1	-0.0664574
84	0x3d94d3a6	0.07266931
85	0xbdad4f76	-0.084624216
86	0x3d4cb4bf	0.04997706
87	0xbd1e2a0c	-0.038614318
88	0x3d8a5fa1	0.06756521
89	0x3d994922	0.07484652
90	0x3d9c5c2f	0.0763477
91	0xbd27470d	-0.040839244
92	0xbd0f9a61	-0.035059337
93	0x3c6edbf8	0.014578812
94	0xbc75b725	-0.014997278
95	0xbdb8a312	-0.09015478
96	0xbcf89ab9	-0.030347215
97	0xbd9600ee	-0.07324396
98	0xbce5b484	-0.028040178
99	0x3db8508d	0.08999739
100	0x3dac127b	0.08401962
101	0x3d947ab7	0.072499685
102	0x3c9ed567	0.019388868
103	0xbd9b976e	-0.07597242
104	0xbcee954a	-0.029123921
105	0x3d6699ee	0.056299143
106	0x3cb870b0	0.022514671
107	0x3d2510be	0.04029917
108	0x3c381ed1	0.011237816
109	0x3cb8a781	0.02254081
110	0xbdae31d3	-0.08505597
111	0xbc81ea1d	-0.015858704
112	0x3ca23dcb	0.019804856
113	0x3cab9374	0.020944335
114	0x3c6e13ea	0.014531115
115	0xbcef9b4f	-0.029248862
116	0x3d4ae641	0.049535993
117	0x3cd39fb3	0.025832986
118	0x3cf60c92	0.03003529
119	0x3d761093	0.0600744
120	0xbb8c97c3	-0.0042905523
121	0x3d7d3d46	0.061826013
122	0x3ad99f64	0.0016603288
123	0xbdaa6929	-0.08320839
124	0x3d5a4796	0.053290926
125	0x3d940a40	0.072285175
126	0x3ab9148b	0.0014120502
127	0x3da4a904	0.0804005
128	0xbd45536d	-0.048175264
129	0x3da8dc0d	0.08245096
130	0xbcd46a4f	-0.025929598
131	0xbd7fe479	-0.062473748
132	0xbc206381	-0.009789349
133	0xbd73566e	-0.059408598
134	0xbd5e992a	-0.054345287
135	0xbcbb2074	-0.022842623
136	0xbd3892f4	-0.04506202
137	0xbda4f6aa	-0.0805486
138	0xbd0da18c	-0.03457789
139	0x3c1b7274	0.009487737
140	0x3d7d9171	0.06190628
141	0x3d92b960	0.07164264
142	0x3c5b9a11	0.0134034315
143	0xbd64fe1a	-0.055906393
144	0x3ce8b993	0.028408801
145	0xbda1b245	-0.0789533
146	0x3cb7bccf	0.022428898
147	0xbcc4da79	-0.024029957
148	0x3a5bcc61	0.0008384642
149	0x3d2f4d72	0.042798467
150	0x3c31b0c5	0.010845368
151	0x3d09e138	0.03366205
152	0xbd40956d	-0.047017504
153	0x3d8ad1f8	0.067783296
154	0xbb9e356a	-0.004828145
155	0x3d49da86	0.049280666
156	0xbd970091	-0.07373155
157	0x3da20eb4	0.07912961
158	0x3d532016	0.05154427
159	0x3c97539c	0.018472485
160	0x3d543c16	0.051815115
161	0x3c97470f	0.0184665
162	0xbccd9b44	-0.02509845
163	0xbd9f4e41	-0.077785976
164	0xbbe38d67	-0.0069443467
165	0xbcaf5e24	-0.021407194
166	0x3d94f5b4	0.07273427
167	0xbc22f04f	-0.009944989
168	0xbd7a2b14	-0.06107624
169	0xbc32517f	-0.010883688
170	0xbc093500	-0.008374453
171	0x3da3555f	0.079752676
172	0x3d382957	0.0449613
173	0xbc779a76	-0.01511251
174	0xbd9a1424	-0.07523373
175	0xbda18944	-0.078875095
176	0x3d9f9d1d	0.07793639
177	0x3cba9462	0.022775833
178	0xbcf9dd41	-0.03050101
179	0xbc9974d1	-0.01873246
180	0x3db167f5	0.08662406
181	0xbc59ba95	-0.0132891135
182	0x3db42c3f	0.08797502
183	0x3d0366e7	0.032080557
184	0xbb4bac6e	-0.0031078118
185	0x3c9d139f	0.019174395
186	0xbccc5172	-0.02494118
187	0xbc05b903	-0.008161786
188	0x3ce1389b	0.027492812
189	0xbd762017	-0.060089197
190	0xbd1177b1	-0.035514537
191	0xbd518938	-0.051156253
192	0xbd57bf9f	-0.05267298
193	0x3d9f9b4e	0.07793294
194	0x3d9e56b2	0.077313796
195	0x3d962603	0.07331469
196	0x3d52d5aa	0.051473297
197	0x3ca31a4b	0.019909998
198	0x3c84dde7	0.016219093
199	0x3c5cb77d	0.013471481
200	0x3dad4da8	0.084620774
201	0x3d9c8cc5	0.07644037
202	0xbbdbb477	-0.0067048627
203	0xbd8b4453	-0.06800141
204	0x3d0820c7	0.033234384
205	0x3d271e99	0.040800665
206	0xbb8afdea	-0.0042416947
207	0x3d80f702	0.06297113
208	0x3d26214e	0.040559106
209	0xbd6ab3c0	-0.05730033
210	0x3daebb21	0.08531786
211	0xbd918a91	-0.071065076
212	0x3bd2fece	0.0064390665
213	0xbd795424	-0.06087126
214	0x3d3f6d05	0.04673483
215	0xbcfb4a63	-0.030675119
216	0x3cc3b547	0.02389015
217	0xbc343e75	-0.011001219
218	0xbd306590	-0.043065608
219	0x3d868258	0.0656783
220	0xbd5ba6de	-0.053625934
221	0x3d91aba9	0.0711282
222	0xbd9746d9	-0.0738656
223	0xbda7b4d5	-0.08188788
224	0xbda2dd85	-0.07952408
225	0x3ce3234d	0.027726794
226	0xbb7f5cfa	-0.003896533
227	0xbccaaf59	-0.024741815
228	0x3c48105a	0.01221093
229	0xbd87fa8c	-0.06639585
230	0xbd9030f8	-0.0704059
231	0x3c7f198c	0.015570056
232	0xbd62a884	-0.05533649
233	0xbd7b82ac	-0.061403915
234	0xbc0ad669	-0.008473971
235	0xbd1bd468	-0.038044363
236	0xbc9b6e15	-0.01897339
237	0x3d1937f7	0.037406888
238	0x3d66831d	0.056277383
239	0x3caa381e	0.020778712
240	0xbd4c94ca	-0.049946584
241	0x3c68fa13	0.014219779
242	0x3d4d7881	0.05016375
243	0xbd22abdf	-0.03971469
244	0x3d53fdb4	0.051755622
245	0x3cefda0b	0.029278776
246	0xbdab71ce	-0.08371316
247	0x3c8451af	0.016152231
248	0x3c795d92	0.015220063
249	0xbd61f202	-0.055162437
250	0xbcf88131	-0.03033504
251	0x3d25cb2a	0.040476955
252	0x3cf563ae	0.029954758
253	0x3d9d457f	0.07679271
254	0xbd06e74d	-0.03293543
255	0x3dade1ec	0.08490357

attention.wq.bias f4 [128]
0	0x3d40cf76	0.04707285
1	0xbd99b7b2	-0.0750574
2	0xbcf108a9	-0.029423075
3	0x3d36264b	0.044470113
4	0xbc83a196	-0.016068261
5	0xbc17f3ab	-0.009274404
6	0xbd466cc3	-0.048443567
7	0xbd3d1106	-0.046158813
8	0xbce58f1c	-0.028022341
9	0x3ce72074	0.028213717
10	0x3d090d1b	0.033459764
11	0x3cfdca17	0.030980153
12	0x3d0fe828	0.03513351
13	0xbd552568	-0.052037627
14	0xbd9289ed	-0.071552135
15	0xbd9151f3	-0.07095709
16	0xbbdafc57	-0.0066829133
17	0xbcf6b324	-0.030114718
18	0x3d282fd6	0.041061245
19	0x3db1c7db	0.086806975
20	0xbd5f1acd	-0.05446892
21	0x3d813768	0.06309396
22	0x3d1bc1b7	0.038026538
23	0x3d8f970d	0.070112325
24	0x3cffef30	0.031241983
25	0xbd9cdf1c	-0.07659742
26	0xbcfa3968	-0.030544952
27	0x3d797cf9	0.0609102
28	0x3c77ce32	0.015124844
29	0xbb5ba9e4	-0.003351801
30	0x3d6d3122	0.057908185
31	0x3bbb2f8e	0.005712456
32	0x3d7cbc80	0.061703205
33	0xbcbd1e3f	-0.023085712
34	0x3a7c0ae1	0.0009614658
35	0xbd4bea4a	-0.049783982
36	0xbba250ea	-0.0049534934
37	0x3bfabc9f	0.00765188
38	0xbd79d2c1	-0.060992006
39	0x3dab49ba	0.083636716
40	0xbd17668b	-0.036963027
41	0xbb36010e	-0.0027771625
42	0x3d115a9a	0.035486795
43	0x3c6af504	0.014340643
44	0x3cc47a97	0.023984237
45	0xbd2e3cee	-0.042538576
46	0x3d9ecd7a	0.07754035
47	0xbc8437ba	-0.016139854
48	0xbd3f704c	-0.046737954
49	0xbd703142	-0.058640726
50	0x3b70fb85	0.003677101
51	0xbd15946d	-0.036518503
52	0x3d84c371	0.0648259
53	0xbc7475a5	-0.014920627
54	0x3d14a886	0.03629353
55	0xbd3936f0	-0.045218408
56	0xbda37f4a	-0.07983263
57	0xbd8d130f	-0.06888401
58	0x3d4c134e	0.049823098
59	0xbd249d0f	-0.040188845
60	0x3d2788cb	0.04090194
61	0xbce02918	-0.027363345
62	0x3d10123b	0.035173636
63	0xbd5a4fe4	-0.053298846
64	0xbd60abe9	-0.054851446
65	0xbccab18f	-0.02474287
66	0x3cf407f7	0.029788954
67	0xbd4fb529	-0.050709877
68	0xbcbb126c	-0.022835933
69	0xbd531615	-0.05153473
70	0x3cf0405c	0.029327564
71	0x3d4f8938	0.05066797
72	0x3d8e4780	0.06947231
73	0xbc988cb6	-0.018621784
74	0x3d6d2b7e	0.057902806
75	0xbd43ba9a	-0.04778538
76	0xbd056ad2	-0.032572575
77	0x3d3427e0	0.04398334
78	0xbd026dfc	-0.03184317
79	0x3caf3728	0.021388605
80	0xbd8768f7	-0.06611817
81	0x3d1df1df	0.038560744
82	0xbdad9da2	-0.08477332
83	0x3d9052cc	0.07047042
84	0xbb6f97f5	-0.003655908
85	0x3d13ad5f	0.03605401
86	0x3d1c5b34	0.038172916
87	0x3ccb7c0f	0.02483943
88	0x3ce7b816	0.028286021
89	0x3c54aa93	0.012980121
90	0xbd80de7a	-0.06292434
91	0xbd2c00bd	-0.04199289
92	0xbc83b312	-0.016076598
93	0xbb978538	-0.004624035
94	0xbab24331	-0.0013600347
95	0x3dae36c3	0.08506539
96	0xbd77ee4e	-0.06053
97	0x3c7b39b9	0.015333586
98	0x3d6c6f70	0.057723463
99	0xbccf97f1	-0.025341006
100	0xbca3c2c9	-0.019990342
101	0x3d7ebbe4	0.062190905
102	0xbd5c789a	-0.053825952
103	0x3c5bf35e	0.0134247225
104	0x3c4b30a9	0.012401738
105	0x3d0b9610	0.034078658
106	0xbd7fd128	-0.062455326
107	0xbc811c33	-0.015760517
108	0x3cb4aa74	0.022053935
109	0xbd4e8bbe	-0.050426237
110	0x3d89c371	0.067267306
111	0xbd9414f3	-0.07230558
112	0x3c1545d3	0.009110886
113	0x3d12e4a6	0.035862587
114	0x3c20e6fa	0.009820694
115	0x3d8fc81d	0.070205905
116	0xbc4edaa2	-0.012625368
117	0xbbc27fd7	-0.00593565
118	0x3da6a196	0.08136289
119	0x3da09bf9	0.078422494
120	0xbb198be9	-0.002342934
121	0xbd57a750	-0.052649796
122	0xbcf95faa	-0.030441124
123	0xbd97f188	-0.07419115
124	0x3da533ac	0.08066496
125	0x3d7adbcd	0.061244775
126	0x3d75794b	0.059930127
127	0xbda07e45	-0.07836584
