checkpoints/model_epoch_40_policy.pt (torch, 487144 bytes, 13 tensors)

customer_encoder.conv1d.weight f4 [128, 1, 24]
0	0x3e1fd2ab	0.15607707
1	0x3e2d7e47	0.16942702
2	0xbd43d685	-0.047812004
3	0x3e4011c6	0.1875678
4	0xbd3679fd	-0.04454993
5	0x3d2e632b	0.042575043
6	0xbdccc95c	-0.09999344
7	0x3df8da39	0.12150998
8	0x3e37481e	0.17898604
9	0xbe19cb5a	-0.15018979
10	0x3e365b62	0.17808297
11	0x3d1964a0	0.03744948
12	0x3e19ee55	0.15032323
13	0x3cd655bc	0.026163928
14	0x3dc8bd53	0.09801736
15	0xbcf4fe14	-0.02990631
16	0x3e1fddbf	0.15611933
17	0x3d02aa1b	0.031900506
18	0xbdc3349a	-0.09531517
19	0x3d50c0f7	0.050965276
20	0xbdbf4a89	-0.09340388
21	0xbccb4fb1	-0.024818273
22	0xbda9091a	-0.08253689
23	0x3e0a1e3f	0.134881
24	0xbe2504b3	-0.16115074
25	0xbdc0aa49	-0.09407479
26	0xbd6c0c4d	-0.05762892
27	0xbdfac495	-0.12244526
28	0x3ca3b0b9	0.019981729
29	0xbe4d4261	-0.20044853
30	0x3e3caa05	0.18424232
31	0xbe3005c0	-0.17189693
32	0x3e212969	0.15738453
33	0x3d0b2c4f	0.033977803
34	0xbd85d7c2	-0.06535293
35	0x3e01504b	0.12628286
36	0x3d027ce6	0.031857394
37	0x3e280d1f	0.16411255
38	0x3cb46c15	0.022024194
39	0xbd869112	-0.06570639
40	0x3d5dd1e6	0.054155253
41	0xbd5de57c	-0.05417393
42	0x3db058e4	0.086107045
43	0x3e3a4a43	0.18192391
44	0x3df33547	0.11875396
45	0xbdb91060	-0.090363264
46	0x3df1f5f0	0.11814487
47	0x3d14e31a	0.036349393
48	0x3dd43d51	0.10363258
49	0xbdfec630	-0.12440145
50	0xbe4ef0ff	-0.2020912
51	0xbda295f4	-0.079387575
52	0xbe212749	-0.15737642
53	0x3e2a0b03	0.16605763
54	0x3d704ca5	0.058666844
55	0x3da9f5b0	0.08298814
56	0x3d850c68	0.06496507
57	0xbb69e47a	-0.003568916
58	0x3e226880	0.15860176
59	0xbe14df66	-0.14538345
60	0x3c4eb371	0.012616024
61	0xbe0dbba2	-0.13841107
62	0x3d81e384	0.06342223
63	0xbd8c71d2	-0.06857647
64	0x3d8191bd	0.063266255
65	0xbd325713	-0.04354007
66	0x3e2d2a8e	0.16910765
67	0xbdf71546	-0.120646045
68	0xbdfb8dc6	-0.122829005
69	0xbdf6b180	-0.12045574
70	0x3e3b96c9	0.18319239
71	0x3d8c16bb	0.06840273
72	0x3e491886	0.19638261
73	0xbe2c8267	-0.1684662
74	0xbe4f54d3	-0.20247202
75	0xbe232b2c	-0.15934438
76	0xbe0c0659	-0.13674296
77	0x3dac400a	0.08410652
78	0x3d953598	0.07285613
79	0x3e2f6b70	0.17130828
80	0xbdd8cfe0	-0.10586524
81	0xbe0ea5b4	-0.13930398
82	0x3ddff012	0.10934462
83	0xbda909a2	-0.082537904
84	0x3dfd775f	0.12376284
85	0xbd4b7eb7	-0.04968139
86	0x3dee2158	0.116274536
87	0xbe23f217	-0.16010319
88	0xbdd51b64	-0.10405615
89	0x3d820b36	0.063497946
90	0x3d318346	0.043338083
91	0xbd578c73	-0.052624177
92	0x3dfb1dbb	0.1226153
93	0x3e0cc069	0.13745274
94	0xbe170662	-0.14748529
95	0xbddfcd5d	-0.10927842
96	0x3e3f5e57	0.18688332
97	0xbd8d059f	-0.06885838
98	0xbd942e62	-0.07235409
99	0xbe4aacba	-0.19792452
100	0xbdf0f4a9	-0.11765415
101	0x3d4ae9a5	0.049539227
102	0xbcdca754	-0.026935257
103	0xbe197a92	-0.14988163
104	0x3ba9702d	0.005170843
105	0xbe0ebda5	-0.13939531
106	0xbe327278	-0.17426479
107	0xbde6e41e	-0.11273979
108	0xbe370c30	-0.17875743
109	0xbe03e0af	-0.12878679
110	0x3e5179c4	0.20456606
111	0x3d24fdb7	0.040281024
112	0x3d82be15	0.063839115
113	0xbe441716	-0.19149432
114	0xbe097a37	-0.13425528
115	0xbd8a61dd	-0.06756947
116	0x3cfadb17	0.030622048
117	0xbe3677bd	-0.17819114
118	0xbdb569f7	-0.08858102
119	0xbdf989c3	-0.12184479
120	0x3a00ab8b	0.00049083744
121	0xbd9b8764	-0.07594183
122	0xbc66f522	-0.01409653
123	0xbe0e066f	-0.13869642
124	0xbe1011d6	-0.14069304
125	0xbdf6df22	-0.12054278
126	0xbd8e9b40	-0.06963205
127	0xbe26bfaa	-0.16284052
128	0x3e2fd6eb	0.17171828
129	0xbd2518d8	-0.040306896
130	0x3e32cb5f	0.17460392
131	0x3d827eb6	0.063718244
132	0xbe30ef4d	-0.17278786
133	0x3e11c484	0.14235121
134	0xbd63fa19	-0.055658434
135	0xbd9d0c2a	-0.07668336
136	0xbe2c734c	-0.16840857
137	0xbe510f07	-0.20415889
138	0x3d6e4aa0	0.058176637
139	0xbd340722	-0.043952115
140	0x3da0d702	0.078535095
141	0xbe2a3d2f	-0.16624902
142	0x3e1ab762	0.15109017
143	0xbe19131b	-0.14948694
144	0xbd1070bc	-0.035263762
145	0x3d2e889f	0.04261076
146	0x3dd7b557	0.10532635
147	0x3e2856c4	0.16439348
148	0x3e3dbf96	0.18530115
149	0xbe274777	-0.16335855
150	0x3d52be2c	0.051450893
151	0xbdb728c5	-0.08943323
152	0xbcb30508	-0.021852985
153	0xbe1c4b3b	-0.15263073
154	0x3e3d4a7a	0.18485442
155	0xbe196d4c	-0.149831
156	0x3ddf558c	0.10904989
157	0x3d951446	0.072792575
158	0x3d89000a	0.066894606
159	0xbdde9fd2	-0.10870327
160	0x3e3ef176	0.18646798
161	0x3d3339ed	0.043756414
162	0x3cd57b9e	0.026059922
163	0xbe37a007	-0.1793214
164	0x3dad6d70	0.08468139
165	0xbcf003c3	-0.029298669
166	0xbdc0606b	-0.0939339
167	0x3e33f26e	0.17572948
168	0x3d3a6dfe	0.045515053
169	0xbde74ad8	-0.11293572
170	0xbdd38283	-0.103276275
171	0xbc1b6194	-0.009483714
172	0x3deae33f	0.11469125
173	0xbd4f0ce0	-0.050549388
174	0xbdedc914	-0.11610618
175	0xbd8bd8be	-0.0682845
176	0xbe1ccaf5	-0.15311797
177	0x3d94cc7a	0.07265563
178	0x3e22bb3b	0.15891735
179	0xbe442f8f	-0.19158767
180	0x3d429f8b	0.047515433
181	0x3dd6216e	0.10455595
182	0x3d14d7d1	0.03633863
183	0xbd984bef	-0.07436358
184	0x3dd85a77	0.1056413
185	0x3dddbd67	0.10827141
186	0x3d9c8af2	0.07643689
187	0xbd14f446	-0.03636577
188	0xbd5926f6	-0.05301567
189	0x3ca9ffab	0.020751795
190	0xbd120205	-0.035646457
191	0xbd7b7909	-0.061394725
192	0x3e059c16	0.13047823
193	0x3e33a373	0.1754282
194	0xbca5f3d9	-0.020257877
195	0xbd3dc75f	-0.046332713
196	0x3b0d78f0	0.0021586977
197	0xbc5cea3a	-0.013483578
198	0x3d4838af	0.048882183
199	0x3d6496a2	0.055807717
200	0xbe3d9799	-0.18514861
201	0xbd9a9c1d	-0.075493075
202	0x3e2ebf5f	0.1706519
203	0x3da21017	0.07913225
204	0xbc2a80ef	-0.010406717
205	0xbdf9cb04	-0.12196925
206	0xbdfef063	-0.12448194
207	0xbe399b68	-0.18125689
208	0xbd871285	-0.06595329
209	0x3d8b20c7	0.06793361
210	0x3e051285	0.12995346
211	0x3dc18310	0.09448826
212	0xbe39b9f1	-0.18137337
213	0xbdf8afd7	-0.12142914
214	0xbd058396	-0.032596193
215	0x3e4a8180	0.19775963
216	0x3cf1d7b6	0.029521804
217	0xbd586f67	-0.052840617
218	0x3dacf57d	0.08445261
219	0xbd9e9590	-0.077433705
220	0xbe06ec67	-0.13176118
221	0x3e19cae3	0.15018801
222	0xbdbf1459	-0.09330053
223	0xbd2147c1	-0.03937507
224	0xbe505b50	-0.20347333
225	0x3e0bb60b	0.13643663
226	0x3e1f5b30	0.15562129
227	0x3d97ba21	0.07408548
228	0xbe12181a	-0.14267007
229	0xbe4fa3c9	-0.20277323
230	0xbe2a0cea	-0.16606489
231	0x3e1abdec	0.15111512
232	0x3dc68efb	0.0969524
233	0x3e31567c	0.17318147
234	0x3ddb6869	0.10713274
235	0x3d5102fa	0.05102823
236	0xbaa92812	-0.0012905619
237	0xbe200312	-0.15626171
238	0xbe329e92	-0.17443302
239	0xbe43ae5d	-0.19109483
240	0x3dab251b	0.08356687
241	0xbdcd3ced	-0.10021386
242	0xbd283075	-0.041061837
243	0xbdef8f73	-0.11697283
244	0xbd1569c2	-0.03647781
245	0xbe11a509	-0.14223112
246	0xbe088afb	-0.13334267
247	0x3d8dc81c	0.069229335
248	0xbd7a64db	-0.06113134
249	0x3e010ef5	0.12603362
250	0xbd840867	-0.06446915
251	0xbe18f7a0	-0.14938211
252	0xbd12cef1	-0.035841886
253	0xbdcd6139	-0.100283094
254	0xbd810fa3	-0.063018106
255	0xbe48e2f9	-0.19617833

customer_encoder.conv1d.bias f4 [128]
0	0xbd522d9a	-0.05131302
1	0x3c96f701	0.018428328
2	0xbd6080c8	-0.054810315
3	0xbe4cb11a	-0.19989434
4	0xbcace517	-0.021105332
5	0x3dcc139b	0.09964677
6	0xbcc31202	-0.023812298
7	0xbdcddc36	-0.100517675
8	0x3bd2d12b	0.006433626
9	0x3d186f0a	0.03721527
10	0xbd6923b3	-0.05691881
11	0xbe22262c	-0.15834874
12	0xbde042ff	-0.109502785
13	0xbd08d45a	-0.03340564
14	0x3d9694dc	0.073526114
15	0x3e39dbae	0.18150207
16	0x3b76bb11	0.0037648121
17	0x3d95b419	0.073097415
18	0x3df07d5d	0.11742661
19	0xbdb65a30	-0.08903921
20	0xbd8aa58a	-0.06769855
21	0x3e0aa1ca	0.1353828
22	0x3e15a98b	0.14615457
23	0x3d4613fc	0.048358902
24	0xbe217975	-0.15768988
25	0x3ded3fe0	0.11584449
26	0xbe2cc655	-0.16872533
27	0x3dd0ef4c	0.10201892
28	0x3cc63dd9	0.024199413
29	0x3d86fba7	0.065909676
30	0xbe4bd5d8	-0.19905794
31	0xbd92d058	-0.07168645
32	0x3db17eec	0.086667866
33	0x3e20ddd6	0.15709624
34	0xbd6f27ea	-0.058387674
35	0x3e3a65b9	0.18202867
36	0xbd3abb75	-0.04558893
37	0xbdfc1ecf	-0.12310564
38	0xbdb50573	-0.0883893
39	0x3c50421b	0.012711073
40	0xbd150965	-0.036385912
41	0x3dca4794	0.09876934
42	0xbde75210	-0.11294949
43	0xbd6de6af	-0.058081325
44	0xbe4f2240	-0.20227909
45	0x3e2a99b1	0.16660191
46	0xbd1d6560	-0.038426757
47	0xbe24c56e	-0.16090938
48	0xbc20f669	-0.009824374
49	0xb9b2c51f	-0.00034097672
50	0x3d687947	0.056756284
51	0xbcb793bc	-0.022409312
52	0x3e037c5b	0.12840407
53	0xbd9046f1	-0.07044781
54	0xbd7a2af5	-0.061076123
55	0xbd46afe6	-0.048507594
56	0x3d153232	0.036424823
57	0x3e276acb	0.16349332
58	0xbc19a434	-0.009377528
59	0x3e20ca9e	0.15702292
60	0x3e23fe68	0.16015017
61	0xbdd98701	-0.10621453
62	0xbc8fe2ed	-0.017564261
63	0xbdc56600	-0.096385956
64	0x3dadfb29	0.084951706
65	0xbd93088f	-0.07179367
66	0x3d7f19af	0.062280353
67	0x3c484a03	0.012224677
68	0xbe092716	-0.13393816
69	0xbe0c8b92	-0.13725117
70	0xbe4c24b9	-0.19935884
71	0xbde9de6c	-0.11419377
72	0x3d69b4e4	0.057057276
73	0x3c4bc8ca	0.012438009
74	0x3e1d200c	0.15344256
75	0xbe37bc71	-0.17942978
76	0xbbc28ea4	-0.0059374142
77	0xbe3b5d5b	-0.18297331
78	0x3a99d1aa	0.0011735458
79	0x3d9859fe	0.0743904
80	0xbe3b826e	-0.18311474
81	0x3e387a7f	0.18015479
82	0xbd81e7e9	-0.063430615
83	0x3e39384e	0.18087885
84	0xbd0c32fc	-0.03422831
85	0x3ded299e	0.115802035
86	0x3e3dfc86	0.18553361
87	0xbd982301	-0.074285515
88	0xbd4b63b4	-0.04965563
89	0x3ddb6315	0.10712258
90	0xbe32e7db	-0.17471258
91	0x3df769b1	0.12080706
92	0xbe034d3b	-0.1282243
93	0x3e422806	0.1896058
94	0xbe08eae8	-0.1337086
95	0xbdac011e	-0.083986506
96	0x3e1bf1ba	0.1522893
97	0xbdb5f129	-0.08883888
98	0x3e332a40	0.17496586
99	0x3e0fe7f7	0.14053331
100	0x3e3f02ec	0.18653458
101	0xbe4a9974	-0.197851
102	0x3b15c7d3	0.00228547
103	0xbd898085	-0.06713966
104	0x3d472eb1	0.048628513
105	0xbe1dd3cd	-0.15412827
106	0x3dab6b4b	0.08370074
107	0xbc1e9a1b	-0.009680296
108	0xbdc571e5	-0.09640864
109	0xbe3c186c	-0.18368691
110	0x3ddaaf1d	0.106779315
111	0xbd9754fc	-0.07389256
112	0x3e1a454f	0.15065502
113	0x3d14ccf6	0.03632828
114	0x3d7e7f9f	0.062133428
115	0xbcfd4882	-0.030918363
116	0xbce781d6	-0.028260153
117	0xbd8e136e	-0.069373
118	0xbe35142b	-0.17683475
119	0x3e036447	0.12831222
120	0xbe03a1fe	-0.12854764
121	0x3df395f7	0.11893838
122	0xbd8cfefa	-0.068845704
123	0x3e02fb7e	0.12791249
124	0x3e332061	0.1749282
125	0xbdffb2c5	-0.124852695
126	0x3e2c8c02	0.16850284
127	0x3ba1ce19	0.004937899

vehicle_encoder.lstm.weight_ih_l0 f4 [512, 2]
0	0xbd8c0f1f	-0.068388216
1	0x3d1071f5	0.035264928
2	0x3d488734	0.048957065
3	0x3d9e05cf	0.07715952
4	0xbdac0111	-0.08398641
5	0x3da47260	0.08029628
6	0x3d873745	0.06602339
7	0x3db01bec	0.08599076
8	0x3d46f2bf	0.048571344
9	0xbd2ddba1	-0.042445783
10	0x3d8af8ba	0.06785722
11	0x3da6f2d6	0.08151786
12	0xbd0f9c08	-0.035060912
13	0xbc809814	-0.015697517
14	0x3d8e6ab3	0.06953945
15	0x3d922089	0.07135112
16	0x3d766afe	0.06016063
17	0x3d8e8b51	0.06960166
18	0xbd3f360b	-0.0466824
19	0xbc8386c3	-0.01605547
20	0xbd0e660f	-0.0347653
21	0x3d3d8aa1	0.046274785
22	0x3ca63a18	0.020291373
23	0xbd8fd11e	-0.07022308
24	0xbc334fb5	-0.010944297
25	0xbd93c8c5	-0.07216028
26	0xbdabf77a	-0.08396812
27	0x3da30be8	0.07961255
28	0xbd38ad64	-0.045087233
29	0x3d200250	0.039064705
30	0xbc9559ea	-0.01823135
31	0xbc858f5f	-0.016303716
32	0x3a308b2f	0.0006734607
33	0x3d8d9eca	0.06915052
34	0xbc351bc9	-0.011053988
35	0x3d98bc32	0.074577704
36	0x3d595f28	0.053069264
37	0x3d7d28c5	0.06180646
38	0xbda74f27	-0.08169394
39	0xbd3026e5	-0.043005843
40	0xbd937b1d	-0.07201216
41	0xbc9abece	-0.01888981
42	0xbc92402d	-0.017852867
43	0x3c92e5fd	0.017931933
44	0x3da333c9	0.079688616
45	0x3d24ac47	0.04020336
46	0xbd7d0ee1	-0.061781768
47	0xbd66c910	-0.056344092
48	0x3d88d362	0.06680943
49	0x3c0e4735	0.008683969
50	0x3ccdf237	0.025139911
51	0xbd3cc7c6	-0.046088956
52	0xbc3eb4ee	-0.011639817
53	0x3cc83ed6	0.024444025
54	0xbd6a29eb	-0.057168882
55	0x3d7130c4	0.058884397
56	0x3d3654f4	0.04451461
57	0xbd5022dd	-0.0508145
58	0xbd130f2c	-0.03590314
59	0xbca60527	-0.020266129
60	0x3c559cac	0.013037842
61	0xbd08387c	-0.033256993
62	0x3dab285c	0.08357307
63	0xbdb1289e	-0.08650325
64	0xbd4b9b31	-0.04970855
65	0xbd5854b0	-0.05281514
66	0x3cc834c3	0.024439221
67	0x3c5a1a46	0.013311928
68	0xbccd901e	-0.025093134
69	0x3d9c54fc	0.07633397
70	0xbd9b9715	-0.07597176
71	0x3d01b765	0.03166904
72	0xbd41cc45	-0.047313947
73	0xbc99d575	-0.018778542
74	0xbdaf5437	-0.085609846
75	0xbd871be2	-0.06597115
76	0xbd98d96c	-0.07463345
77	0x3d1f6859	0.038917873
78	0xbd04569a	-0.032309152
79	0x3d3fcdc7	0.046827104
80	0xbd43acd9	-0.047772262
81	0xbcb47a70	-0.022031039
82	0x3c35cde1	0.011096449
83	0x3d98ac23	0.074547075
84	0xbcb87a71	-0.022519322
85	0x3d57e6f8	0.052710503
86	0x3ccbdbad	0.024885023
87	0x3d5df417	0.05418786
88	0x3d6304fa	0.055424668
89	0x3d1419c9	0.036157403
90	0xbce38761	-0.027774515
91	0xbcd0ff18	-0.025512263
92	0x3d0ddbbd	0.034633387
93	0x3d45e496	0.0483137
94	0xbb3b6f70	-0.0028600357
95	0x3d3cbe48	0.046079904
96	0xbd569dec	-0.0523967
97	0x3d4edfd2	0.05050642
98	0xbc3f7bc1	-0.01168722
99	0xbd7d8d65	-0.061902422
100	0xbd31a75a	-0.04337249
101	0xbd8bf144	-0.06833127
102	0x3c9afa02	0.018918041
103	0xbd52697c	-0.05137013
104	0xbccea933	-0.025227165
105	0xbbb275fa	-0.005446193
106	0xbd5b7d5a	-0.05358634
107	0x3b2557bc	0.0025229296
108	0xbc2f4000	-0.010696411
109	0x3ce824c4	0.028337844
110	0x3d830096	0.06396596
111	0xbd5c393c	-0.05376552
112	0x3d4b51b2	0.049638458
113	0xb9b8737b	-0.00035181254
114	0xbd53769e	-0.051626794
115	0xbd27ce01	-0.040967945
116	0x3cb5daa0	0.022198975
117	0x3c919949	0.017773287
118	0xbb4b2846	-0.0030999347
119	0xbd346bb9	-0.044048045
120	0x3d378887	0.044807937
121	0x3c5af3c3	0.013363781
122	0xbdb0ae7f	-0.086270325
123	0xbc83d25c	-0.016091518
124	0xbcbc3a15	-0.022976914
125	0xbd1699fc	-0.036767945
126	0xbd47ca7c	-0.04877709
127	0xbd92c2c1	-0.071660526
128	0x3db1bf72	0.086790934
129	0xbda5ccc5	-0.08095697
130	0x3da841fc	0.082157105
131	0xbd8cd8d8	-0.06877297
132	0xbca6bdb9	-0.020354139
133	0xbd0e09fa	-0.034677483
134	0xbd42f32b	-0.047595184
135	0x3cfef137	0.03112088
136	0x3d4f1c31	0.050563995
137	0xbd707d57	-0.058713283
138	0xbd2bf4f7	-0.041981664
139	0x3d36199f	0.044458028
140	0xbc219718	-0.009862684
141	0x3cb422ac	0.02198919
142	0x3d425fcc	0.04745464
143	0xbd035cb9	-0.03207085
144	0xbd412d98	-0.047162622
145	0x3d0b6e6a	0.034040846
146	0xbcfb3004	-0.030662544
147	0xbd6b3a84	-0.05742885
148	0xbd35d268	-0.044390112
149	0xbd2943ae	-0.04132431
150	0x3db36017	0.08758562
151	0x3c8a16a3	0.016856497
152	0x3d1a6d85	0.037702102
153	0x3c44b2ff	0.012005567
154	0xbd73c2e5	-0.059512038
155	0x3d81e39c	0.06342241
156	0xbc5773a8	-0.013150133
157	0xbcb1f95c	-0.02172535
158	0x3d919ae1	0.07109619
159	0xbd3c3a8d	-0.045954276
160	0x3c8e2a33	0.017354107
161	0xbd9b8ecd	-0.075955965
162	0x3d39e812	0.045387335
163	0x3d0f116a	0.034928717
164	0xbd944219	-0.072391696
165	0x3d485092	0.048904963
166	0x3c079c0f	0.008276953
167	0xbd41caed	-0.047312666
168	0x3d99433d	0.07483528
169	0x3d1905a7	0.037358906
170	0x3d009372	0.031390615
171	0xbd04b785	-0.03240158
172	0xbd43b9d0	-0.047784626
173	0xbd3ed974	-0.0465941
174	0x3d0685e4	0.03284253
175	0x3cc117a7	0.023570849
176	0xbd5b7095	-0.053574163
177	0x3da31464	0.079628736
178	0x3d530479	0.051517937
179	0xbd09d234	-0.03364773
180	0x3d3677e0	0.044547915
181	0xbd1e3b6b	-0.038630884
182	0x3ce21882	0.027599577
183	0x3d96f199	0.073703
184	0xbd9f0344	-0.07764295
185	0xbd2f9956	-0.042870842
186	0xbbcef69f	-0.0063160206
187	0x3c4a9cd5	0.012366493
188	0xbd935f20	-0.07195878
189	0xbd6bcc3e	-0.057567827
190	0xbc088312	-0.008332031
191	0xbc57b899	-0.01316657
192	0x3ca2c9c7	0.019871606
193	0x3c3e30ae	0.011608286
194	0x3c97801c	0.018493704
195	0x3bc70d92	0.0060746158
196	0x3c254965	0.010088299
197	0xbbb24bf4	-0.005441183
198	0x3d03b7ef	0.032157835
199	0x3d7a6d31	0.06113929
200	0xbd2ecc1d	-0.042675126
201	0xbd36e540	-0.044652224
202	0x3d264c11	0.040599886
203	0xbd7e7a6b	-0.062128466
204	0x3d6479a6	0.055780075
205	0x3d1ec4f0	0.038762033
206	0x3c4e59ee	0.012594683
207	0xbd1f310f	-0.038865145
208	0x3ab63eb0	0.001390418
209	0xbd91e7d2	-0.07124294
210	0xbda3ef26	-0.08004598
211	0x3da9e5c5	0.08295778
212	0xbda0556f	-0.07828795
213	0xbd93c476	-0.07215206
214	0xbd0dd392	-0.034625597
215	0x3b862f96	0.004095028
216	0x3ca58380	0.020204306
217	0xbd321cde	-0.04348456
218	0xbc029ffe	-0.007972715
219	0xbc9f7387	-0.019464267
220	0x3d97ed95	0.07418362
221	0x3d9ca004	0.07647708
222	0x3d10573b	0.03523944
223	0xbade34dd	-0.001695301
224	0x3d85d423	0.065346025
225	0xbd946796	-0.0724632
226	0x3d1b91c9	0.03798083
227	0xbd4cfce6	-0.05004587
228	0x3d8cccc4	0.068749934
229	0xbd9fac80	-0.07796574
230	0x3d046fab	0.032333057
231	0xbd957ece	-0.07299577
232	0x3d529492	0.05141122
233	0x3c84ee82	0.01622701
234	0x3d9c69e1	0.07637382
235	0xbd86f656	-0.065899536
236	0x3d69f58c	0.057118937
237	0xbd6f9af0	-0.05849737
238	0xbd3e5bf6	-0.04647442
239	0x3d0d2721	0.034461144
240	0xbc6a0e0c	-0.014285576
241	0xbd8e8d86	-0.06960587
242	0xbd9b8fa2	-0.07595755
243	0xbcc3aa4e	-0.023884919
244	0x3cb9322d	0.022606933
245	0x3d9b65d3	0.07587781
246	0x3d841120	0.06448579
247	0x3a64b032	0.0008723765
248	0xbd5db73f	-0.054129835
249	0xbda16dcb	-0.078822695
250	0x3d9f6eca	0.07784803
251	0xbd4ed499	-0.050495718
252	0xbc7d96a6	-0.015477812
253	0xbd91614d	-0.07098637
254	0xbd789c9b	-0.060696226
255	0x3c8d7daa	0.017271835

vehicle_encoder.lstm.weight_hh_l0 f4 [512, 128]
0	0xbd6f42e1	-0.05841339
1	0xbd9187c9	-0.07105977
2	0x3d815285	0.063145675
3	0x3c0dd3ea	0.008656481
4	0xbaeb44eb	-0.0017949616
5	0xbdb18c09	-0.08669288
6	0x3da1a57b	0.07892891
7	0xbd74ca0d	-0.059763003
8	0x3d264cb1	0.040600482
9	0xbc42499c	-0.01185837
10	0x3b82a823	0.0039873286
11	0x3d36af5b	0.044600826
12	0xbcccce5f	-0.02500075
13	0xbcd59bba	-0.026075233
14	0x3d92ed57	0.07174175
15	0xbd8dbfbc	-0.06921336
16	0x3d1acc01	0.03779221
17	0xbcb0afbc	-0.021568172
18	0xbcfb734a	-0.030694623
19	0x3d6dd3bc	0.058063254
20	0x3c849001	0.016181948
21	0xbda638bb	-0.08116289
22	0x3da4291e	0.08015655
23	0xbd382f64	-0.04496707
24	0x3d9f0548	0.07764679
25	0xbceddcf7	-0.029036028
26	0x3dadbeb8	0.08483642
27	0x3ccc50e8	0.024940923
28	0xbbb7fea3	-0.005615072
29	0x3d0f572e	0.03499525
30	0xbb4b5cae	-0.0031030583
31	0xbd2e1744	-0.042502657
32	0x3d415d34	0.047208026
33	0x3d65d0c5	0.0561073
34	0xbc23a98d	-0.0099891545
35	0x3da7d63f	0.08195161
36	0x3b912f66	0.004430699
37	0xbd3b562f	-0.045736488
38	0xbd403dfa	-0.046934105
39	0x3d6e5b00	0.058192253
40	0xbd16e902	-0.036843307
41	0x3d69d000	0.05708313
42	0xbdb20bd3	-0.086936615
43	0x3ae9375f	0.0017792991
44	0xbd7fce76	-0.062452756
45	0x3d05c7ca	0.032661237
46	0x3d903c57	0.07042759
47	0x3d140f30	0.036147296
48	0xbd014fd7	-0.03157028
49	0xbdac43db	-0.0841138
50	0xbd26d1ae	-0.04072731
51	0xbd4ffcf5	-0.050778348
52	0x3daa33b1	0.083106406
53	0xbd3d67df	-0.046241637
54	0x3d11096a	0.03540937
55	0x3d93c9b8	0.07216209
56	0x3d0829dd	0.03324305
57	0xbd9c8163	-0.07641866
58	0xbc3ba4ef	-0.011452897
59	0xbce10e79	-0.027472721
60	0x3d641f1c	0.05569373
61	0xbc1c8ccc	-0.009555053
62	0xbb5e2d24	-0.0033901418
63	0x3d9ec26b	0.07751926
64	0x3cb5c3c8	0.022188082
65	0x3d2252aa	0.039629616
66	0xbcf2e8c9	-0.029652016
67	0x3d70c0c4	0.058777586
68	0x3c658a03	0.014009955
69	0xbc998229	-0.018738823
70	0x3c825a1c	0.015912108
71	0xbd8bd841	-0.068283565
72	0x3b912465	0.0044293874
73	0x3d20f011	0.039291445
74	0xbda8f165	-0.08249167
75	0xbd45a02d	-0.04824846
76	0x3d66d6f1	0.056357328
77	0x3b518658	0.0031970944
78	0xbaddc94c	-0.0016920953
79	0x3c27e4a6	0.010247385
80	0xbd1d9230	-0.038469493
81	0x3d982cb1	0.07430399
82	0xbc1b8f39	-0.009494596
83	0xbd0932ad	-0.033495594
84	0x3d3999e5	0.04531278
85	0xbd994ade	-0.07484983
86	0xbc8ead3d	-0.01741659
87	0x3c2979a9	0.010343947
88	0xbcea8a91	-0.028630527
89	0x3d4404c0	0.047856092
90	0xbd9d6076	-0.07684414
91	0xbcdd5214	-0.027016677
92	0xbd141d14	-0.036160544
93	0x3da9fcad	0.08300147
94	0x3d0c0d63	0.034192454
95	0xbd887c3d	-0.066643216
96	0x3d11ff54	0.03564389
97	0xb9f2ec83	-0.00046334052
98	0x3da181e5	0.078861035
99	0x3d422dfd	0.04740714
100	0xbd578d24	-0.052624837
101	0x3d9e9acf	0.07744371
102	0xbc8b8c78	-0.017034754
103	0xbc9beaa1	-0.019032778
104	0x3ce34887	0.027744545
105	0x3db1caf0	0.086812854
106	0x3cd07a1b	0.02544885
107	0xbdabf52f	-0.083963744
108	0xbcda1aa5	-0.026624033
109	0x3dab597b	0.083666764
110	0xbcf43860	-0.029812038
111	0xbd332ce0	-0.043743968
112	0xbd931737	-0.07182162
113	0xbd4d9a40	-0.050195932
114	0xbd4013c1	-0.04689384
115	0x3ca251b9	0.019814359
116	0x3d0b6b82	0.034038074
117	0x3daa174d	0.083052255
118	0x3d703fec	0.05865471
119	0x38c479ad	9.368672e-05
120	0x3d478e9e	0.048719995
121	0x3d4b5a55	0.049646694
122	0xbd99d41e	-0.07511161
123	0x3d3bfebe	0.045897238
124	0xbd7ce1aa	-0.061738648
125	0x3d88dc5d	0.06682656
126	0xbd18364a	-0.03716115
127	0x3c8985b7	0.016787393
128	0xb861c33e	-5.3826014e-05
129	0x3d251dcf	0.04031163
130	0x3c5790c6	0.013157075
131	0xbd8460e1	-0.06463791
132	0x3d0fd4a4	0.0351149
133	0x3d52aa75	0.05143209
134	0xbd396896	-0.045265757
135	0xbd6d71b8	-0.05796978
136	0xbd739048	-0.05946377
137	0xbd32ec88	-0.043682605
138	0xbc2ac6e6	-0.010423398
139	0x3bef318f	0.007299609
140	0xbaab2eee	-0.0013060251
141	0xbcc5e4b6	-0.02415691
142	0x3d63978c	0.05556445
143	0x3b82f49d	0.0039964453
144	0xbd552c32	-0.0520441
145	0xbcb9dffb	-0.02268981
146	0xbd574423	-0.052555215
147	0xbd028606	-0.031866096
148	0xbda956c4	-0.08268502
149	0x3c8406a7	0.016116453
150	0xbd8ae2ac	-0.067815155
151	0x3d0972b1	0.033556644
152	0x3d7ab5cc	0.06120853
153	0xbd87f513	-0.06638541
154	0xbd41e9ac	-0.047341987
155	0xbd90aa25	-0.070637025
156	0x3cbb479c	0.022861294
157	0x3c919612	0.017771754
158	0xbd3adcf7	-0.045620885
159	0x3d5dc428	0.054142147
160	0x3d137a66	0.0360054
161	0xbda4fbf0	-0.08055866
162	0xbb89432f	-0.004188917
163	0xbd1e8078	-0.038696736
164	0xbc830a30	-0.015996069
165	0x3d4c78ac	0.04991977
166	0xbc108bc6	-0.008822387
167	0xbd7e25a9	-0.062047634
168	0x3d7c1380	0.061542034
169	0xbda4110b	-0.08011063
170	0xbcfda8b2	-0.03096423
171	0x3d09254f	0.033482846
172	0x3d9e8a2a	0.077411965
173	0x3db14039	0.086548276
174	0xbcafbd45	-0.021452555
175	0x3cf7631e	0.03019863
176	0xbda06e98	-0.07833594
177	0xbc929b9d	-0.017896468
178	0xbcdb8b6f	-0.026799886
179	0x3cd358db	0.025799206
180	0xbd6ff75f	-0.05858552
181	0x3ca1e731	0.019763561
182	0x3d3dcebb	0.04633973
183	0x3d8e7709	0.06956298
184	0xbc696ac2	-0.014246644
185	0x3da6c9ea	0.08143981
186	0xbdac7c86	-0.084221885
187	0xbcd2f5e6	-0.02575202
188	0x3d067030	0.032821834
189	0x3cb29b6c	0.021802627
190	0x3d2d64c7	0.042332437
191	0xbd730621	-0.059332017
192	0x3d61b94c	0.055108353
193	0xbdab4cb9	-0.08364243
194	0xbd7b43e6	-0.06134405
195	0xbbaf28da	-0.005345446
196	0xbdae744f	-0.08518278
197	0xbdad4dcc	-0.08462104
198	0xbda1fecb	-0.07909926
199	0x3d930727	0.071790986
200	0x3ca421cc	0.020035647
201	0xbcec6eb9	-0.02886139
202	0xbb8792cc	-0.0041373726
203	0xbd9f145f	-0.07767557
204	0xbda9d053	-0.08291688
205	0xbd7b1a31	-0.061304275
206	0xbdadbb4c	-0.0848299
207	0x3d70f567	0.058827784
208	0xbcf7fe39	-0.03027259
209	0xbcbde500	-0.023180485
210	0xbd9d081e	-0.07667564
211	0x3c648800	0.013948441
212	0xbc64fd5a	-0.013976419
213	0xbd794901	-0.060860638
214	0x3d653b9e	0.05596506
215	0x3d9a06a4	0.07520798
216	0xbd827a36	-0.06370966
217	0x3d4f05ae	0.050542526
218	0xbc76ab7b	-0.015055533
219	0xbac8ebd4	-0.0015329071
220	0x3d1d0cd1	0.0383423
221	0xbc7c1f08	-0.015388258
222	0x3d98a568	0.07453424
223	0x3d5e9d2d	0.054349113
224	0xbd68367d	-0.05669259
225	0xbd598b9f	-0.05311167
226	0xbdb4f15e	-0.088351
227	0x3ce2463d	0.027621383
228	0xbd896169	-0.06708033
229	0xbd992513	-0.074777745
230	0xbd6acd7a	-0.057324864
231	0xbdb18b79	-0.086691804
232	0xbd91e84c	-0.07124385
233	0x3d9ff840	0.07811022
234	0x3d475525	0.048665185
235	0x3da1e9e4	0.07905939
236	0xbd2c19ef	-0.04201692
237	0xbd13da8b	-0.03609709
238	0xbcf86da6	-0.030325722
239	0x3a8b9400	0.0010648966
240	0xbd83582d	-0.064133026
241	0x3c49a7b1	0.012308047
242	0xbd64f38b	-0.055896323
243	0x3c59c342	0.013291182
244	0x3da44c26	0.08022337
245	0x3c69e5ff	0.014276027
246	0x3d85253b	0.06501242
247	0xbd8275f6	-0.063701555
248	0xbc427278	-0.011868112
249	0xbd626860	-0.05527532
250	0xbc1617c3	-0.009160939
251	0xbd0d466c	-0.034490988
252	0xbd509689	-0.05092481
253	0xbdb02083	-0.08599951
254	0xbd037b60	-0.03210008
255	0x3c349527	0.011021889

vehicle_encoder.lstm.bias_ih_l0 f4 [512]
0	0x3d2a785e	0.041618697
1	0x3d13a411	0.036045138
2	0x3af2cdf0	0.0018524509
3	0xbd0c6a7a	-0.03428123
4	0xbd9b475c	-0.0758197
5	0x3d3d2e88	0.046186954
6	0x3d721214	0.059099272
7	0x3cc3bab2	0.023892734
8	0x3d0fdb3e	0.035121195
9	0x3db0458b	0.08607014
10	0xbd915fe9	-0.070983715
11	0xbd753e4c	-0.059873864
12	0xbc2d289e	-0.010568766
13	0x3d14b018	0.03630075
14	0x3da00722	0.078138605
15	0x3db7c83c	0.089737386
16	0x3c6e6b6f	0.014551981
17	0x3d3a2bb5	0.04545184
18	0x3da4830a	0.08032806
19	0x3d3f9fed	0.046783376
20	0xbbb893b1	-0.0056328406
21	0xbd0cf960	-0.03441751
22	0xbcba749f	-0.022760687
23	0x3da663cd	0.08124504
24	0xbdacc7a2	-0.084365144
25	0x3c5e75ef	0.013577922
26	0x3c5c9f14	0.013465662
27	0xbc8b6f9f	-0.017020999
28	0xbd6326cc	-0.05545692
29	0xbd8bb36d	-0.06821332
30	0xbb29e802	-0.002592564
31	0xbd6b51ac	-0.057450935
32	0x3d181adf	0.037135
33	0xbd856555	-0.06513468
34	0xbca72476	-0.020403128
35	0xbc345f1f	-0.011009007
36	0x3d18e596	0.037328325
37	0x3d84ce2f	0.06484639
38	0x3da599f3	0.08086004
39	0x3be61be4	0.007022368
40	0xbdb40634	-0.08790246
41	0xbcc10e21	-0.023566308
42	0x3c688f3a	0.014194304
43	0x3d03563e	0.03206467
44	0x3d9f9a48	0.07793099
45	0xbdad15bd	-0.08451412
46	0xbcd68b5f	-0.026189504
47	0x3d705b73	0.058680963
48	0x3d482389	0.048862014
49	0xbd0974c2	-0.033558615
50	0x3cc6cfdf	0.024269043
51	0x3d6ee394	0.058322504
52	0xba12c0ec	-0.00055982056
53	0xbc0aad61	-0.008464188
54	0x3c218e29	0.009860554
55	0xbd18d4a3	-0.03731216
56	0xbdb0ddcc	-0.086360544
57	0x3d3127a4	0.043250695
58	0x3cd037bd	0.025417203
59	0xbd796549	-0.06088761
60	0x3c745749	0.0149133885
61	0xbcf0f66c	-0.029414378
62	0x3da1555b	0.078776084
63	0xbd31b7a2	-0.043388017
64	0x3da14694	0.0787479
65	0x3d19b4dc	0.037525997
66	0x3c406b4f	0.011744334
67	0x3cc54a2e	0.024083223
68	0x3c4d44f0	0.012528643
69	0x3d444f13	0.047926974
70	0xbd2353e6	-0.039874934
71	0xbcc2c0e3	-0.023773616
72	0xbd26c965	-0.04071941
73	0x3c940528	0.018068865
74	0xbd435546	-0.047688745
75	0x3d3fc8e9	0.046822462
76	0xbc8db9e8	-0.017300561
77	0x3dafd013	0.08584609
78	0x3d0ced88	0.034406215
79	0xbdaaf733	-0.08347931
80	0x3c55cf22	0.013049873
81	0x3d0bbe6a	0.03411714
82	0xbd6c613f	-0.05770993
83	0x3c39b246	0.011334008
84	0x3cf8bcec	0.030363522
85	0xbdaa8b64	-0.08327368
86	0xbd9e0333	-0.07715454
87	0xbb98b0ca	-0.004659747
88	0x3d02ec31	0.03196353
89	0xbd44bbad	-0.048030544
90	0xbd4691a8	-0.048478752
91	0xbd3769e0	-0.044778705
92	0x3ca81f89	0.02052285
93	0xbd05cdf9	-0.032667134
94	0xbd1b1679	-0.03786323
95	0x3bed0e07	0.007234338
96	0xbc247439	-0.010037475
97	0xbc4bebfa	-0.012446398
98	0x3d647ba1	0.055781964
99	0xbd8f03e4	-0.06983164
100	0xbc0520a9	-0.008125463
101	0xbc0051ab	-0.007831971
102	0x3d01480e	0.031562857
103	0xbd4dee5b	-0.05027614
104	0x3c3aab43	0.011393371
105	0xbda94506	-0.08265118
106	0x3d9264d8	0.07148141
107	0x3c80a06e	0.015701499
108	0xbc3337bc	-0.010938581
109	0xbd9b8568	-0.075938046
110	0x3d8569ce	0.06514321
111	0x3d73030a	0.05932907
112	0x3d777a1e	0.060419194
113	0xbd687e61	-0.05676115
114	0xba138dac	-0.0005628716
115	0xbd5e14df	-0.054219123
116	0xbd55a68d	-0.05216079
117	0xbd88c568	-0.06678277
118	0x3d681808	0.056663543
119	0xbc8e4e05	-0.017371187
120	0x3d3ae9a3	0.04563297
121	0xbc901bbb	-0.017591348
122	0xbc11a27e	-0.008888839
123	0xbabe09ef	-0.001449881
124	0xbd8a29c0	-0.067462444
125	0xbda630ae	-0.08114754
126	0x3d105420	0.035236478
127	0xbb2c8c2a	-0.0026328661
128	0xbb567c1a	-0.003272778
129	0x3b62f871	0.0034632946
130	0x3bd45273	0.0064795553
131	0x3d517376	0.051135503
132	0xbc8654c0	-0.016397834
133	0xbcb60e07	-0.022223486
134	0xbd989129	-0.07449562
135	0x3c679716	0.014135143
136	0x3d6d64ba	0.05795739
137	0xbd429a8e	-0.047510676
138	0xbd0a3871	-0.033745233
139	0xbd3cf0e6	-0.046128176
140	0x3dae4af9	0.08510394
141	0xbda925e7	-0.082591824
142	0x3d42f00d	0.04759221
143	0xbd4c471b	-0.0498725
144	0xbd912be7	-0.07088452
145	0x3d9eaa50	0.07747328
146	0x3ca1dc2d	0.019758308
147	0x3d22ec9f	0.03977644
148	0xbcd9b4ec	-0.026575528
149	0xbda00ecd	-0.07815323
150	0x3c6b71fc	0.014370438
151	0x3d08344a	0.03325299
152	0x3d9cb67a	0.07651992
153	0xbd46c409	-0.048526797
154	0x3dad8e44	0.08474401
155	0x3db1b639	0.08677334
156	0xbd58afb3	-0.052901935
157	0xbcf0d3d3	-0.02939788
158	0x3d9dd2c3	0.07706215
159	0x3d06dafe	0.03292369
160	0xbd989643	-0.07450535
161	0xbd9fba64	-0.07799223
162	0xbdab2601	-0.08356858
163	0xbd413a13	-0.047174525
164	0x3d195eda	0.037443973
165	0xbd31d3ca	-0.04341487
166	0x3dafd4fb	0.08585545
167	0xbc3d286c	-0.011545282
168	0x3d5e06c3	0.054205667
169	0xbd5a318b	-0.053269904
170	0x3da41720	0.08012223
171	0x3cc52be4	0.02406878
172	0x3d86c424	0.065803796
173	0x3d255202	0.040361412
174	0xbd94fec8	-0.07275158
175	0x3d7456ce	0.059653096
176	0xbcc99009	-0.024604814
177	0xbd631baf	-0.055446323
178	0x3d68a233	0.05679531
179	0xbd928bb9	-0.07155556
180	0x3ce46312	0.027879272
181	0xbd9c20dd	-0.07623456
182	0xbd902cbc	-0.070397824
183	0x3d236785	0.039893646
184	0x3cbda9bb	0.023152223
185	0x3da2ffc7	0.07958942
186	0x3d872d7d	0.06600473
187	0xbd939e7d	-0.072079636
188	0x3d96fd34	0.073725134
189	0x3da608b3	0.08107128
190	0x3b556db3	0.0032566607
191	0x3d466d6a	0.04844419
192	0x3d81c1fa	0.06335826
193	0xbd904904	-0.070451766
194	0x3d560ddd	0.052259315
195	0x3d66ef55	0.05638059
196	0xbdadd174	-0.08487216
197	0x3cca8dd8	0.02472584
198	0x3d2e635b	0.04257522
199	0x3ce4877f	0.02789664
200	0xbcbe70f2	-0.023247216
201	0x3c848e41	0.016181113
202	0x3d71aaf6	0.05900093
203	0x3d17e339	0.03708193
204	0xbd8124ba	-0.06305833
205	0xbcd4446a	-0.025911529
206	0x3db4024d	0.08789501
207	0x3d5ca562	0.05386866
208	0xbd3847cb	-0.044990342
209	0xbd9047b7	-0.070449285
210	0x3d7c7d71	0.061643068
211	0x3da7d03f	0.08194017
212	0xbd60ac3c	-0.054851755
213	0xbd8b4366	-0.067999646
214	0xbc831e38	-0.01600562
215	0xbc2db74e	-0.010602785
216	0x3ca811f1	0.020516368
217	0x3d431a04	0.047632232
218	0xbcf94722	-0.030429427
219	0x3d6a0646	0.05713489
220	0xbd80e90f	-0.062944524
221	0x3d479cd5	0.04873355
222	0x3c5b5974	0.0133880265
223	0xbd22acaf	-0.039715465
224	0x3c3aa002	0.011390688
225	0x3ca951dd	0.020668918
226	0x3d2a9493	0.041645598
227	0xbcfba100	-0.03071642
228	0x3c2288a1	0.00992027
229	0xbd49edd4	-0.049299076
230	0xbd58342f	-0.05278414
231	0xbd8510fd	-0.06497381
232	0x3cf91ac0	0.030408263
233	0xbc2db6c2	-0.010602655
234	0x3c8f3a5f	0.017483888
235	0xbd2c1e98	-0.042021364
236	0x3d0f081b	0.03491984
237	0xbd99d78b	-0.07511815
238	0x3c8b9bbd	0.017042035
239	0xbd8a8228	-0.067631066
240	0xbdb65fe3	-0.08905008
241	0xbd8de55e	-0.06928514
242	0x3da62450	0.08112395
243	0x3da22e6e	0.07919012
244	0x3d2c5180	0.042069912
245	0x3cc0ba1f	0.02352625
246	0x3da65887	0.08122354
247	0xbd39e264	-0.04538192
248	0x3d7d0af6	0.06177803
249	0x3d1debca	0.038554944
250	0x3d7ea72f	0.062171157
251	0x3d21c598	0.03949508
252	0xbc161aec	-0.009161692
253	0xbd99208b	-0.0747691
254	0xbd1a17d6	-0.037620388
255	0x392165fe	0.00015392152

vehicle_encoder.lstm.bias_hh_l0 f4 [512]
0	0x3b55b47b	0.0032608795
1	0xbd229116	-0.039689146
2	0xbcc3625e	-0.023850616
3	0xbcd6dbb5	-0.026227811
4	0x3d972454	0.07379976
5	0xbc897590	-0.016779691
6	0xbd89e998	-0.067340076
7	0xbd4e06cc	-0.05029945
8	0x3d57ac66	0.052654646
9	0xbda991f9	-0.08279795
10	0xbcbb78f6	-0.022884827
11	0xbd72e232	-0.059297748
12	0xbc7c89ae	-0.015413685
13	0xbd9deb80	-0.07710934
14	0xbd8ecdf6	-0.06972878
15	0xbd2a3b95	-0.041560728
16	0x3c2f22bf	0.010689436
17	0x3da1331d	0.07871077
18	0xbd9e9db7	-0.077449255
19	0xbd2263c2	-0.039645918
20	0x3da426dc	0.08015224
21	0x3d733554	0.05937703
22	0xbda5ba39	-0.0809216
23	0xbc86e44d	-0.016466284
24	0xbd7bd2c5	-0.061480302
25	0x3bd73e07	0.0065686735
26	0x3d2d0078	0.042236775
27	0xbda6e169	-0.08148462
28	0xbc5e12a6	-0.013554251
29	0xbdb1000a	-0.086425856
30	0xbd781b4f	-0.06057292
31	0xbbd1dd10	-0.0064045265
32	0xbd2bed98	-0.041974634
33	0x3d675d12	0.056485243
34	0x3d78d504	0.060750023
35	0x3c4b7a39	0.012419277
36	0xbccf870c	-0.02533295
37	0xbd97f2e3	-0.07419374
38	0xbd028643	-0.031866323
39	0x3c4de825	0.012567555
40	0x3d95866f	0.07301032
41	0xbd9c507a	-0.07632537
42	0xbc494c9e	-0.012286333
43	0x3d85ad4b	0.06527194
44	0x3da9835c	0.08277008
45	0x3d3739fd	0.044733036
46	0x3d17322e	0.03691309
47	0x3c8678de	0.016415056
48	0xbda58d10	-0.08083546
49	0xbcc5d1a5	-0.024147818
50	0xbdb01534	-0.08597794
51	0xbd4ebd6c	-0.050473616
52	0xbd59e618	-0.05319795
53	0x3d8dcde0	0.06924033
54	0x3d84a4da	0.064767554
55	0x3d4efa35	0.050531585
56	0x3d97841a	0.07398243
57	0x3d01eb94	0.031718805
58	0x3d411cb6	0.04714652
59	0x3ca5c781	0.020236732
60	0xbb8eec6c	-0.00436168
61	0xbd0b4caa	-0.03400866
62	0x3cfc5e08	0.030806556
63	0x3c77c6c6	0.015123075
64	0x3d8b9194	0.06814876
65	0xbd861672	-0.0654725
66	0xbd1b017a	-0.037843205
67	0xbd21722d	-0.039415527
68	0xbda2d4ed	-0.079507686
69	0xbcf0a3ab	-0.029374918
70	0xbc62c386	-0.013840562
71	0x3d8f1052	0.06985535
72	0xbdab159f	-0.08353733
73	0x3d9beb7d	0.07613275
74	0x3ca156b4	0.019694664
75	0xbbc61181	-0.006044567
76	0xbd833342	-0.06406261
77	0xbd30c56f	-0.043157037
78	0xbd976515	-0.07392327
79	0x3d211a24	0.03933157
80	0x3d1b5ffd	0.03793334
81	0xbd5f9de1	-0.054593924
82	0xbd9dcefb	-0.07705494
83	0xbc0c8454	-0.008576471
84	0x3d6d1ce7	0.05788889
85	0x3c8d582b	0.017253956
86	0xbd873e72	-0.066037074
87	0xbdad4067	-0.084595494
88	0x3d589e5d	0.052885402
89	0x3d14cc47	0.036327627
90	0xbda3bb14	-0.07994667
91	0xbd95c465	-0.0731285
92	0x3c862073	0.016372895
93	0xba073ef8	-0.00051592244
94	0xbd4043cf	-0.046939667
95	0x3a49ef55	0.0007703205
96	0xbd7045da	-0.058660366
97	0x3d80ce84	0.0628939
98	0x3c95449c	0.018221192
99	0x3d67baff	0.056574818
100	0xbd9cbf30	-0.076536536
101	0xbcc45edb	-0.023971012
102	0x3cbcdc65	0.023054311
103	0x3bde42cd	0.0067828656
104	0x3d21b36a	0.039477743
105	0xbd8f5862	-0.069992796
106	0x3bce926c	0.006304076
107	0xbd1524d7	-0.036412086
108	0x3d499596	0.049214922
109	0x3ae3ecd6	0.0017389308
110	0x3cb65a89	0.022259967
111	0x3d845c90	0.064629674
112	0xbccaede0	-0.02477163
113	0xbd9f51e0	-0.07779288
114	0x3b1e1d35	0.0024126295
115	0x3d93ca96	0.072163746
116	0x3d9ed0e1	0.07754684
117	0xbd14fd3a	-0.03637431
118	0xbc866969	-0.016407685
119	0xbd403c28	-0.04693237
120	0x3da8d12d	0.08243022
121	0x3cbbff21	0.022948803
122	0xbd207772	-0.039176412
123	0xbd438b39	-0.047740195
124	0xbd9f3ed2	-0.07775654
125	0x3d4ff84f	0.050773915
126	0xbcfe4a1f	-0.031041203
127	0xbda256a7	-0.07926684
128	0x3c6404c2	0.01391715
129	0xbd069cf9	-0.032864545
130	0x3d86522d	0.065586425
131	0xbd48ad79	-0.04899356
132	0x3dac3ce7	0.08410054
133	0x3d0c8167	0.034303095
134	0xbbcc7858	-0.006239932
135	0x3c8249cb	0.015904328
136	0xbd9d997d	-0.07695291
137	0x3d5211f9	0.05128667
138	0x3d39c6ac	0.045355484
139	0x3d4cf167	0.050034907
140	0x3b0ab7c8	0.002116667
141	0xbd3a6a66	-0.045511626
142	0x3c36f534	0.011166859
143	0x3ccc8678	0.024966463
144	0xbd85473b	-0.06507727
145	0x3d0d1414	0.034442976
146	0x3dae58d9	0.0851304
147	0x3dad1b31	0.08452452
148	0x3ce96360	0.028489769
149	0x3da3c180	0.079958916
150	0xbd3682f8	-0.044558495
151	0xbb7134a0	-0.0036805049
152	0xbd4c768f	-0.049917754
153	0xbd206def	-0.03916734
154	0xbcbab974	-0.022793509
155	0xbd0116b9	-0.03151581
156	0x3d92d4f3	0.07169523
157	0xbc2f0faf	-0.010684892
158	0x3d4e5d23	0.05038179
159	0x3ad3b476	0.0016151804
160	0x3d1df51d	0.038563836
161	0xbcaa9a5b	-0.020825556
162	0xbc1fd539	-0.009755426
163	0xbd46d8bd	-0.04854654
164	0xbda2db12	-0.079519406
165	0xbd737b08	-0.059443504
166	0x3d99127f	0.07474231
167	0x3c31d884	0.010854844
168	0xbc89f283	-0.016839271
169	0x3b8bc7d8	0.0042657666
170	0x3bba233d	0.0056804703
171	0x3b5b3d82	0.003345341
172	0x3d897688	0.06712061
173	0xbb9f4a5b	-0.004861159
174	0x3daf11b6	0.085483
175	0x37ec8cb2	2.8198909e-05
176	0x3d36e0b6	0.044647895
177	0xbc8077df	-0.015682159
178	0x3c90d856	0.017681282
179	0xbaa4aff6	-0.0012564647
180	0x3da30d90	0.07961571
181	0x3db555a6	0.08854227
182	0xbd50f86d	-0.051018167
183	0x3c2bae36	0.010478547
184	0xbd9400ce	-0.07226716
185	0xbcb7d3c2	-0.022439841
186	0xbdb55677	-0.088543825
187	0xbb5a8dee	-0.0033348757
188	0x3c5fefb8	0.013667993
189	0x3d751df9	0.059843037
190	0x3d35cfba	0.044387557
191	0xbd8f3c9b	-0.069939815
192	0x3d1dff11	0.03857333
193	0xbda7a042	-0.081848636
194	0x3d75dd55	0.06002553
195	0x3d60ad5d	0.054852832
196	0x3cd58b6b	0.026067456
197	0x3d44b87b	0.048027497
198	0x3da81d10	0.08208668
199	0x3c8d24c3	0.017229443
200	0xbad527cf	-0.0016262474
201	0x3d164c71	0.036693994
202	0xbda4ef74	-0.080534846
203	0xbd084df4	-0.033277467
204	0x3b970416	0.0046086414
205	0x3d1278b3	0.03575964
206	0xbdaabca4	-0.083367616
207	0xbc5ecd32	-0.013598727
208	0xbdae2cf4	-0.08504668
209	0x3d5c7b36	0.05382844
210	0xbd57d953	-0.05269749
211	0xbdaca121	-0.084291704
212	0xbc79594f	-0.015219047
213	0x3cdff6ac	0.027339302
214	0xbb276b5f	-0.0025546176
215	0x3c4f1c8a	0.012641082
216	0x3bb756e0	0.005595073
217	0x3d6c4998	0.057687372
218	0xbd0f400d	-0.034973193
219	0x3cb3a18a	0.021927614
220	0x3d949244	0.072544605
221	0x3d47a071	0.048736993
222	0x3d6cf737	0.05785295
223	0xbc62856d	-0.0138257565
224	0xbd0e07be	-0.034675352
225	0xbda24329	-0.07922966
226	0x3c8be87d	0.017078632
227	0xbbc680bd	-0.0060578273
228	0xbd68b170	-0.056809843
229	0xbc20b102	-0.009807827
230	0xbda419be	-0.080127224
231	0x3baf7dae	0.0053555584
232	0xbd866c68	-0.065636456
233	0xbd963dc3	-0.07335999
234	0xbcbe96b5	-0.023265222
235	0xbbc5b9a4	-0.006034093
236	0x3d096231	0.03354091
237	0x3d80dd66	0.062922284
238	0xbb41bd99	-0.0029562472
239	0x3d8fb7eb	0.070175014
240	0xbd2a3d6f	-0.041562494
241	0x3d5bb1a0	0.053636193
242	0x3da8502e	0.08218418
243	0xbd8ad81f	-0.06779503
244	0xbd36e939	-0.044656012
245	0x3d5d72ae	0.054064445
246	0xbd111ca1	-0.035427693
247	0x3d85a8c2	0.065263286
248	0xbda9be47	-0.08288246
249	0xbd6fc64c	-0.05853872
250	0x3ba7d6e0	0.0051220506
251	0x3c415bde	0.011801688
252	0x3d851aaf	0.0649923
253	0xbd83bf00	-0.06432915
254	0x3c232e2c	0.009959739
255	0xbce74e03	-0.028235441

attention.wq.weight f4 [128, 128]
0	0x3cf754f9	0.030191885
1	0xbb89ec4a	-0.004209076
2	0xbd414ea6	-0.047194146
3	0xbd3ecd47	-0.046582486
4	0xbd4c0ac0	-0.04981494
5	0x3baf8e8c	0.005357569
6	0x3d6494c4	0.055805936
7	0xbce7c30b	-0.028291246
8	0xbdb365a9	-0.087596245
9	0x3c9d0c93	0.019171035
10	0x3d86daa9	0.06584675
11	0xbd8b69db	-0.068073
12	0x3d5233a8	0.051318794
13	0x3b0dffe2	0.002166741
14	0x3cd0229e	0.025407132
15	0x3dab9615	0.08378235
16	0x3d860e26	0.06545667
17	0xbcd31133	-0.025765037
18	0xbcc02034	-0.023452856
19	0xbdb0ecdf	-0.086389296
20	0xbdacf3d1	-0.08444942
21	0xbc8f0b24	-0.017461367
22	0xbd5d113c	-0.053971514
23	0x3bb9c073	0.0056686937
24	0xbd597319	-0.05308828
25	0x3da08f55	0.078398384
26	0xbd215d13	-0.039395403
27	0xbc823200	-0.015892982
28	0xbbbf0239	-0.0058291224
29	0xbce5a8e6	-0.028034639
30	0x3cdea030	0.027175993
31	0x3da6c66f	0.08143317
32	0xbd1140fa	-0.035462357
33	0x3db17fbf	0.08666944
34	0xbd089f6f	-0.033355173
35	0x3d87371c	0.06602308
36	0xbd24d5bd	-0.0402429
37	0x3d4a7c9f	0.049435254
38	0x3b8dc7dd	0.004326804
39	0x3da62c12	0.081138745
40	0x3cb64541	0.02224982
41	0xbd70e7df	-0.05881488
42	0x3d9f45c2	0.07776977
43	0xbd1408e7	-0.036141302
44	0xbd904976	-0.070452616
45	0x3d5a308f	0.053268965
46	0xbb11568e	-0.0022176835
47	0xbd2d1004	-0.0422516
48	0xbd4f0df7	-0.050550427
49	0xbcfa779d	-0.030574614
50	0xbbb44740	-0.0055016577
51	0x3d48e533	0.049046706
52	0x3cbeac11	0.023275407
53	0x3cb971a5	0.022637198
54	0x3d9fb681	0.07798482
55	0x3cbb668f	0.022876052
56	0xbc071bb7	-0.008246354
57	0xbd77f8e5	-0.0605401
58	0x3c2104b6	0.009827783
59	0xbc88368e	-0.016627576
60	0xbd079a3a	-0.033106066
61	0x3d1bbf87	0.03802445
62	0xbc77ae8f	-0.015117302
63	0xbc7f3381	-0.015576244
64	0x3d7b62a3	0.061373364
65	0xbd43ecea	-0.04783336
66	0x3cdece5d	0.027198011
67	0xbd392827	-0.045204308
68	0x3d305a49	0.043054853
69	0xbc59c549	-0.013291665
70	0xbd940930	-0.07228315
71	0xbd0406a9	-0.032232914
72	0xbd6519b5	-0.05593272
73	0x3d9d86f3	0.07691755
74	0xbcef2f2f	-0.029197304
75	0x3d742eca	0.059614934
76	0xbd89de61	-0.067318685
77	0x3da6c4e4	0.08143023
78	0xbd87b5bc	-0.0662646
79	0xbdaa7830	-0.08323705
80	0xbda0bcda	-0.078485206
81	0x3d934365	0.07190589
82	0x3cfd71ce	0.030938055
83	0xbd659569	-0.05605069
84	0x3d91147c	0.07083985
85	0xbd2b2776	-0.04178568
86	0x3d91043f	0.07080888
87	0x3d8f9d0f	0.070123784
88	0xbcebc31f	-0.028779564
89	0x3cdf579c	0.027263455
90	0xbd9cab5f	-0.07649874
91	0x3a84beca	0.001012766
92	0xbd123bd5	-0.03570159
93	0xbd845b23	-0.064626954
94	0xbd87004e	-0.06591855
95	0xbd7ec18c	-0.0621963
96	0x3c52fcfc	0.012877699
97	0x3d9a70a0	0.07541013
98	0xbd8a5f56	-0.06756465
99	0xbd9e31f9	-0.07724375
100	0x3da95cb1	0.082696326
101	0x3c1904e3	0.009339544
102	0xbc36bfa5	-0.01115409
103	0xbc92d939	-0.017925845
104	0xbda32ea0	-0.079678774
105	0x3cb13b09	0.021634595
106	0xbb98af52	-0.0046595717
107	0xbd8be684	-0.06831077
108	0x3cc1a83a	0.023639787
109	0xbd87a3d7	-0.06623047
110	0x3d2873dd	0.04112612
111	0xbd8a9d93	-0.06768336
112	0x3d61c0b2	0.05511541
113	0xbdaa962a	-0.08329423
114	0x3d5196dd	0.051169265
115	0x3cf02a70	0.02931711
116	0xbcf957ea	-0.030437429
117	0xbda7f39e	-0.08200763
118	0xbd8eb044	-0.06967214
119	0x3d98c19d	0.07458804
120	0xbcb70694	-0.022342004
121	0xbda522f8	-0.080633104
122	0x3d38e30d	0.045138407
123	0x3db12043	0.086487316
124	0xbceaabcc	-0.028646372
125	0x3cbe5c50	0.023237377
126	0x3d2f5e35	0.042814452
127	0x3ce79abf	0.02827203
128	0x3c9ae7a1	0.018909277
129	0xbd31d8c0	-0.0434196
130	0xbd9c73f4	-0.07639304
131	0x3da8fbdb	0.082511626
132	0x3b9d76f1	0.0048054387
133	0xbda7e053	-0.08197083
134	0x3d36cf03	0.044631016
135	0x3caca1c8	0.021073237
136	0x3d912386	0.07086854
137	0xbc183bce	-0.009291602
138	0xbc70270c	-0.014657747
139	0x3cf28cd5	0.02960817
140	0x3c0ee48a	0.00872148
141	0xbcb3224f	-0.021866946
142	0xbb80fca4	-0.003936367
143	0x3d8870c7	0.066621356
144	0xbda6411c	-0.081178874
145	0xbcc93647	-0.024562014
146	0xbc3029e0	-0.010752171
147	0xbc800ed7	-0.015632076
148	0x3d0c190f	0.034203585
149	0x3da3ba16	0.079944775
150	0xbd072024	-0.032989636
151	0xbd908944	-0.07057431
152	0x3c82a295	0.015946666
153	0x3cc50353	0.024049437
154	0x3d98247f	0.07428836
155	0xbd935de0	-0.071956396
156	0xbd9f06a8	-0.077649415
157	0xbd878ede	-0.06619047
158	0x3d19ac23	0.037517678
159	0x3d9b9849	0.075974055
160	0x3d468b74	0.048472837
161	0xbd92905b	-0.0715644
162	0xbd0b23ed	-0.03396981
163	0x3d9db588	0.0770064
164	0x3d394db0	0.045240104
165	0x3da2fb0a	0.07958038
166	0xbd50b9cc	-0.05095844
167	0x3d8d3b1a	0.06896038
168	0x3cf46a74	0.029835917
169	0x3d71b164	0.059007064
170	0x3d9553ab	0.07291349
171	0xbda5824c	-0.08081493
172	0xbcd8c4a3	-0.026460951
173	0xbd62bb71	-0.05535454
174	0xbd2f30cb	-0.042771142
175	0x3da5c470	0.08094108
176	0x3d35d5db	0.0443934
177	0xbd463ba5	-0.048396725
178	0x3d2819ac	0.041040108
179	0xbd3da883	-0.046303283
180	0xbda05b8f	-0.078299634
181	0xbc14bebf	-0.009078681
182	0x3d261943	0.040551435
183	0x3d27cac3	0.040964853
184	0xbd2213ba	-0.039569594
185	0x3db6a6f6	0.08918564
186	0x3d897c20	0.06713128
187	0x3d386b3e	0.04502415
188	0x3da0d64b	0.07853373
189	0xbc58f423	-0.0132418005
190	0xbd7c6680	-0.06162119
191	0xbcba1a38	-0.02271758
192	0xbc1eb9e5	-0.009687875
193	0x3d4f746f	0.05064815
194	0xbb045374	-0.0020191344
195	0x3c623918	0.0138075575
196	0xbcc85490	-0.024454385
197	0xbda4a483	-0.080391906
198	0xbd58266a	-0.05277101
199	0x3da2760c	0.07932672
200	0x3d1d64fc	0.038426384
201	0x3b767716	0.0037607602
202	0x3d6c6d67	0.05772152
203	0x3d61c489	0.05511907
204	0x3d8425d4	0.06452528
205	0xbc01e649	-0.007928439
206	0x3cc1012a	0.023560125
207	0x3d9000df	0.07031416
208	0x3d5f811f	0.0545665
209	0x3d1160c3	0.03549267
210	0xbcc5a4f6	-0.024126511
211	0x3d08b309	0.033373866
212	0x3d51ce3d	0.051222075
213	0xbd8f3a26	-0.06993513
214	0x3cb00d26	0.021490645
215	0x3d23f65c	0.04002987
216	0x3daf0e6f	0.08547675
217	0xbd7db225	-0.06193747
218	0x3d78740d	0.06065755
219	0xbcac3fe0	-0.021026552
220	0xbd4c125e	-0.049822204
221	0x3b9c1a77	0.004763897
222	0xbdadce01	-0.08486558
223	0xbd9e5801	-0.07731629
224	0xbd8baccf	-0.0682007
225	0x3d5f8b27	0.054576065
226	0xbd9b962f	-0.075970046
227	0xbd950317	-0.0727598
228	0xbce2a387	-0.027665867
229	0xbd87cb3c	-0.06630561
230	0xbc93f3b0	-0.018060535
231	0xbd8f247d	-0.069893815
232	0x3daf89fa	0.08571239
233	0xbc9b3e08	-0.018950477
234	0xbd9888c9	-0.07447965
235	0x3d9a2d75	0.075282015
236	0xbdabdcc4	-0.08391717
237	0xbd8fc19c	-0.0701935
238	0x3d6bcc40	0.057567835
239	0x3da366dc	0.07978603
240	0x3c98775d	0.018611604
241	0x3d8ad3e5	0.06778697
242	0x3d04e35c	0.03244339
243	0x3da79b74	0.08183947
244	0xbc1fd404	-0.009755138
245	0xbca7879f	-0.020450411
246	0xbd1b082b	-0.037849586
247	0xbccdc7e7	-0.025119735
248	0x3da427a9	0.08015377
249	0x3d991372	0.07474412
250	0xbd56479a	-0.05231438
251	0xbd88d456	-0.06681125
252	0xbd018763	-0.031623255
253	0x3cc59c3d	0.024122352
254	0xbc795113	-0.0152170835
255	0x3cab8447	0.020937098

attention.wq.bias f4 [128]
0	0xbd92cead	-0.071683265
1	0x3d1f6b5a	0.038920738
2	0x3da698d2	0.08134617
3	0xbced5519	-0.028971242
4	0x3c31ca83	0.010851505
5	0x3c8a064d	0.016848708
6	0xbcc3fa5e	-0.023923095
7	0xbd8162ef	-0.06317698
8	0xbd0e7f22	-0.034789212
9	0xbc7742a6	-0.015091574
10	0xbd62768a	-0.05528883
11	0x3cce695e	0.025196727
12	0x3c45d242	0.012074055
13	0x3dabbb33	0.08385315
14	0xbd7f346f	-0.062305864
15	0xbcc7924c	-0.024361752
16	0x3c9a34c7	0.018823994
17	0x3d2f0e84	0.042738453
18	0x3d69b1a7	0.057054188
19	0x3d4e6004	0.050384536
20	0xba484594	-0.00076397625
21	0xbda32aaf	-0.079671256
22	0x3d97f022	0.074188486
23	0xbd3acb80	-0.04560423
24	0xbd413973	-0.04717393
25	0xba2413b5	-0.000625904
26	0xbdaa7e38	-0.083248556
27	0x3b7688c9	0.0037618151
28	0x3d9e15bb	0.077189885
29	0xbd1015da	-0.03517709
30	0xbdada1a1	-0.08478094
31	0xbb8f5558	-0.0043741874
32	0x3c240c2f	0.01001267
33	0xbcc4ed49	-0.024038928
34	0xbd08cf3c	-0.03340076
35	0xbd698c24	-0.057018414
36	0x3d5a84d9	0.05334935
37	0xbda47d21	-0.08031679
38	0xbd84834e	-0.06470357
39	0xbd301137	-0.042985167
40	0xbda3cba8	-0.07997829
41	0xbbd47c86	-0.006484571
42	0xbda20105	-0.07910351
43	0x3cb7a069	0.022415357
44	0xbc5c58f3	-0.0134489415
45	0x3cc07228	0.023491934
46	0xbd01492e	-0.03156393
47	0x3bc2b285	0.0059416913
48	0xbb77c814	-0.0037808465
49	0xbcda9914	-0.026684321
50	0xbd3b69b4	-0.045755103
51	0xbc3b9fcb	-0.011451672
52	0xbd5994f0	-0.053120553
53	0x3ae2007b	0.0017242575
54	0xbd678ccc	-0.05653076
55	0xbc25c4cc	-0.010117721
56	0xbd991fc3	-0.07476761
57	0x3d6ab95d	0.057305682
58	0xbd7cb83d	-0.06169914
59	0x3d532760	0.051551223
60	0xbcb715e2	-0.022349302
61	0xbd5f56f4	-0.054526284
62	0xbd3ad474	-0.045612767
63	0xbd0486b3	-0.03235502
64	0xbc79fbba	-0.01525777
65	0x3cd9880c	0.02655413
66	0x3c60f879	0.0137311155
67	0xbc5c234d	-0.013436151
68	0xbd30222b	-0.043001335
69	0x3d5d5091	0.054031912
70	0xbdb02b39	-0.08601994
71	0x3d8650ba	0.06558366
72	0xbd9a6599	-0.075389095
73	0xbd50b5de	-0.050954692
74	0xbc8dbcdd	-0.017301971
75	0x3d1cf30e	0.038317733
76	0x3dab93d4	0.08377805
77	0x3da4a3cb	0.080390535
78	0x3db33077	0.08749478
79	0xbbfbec0a	-0.00768805
80	0x3d6da335	0.058016974
81	0x3da5ac93	0.080895565
82	0xbd40a426	-0.047031544
83	0x3d0d9e82	0.034574993
84	0x3b94d8be	0.0045424392
85	0x3c975a2a	0.01847561
86	0xbdb2e090	-0.08734238
87	0xbd8a19b7	-0.06743186
88	0x3b5f8adc	0.0034109866
89	0xbb2ceb11	-0.0026385228
90	0x3c6832ad	0.014172238
91	0xbd3c62db	-0.045992713
92	0xbc08a571	-0.008340226
93	0x3d9c8dfe	0.0764427
94	0x3d970397	0.073737316
95	0x3d86483d	0.06556747
96	0x3da4e778	0.08051962
97	0x3ae24eb0	0.0017265882
98	0xbcd92d8d	-0.026510978
99	0x3d75668b	0.059912246
100	0x3d858508	0.06519514
101	0x3da8b4e1	0.08237625
102	0x3d2c424a	0.042055406
103	0xbd194fc6	-0.037429594
104	0x3d97ae5b	0.074063025
105	0xbd91c5d8	-0.07117814
106	0xbd324e8a	-0.043531932
107	0xbd1bc867	-0.038032915
108	0x3c0e8e39	0.008700901
109	0x3c872ac0	0.016499877
110	0x3d8d73db	0.06906863
111	0xbd803c75	-0.06261531
112	0x3bc9bc59	0.006156486
113	0xbd7cd3f2	-0.061725564
114	0x3d7358e6	0.059410952
115	0x3c67584c	0.014120173
116	0x3d8b9103	0.06814768
117	0x3d99c217	0.07507723
118	0x3d8cadd4	0.068690926
119	0xbd8a76ce	-0.067609414
120	0xbd27ed5f	-0.04099786
121	0x3d951264	0.07278898
122	0xbd8fc970	-0.07020843
123	0xbcda8b07	-0.026677622
124	0x3daa25eb	0.083080135
125	0xbda0844c	-0.078377336
126	0x3d92bfd2	0.07165493
127	0xbcf646ce	-0.03006306
