checkpoints/model_epoch_60_baseline.pt (torch, 44840 bytes, 5 tensors)

fc1.weight f4 [128, 16]
0.12181842 -0.17861858 0.15969154 -0.08667827 0.23141193 0.06394738 0.06946966 -0.23246124
-0.18943274 0.2188657 -0.22002721 -0.123033375 -0.12259412 -0.1429446 -0.14253813 0.09812832
-0.018454969 -0.16180536 0.17676798 0.05239567 -0.20497736 0.08743009 -0.22701138 -0.16955018
0.15503192 -0.1142599 0.009180903 0.23505133 0.23200795 -0.071734875 0.1336968 0.009735137
0.049959034 0.20092952 -0.072604895 0.1442765 -0.24633494 0.1751894 0.08138707 0.18471247
0.006765157 -0.22069538 -0.10707393 -0.1882956 0.13729683 -0.1783089 -0.11112583 -0.23656368
0.22289175 0.24317771 0.22573683 0.14073098 -0.24268675 -0.08515364 0.24895951 0.011851937
-0.019313693 -0.10742605 -0.06901792 -0.05171439 -0.10891071 0.21618065 0.17384997 -0.16594556
0.08525601 0.20794252 0.06369817 0.21590582 -0.22922444 0.1156663 -0.052489668 -0.018948406
0.044361383 -0.14729747 0.1910814 -0.19450837 -0.02623418 -0.08855519 0.09732631 0.24691013
0.06046644 -0.072469324 0.008478731 -0.073090255 0.015752792 -0.113921344 0.02385962 -0.11393574
-0.1675762 -0.13247314 -0.023714393 0.026677608 0.138228 -0.06679079 0.06395197 0.0039031208
-0.05211857 -0.068023235 -0.078308314 0.16631609 0.1753738 -0.18514428 -0.14654726 -0.1616174
0.1676743 -0.124067634 0.007655859 -0.022910506 0.048354536 0.10328743 -0.22245446 -0.21019456
0.08433959 0.1532223 0.21489349 0.20424399 0.07951543 -0.22665372 -0.14990392 0.18848696
-0.119454294 -0.2353847 0.16094252 -0.05408871 0.08984038 -0.13655904 0.11231291 0.14606577
0.1387999 -0.041873157 -0.18654096 -0.20967174 -0.19038957 0.009849489 0.17996424 -0.24061406
0.09869903 -0.17531177 0.17575336 -0.122866005 0.18176267 -0.21486941 0.20616269 0.04017788
-0.14689445 -0.021228343 -0.10009223 -0.18916774 -0.19954604 -0.1495972 0.04091513 -0.0032584965
0.1306155 -0.1453428 0.07741386 -0.12067506 0.015102714 0.032954574 -0.07946175 -0.22661352
-0.23947003 0.1762296 0.22710055 0.15562326 -0.15113139 0.23613128 -0.004392922 -0.23175365
-0.097893625 0.18163916 0.22091287 0.034326524 -0.16760889 0.19692725 0.19536263 -0.11482635
0.1820018 0.04278499 0.16899404 -0.16296038 -0.15370673 -0.06580058 -0.19246495 -0.038152605
-0.10128248 -0.022656053 0.14179778 -0.24159151 -0.018090934 0.012873292 -0.2455838 -0.20383722
0.02204734 0.16054264 -0.030764759 -0.043746978 0.007450789 -0.12809032 0.15216899 -0.042198837
0.16840115 -0.10705024 -0.23761982 -0.14962244 0.13372955 -0.13086629 0.046713114 -0.08828816
-0.113128364 -0.07477543 -0.11245388 -0.013715595 0.012125671 -0.1373958 0.038594455 0.13592392
0.16621372 -0.09471965 -0.11154765 -0.21652052 0.07382238 0.20784542 0.06356388 0.17634606
-0.1896553 -0.18514037 0.23850396 -0.050990283 -0.060024858 -0.13180631 -0.15152398 0.23421228
-0.22927025 -0.18016443 0.18114519 0.017158896 0.09116539 0.035981804 0.11783528 -0.000785172
0.19091022 -0.15558594 0.1593363 -0.21683511 -0.18380824 0.044858098 0.16557652 0.059595287
-0.111705065 0.14899155 0.105784625 -0.18561369 0.179378 0.20419165 -0.20276421 0.09080815
00000000: f07b f93d cae7 36be 2e86 233e 6084 b1bd
00000010: 40f7 6c3e d8f6 823d 1c46 8e3d 520a 6ebe
00000020: a8fa 41be 541e 603e d04e 61be ecf8 fbbd
00000030: a012 fbbd 1260 12be 84f5 11be 80f7 c83d
00000040: e02e 97bc 4eb0 25be aa02 353e d89c 563d
00000050: 96e5 51be 8c0e b33d ac75 68be 909e 2dbe
00000060: b0c0 1e3e 1801 eabd 806b 163c 4cb1 703e
00000070: 7e93 6d3e bce9 92bd d0e7 083e 2080 1f3c
00000080: d8a1 4c3d 78c0 4d3e e0b1 94bd 38bd 133e
00000090: 3a3f 7cbe da64 333e 44ae a63d 4425 3d3e
000000a0: 40ae dd3b f8fd 61be 9449 dbbd 90d0 40be
000000b0: 8a97 0c3e 9c96 36be f095 e3bd c03d 72be
000000c0: bc3d 643e 9403 793e 8e27 673e c81b 103e
000000d0: e082 78be 0865 aebd 3eef 7e3e a02e 423c
000000e0: c037 9ebc 3002 dcbd 4459 8dbd 78d2 53bd
000000f0: 940c dfbd 765e 5d3e ba05 323e a2ed 29be
00000100: b49a ae3d e2ee 543e 3074 823d 6a16 5d3e
00000110: d0b9 6abe 74e2 ec3d 68ff 56bd b039 9bbc
00000120: 48b4 353d 26d5 16be d8aa 433e 342d 47be
00000130: 10e9 d6bc 6c5c b5bd 0453 c73d 02d6 7c3e
00000140: a8ab 773d cc6a 94bd 60ea 0a3c 58b0 95bd
00000150: 000c 813c 984f e9bd 4075 c33c 2457 e9bd
00000160: 1899 2bbe 0aa7 07be b044 c2bc 008b da3c
00000170: a48b 0d3e 9cc9 88bd 40f9 823d 80cb 7f3b
00000180: 487a 55bd c44f 8bbd 1c60 a0bd c44e 2a3e
00000190: 3095 333e 7696 3dbe 7c10 16be 087f 25be
000001a0: d0b2 2b3e 2c17 febd 00de fa3b d0ae bbbc
000001b0: 680f 463d 5c88 d33d 1acb 63be 3e3d 57be
000001c0: 3cba ac3d 4ee6 1c3e 0a0d 5c3e 5625 513e
000001d0: fcd8 a23d ea17 68be 6a80 19be ba02 413e
000001e0: 74a4 f4bd b008 71be 1ece 243e 208c 5dbd
000001f0: 3cfe b73d 22d6 0bbe 5004 e63d 4492 153e
00000200: 9021 0e3e 3083 2bbd 9804 3fbe 30b4 56be
00000210: 7cf5 42be c05f 213c 8c48 383e 8863 76be
00000220: b822 ca3d ee84 33be b0f8 333e 2ca1 fbbd
00000230: fe1f 3a3e ba06 5cbe 501c 533e 9091 243d
00000240: 806b 16be 10e7 adbc 28fd ccbd 30b5 41be
00000250: cc55 4cbe 0230 19be a096 273d 808c 55bb
00000260: 12c0 053e bed4 14be 288b 9e3d 7c24 f7bd
00000270: 6071 773c 60fb 063d d8bc a2bd 600d 68be
00000280: a237 75be 8875 343e 0c8d 683e b45b 1f3e
00000290: 30c2 1abe 66cc 713e 80f2 8fbb d450 6dbe
000002a0: 747c c8bd 9eff 393e fc36 623e f899 0c3d
000002b0: aaa1 2bbe 4ca7 493e 240d 483e 142a ebbd
000002c0: ae5e 3a3e 503f 2f3d c60c 2d3e 16df 26be
000002d0: 4c65 1dbe 74c2 86bd 8815 45be e845 1cbd
000002e0: 306d cfbd 3099 b9bc 7033 113e c463 77be
000002f0: 7033 94bc 80ea 523c 527a 7bbe b4ba 50be
00000300: a09c b43c 4a65 243e 6006 fcbc 0830 33bd
00000310: c025 f43b 1c2a 03be 30d2 1b3e b0d8 2cbd
00000320: 5a71 2c3e 283d dbbd 9c52 73be a036 19be
00000330: 66f0 083e d001 06be 4056 3f3d 6cd0 b4bd
00000340: d8af e7bd dc23 99bd 384e e6bd 60b7 60bc
00000350: c0aa 463c 7cb1 0cbe 3815 1e3d a42f 0b3e
00000360: ee33 2a3e 60fc c1bd 1873 e4bd 8eb7 5dbe
00000370: 3030 973d 6ed5 543e c82d 823d 1094 343e
00000380: 0035 42be 7095 3dbe 623a 743e 30db 50bd
00000390: a0dc 75bd 3cf8 06be 1a29 1bbe 58d5 6f3e
000003a0: d2c5 6abe 067d 38be 207e 393e d090 8c3c
000003b0: ecb4 ba3d a861 133d a053 f13d 00d4 4dba
000003c0: f87d 433e ec51 1fbe 0e29 233e 060a 5ebe
000003d0: 3a38 3cbe 20bd 373d e48c 293e 301a 743d
000003e0: a0c5 e4bd 3e91 183e 9ca5 d83d 8411 3ebe
000003f0: deae 373e 9e17 513e 6ca1 4fbe a0f9 b93d

fc1.bias f4 [128]
0.2356529 -0.24003023 -0.09575084 0.07392916 0.24243814 -0.15974042 -0.026782155 0.22133502
0.044416577 0.077793896 -0.066049695 0.059043586 -0.21693885 -0.009598136 -0.03368783 -0.0050041378
-0.24226648 -0.21025258 0.10294065 -0.10513905 -0.10524228 -0.15166223 0.1795448 -0.10070482
-0.119938046 -0.21191671 0.17305794 0.17333078 0.20191023 -0.13894165 -0.07323322 -0.039875478
0.0018537045 -0.1558165 -0.20418462 0.19562328 0.24233073 0.053605586 -0.2481189 -0.115819484
-0.12635317 0.21306872 -0.18287227 -0.029592842 0.03210473 0.13496846 -0.20477471 -0.23128653
-0.2206729 0.24513486 0.21874452 -0.21730846 0.038867176 0.06155786 0.0016008914 -0.06361264
0.0032753944 -0.17461556 -0.05217141 -0.24878263 0.23138988 0.014767349 -0.1686236 -0.2219938
0.047951818 -0.21060017 -0.02530998 -0.18556997 -0.09800741 0.23146364 -0.116981864 0.18933377
-0.028632104 -0.17332098 0.04199204 -0.06943339 -0.18112442 -0.14699242 -0.22533235 -0.23307738
-0.06464273 -0.16769874 -0.23105201 -0.16239783 0.14185938 0.07318795 -0.11657715 -0.092841744
-0.10231465 -0.058108985 -0.20247525 0.23697191 -0.04341209 -0.004449934 -0.0073373914 0.017310679
0.09729192 -0.24027231 0.03110686 -0.038693547 0.13434282 -0.08145732 0.13346428 0.16764861
-0.06950766 0.20832533 -0.022521198 0.1745229 -0.115346044 -0.20652744 0.2341564 -0.19131324
-0.047398657 0.14825743 -0.08489293 -0.036432862 0.10314265 0.047817647 0.06931144 -0.045081258
-0.18322575 0.094910234 -0.09851602 0.055306226 -0.2139839 -0.14654246 0.10909781 -0.20244804
00000000: fe4e 713e 7cca 75be 0419 c4bd 2c68 973d
00000010: b441 783e fe92 23be 4066 dbbc a6a5 623e
00000020: 28ee 353d 6852 9f3d 1045 87bd b0d7 713d
00000030: 3825 5ebe 8041 1dbc 40fc 09bd c0f9 a3bb
00000040: b414 78be 744c 57be 8cd2 d23d 2453 d7bd
00000050: 4489 d7bd 584d 1bbe 98da 373e 543e cebd
00000060: 14a2 f5bd b200 59be 1a36 313e a07d 313e
00000070: 8ec1 4e3e b846 0ebe 4cfb 95bd 7854 23bd
00000080: 00f8 f23a 5c8e 1fbe c615 51be 7851 483e
00000090: 8c25 783e 8891 5b3d e212 7ebe c432 edbd
000000a0: ba62 01be b02e 5a3e de42 3bbe b06c f2bc
000000b0: 4080 033d 2c35 0a3e 76b0 51be 60d6 6cbe
000000c0: 14f8 61be a204 7b3e 90fe 5f3e 1c86 5ebe
000000d0: 3033 1f3d 1824 7c3d 00d5 d13a 5847 82bd
000000e0: 00a8 563b 6cce 32be b0b1 55bd e0c0 7ebe
000000f0: 78f1 6c3e c0f2 713c aaab 2cbe 5852 63be
00000100: 2069 443d 92a7 57be e056 cfbc 0e06 3ebe
00000110: 1cb8 c8bd ce04 6d3e 3094 efbd b6e0 413e
00000120: e08d eabc 0e7b 31be d8ff 2b3d 1833 8ebd
00000130: ae78 39be 2e85 16be 86bd 66be d6ab 6ebe
00000140: 6863 84bd 38b9 2bbe e698 6cbe 9e4b 26be
00000150: 9643 113e 90e3 953d 00c0 eebd d023 bebd
00000160: 588a d1bd b003 6ebd ac55 4fbe c4a8 723e
00000170: e0d0 31bd c0d0 91bb 806e f0bb 20cf 8d3c
00000180: fc40 c73d f209 76be d0d3 fe3c 207d 1ebd
00000190: 2a91 093e 18d3 a6bd dcaa 083e 14ac 2b3e
000001a0: 085a 8ebd 3c53 553e 607e b8bc 22b6 323e
000001b0: 8c3a ecbd ee7b 53be b2c6 6f3e 9ee7 43be
000001c0: 1825 42bd ccd0 173e 58dc adbd a03a 15bd
000001d0: 743c d33d 70dc 433d 28f3 8d3d 20a7 38bd
000001e0: 889f 3bbe 4c60 c23d c4c2 c9bd c888 623d
000001f0: 981e 5bbe 3a0f 16be ac6e df3d 8a4e 4fbe

fc2.weight f4 [64, 128]
-0.084662266 -0.016647862 0.037129726 -0.078367375 -0.079320215 -0.080877185 -0.06823196 -0.007073336
-0.06306232 0.018994823 -0.02097054 -0.011105969 0.014124663 0.05537792 0.066752166 -0.006332178
0.011581143 -0.018536335 0.015669143 -0.06443896 -0.01154281 0.029823245 -0.0730825 -0.017663972
-0.048029535 -0.092595115 0.055938315 0.012552861 -0.044925313 -0.030918214 -0.060611296 0.023347981
-0.102979876 -0.026975416 -0.0073729195 -0.011112549 0.015205566 -0.070022576 -0.07629314 -0.073204346
0.064288 -0.03855205 0.031556044 -0.058837708 0.015309312 -0.026601357 -0.00064354524 -1.9651001e-05
0.040876687 0.07052518 -0.006908759 -0.070513695 -0.017127438 0.04787428 0.033963017 0.0150058195
-0.06967684 -0.0020895256 0.0729558 -0.098588645 -0.100728504 0.00096643006 0.056253396 0.07287879
0.06531244 0.023458654 0.059828423 0.011228441 0.0067373007 0.058260933 -0.038200855 0.0069421795
-0.06051379 -0.07879503 -0.09028162 0.031059863 0.010139868 -0.05272726 -0.09113039 -0.0016905984
0.06927239 -0.09306904 0.033999998 -0.016881559 -0.06850859 -0.051478233 -0.08110847 0.019715097
-0.027638609 0.0032679124 0.060635455 -0.09677656 -0.088158935 -0.016746681 0.011046871 -0.02063441
-0.072391495 -0.07085684 -0.0035387606 0.035338033 -0.061756115 0.06307416 0.0030150823 0.03415349
0.0068103457 0.062820755 -0.002778314 -0.09022561 0.016785255 -0.0021190264 -0.079559684 -0.060910698
-0.06457151 0.014951952 -0.07992017 -0.0606787 -0.06158938 0.062102072 -0.09634417 -0.08207834
-0.024184057 -0.044289395 0.017072275 -0.02050436 0.020807397 -0.012099952 -0.027661946 -0.041071415
-0.04715664 -0.054329954 0.02271047 0.05069568 -0.08613248 -0.07716898 0.07174309 -0.022966446
-0.062448878 -0.08517811 0.026246855 -0.03241959 0.04511733 0.0260588 -0.022444637 0.07290871
0.02131127 0.012622177 -0.07416825 -0.0153095145 -0.027030883 0.02457126 0.058453824 0.012759114
-0.064835005 -0.03854467 -0.0411724 -0.04142125 0.026485078 0.041093737 -0.05497977 -0.06392307
-0.02922806 -0.012335771 0.03263382 -0.030581478 -0.082252696 0.018687945 -0.043552462 0.0742893
-0.07711391 -0.008707422 -0.055171367 0.055171035 0.040614095 0.04961732 0.033256955 -0.029512418
0.018802065 -0.06447227 0.070094496 -0.0957838 0.030816242 -0.00062351173 -0.015087975 0.03010571
0.050589174 0.019056601 0.068628386 0.021466646 -0.06906895 0.0012647504 -0.097429365 -0.03200195
-0.038941037 -0.09438461 -0.05694696 0.042854235 -0.07203117 -0.07420658 0.016085552 -0.009738674
-0.05097307 0.004735907 0.0053650797 -0.07281961 -0.096541986 0.04947276 -0.07983361 -0.05558267
-0.081924565 0.045059096 0.04616384 -0.04915201 -0.08284756 -0.09024867 0.06049807 -0.06720271
0.060728934 -0.06939013 0.05435075 -0.10400803 0.0035863162 -0.076180965 -0.081054 0.03665207
0.059245992 -0.051939476 -0.10367001 -0.04233637 -0.049759414 -0.015718844 -0.031533383 -0.019401133
-0.0027715685 0.025305647 -0.030363081 -0.08210349 -0.09279827 0.046852104 -0.07658796 0.017208757
0.012418989 -0.018524624 0.0050389487 -0.095633335 0.04353669 -0.101514526 -0.04205935 0.017153569
-0.067228556 0.029588157 -0.03970959 -0.0668145 -0.039330117 -0.013251922 0.06366684 0.026332887
00000000: 6963 adbd 1961 88bc 5715 183d 137f a0bd
00000010: a372 a2bd f0a2 a5bd 33bd 8bbd 71c7 e7bb
00000020: d126 81bd 089b 9b3c 69ca abbc cff5 35bc
00000030: 216b 673c f5d3 623d 5cb5 883d 297e cfbb
00000040: d6be 3d3c 83d9 97bc 935c 803c 93f8 83bd
00000050: 0e1e 3dbc e14f f43c 47ac 95bd 09b4 90bc
00000060: 9eba 44bd 82a2 bdbd 931f 653d 84aa 4d3c
00000070: 9b03 38bd 3248 fdbc 8d43 78bd 4444 bf3c
00000080: 1de7 d2bd 8cfb dcbc 8898 f1bb 6911 36bc
00000090: c420 793c ff67 8fbd 943f 9cbd 29ec 95bd
000000a0: 6da9 833d c1e8 1dbd e940 013d cfff 70bd
000000b0: e9d3 7a3c 17eb d9bc 97b3 28ba 34d8 a4b7
000000c0: 506e 273d 816f 903d df62 e2bb 7c69 90bd
000000d0: d74e 8cbc d217 443d ce1c 0b3d f8da 753c
000000e0: bbb2 8ebd 6cf0 08bb da69 953d d8e8 c9bd
000000f0: bf4a cebd 0658 7d3a f669 663d 7a41 953d
00000100: 87c2 853d 5d2c c03c a60e 753d 7ff7 373c
00000110: 93c4 dc3b 04a3 6e3d 8078 1cbd 397b e33b
00000120: 4fdd 77bd 4a5f a1bd 92e5 b8bd 4171 fe3c
00000130: b021 263c 8af8 57bd 92a2 babd 1297 ddba
00000140: afde 8d3d fb9a bebd 9543 0b3d 324b 8abc
00000150: 3b4e 8cbd d7da 52bd 331c a6bd 8e81 a13c
00000160: 5d6a e2bc 792a 563b e25c 783d ca32 c6bd
00000170: ac8c b4bd 5630 89bc effd 343c 7f09 a9bc
00000180: fe41 94bd 641d 91bd 8dea 67bb 9dbe 103d
00000190: fbf3 7cbd 062d 813d b098 453b 88e4 0b3d
000001a0: 5229 df3b 2ba8 803d 6014 36bb 34c8 b8bd
000001b0: 3b81 893c 5ddf 0abb 30f0 a2bd 7f7d 79bd
000001c0: 113e 84bd 08f9 743c 30ad a3bd 3b8a 78bd
000001d0: 2545 7cbd be5e 7e3d 1850 c5bd b018 a8bd
000001e0: a51d c6bc cc68 35bd 28db 8b3c c2f8 a7bc
000001f0: 4674 aa3c e13e 46bc 4e9b e2bc 803a 28bd
00000200: 5227 41bd 1689 5ebd 4f0b ba3c 46a6 4f3d
00000210: 3a66 b0bd c50a 9ebd 0bee 923d 2124 bcbc
00000220: 65ca 7fbd dc71 aebd a503 d73c 67ca 04bd
00000230: f3cc 383d 4479 d53c d1dd b7bc 2951 953d
00000240: f994 ae3c 3fcd 4e3c 86e5 97bd c2d4 7abc
00000250: df6f ddbc ab49 c93c 476d 6f3d 9a0b 513c
00000260: 37c8 84bd 04e1 1dbd 64a4 28bd 54a9 29bd
00000270: 3cf7 d83c e851 283d 7832 61bd 19ea 82bd
00000280: af6f efbc f91b 4abc 0aab 053d 0286 fabc
00000290: 1a74 a8bd 7617 993c 1164 32bd fd24 983d
000002a0: e6ed 9dbd 93a9 0ebc 5ffb 61bd 06fb 613d
000002b0: f75a 263d 883b 4b3d 7238 083d 07c4 f1bc
000002c0: ca06 9a3c 0a0a 84bd b48d 8f3d 4c2a c4bd
000002d0: 5872 fc3c 2a73 23ba 8e33 77bc 40a0 f63c
000002e0: 9836 4f3d 971c 9c3c 0a8d 8c3d d2da af3c
000002f0: 0674 8dbd fbc5 a53a 0c89 c7bd 7a14 03bd
00000300: a380 1fbd b84c c1bd 3741 69bd ec87 2f3d
00000310: 1485 93bd 9ff9 97bd d9c5 833c f68e 1fbc
00000320: 23c9 50bd ab2f 9b3b 8dcd af3b 7322 95bd
00000330: ceb7 c5bd f3a3 4a3d ce7f a3bd a7aa 63bd
00000340: 11c8 a7bd e38f 383d 4b16 3d3d 9e53 49bd
00000350: fbab a9bd 4bd4 b8bd d3cc 773d 93a1 89bd
00000360: e7be 783d 6a1c 8ebd e49e 5e3d 2902 d5bd
00000370: 6708 6b3b c404 9cbd a4ff a5bd 7b20 163d
00000380: edab 723d 7dbe 54bd f150 d4bd e768 2dbd
00000390: 87d0 4bbd cec4 80bc 2629 01bd 20ef 9ebc
000003a0: 34a3 35bb ca4d cf3c ffbb f8bc e025 a8bd
000003b0: 050d bebd fee7 3f3d 26da 9cbd 61f9 8c3c
000003c0: 0479 4b3c f4c0 97bc c41d a53b 69db c3bd
000003d0: 8753 323d d9e6 cfbd 6d46 2cbd a485 8c3c
000003e0: 20af 89bd dd62 f23c 86a6 22bd 0ad6 88bd
000003f0: 9e18 21bd 971e 59bc c363 823d 11b8 d73c

fc2.bias f4 [64]
-0.011514998 -0.047507335 0.059469964 0.005552767 0.07351818 0.008757384 0.05389063 -0.10496311
-0.051481683 -0.030307248 -0.0021279403 0.102894634 0.06154215 -0.0710358 0.04104255 0.10964859
0.092774846 -0.033433143 -0.09480335 0.032214027 0.11476432 -0.0802177 -0.090558685 0.06589812
-0.06034802 -0.0145578245 0.05404962 0.061194003 -0.0642704 -0.0100794025 -0.016646476 0.13685699
0.14359681 0.03341145 -0.019434573 0.025579624 0.07194358 -0.01212413 -0.073348425 0.03305801
-0.09275424 0.05191106 0.14170977 0.09245221 0.08971515 0.0007834884 0.043557175 -0.06509183
0.1278071 0.15424956 -0.073963605 -0.075227015 0.02221673 -0.05455675 0.06711795 0.020332975
-0.06463182 0.14018932 -0.10374572 -0.07675196 0.010418156 -0.097807705 0.13965729 -0.07141936
00000000: 67a9 3cbc 0d97 42bd c796 733d fcf3 b53b
00000010: b390 963d 217b 0f3c 6cbc 5c3d e6f6 d6bd
00000020: 75de 52bd e846 f8bc ea74 0bbb 6cba d23d
00000030: 9f13 7c3d 387b 91bd 3c1c 283d 718f e03d
00000040: bd00 be3d 31f1 08bd 4228 c2bd dbf2 033d
00000050: 8e09 eb3d 2d49 a4bd d576 b9bd 98f5 863d
00000060: 7c2f 77bd f183 6ebc 2263 5d3d 90a6 7a3d
00000070: 33a0 83bd 1424 25bc 315e 88bc 3d24 0c3e
00000080: 0b0b 133e 72da 083d 4135 9fbc 5c8c d13c
00000090: 2857 933d 49a4 46bc b337 96bd d667 073d
000000a0: eff5 bdbd b1a0 543d 5e1c 113e 9657 bd3d
000000b0: 94bc b73d 0463 4d3a 0269 323d de4e 85bd
000000c0: dddf 023e 99f3 1d3e 3b7a 97bd 9f10 9abd
000000d0: dcff b53c e676 5fbd 2375 893d 5791 a63c
000000e0: b05d 84bd ca8d 0f3e a378 d4bd 2230 9dbd
000000f0: eab0 2a3c 684f c8bd 5202 0f3e 5044 92bd

fc3.weight f4 [1, 64]
0.10361113 0.07102528 -0.12366238 -0.09760473 -0.18106095 -0.0007216127 -0.08418827 0.013364199
0.009143652 0.10209489 -0.09571206 -0.10366398 0.08605249 0.01354091 -0.0105472915 -0.087568104
-0.07096846 0.06751706 0.07112038 0.026507761 -0.10047669 0.01485149 0.060423207 -0.0057866964
0.044355113 0.005123304 -0.1758998 0.10119108 0.06869502 0.050339215 -0.16366076 -0.11962868
-0.18676654 -0.11656091 -0.16261207 0.03449049 -0.16813758 0.044460453 0.02482695 -0.15193295
0.055468876 -0.17141904 -0.08084501 -0.12688404 -0.16523069 -0.084197715 0.041561045 0.06432914
-0.092814915 -0.10112341 0.09572032 -0.004429597 0.03018345 0.012981297 -0.07168486 0.06594324
0.015504201 -0.18287621 0.040264823 0.08805232 0.021742271 0.09693985 -0.11641561 0.1117173
00000000: 1232 d43d b475 913d b442 fdbd fde4 c7bd
00000010: 0b68 39be 9c2a 3dba e66a acbd 83f5 5a3c
00000020: 42cf 153c 2017 d13d af04 c4bd c84d d4bd
00000030: 4a3c b03d b1da 5d3c 8cce 2cbc e856 b3bd
00000040: e957 91bd 6246 8a3d 90a7 913d ce26 d93c
00000050: b9c6 cdbd aa53 733c 537e 773d 549e bdbb
00000060: b5ad 353d 64e1 a73b 141f 34be 453d cf3d
00000070: faaf 8c3d 7e30 4e3d b096 27be e2ff f4bd
00000080: ba3f 3fbe 7db7 eebd c783 26be e645 0d3d
00000090: 422c 2cbe 2a1c 363d e361 cb3c 5094 1bbe
000000a0: 5533 633d 7988 2fbe 1292 a5bd e4ed 01be
000000b0: 3c32 29be da6f acbd ea3b 2a3d ffbe 833d
000000c0: bf15 bebd ca19 cfbd 0409 c43d 2726 91bb
000000d0: 4843 f73c 82af 543c 83cf 92bd 400d 873d
000000e0: 5505 7e3c e743 3bbe baec 243d c654 b43d
000000f0: d91c b23c 6688 c63d 4f6b eebd 0acc e43d
