checkpoints/model_epoch_100_baseline.pt (torch, 49970 bytes, 5 tensors)

fc1.weight f4 [128, 26]
0	0x3db53506	0.08848004
1	0x3d3de848	0.0463641
2	0xbda9ce16	-0.08291261
3	0xbcb854c8	-0.022501364
4	0x3dde151e	0.108438715
5	0xbe132014	-0.14367706
6	0xbe261e56	-0.1622251
7	0xbdcba2e4	-0.09943178
8	0x3d9f9abe	0.077931866
9	0x3e1666c3	0.14687638
10	0x3dbabc26	0.09117918
11	0xbe0c37be	-0.13693139
12	0x3dadda46	0.08488898
13	0xbdf420b2	-0.11920299
14	0x3d9b4d9a	0.07583161
15	0x3e437e27	0.19091092
16	0xbdca19ae	-0.09868179
17	0x3de3b9d6	0.1111943
18	0xbe19c658	-0.15017068
19	0xbe4010e2	-0.1875644
20	0xbdaa7e7b	-0.083249055
21	0x3c6d82c0	0.014496505
22	0x3d05fd08	0.032712013
23	0x3d7cea04	0.061746612
24	0xbce1e720	-0.02757603
25	0x3df90b96	0.12160413
26	0xbe0dd054	-0.13849002
27	0x3a8f8964	0.001095098
28	0x3c84f682	0.016230825
29	0xbd36ac60	-0.044597983
30	0x3dcf0dfd	0.1011009
31	0xbd30fdb5	-0.043210704
32	0x3d58d7d4	0.052940205
33	0x3e1a1996	0.15048823
34	0xbadb817e	-0.0016746966
35	0x3e2c6505	0.16835411
36	0x3d9ad929	0.07560951
37	0x3c1c15af	0.009526654
38	0xbb29952e	-0.0025876272
39	0x3e600093	0.21875219
40	0x3d56436e	0.0523104
41	0x3e06439f	0.13111733
42	0xbdc245e3	-0.09485986
43	0xbceb7394	-0.028741635
44	0xbc88c8c3	-0.016697293
45	0x3e01aac5	0.126628
46	0xbd359567	-0.044331934
47	0xbd750556	-0.059819542
48	0xbd735dda	-0.059415676
49	0x3e4c5ba4	0.19956833
50	0x3dde28db	0.10847636
51	0x3db7c70f	0.08973514
52	0x3cde219a	0.027115632
53	0x3e059007	0.13043223
54	0xbdf0a891	-0.117509015
55	0x3d79de1c	0.061002836
56	0xbe209265	-0.15680845
57	0xbe4283a3	-0.18995528
58	0xbe509ef4	-0.20373136
59	0xbd5108bf	-0.05103373
60	0xbded3e8b	-0.11584195
61	0xbd01a214	-0.03164871
62	0x3dd35899	0.10319633
63	0xbd837391	-0.06418527
64	0x3e2a9fde	0.16662547
65	0xbe28164b	-0.16414754
66	0xbab467cd	-0.0013763845
67	0xbe004a20	-0.12528276
68	0xbe1a24bc	-0.15053076
69	0x3d87e624	0.06635693
70	0xbe0f2470	-0.13978744
71	0xbe1fcdb1	-0.15605809
72	0x3e26a386	0.16273317
73	0x3d930116	0.071779415
74	0x3e007869	0.12545933
75	0x3e2b3de4	0.16722828
76	0x3d5afde4	0.053464785
77	0x3b1be5e9	0.002378816
78	0x3db03171	0.0860318
79	0xbda593c7	-0.08084827
80	0xbdc018b3	-0.09379711
81	0x3c7b1e02	0.015326979
82	0x3cc6ae0c	0.024252914
83	0x3e34aa71	0.17643143
84	0xbdfff1f1	-0.124973185
85	0x3de441fa	0.111453965
86	0xbc9a8d08	-0.018866077
87	0x3df524f3	0.11969938
88	0xbe1d8260	-0.15381765
89	0xbe17f13b	-0.14838116
90	0x3cc9a085	0.024612674
91	0xbd85cb7c	-0.06532952
92	0x3e19002d	0.14941473
93	0xbc040348	-0.008057423
94	0x3e554345	0.20826443
95	0x3cce0416	0.025148433
96	0x3e258832	0.16165236
97	0x3e4e55df	0.20149945
98	0x3abba6c1	0.0014316664
99	0xbe25d7d7	-0.16195618
100	0x3e5a228a	0.21302238
101	0xbdb6057f	-0.08887767
102	0x3e116118	0.14197195
103	0x3defe119	0.11712856
104	0x3da9361e	0.08262275
105	0xbd332d30	-0.043744266
106	0xbde5571e	-0.11198257
107	0xbd2aaf20	-0.04167092
108	0x3d366c40	0.04453683
109	0x3e4374a0	0.19087458
110	0xbe137d39	-0.14403237
111	0xbe11b629	-0.14229645
112	0xbe0ad80f	-0.13558982
113	0xbdfe7d70	-0.12426269
114	0x3e568250	0.20948148
115	0x3de50276	0.1118211
116	0x3d5b2de2	0.053510554
117	0xbd472b91	-0.048625533
118	0xbd5e4e45	-0.054273862
119	0x3df179fc	0.11790845
120	0x3e13bc78	0.14427364
121	0x3dfc0304	0.12305263
122	0xbdbd589a	-0.09245415
123	0x3e4782bf	0.1948347
124	0x3ca204cb	0.019777676
125	0x3e0ec0a8	0.1394068
126	0x3d820071	0.063477404
127	0x3e4ff7ad	0.20309325
128	0x3dd0f225	0.102024354
129	0x3d8a18c5	0.06743006
130	0xbd9c9f4b	-0.0764757
131	0xbe26a708	-0.16274655
132	0x3dbabf06	0.09118466
133	0x3ceda2e0	0.029008329
134	0xbd29ae6c	-0.041426107
135	0xbe18dd70	-0.14928222
136	0xbd896d2a	-0.067102745
137	0xbda816df	-0.08207487
138	0xbdb35ccb	-0.08757933
139	0xbddefcb9	-0.10888047
140	0x3dc216ca	0.09477003
141	0x3e04eca3	0.12980895
142	0xbd4fea74	-0.0507607
143	0xbd019e18	-0.03164491
144	0x3d9407b6	0.07228033
145	0x3d52e878	0.05149123
146	0xbe1638a4	-0.14670044
147	0x3ddc1636	0.10746424
148	0x3dea19a6	0.11430673
149	0xbe10d8b4	-0.14145166
150	0xbe0d390c	-0.13791293
151	0xbdd9976b	-0.10624584
152	0x3cbd5100	0.023109913
153	0x3e164a51	0.14676787
154	0xbd172da8	-0.036908776
155	0xbdf52cff	-0.11971473
156	0xbd1c5ecb	-0.03817634
157	0xbe272a28	-0.16324675
158	0xbcad6afd	-0.02116918
159	0x3e5f8a61	0.21830131
160	0xbe35b236	-0.17743763
161	0x3e18719e	0.14887092
162	0xbba1963d	-0.00493124
163	0x3dc8457b	0.09778877
164	0xbdd13002	-0.10214235
165	0x3dc15240	0.09439516
166	0xbd93d67d	-0.07218645
167	0xbe27469c	-0.16335529
168	0xbb52ef36	-0.0032186038
169	0x3d5a2bbb	0.05326436
170	0x3ceca3f5	0.028886775
171	0x3da517cb	0.08061179
172	0xbdba930a	-0.09110077
173	0xbdb6b214	-0.089206845
174	0x3d4335ac	0.047658607
175	0xbe14bde0	-0.14525557
176	0x3b459fd4	0.003015508
177	0x3dc08099	0.09399528
178	0x3d892c93	0.06697955
179	0x3dee9f33	0.116514586
180	0xbcdd902c	-0.027046286
181	0x3d2c6c09	0.042095218
182	0x3dfbc66a	0.12293704
183	0x3df55bb0	0.11980379
184	0x3d9e8805	0.077407874
185	0xbe02c63a	-0.1277093
186	0xbdb86ab6	-0.090047285
187	0xbe18a36a	-0.14906088
188	0x3dafd07e	0.085846886
189	0x3d2a7c50	0.04162246
190	0x3e36acc2	0.1783934
191	0xbc1fa346	-0.009743517
192	0xbc14d7c5	-0.009084647
193	0x3deb28b6	0.11482374
194	0xbdf9f89b	-0.12205621
195	0xbd970ef5	-0.073759
196	0x3e1926b5	0.14956172
197	0xbde0fc98	-0.109856784
198	0x3dad88fa	0.08473392
199	0x3e07cfd7	0.13262878
200	0xbe0686e0	-0.13137388
201	0x3e4a6b18	0.19767416
202	0xbe203eee	-0.15649006
203	0x3e5f3fb8	0.2180165
204	0x3d839f06	0.06426816
205	0xbdbe4f24	-0.092924386
206	0x3d6ff1f2	0.058580346
207	0x3d5df138	0.054185122
208	0x3dbede6e	0.09319769
209	0x3def38c4	0.11680749
210	0x3e2c0c7b	0.16801636
211	0x3e01ef09	0.12688841
212	0xbd7dea8d	-0.061991263
213	0xbdb034e2	-0.086038366
214	0x3e245851	0.16049315
215	0xbd312987	-0.043252494
216	0xbd8fefc2	-0.07028152
217	0x3e0d9221	0.13825275
218	0xbde7d899	-0.113206096
219	0x3e67380f	0.22579978
220	0xbcfc3a50	-0.030789524
221	0x3dc290b2	0.09500255
222	0x3da5c0aa	0.080933884
223	0x3d0ef626	0.034902714
224	0x3e091e56	0.13390478
225	0x3e15f10c	0.14642733
226	0x3da7610b	0.08172806
227	0xbcc95f96	-0.024581712
228	0x3e024bb5	0.12724192
229	0xbe20f7d7	-0.15719543
230	0x3dd6bd26	0.10485296
231	0xbb8e7b18	-0.00434817
232	0x3e0d411b	0.13794367
233	0xbe233592	-0.15938404
234	0x3d8acb5f	0.06777071
235	0x3df066f0	0.11738384
236	0x3b903ad6	0.004401545
237	0xbdfeb9d6	-0.12437789
238	0xbd82d54c	-0.063883394
239	0x3da893af	0.082312934
240	0xbd13e635	-0.036108214
241	0xbd7d9ef7	-0.06191918
242	0x3e030fef	0.12799047
243	0xbb13454d	-0.0022471726
244	0xbe293cc3	-0.16527085
245	0xbe21fc6b	-0.15818946
246	0xbdf17316	-0.11789529
247	0xbd80caba	-0.06288667
248	0x3e309e45	0.17247875
249	0x3d398fe4	0.04530324
250	0xbe268e26	-0.16265163
251	0xbe4a48aa	-0.19754282
252	0x3d317e13	0.043333124
253	0xbdbd1e14	-0.092342526
254	0x3d396867	0.04526558
255	0x3da5c0c1	0.080934055

fc1.bias f4 [128]
0	0x3dbee67e	0.09321307
1	0x3e4fcf04	0.20293814
2	0x3d98b2c2	0.0745597
3	0xbca48df4	-0.02008722
4	0xbe01eee6	-0.12688789
5	0xbda60e12	-0.081081524
6	0xbd494e4b	-0.04914693
7	0x3e3452d5	0.17609723
8	0x3e384fc6	0.17999181
9	0x3e2e3831	0.17013623
10	0xbe3e7db1	-0.18602635
11	0x3dda3fed	0.10656724
12	0x3e1a680e	0.15078756
13	0x3dc722d8	0.09723443
14	0x3e23fed8	0.16015184
15	0x3d943d69	0.072382756
16	0xbd39c007	-0.045349147
17	0xbde95036	-0.11392252
18	0x3df06031	0.11737097
19	0xbd6a1349	-0.057147298
20	0xbd1c9d43	-0.038235914
21	0xbda892e6	-0.08231144
22	0xbe2320cc	-0.1593048
23	0x3d74d13a	0.059769846
24	0x3ddf74ee	0.109109744
25	0x3d992d10	0.07479298
26	0x3d2993a2	0.04140056
27	0x3be494da	0.0069757523
28	0xbe04ef0b	-0.12981813
29	0xbc3ea102	-0.011635067
30	0xbd750438	-0.059818476
31	0xbda28b51	-0.07936729
32	0x3e382c75	0.17985709
33	0xbe2df86f	-0.16989301
34	0xbdf3128c	-0.11868772
35	0xbddfc462	-0.10926129
36	0xbe1e9044	-0.1548472
37	0xbd0e41d1	-0.034730736
38	0x3b59b000	0.0033216476
39	0xbe07bcb6	-0.13255581
40	0x3dc7a589	0.0974837
41	0x3e2824d1	0.16420294
42	0x3de1b12e	0.110201225
43	0xbe0e743c	-0.13911527
44	0xbd993f45	-0.07482771
45	0x3e3b31f8	0.1828078
46	0xbd257b7a	-0.04040096
47	0x3d9d37ca	0.076766565
48	0xbe2cd409	-0.1687776
49	0x3dfc4ecf	0.12319719
50	0xbc1e3a44	-0.009657446
51	0xbd844170	-0.06457794
52	0x3daa6d0f	0.083215825
53	0x3d183260	0.037157416
54	0x3ce9c454	0.028536
55	0xbe134db8	-0.14385116
56	0x3d8b8ae1	0.068135984
57	0xbdb5e75f	-0.08882021
58	0xbdce3352	-0.10068382
59	0x3dccbf1d	0.099973895
60	0xbdef45b5	-0.116832174
61	0xbe344db2	-0.17607763
62	0xbabc7ec0	-0.0014381036
63	0x3db44c1a	0.08803578
64	0x3e07e111	0.1326945
65	0xbdb3881a	-0.08766194
66	0x3e4cb7d7	0.19992004
67	0xbe0590e7	-0.13043557
68	0xbdf8edee	-0.121547565
69	0xbcb59e72	-0.02217028
70	0x3e448dc0	0.19194698
71	0xbe0cb922	-0.13742498
72	0xbe47597d	-0.19467731
73	0xbd3c84a8	-0.04602495
74	0xbd80fba6	-0.06297998
75	0x3dbc1217	0.09183138
76	0xbcff9480	-0.03119874
77	0x3de3012e	0.110842094
78	0xbd26a873	-0.04068799
79	0xbe17342e	-0.14765999
80	0x3d409d26	0.04702487
81	0x3e035694	0.12825996
82	0xbd8f2260	-0.069889784
83	0xbcaa7388	-0.020807043
84	0xbca9501f	-0.020668088
85	0xbdce83df	-0.10083746
86	0xbd927d70	-0.071528316
87	0x3e34d6b2	0.17660025
88	0x3ba74144	0.005104216
89	0xbe217778	-0.1576823
90	0xbe5077d7	-0.20358215
91	0xbd272417	-0.040805902
92	0xbd2b862d	-0.041876007
93	0x3e5506fd	0.20803447
94	0x3e41982a	0.18905702
95	0x3e440b27	0.1914488
96	0x3dc9d843	0.09855702
97	0xbe046306	-0.129284
98	0x3d93a0d4	0.0720841
99	0x3dbcb338	0.09213871
100	0x3dd04558	0.10169476
101	0x3de742de	0.11292051
102	0x3df69256	0.1203963
103	0xbe40b668	-0.18819582
104	0x3d9ecbba	0.077537015
105	0xbd3984fd	-0.045292843
106	0x3e342fc7	0.1759635
107	0x3e5aac26	0.21354732
108	0x3d7fd4c3	0.062458765
109	0xbdf2ac1b	-0.11849233
110	0xbe2a2cb9	-0.16618623
111	0xbdd06f8e	-0.10177527
112	0x3d5a8a26	0.053354405
113	0x3db70bf3	0.08937826
114	0xbdb18b5b	-0.08669158
115	0x3dd3be0a	0.103389814
116	0x3d557918	0.052117437
117	0x3d6fb592	0.05852277
118	0xbdc1094a	-0.094256
119	0x3e0706a2	0.13186124
120	0x3e1dddbe	0.15416619
121	0x3dc7cc63	0.097557805
122	0x3d551570	0.052022398
123	0xbdffeb25	-0.12496022
124	0xbe1df816	-0.15426669
125	0xbd42fff8	-0.047607392
126	0xbcab9126	-0.020943236
127	0xbd385f4e	-0.045012765

fc2.weight f4 [64, 128]
0	0x3cf0ee5c	0.029410534
1	0x3dc185de	0.09449361
2	0x3dccbd03	0.099969886
3	0x3dddfa4f	0.10838758
4	0x3b8086a9	0.0039223027
5	0x3d2a601e	0.04159557
6	0x3e276c38	0.16349876
7	0xbbd34ee8	-0.0064486153
8	0x3cb9f627	0.022700382
9	0x3d1dd2b5	0.038531024
10	0xbd474b15	-0.04865559
11	0x3c605629	0.013692417
12	0x3d8d21f8	0.06891245
13	0xbd7b0c31	-0.061290924
14	0x3bec73f3	0.0072159707
15	0xbd1a7cd9	-0.03771672
16	0x3dfbb686	0.12290673
17	0xbd89de69	-0.067318745
18	0x3dc6e17f	0.09710979
19	0xbcf4aeb7	-0.029868467
20	0xbd0551cb	-0.032548707
21	0x3dbda812	0.092605725
22	0x3b72809b	0.0037002924
23	0x3e06c1b4	0.1315983
24	0xbcc60f34	-0.024177171
25	0xbc9718df	-0.018444477
26	0xbc99eafa	-0.018788803
27	0x3e00b45d	0.12568803
28	0x3dace20a	0.08441551
29	0x3d3e65f7	0.04648396
30	0xbd9b0dbe	-0.075709805
31	0x3c1198e4	0.00888655
32	0x3dfe9648	0.124310076
33	0xbba3f9ee	-0.005004159
34	0xbc659620	-0.014012843
35	0x3cc9790c	0.024593852
36	0x3cd31d01	0.025770666
37	0x3e14370a	0.1447412
38	0x3d9eece7	0.07760029
39	0x3ce8c61a	0.028414775
40	0x3d987865	0.074448384
41	0x3c03e0bd	0.008049187
42	0xbc44e9b0	-0.012018606
43	0xbd86c5e6	-0.06580715
44	0x3daf2063	0.08551099
45	0xbdb50b7a	-0.088400796
46	0x3c816768	0.015796378
47	0x3d77bfa6	0.060485505
48	0x3c0d7856	0.008634647
49	0x3dc990f4	0.09842101
50	0xbc196327	-0.009362019
51	0xba99f77c	-0.001174673
52	0x3da88a7c	0.08229539
53	0x3dda4e06	0.10659413
54	0xbc88fcce	-0.01672211
55	0x3da964fb	0.082712136
56	0xbbe19539	-0.006884244
57	0xbc4a6cdb	-0.012355055
58	0x3d9e9a61	0.07744289
59	0x3e1ae15f	0.15125035
60	0xbc86e3db	-0.016466072
61	0x3d8c3455	0.06845919
62	0xbd318861	-0.04334295
63	0x3d96bcbd	0.07360218
64	0x3ce56017	0.02799992
65	0xbcafe82b	-0.021473011
66	0xbd376824	-0.04477705
67	0x3d413b8b	0.047175925
68	0x3dd3a5d9	0.10334367
69	0xbdb46ea2	-0.08810164
70	0x3dcb19df	0.09917044
71	0xbd8dfce2	-0.06932999
72	0x3d658312	0.0560332
73	0x3da8163c	0.08207366
74	0x3d9ab6d3	0.07554402
75	0x3e283b11	0.16428782
76	0x3d2a1a76	0.04152914
77	0xba9522c0	-0.0011378154
78	0xbd0377e0	-0.032096744
79	0x3df713d9	0.120643325
80	0xbcd73bc8	-0.026273623
81	0x3d166679	0.03671882
82	0x3db8aa6f	0.09016883
83	0x3d053f1c	0.03253089
84	0xbd96aa4c	-0.073567
85	0x3de25c3a	0.11052747
86	0xbda85f79	-0.08221335
87	0xbd2316fe	-0.03981685
88	0x3dccb76c	0.099959224
89	0xbccc0eaf	-0.024909345
90	0x3cb7d128	0.0224386
91	0x3cf94fb6	0.030433517
92	0x3da96773	0.082716845
93	0x3dbacd10	0.09121144
94	0x3dbdea0f	0.09273159
95	0xbe12b986	-0.14328584
96	0xbcea4560	-0.028597534
97	0xbd36165c	-0.044454917
98	0x3e0e085e	0.1387038
99	0x3dced625	0.100994386
100	0xbb23b3b0	-0.0024978928
101	0x3d5d1c8e	0.05398231
102	0x3dc8963e	0.097942814
103	0x3c50125c	0.01269969
104	0xbc949f0b	-0.018142244
105	0x3bacf87f	0.0052786465
106	0xbcd61317	-0.02613215
107	0x3d54ae77	0.051924195
108	0x3ced3f28	0.02896078
109	0x3dd47869	0.10374529
110	0x3cbaed42	0.022818211
111	0xbb1c36a1	-0.0023836272
112	0x3dcd629b	0.10028573
113	0xbd75c314	-0.060000494
114	0xbc387c10	-0.011260048
115	0x3d27e52e	0.040990047
116	0xbc5a8bbe	-0.013338981
117	0xbbb28f9d	-0.005449249
118	0xbd7ec8df	-0.062203284
119	0xbc17569f	-0.009236961
120	0x3d80710d	0.06271563
121	0x3d84aac8	0.064778864
122	0xbc3647c0	-0.011125505
123	0xbca8fc9c	-0.020628266
124	0xbd49a918	-0.049233526
125	0xbd62cd4a	-0.05537156
126	0xbc54f6c8	-0.01299829
127	0x3d7d3af8	0.061823815
128	0x3c763558	0.015027367
129	0x3de0b4c5	0.10971979
130	0xbc9be9c7	-0.019032372
131	0x3d18cc1b	0.037304025
132	0xbd4d6992	-0.050149508
133	0x3da80ffb	0.08206173
134	0x3e1e9b34	0.15488893
135	0xbdc068f4	-0.09395018
136	0x3bb28746	0.0054482548
137	0xbc0abc4a	-0.008467743
138	0xbd940a5a	-0.07228537
139	0x3cc68c16	0.02423672
140	0x3c40718e	0.011745824
141	0x3d861696	0.06547277
142	0x3e0e73d0	0.13911366
143	0x3d5cffe7	0.053954985
144	0x3caa353d	0.02077734
145	0x3d7a4bd6	0.06110748
146	0xbc21af69	-0.009868481
147	0x3ce4088e	0.02783611
148	0x3d80e68b	0.062939726
149	0xbd6562f2	-0.056002565
150	0xbd0b6d5a	-0.034039833
151	0x3e0fb0f8	0.14032352
152	0xbd00ae94	-0.03141649
153	0x3dcb560b	0.09928521
154	0x3c8c17b1	0.01710114
155	0x3d10bc63	0.03533591
156	0x3e0649fa	0.13114157
157	0xbd8daede	-0.06918119
158	0x3db442e5	0.088018216
159	0xbcb9edfd	-0.02269649
160	0xbc9229f9	-0.01784228
161	0xbd50f6f5	-0.051016767
162	0xbc8da298	-0.017289445
163	0x3d6a055a	0.05713401
164	0x3c993b71	0.018705102
165	0xbcae7297	-0.021294875
166	0xbd9af182	-0.07565595
167	0x3d0b0df1	0.033948842
168	0x3df67d30	0.12035596
169	0x3e09678b	0.13418405
170	0xbda5b3c8	-0.08090931
171	0xbcb596dc	-0.022166662
172	0x3d196742	0.03745199
173	0xbddbb419	-0.1072771
174	0xbccc71e2	-0.024956647
175	0x3db2e8f1	0.08735836
176	0x3da620bc	0.08111712
177	0x3da25515	0.07926384
178	0x3d9f131a	0.07767315
179	0x3cd7d80a	0.026348133
180	0x3cc1712c	0.023613535
181	0x3c105c20	0.008811027
182	0xbd3e00ba	-0.04638741
183	0x3dfdeabb	0.12398287
184	0x3da75b2d	0.08171687
185	0xbd41096d	-0.04712813
186	0x3d1889b9	0.037240718
187	0x3d9ef0ec	0.07760796
188	0x3d4e2168	0.050324827
189	0x3d3b20ae	0.045685463
190	0x3d852ec7	0.06503063
191	0x3dd8cfb6	0.10586493
192	0x3defe034	0.11712685
193	0x3d30cc6f	0.043163713
194	0x3dd7bd32	0.10534133
195	0x3cc1f457	0.02367608
196	0x3d0f7954	0.035027817
197	0xbda77900	-0.08177376
198	0x3ac44807	0.0014975079
199	0x3cdbbed0	0.026824385
200	0x3bb9ed30	0.005674027
201	0x3ddbe002	0.107360855
202	0xbd84ba4c	-0.06480846
203	0x3d8d5bd3	0.0690228
204	0x3c37aa18	0.011209987
205	0x3d624f1a	0.05525122
206	0x3d89e795	0.06733624
207	0x3cb1a575	0.021685341
208	0x3c87d5b4	0.016581394
209	0x3df06e47	0.11739784
210	0xbd18e4c6	-0.03732755
211	0xbdad5018	-0.08462542
212	0x3d65a463	0.056064975
213	0x3c30b4fe	0.010785339
214	0xbd08654c	-0.03329973
215	0xbbc69768	-0.0060605295
216	0x3d26dab6	0.040735923
217	0x3c9959e2	0.018719617
218	0xbd65c038	-0.056091517
219	0xbb8066ad	-0.00391849
220	0x3cec9706	0.028880607
221	0x3d0e0f66	0.034682654
222	0xbce1a37d	-0.027543778
223	0xbde16d9e	-0.11007236
224	0x3d079e07	0.03310969
225	0x3def290a	0.116777495
226	0x3de92a8e	0.1138507
227	0x3d7a317b	0.061082345
228	0xbd18c701	-0.03729916
229	0xbd936f28	-0.07198936
230	0xbb3242c6	-0.0027200445
231	0xbcd0e0bb	-0.025497785
232	0x3d28caea	0.04120914
233	0xbcbd9a47	-0.023144854
234	0x3cbb0e02	0.022833828
235	0x3d91d7cf	0.0712124
236	0x3daceaa7	0.08443194
237	0x3d97e250	0.074162126
238	0x3d901373	0.0703496
239	0xbcdcef03	-0.026969438
240	0x3dbc74e3	0.09201982
241	0x3c6b6f93	0.014369863
242	0x3de5a21b	0.1121256
243	0xbd8321a4	-0.06402901
244	0x3d1ee186	0.038789295
245	0x3d2f5f65	0.042815585
246	0xbd0a85ef	-0.033819135
247	0x3d8b89e6	0.068134114
248	0x3dea2ea9	0.11434681
249	0xbb401611	-0.0029310028
250	0x3c64fc0a	0.013976106
251	0x3dcc0190	0.099612355
252	0x3d36a894	0.044594362
253	0x3dacbd8c	0.08434591
254	0xbd673aad	-0.056452442
255	0xbd77c3fc	-0.06048964

fc2.bias f4 [64]
0	0x3dca9e4f	0.09893476
1	0x3d4ea622	0.050451405
2	0x3d357d40	0.0443089
3	0xbd45eddb	-0.04832254
4	0x3ca57fe7	0.02020259
5	0xbd687d25	-0.056759972
6	0x3cd17635	0.02556906
7	0xbd5f8159	-0.054566715
8	0xbcb50934	-0.022099115
9	0x3c05fdd7	0.008178196
10	0x3daef24a	0.08542307
11	0x3c5f07be	0.013612686
12	0xbce16c2f	-0.027517406
13	0xbbad5a0c	-0.0052902754
14	0x3c11ef1c	0.008907106
15	0xbd79a38a	-0.06094698
16	0x3da98b02	0.08278467
17	0xbcf5769f	-0.02996379
18	0x3b4e6c40	0.0031497627
19	0x3d90d066	0.07070999
20	0x39f3b829	0.00046485782
21	0xbdbce99e	-0.092242464
22	0x39adf9c0	0.0003318321
23	0x3b6a583a	0.0035758154
24	0xbce021f7	-0.027359946
25	0x3cae3eb9	0.021270143
26	0x3df8af5a	0.12142821
27	0xba413b4e	-0.0007371203
28	0x3d0c64bc	0.034275755
29	0xbcf13018	-0.029441878
30	0x3d145096	0.036209665
31	0x3d4460b7	0.047943797
32	0x3d3fc322	0.046816953
33	0x3c6451e0	0.013935536
34	0x3d35d50e	0.044392638
35	0xbd8c4512	-0.068491116
36	0xbd9a68e1	-0.07539535
37	0x3df27e35	0.11840478
38	0x3daf5c49	0.08562524
39	0x3d74e6ec	0.059790537
40	0xbc85dfe0	-0.016342103
41	0x3c2667ae	0.010156555
42	0x3d56c742	0.05243612
43	0x3d446fa4	0.04795803
44	0x3d9702c8	0.07373577
45	0xbdcf3ab9	-0.10118622
46	0x3ad564f1	0.0016280693
47	0x3d987691	0.0744449
48	0x3d6bf64f	0.057607945
49	0xbdb4c77f	-0.08827113
50	0xbd30cb57	-0.04316267
51	0x3c7283c1	0.01480192
52	0xbc9f3d83	-0.01943851
53	0x3c3dac63	0.011576745
54	0x3cf39298	0.029732987
55	0xbd8d2953	-0.068926476
56	0x3d2b40c8	0.041809827
57	0x3d4164da	0.04721532
58	0xbc0fea5e	-0.008783905
59	0x3d6b92f3	0.05751319
60	0x3d15011d	0.036378015
61	0xbbd3cf25	-0.0064639025
62	0x3d311879	0.04323623
63	0x3d23768d	0.03990798

fc3.weight f4 [1, 64]
0	0xbda41acf	-0.08012926
1	0xbdb98d09	-0.090601034
2	0xbd6686b0	-0.05628079
3	0x3d97c580	0.07410717
4	0xbd391a27	-0.045190956
5	0x3d90691c	0.07051298
6	0xbe03a1d7	-0.12854706
7	0x3d89a718	0.06721324
8	0xbdd63ab9	-0.10460419
9	0x3ab604ba	0.0013886907
10	0xbe008610	-0.12551141
11	0x3dd6cdf4	0.10488501
12	0xbdb1bcb2	-0.08678569
13	0x3d995fec	0.07488999
14	0x3d256ef6	0.040389024
15	0xbe6212c8	-0.22077477
16	0xbd8791ce	-0.06619607
17	0x3d6a9e13	0.057279658
18	0xbdc9c99c	-0.09852907
19	0xbe1ff1c4	-0.1561957
20	0x3d1fdbb8	0.0390279
21	0x3ddb745c	0.10715553
22	0xbd90a563	-0.07062795
23	0x3d989b8c	0.07451543
24	0x3c2c6707	0.0105226105
25	0xbdffe008	-0.124939024
26	0xbd49c456	-0.049259506
27	0x3d9656d8	0.07340783
28	0x3dcf5ed6	0.101255104
29	0xbe0d81b4	-0.13819009
30	0xbdea603d	-0.11444137
31	0xbd581b4f	-0.05276042
32	0x3ceb0b00	0.028691769
33	0x3d296073	0.041351747
34	0xbabddc00	-0.0014485121
35	0xbdf7c916	-0.12098901
36	0x3d9da982	0.07698347
37	0xbe1358a8	-0.14389288
38	0xbe25339b	-0.16132967
39	0xbe136c6e	-0.14396831
40	0x3c680415	0.0141611295
41	0x3d2b39c6	0.041803144
42	0xbdca2766	-0.09870796
43	0x3db740c4	0.089479
44	0xbdfd39b7	-0.12364524
45	0x3d22d09f	0.039749738
46	0x3d6874ae	0.0567519
47	0xbe0c0c00	-0.13676453
48	0xbd9609b7	-0.07326072
49	0x3ddb70b2	0.10714854
50	0xbde5337d	-0.11191461
51	0xbe12361c	-0.14278454
52	0x3d8df374	0.069312006
53	0x3be83752	0.007086673
54	0x3dcb4422	0.09925105
55	0x3da9216a	0.08258326
56	0xbd92e710	-0.07172978
57	0xbd688f2b	-0.05677716
58	0x3c805f5e	0.015670475
59	0x3cca3544	0.024683602
60	0xbde0b906	-0.109727904
61	0xbce1c2f9	-0.02755879
62	0x3d70263f	0.058630224
63	0xbd95cf21	-0.07314897
