checkpoints/model_final_baseline.pt (torch, 44746 bytes, 5 tensors)

fc1.weight f4 [128, 16]
0	0xbe2dc0d0	-0.16968083
1	0x3bd4a000	0.0064888
2	0xbe363076	-0.17791924
3	0xbd441268	-0.047869116
4	0xbe30c49e	-0.17262504
5	0xbdd4e9b4	-0.10396138
6	0xbe5cc2e4	-0.2155872
7	0xbe136ee4	-0.1439777
8	0xbe4d63d6	-0.20057616
9	0x3d08a7f0	0.033363283
10	0x3d64cfb0	0.05586213
11	0x3d9f5238	0.07779354
12	0x3e22ab66	0.15885696
13	0xbe5b9c8c	-0.21446437
14	0xbe68fa90	-0.22751832
15	0xba507c00	-0.0007953048
16	0x3e5dde1c	0.21666759
17	0xbe228f9a	-0.15875092
18	0xbdb0213c	-0.08600089
19	0xbe487330	-0.1957519
20	0xbe5c2aba	-0.21500674
21	0x3e668d26	0.22514781
22	0x3defe364	0.11713293
23	0xbdcf7584	-0.10129836
24	0xbd893170	-0.066988826
25	0x3d7260a8	0.05917421
26	0x3de884bc	0.11353442
27	0x3e24dcac	0.16099805
28	0x3e57b648	0.21065629
29	0x3b702c00	0.003664732
30	0x3e0852ac	0.13312787
31	0x3de85964	0.11345175
32	0xbe4870a4	-0.19574219
33	0x3e0b3f90	0.13598466
34	0xbe3cf888	-0.18454182
35	0x3de97d70	0.114008784
36	0x3e7a3ec8	0.24438012
37	0x3d3dc560	0.04633081
38	0xbe6bfadc	-0.23044914
39	0xbe48f892	-0.19626072
40	0x3e66b4c6	0.22529897
41	0xbdfdb1d4	-0.12387434
42	0x3d5daad0	0.054117978
43	0xbe34baf4	-0.17649442
44	0x3e5e6c1a	0.21720925
45	0x3e1f6e3c	0.15569395
46	0x3e59dbb2	0.21275213
47	0xbe6f357c	-0.23360246
48	0xbc93c590	-0.018038541
49	0xbce62cf0	-0.0280976
50	0x3c5e2980	0.013559699
51	0xbdc9a588	-0.09846026
52	0x3e6d0512	0.23146465
53	0x3ce06cd0	0.027395636
54	0x3e25e2b2	0.16199759
55	0x3e40c7e4	0.18826252
56	0xbe63078c	-0.22170848
57	0xbe09ab30	-0.13444209
58	0xbe444dac	-0.19170254
59	0xbddd44c0	-0.10804129
60	0xbe325ca2	-0.17418149
61	0xbce52190	-0.027970105
62	0xbe40456a	-0.1877648
63	0xbe34bb2c	-0.17649525
64	0xbb8e4a80	-0.004342377
65	0x3d5c5100	0.053788185
66	0xbd418d08	-0.04725364
67	0x3de691c0	0.11258268
68	0x3e74070e	0.23830816
69	0xba9b5900	-0.0011852086
70	0xbe53219c	-0.2061829
71	0x3dd11e44	0.10210851
72	0x3e08f7e4	0.13375813
73	0x3e069d80	0.13146019
74	0x3d32b0e8	0.043625742
75	0xbe60de7a	-0.21959868
76	0xbdef889c	-0.11695978
77	0x3e1114f6	0.14168152
78	0x3e614b36	0.22001347
79	0xbe6a9d48	-0.2291156
80	0xbe718c6e	-0.23588726
81	0x3dffcb6c	0.124899715
82	0x3df73e98	0.12072486
83	0x3d98a818	0.07453936
84	0xbe751d58	-0.23936975
85	0xbe49521a	-0.19660226
86	0xbe538ba2	-0.20658734
87	0x3e3fd760	0.18734503
88	0x3d992d88	0.074793875
89	0xbe3cd946	-0.18442258
90	0x3d4ed060	0.05049169
91	0xbc0a9dc0	-0.008460462
92	0xbe23b8fa	-0.15988532
93	0x3dd359e4	0.1031988
94	0xbe399f0e	-0.18127081
95	0x3e5dff1a	0.21679345
96	0x3e24ab6c	0.16081017
97	0xbdc4c7f8	-0.096084535
98	0x3e4dff06	0.20116815
99	0xbe3cb132	-0.1842697
100	0x3de85864	0.11344984
101	0x3e5bc558	0.21462
102	0xbe2e6614	-0.17031127
103	0xbc0a05c0	-0.0084242225
104	0x3e1c5f9e	0.1527085
105	0xbe6235d2	-0.22090843
106	0xbcf67570	-0.030085295
107	0xbd4676b0	-0.048453033
108	0x3e40560a	0.18782821
109	0xbe4e9dd2	-0.20177391
110	0x3d5c3250	0.05375892
111	0xbcd19e40	-0.025588155
112	0x3da1933c	0.07889411
113	0x3dcfc478	0.10144895
114	0x3e57fa72	0.21091631
115	0xbbe19f80	-0.006885469
116	0xbc1e9120	-0.009678155
117	0x3e057ee8	0.13036692
118	0xbe60ce26	-0.2195364
119	0xbe00a784	-0.12563902
120	0x3cc50580	0.024050474
121	0xbe339bc8	-0.17539895
122	0x3d2fa4f8	0.042881936
123	0x3e124316	0.14283404
124	0x3d503d08	0.050839454
125	0xbe60317e	-0.2189388
126	0xbc743720	-0.014905721
127	0x3e6551a0	0.22394419
128	0x3dc2ba84	0.09508231
129	0xbd5e8960	-0.05433023
130	0xbd20aeb8	-0.039229125
131	0x3d550fa8	0.052016884
132	0xbde74a0c	-0.1129342
133	0xbe4f44b0	-0.20241046
134	0xbbdf0600	-0.006806135
135	0xbdf5e310	-0.12006199
136	0x3e25d67a	0.16195098
137	0xbdf343ec	-0.118781894
138	0x3e5b5cac	0.2142207
139	0x3e2251d0	0.15851521
140	0xbde64c08	-0.112449706
141	0xbe6c55d4	-0.23079616
142	0xbe15c1b6	-0.14624676
143	0x3db92a80	0.09041309
144	0xbe1bd740	-0.1521883
145	0xbd9cc5a8	-0.076548874
146	0xbdd1ffec	-0.10253891
147	0x3cf4f2b0	0.029900879
148	0x3db363cc	0.08759269
149	0xbe0f305a	-0.13983288
150	0x3d519ea8	0.051176697
151	0xbe29e5fc	-0.16591638
152	0xbdaa1ee4	-0.08306673
153	0x3dbdd96c	0.092699856
154	0xbe0b1bc4	-0.1358481
155	0xbe6aafd4	-0.22918636
156	0xbdbe7948	-0.09300476
157	0xbe5257ec	-0.20541352
158	0x3de3b8b8	0.11119217
159	0xbbd49d40	-0.006488472
160	0xbd859cec	-0.06524071
161	0x3d33cea8	0.043898255
162	0x3e4d93d6	0.20075926
163	0x3ce35100	0.027748585
164	0xbd47ee18	-0.04881105
165	0xbe67aae4	-0.22623783
166	0xbe16b71e	-0.14718291
167	0x3e1b183a	0.1514596
168	0xbda62588	-0.08112627
169	0xbe40b272	-0.18818071
170	0x3d0382f0	0.032107294
171	0xbe0914ba	-0.13386813
172	0x3cc0c2f0	0.023530453
173	0xbe7055c8	-0.23470223
174	0x3e710930	0.23538661
175	0xbe2a74dc	-0.16646141
176	0x3d8de42c	0.06928286
177	0x3e4e5d40	0.2015276
178	0xbde07038	-0.10958904
179	0xbe595194	-0.21222526
180	0xbe32a066	-0.17444
181	0xbe1b1930	-0.15146327
182	0xbdb983b4	-0.090583235
183	0x3e269fe0	0.16271925
184	0x3d8bbe5c	0.068234175
185	0x3ce31420	0.027719557
186	0x3e7a3698	0.24434888
187	0x3ced6290	0.028977662
188	0x3dc6d254	0.09708086
189	0xbe422538	-0.1895951
190	0x3d0f6d88	0.035016567
191	0x3d87a760	0.06623721
192	0xbdbbee10	-0.09176266
193	0xbdbcd608	-0.09220511
194	0xbd3a4fe0	-0.04548633
195	0xbc905680	-0.017619371
196	0xbe00442e	-0.12526008
197	0xbe130a32	-0.14359358
198	0xbe1a914e	-0.15094492
199	0x3e7f4f40	0.24932575
200	0xbe0ee20a	-0.13953415
201	0x3ddd41c4	0.108035594
202	0x3df53cd8	0.11974496
203	0xbd42d0b0	-0.0475623
204	0xbe4bdee2	-0.19909242
205	0x3d1ab2a8	0.037768036
206	0xbdcc377c	-0.0997152
207	0xbdf30750	-0.11866629
208	0x3e0ad94c	0.13559455
209	0x3deadd98	0.11468047
210	0x3e4b8762	0.19875863
211	0x3e5ee338	0.21766365
212	0x3dd04300	0.10169029
213	0x3dfb2660	0.12263179
214	0x3e32c7fe	0.17459103
215	0xbc657a60	-0.014006227
216	0xbe75789c	-0.2397179
217	0x3e4ceeea	0.20013013
218	0x3e6a1162	0.22858194
219	0x3e690ec4	0.22759539
220	0xbb21b480	-0.0024674237
221	0xbe42f5e0	-0.19039106
222	0xbe685f8a	-0.22692695
223	0xbe451640	-0.19246769
224	0x3d484758	0.048896164
225	0x3da4991c	0.08037016
226	0xbd34f7b0	-0.044181526
227	0x3d8f8164	0.07007101
228	0x3d6196c8	0.055075437
229	0x3cc2eab0	0.023793548
230	0xbc9c2bf0	-0.01906392
231	0x3ca469b0	0.020069927
232	0xbc8017f0	-0.015636414
233	0xbe023540	-0.12715626
234	0x3e0e0134	0.13867646
235	0x3d575dd8	0.05257973
236	0xbe0afaba	-0.13572207
237	0xbd94e7d4	-0.0727078
238	0xbc912150	-0.01771608
239	0x3d2a7c60	0.04162252
240	0x3b200e80	0.0024422705
241	0xbe23daba	-0.16001406
242	0xbe60f046	-0.21966657
243	0xbe593e5a	-0.21215191
244	0xbd310c20	-0.043224454
245	0xbe535298	-0.20636976
246	0x3e65bd5c	0.22435516
247	0x3dddaab8	0.10823578
248	0xbc514320	-0.0127723515
249	0xbde70df4	-0.11281958
250	0xbcb733b0	-0.022363514
251	0x3e5bb516	0.21455798
252	0x3d94810c	0.07251176
253	0xbe27db80	-0.16392326
254	0x3e5a44da	0.21315327
255	0x3d3db938	0.046319216

fc1.bias f4 [128]
0	0xbe53a5ca	-0.20668712
1	0xbd7e8f30	-0.062148273
2	0xbe0e93f2	-0.13923624
3	0xbe122500	-0.14271927
4	0xbd7e5ad0	-0.062098324
5	0xbba99000	-0.005174637
6	0x3c5f0280	0.013611436
7	0x3e40d30c	0.18830508
8	0x3e42f12a	0.1903731
9	0x3e2e0b18	0.1699642
10	0x3e7dda6e	0.24790356
11	0x3d9cddd4	0.07659498
12	0x3d242d48	0.040082246
13	0x3e70c684	0.23513228
14	0xbe7e636a	-0.24842611
15	0x3d105c38	0.035244197
16	0x3e2ea6d6	0.1705583
17	0xbc9e52d0	-0.019326597
18	0xbe7855c6	-0.2425147
19	0xbd6e5540	-0.05818677
20	0x3e13552a	0.14387956
21	0x3d3b1060	0.045669913
22	0xbe4f139a	-0.20222321
23	0x3e406ac8	0.18790734
24	0xbe3696fc	-0.17831033
25	0xbc86bfb0	-0.016448826
26	0x3daf1c54	0.08550325
27	0x3e25f758	0.16207635
28	0x3de32d84	0.11092666
29	0x3dd286e4	0.102796346
30	0xbde943e4	-0.11389902
31	0x3d81c9d8	0.06337327
32	0x3e604ab2	0.21903494
33	0xbe4277ae	-0.18990967
34	0xbe5c2744	-0.21499354
35	0xbe43dade	-0.1912646
36	0x3de7feb8	0.113278806
37	0x3d76dda0	0.06026995
38	0x3d6e14a8	0.058125168
39	0x3de1e6e8	0.1103037
40	0x3e585a28	0.21128142
41	0x3e402aa8	0.18766272
42	0x3dd676dc	0.104718894
43	0xbe7db02a	-0.24774233
44	0x3e5b462a	0.21413484
45	0x3e556944	0.20840937
46	0xbe238ea6	-0.15972385
47	0x3e0d9cc8	0.13829339
48	0x3dd96e04	0.10616687
49	0x3df60034	0.120117575
50	0x3e2111d0	0.15729451
51	0xbd408080	-0.046997547
52	0xbe01b174	-0.12665349
53	0x3e68ca18	0.22733343
54	0xbda66748	-0.08125168
55	0xbd76ad40	-0.060223818
56	0xbd0651b0	-0.032792747
57	0xbdc77818	-0.09739703
58	0xbd53e390	-0.051730692
59	0xbbe0fc00	-0.0068659782
60	0x3db3f7b0	0.08787477
61	0x3e6b01a4	0.22949845
62	0xbd9e798c	-0.07738027
63	0x3e25a362	0.16175607
64	0xbe2aba04	-0.16672522
65	0x3e43f9fe	0.19138333
66	0x3da674c4	0.0812774
67	0x3e0ebabc	0.13938421
68	0xbddbcea8	-0.10732776
69	0x3e009a38	0.1255883
70	0xbd6c6870	-0.057716787
71	0x3e42154c	0.18953437
72	0x3d7b4028	0.06134048
73	0xbd9b83d0	-0.075935006
74	0xbc08e800	-0.008356094
75	0xbe60d6ee	-0.21956989
76	0xbde51fb0	-0.111876845
77	0xbd861f54	-0.06548944
78	0xbe5c77cc	-0.21530074
79	0xbe580864	-0.21096951
80	0xbdfd16e4	-0.12357882
81	0xbcc1ef50	-0.023673683
82	0xbc976e10	-0.0184851
83	0x3e0cc820	0.13748217
84	0xbdd4ab0c	-0.10384187
85	0xbced3ae0	-0.028958738
86	0xbd5f7850	-0.0545581
87	0xbe5db58c	-0.21651286
88	0x3d0ba3f0	0.03409189
89	0xbe29f3b4	-0.16596872
90	0x3cdb2a30	0.026753515
91	0xbdd43070	-0.10360801
92	0xbe7cd1b6	-0.24689373
93	0xbe3b3bc6	-0.1828452
94	0xbd89ca24	-0.067280084
95	0x3e6303fe	0.22169492
96	0x3e23e41e	0.16004989
97	0xbe3c8348	-0.18409455
98	0x3e14babc	0.14524359
99	0x3e6b0ab4	0.22953302
100	0xbe38e106	-0.1805459
101	0x3d96fcc0	0.07372427
102	0xbd765280	-0.060137272
103	0x3dc9cdc8	0.09853703
104	0x3e6a191c	0.22861141
105	0x3e213fbc	0.15746969
106	0xbe69a2ac	-0.2281596
107	0xbd773028	-0.06034866
108	0xbab1ca00	-0.0013564229
109	0xbd85f040	-0.06539965
110	0xbe3736de	-0.17892024
111	0x3e65d1e8	0.22443354
112	0xbc9460d0	-0.01811257
113	0x3d3f3f38	0.04669115
114	0x3d483690	0.04888016
115	0xbe3087b0	-0.1723926
116	0xbd03b268	-0.032152563
117	0xbe2827ee	-0.16421482
118	0x3d0caad8	0.034342617
119	0x3cc118f0	0.023571461
120	0xbe002f74	-0.12518102
121	0xbe28d4b2	-0.16487387
122	0xbde44f1c	-0.111479014
123	0x3e6db58c	0.23213786
124	0xbda5b884	-0.08091834
125	0xbd9713ac	-0.07376799
126	0x3b9fc300	0.0048755407
127	0x3e207658	0.15670145

fc2.weight f4 [64, 128]
0	0xbdaddc1a	-0.08489247
1	0xbc8d4dd1	-0.01724902
2	0x3d14ba6f	0.03631061
3	0xbda13e7a	-0.078732446
4	0xbda2ceb1	-0.079495795
5	0xbda5f0eb	-0.08102592
6	0xbd8da240	-0.06915712
7	0xbc01b437	-0.007916502
8	0xbd81aa6c	-0.063313335
9	0x3c95ac8d	0.018270755
10	0xbcb7f775	-0.022456864
11	0xbc3b6d63	-0.011439654
12	0x3c60bf38	0.013717465
13	0x3d5eba0f	0.054376658
14	0x3d86fabc	0.065907925
15	0xbbdb1349	-0.0066856486
16	0x3c22607d	0.0099107
17	0xbc9b0613	-0.018923795
18	0x3c7c2d08	0.015391596
19	0xbd844d2e	-0.06460033
20	0xbc4d01e3	-0.012512657
21	0x3cf1f886	0.02953745
22	0xbd9627fb	-0.073318444
23	0xbc919ede	-0.01777595
24	0xbd4775ad	-0.04869621
25	0xbdbe5faf	-0.09295594
26	0x3d6372d1	0.05552942
27	0x3c4081a6	0.011749661
28	0xbd3896aa	-0.04506556
29	0xbcff60c0	-0.031174064
30	0xbd78fcad	-0.060787845
31	0x3cbc74c9	0.023004906
32	0xbdd33dac	-0.10314497
33	0xbcde984c	-0.02717223
34	0xbbfc998c	-0.007708734
35	0xbc5471ea	-0.012966612
36	0x3c75c02a	0.014999429
37	0xbd8ffba1	-0.07030416
38	0xbd9ef8e9	-0.077623196
39	0xbd96ef1f	-0.073698275
40	0x3d827535	0.06370012
41	0xbd2134c0	-0.039356947
42	0x3d00a5fe	0.031408302
43	0xbd71e44d	-0.059055615
44	0x3c721924	0.014776502
45	0xbcdae9dd	-0.026722843
46	0xbaa8d00f	-0.0012879389
47	0xb9dc9a2f	-0.00042076546
48	0x3d22254b	0.039586347
49	0x3d90079d	0.07032702
50	0xbbf90a08	-0.007600073
51	0xbd90ce08	-0.07070547
52	0xbc8d6e97	-0.017264647
53	0x3d3e8dcd	0.04652195
54	0x3d0880ba	0.03332589
55	0x3c7405c3	0.014893952
56	0xbd8f6a4c	-0.070026964
57	0xbb106e92	-0.0022038561
58	0x3d94d46c	0.07267079
59	0xbdca8328	-0.09888297
60	0xbdcf1710	-0.10111821
61	0xb98f7950	-0.0002736547
62	0x3d626990	0.055276453
63	0x3d94d26f	0.072666995
64	0x3d80b20d	0.062839605
65	0x3cbebcae	0.023283329
66	0x3d740462	0.059574492
67	0x3c29d061	0.010364623
68	0x3bb85193	0.005624959
69	0x3d6b6bc8	0.057475835
70	0xbd1cd9b8	-0.03829357
71	0x3bd62a32	0.006535792
72	0xbd7a073f	-0.061042067
73	0xbda36839	-0.07978863
74	0xbdb943a0	-0.090461016
75	0x3cfa660d	0.03056624
76	0x3c21965d	0.00986251
77	0xbd5a7d58	-0.053342193
78	0xbdbaf743	-0.09129193
79	0xbb2415f1	-0.0025037492
80	0x3d8ca7bd	0.06867931
81	0xbdbf18e5	-0.0933092
82	0x3d0639eb	0.03277008
83	0xbc91fe0b	-0.017821332
84	0xbd8c87a7	-0.06861811
85	0xbd55e812	-0.052223273
86	0xbda6ca38	-0.08144039
87	0x3c930080	0.017944574
88	0xbce7a7ff	-0.028278349
89	0x3b2ac5f1	0.0026057924
90	0x3d75be8c	0.059996173
91	0xbdc7f017	-0.097625904
92	0xbdb66652	-0.08906235
93	0xbc8e24b9	-0.017351495
94	0x3c245aea	0.010031441
95	0xbcaac470	-0.020845622
96	0xbd967ac5	-0.07347635
97	0xbd91b317	-0.07114237
98	0xbb82089b	-0.003968311
99	0x3d0eece9	0.034893904
100	0xbd7ef5d3	-0.062246155
101	0x3d7f0d57	0.06226858
102	0x3b3be1bb	0.0028668481
103	0x3d0a31e9	0.033739004
104	0x3bd2a4de	0.006428345
105	0x3d7f5368	0.0623354
106	0xbb4472d0	-0.002997566
107	0xbdb9345a	-0.090431884
108	0x3c7f6158	0.015587173
109	0xbb1aadf7	-0.0023602226
110	0xbda340ab	-0.07971319
111	0xbd7a82d8	-0.06115994
112	0xbd8477a4	-0.06468132
113	0x3c71d490	0.0147601515
114	0xbda49c12	-0.080375805
115	0xbd7bccca	-0.0614746
116	0xbd7df3b9	-0.06200001
117	0x3d7c99e2	0.06167019
118	0xbdc5847c	-0.0964441
119	0xbda8879c	-0.082289904
120	0xbcc75252	-0.024331246
121	0xbd36a59d	-0.044591535
122	0x3c7e305c	0.015514459
123	0xbcb9c48c	-0.022676729
124	0x3ca285f8	0.019839272
125	0xbc53379f	-0.012891679
126	0xbceb1696	-0.028697293
127	0xbd28eb85	-0.041240234
128	0xbd4545e4	-0.048162356
129	0xbd5f4fd7	-0.0545195
130	0x3cb39799	0.021922873
131	0x3d4d5d27	0.050137665
132	0xbdb0b12d	-0.086275436
133	0xbd9e8be5	-0.077415265
134	0x3d91e46d	0.07123647
135	0xbcbdec25	-0.023183892
136	0xbd8032a7	-0.06259661
137	0xbdb0d54d	-0.08634434
138	0x3cd1e53f	0.025622008
139	0xbd09446f	-0.03351253
140	0x3d3775d1	0.044790093
141	0x3cd0b7f0	0.025478333
142	0xbcc050bd	-0.023475999
143	0x3d947767	0.07249337
144	0x3c96ecb9	0.018423425
145	0x3c3bb62e	0.011457009
146	0xbd9a799e	-0.07542728
147	0xbc8216ee	-0.015880074
148	0xbcdece19	-0.027197884
149	0x3cc4a44c	0.024004124
150	0x3d69437b	0.05694912
151	0x3c4ea55a	0.012612665
152	0xbd86a357	-0.06574123
153	0xbd1f079b	-0.038825613
154	0xbd2a8d08	-0.041638404
155	0xbd2c584b	-0.04207639
156	0x3cd6b5be	0.026209708
157	0x3d279a59	0.04091868
158	0xbd61e305	-0.055148143
159	0xbd8437fa	-0.06455989
160	0xbcf001cb	-0.02929773
161	0xbc4c3e32	-0.012466
162	0x3d0420ae	0.03225773
163	0xbd0087d4	-0.031379536
164	0xbdaaa6be	-0.08332585
165	0x3c8764ba	0.016527522
166	0xbd3593a1	-0.044330243
167	0x3d96e32b	0.073675476
168	0xbd9e2119	-0.077211566
169	0xbc240412	-0.010010736
170	0xbd62c3ed	-0.05536263
171	0x3d618b74	0.055064633
172	0x3d1e457c	0.038640484
173	0x3d42f638	0.047598094
174	0x3d0724f3	0.032994222
175	0xbcf35c0c	-0.029706977
176	0x3c988e61	0.018622579
177	0xbd85f539	-0.06540913
178	0x3d8ee298	0.06976813
179	0xbdc4e9b7	-0.0961489
180	0x3cf40e85	0.02979208
181	0xbad58595	-0.0016290421
182	0xbc7ca98a	-0.015421281
183	0x3cf2b429	0.029626923
184	0x3d4b6165	0.04965343
185	0x3c9a0248	0.018799916
186	0x3d8c28ae	0.068436965
187	0x3cae3459	0.021265196
188	0xbd8d913e	-0.069124684
189	0x3a21618f	0.00061562
190	0xbdc7b4bf	-0.097512715
191	0xbd068fc6	-0.032851957
192	0xbd2079d5	-0.039178688
193	0xbdc2f2b9	-0.09518952
194	0xbd69a790	-0.057044566
195	0x3d272dbc	0.0408151
196	0xbd947ec6	-0.072507426
197	0xbd9813d8	-0.0742566
198	0x3c82fd0d	0.015989805
199	0xbc250172	-0.010071145
200	0xbd54f669	-0.051992808
201	0x3b9488e4	0.00453292
202	0x3ba9c3e7	0.005180824
203	0xbd99be5c	-0.07507011
204	0xbdc71e7f	-0.097226135
205	0x3d49a0c7	0.049225595
206	0xbda39428	-0.07987243
207	0xbd675bcc	-0.05648403
208	0xbda9f477	-0.08298581
209	0x3d32d4ed	0.043660093
210	0x3d3b3696	0.045706354
211	0xbd4ce078	-0.050018758
212	0xbdac2373	-0.08405199
213	0xbdb97c7b	-0.09056946
214	0x3d73ef03	0.05955411
215	0xbd8a0801	-0.06739808
216	0x3d706833	0.058693122
217	0xbd8e635e	-0.069525465
218	0x3d5b7a9f	0.053583737
219	0xbdd57bde	-0.104240164
220	0x3b073d3e	0.0020635868
221	0xbd9c3c56	-0.07628696
222	0xbda619cf	-0.08110391
223	0x3d135e1b	0.035978418
224	0x3d6e57b3	0.058189105
225	0xbd56f4f7	-0.05247971
226	0xbdd51f28	-0.10406333
227	0xbd316aa6	-0.0433146
228	0xbd4e7b68	-0.050410658
229	0xbc828813	-0.015934026
230	0xbd01c702	-0.03168393
231	0xbc9ff07e	-0.019523855
232	0xbba86fef	-0.0051402966
233	0x3cc57ae0	0.024106443
234	0xbcfed281	-0.031106235
235	0xbda8828f	-0.08228027
236	0xbdbe1ef1	-0.09283245
237	0x3d3e0cf4	0.04639907
238	0xbd9e59d5	-0.07731978
239	0x3c8aea40	0.016957402
240	0x3c45c2f6	0.012070408
241	0xbc9d353d	-0.019190425
242	0x3b9f78a7	0.004866678
243	0xbdc45cac	-0.09587988
244	0x3d2f5920	0.042809606
245	0xbdd00486	-0.10157113
246	0xbd2e9738	-0.042624682
247	0x3c878369	0.016542153
248	0xbd89fcc6	-0.06737666
249	0x3cef5358	0.029214546
250	0xbd251116	-0.040299498
251	0xbd8b0ea5	-0.067899026
252	0xbd23a42b	-0.039951485
253	0xbc5d461e	-0.013505487
254	0x3d8096e6	0.062787816
255	0x3cd6b6a4	0.026210137

fc2.bias f4 [64]
0	0xbc471447	-0.012150831
1	0xbd45b02c	-0.048263714
2	0x3de040a0	0.10949826
3	0x3d722d7e	0.059125416
4	0x3df1b228	0.11801559
5	0x3c16fb9a	0.00921526
6	0x3ddf7387	0.10910707
7	0xbdd82a3d	-0.10554931
8	0xbd57cf5f	-0.052688
9	0xbcfb5072	-0.030678008
10	0x3d55ba6f	0.05217975
11	0x3e1dbf35	0.15404971
12	0x3d7a3b3d	0.06109165
13	0xbd9356ad	-0.071942665
14	0x3dd8be38	0.10583156
15	0x3e28885a	0.16458264
16	0x3e1c5aaa	0.1526896
17	0xbd0f8cda	-0.035046436
18	0xbdc27f28	-0.094969094
19	0x3cfc29ed	0.03078171
20	0x3e2b436e	0.16724941
21	0xbda604f1	-0.08106411
22	0xbdbfbe4c	-0.09362468
23	0x3d8a028c	0.06738767
24	0xbd783d4e	-0.06060534
25	0xbc70d589	-0.014699348
26	0x3dd04af8	0.10170549
27	0x3d7473ad	0.05968063
28	0xbd8601c6	-0.06543307
29	0xbc358cda	-0.011080945
30	0x3ce73df5	0.028227786
31	0x3e3ec09f	0.18628167
32	0x3e3fee74	0.18743306
33	0x3dadd47f	0.08487796
34	0x3cd9a2c6	0.026566874
35	0x3cc9414b	0.024567267
36	0x3df065f4	0.11738196
37	0xbc605b02	-0.013693573
38	0xbd9800f6	-0.07422058
39	0x3da557d9	0.08073396
40	0xbdc1afba	-0.09457345
41	0x3dc54480	0.09632206
42	0x3e4b6dda	0.19866124
43	0x3e1224a2	0.14271787
44	0x3e0adaac	0.13559979
45	0x3d69a5d6	0.05704292
46	0x3d2b4e5f	0.041822787
47	0xbd886126	-0.066591546
48	0x3e3b6943	0.18301873
49	0x3e52dcc6	0.20592031
50	0xbd9a3f1e	-0.0753157
51	0xbd91d2c8	-0.071202815
52	0x3cabdcb7	0.020979268
53	0xbd61d511	-0.055134837
54	0x3e020bf3	0.12699871
55	0x3c90032a	0.017579634
56	0xbd85879e	-0.065200076
57	0x3e3cf9cd	0.18454666
58	0xbdd819b5	-0.10551778
59	0xbda3c808	-0.07997137
60	0x3c18f8f1	0.009336696
61	0xbdcbdac5	-0.09953836
62	0x3e438852	0.19094971
63	0xbd9dc026	-0.07702665

fc3.weight f4 [1, 64]
0	0x3dd35eea	0.10320838
1	0x3d911509	0.0708409
2	0xbe398edd	-0.18120904
3	0xbe1fab70	-0.15592742
4	0xbe724c6d	-0.23661967
5	0xbb27effd	-0.0025625222
6	0xbe0f1b3b	-0.13975231
7	0x3c4abdb5	0.012374331
8	0x3bf7fe7d	0.007568179
9	0x3dd0a9a1	0.10188604
10	0xbe1df924	-0.15427071
11	0xbe223910	-0.1584208
12	0x3dafe5e5	0.08588771
13	0x3c3e443a	0.011612946
14	0xbd8f12ba	-0.06985994
15	0xbe1419b9	-0.14462937
16	0xbe06a029	-0.13147034
17	0x3d88e141	0.06683589
18	0x3d918658	0.07105702
19	0x3cd399af	0.025830118
20	0xbe20a50a	-0.15687957
21	0x3c6685fb	0.014070029
22	0x3d68efea	0.056869425
23	0xbbdca799	-0.0067338464
24	0x3d352c82	0.0442319
25	0x3ba4d9bf	0.00503084
26	0xbe71a6fe	-0.23598859
27	0x3dcd60dd	0.10028241
28	0x3d8acb31	0.06777037
29	0x3d4b3fed	0.04962151
30	0xbe5f7314	-0.21821243
31	0xbe3406ee	-0.17580768
32	0xbe76d486	-0.24104509
33	0xbe34d620	-0.17659807
34	0xbe6026c2	-0.21889785
35	0x3d08545a	0.03328357
36	0xbe65d37e	-0.22443959
37	0x3d340ccf	0.043957528
38	0x3cc89d02	0.02448893
39	0xbe5757ec	-0.21029633
40	0x3d5eecd7	0.054425087
41	0xbe669fb2	-0.22521856
42	0xbe0e8f05	-0.13921745
43	0xbe3ddb10	-0.18540597
44	0xbe63c977	-0.22244821
45	0xbe11b6be	-0.14229867
46	0x3d26bfa9	0.040710125
47	0x3d82615f	0.06366228
48	0xbe1cc8c2	-0.15310958
49	0xbe1f9748	-0.15585053
50	0x3dc2f946	0.095202014
51	0xbbf2fc05	-0.007415297
52	0x3cf1f90b	0.029537698
53	0x3c4f6238	0.0126576945
54	0xbe074b62	-0.1321235
55	0x3d827870	0.06370628
56	0x3c7862a8	0.01516024
57	0xbe74117a	-0.23834792
58	0x3d22a1fc	0.03970526
59	0x3db07fac	0.086181015
60	0x3cadef37	0.02123223
61	0x3dc4ad62	0.09603383
62	0xbe33c3be	-0.17555138
63	0x3ddc20e7	0.10748463
