checkpoints/model_epoch_60_policy.pt (torch, 487144 bytes, 13 tensors)

customer_encoder.conv1d.weight f4 [128, 1, 24]
00000000: 87cf 1f3e 847b 2d3e 95e1 43bd 8212 413e
00000010: 4024 34bd 049d 2d3d 615a cabd 5421 f93d
00000020: c08b 363e cade 19be 83d3 343e ef25 1a3d
00000030: b984 1a3e 79ab d33c 6655 c73d c6a4 febc
00000040: 50e1 1f3e ac25 003d c440 c2bd 7968 543d
00000050: c979 bcbd b4e3 c9bc 2010 a6bd f339 093e
00000060: 4a0e 25be 5fc5 c0bd df1a 6cbd d269 f7bd
00000070: f141 aa3c 9234 4dbe 3a19 3e3e b21f 30be
00000080: dc40 203e 9cd9 0c3d e042 87bd f73d 013e
00000090: 6027 043d 7584 273e 0c71 ad3c 7ef8 86bd
000000a0: 73fb 5c3d 10e3 5ebd 76db af3d 3cd9 3a3e
000000b0: 8d01 f53d 4432 b8bd 8714 f43d 6a09 113d
000000c0: 2687 d43d 3ebe febd 93ef 4ebe 6f52 a4bd
000000d0: f18f 21be 123b 2a3e c1ec 6c3d 5824 a93d
000000e0: 7acd 873d 4866 46bb 20db 233e c931 14be
000000f0: 61c1 4c3c 6c6f 0cbe d413 833d ace7 8bbd
00000100: cb3b 823d fad6 32bd 7a1b 2d3e 3af4 f7bd
00000110: 18da fdbd 0fd9 f7bd ac2b 3a3e 1dc5 8e3d
00000120: 9914 493e fe8f 2cbe ed51 4fbe 873d 22be
00000130: 0ab9 0bbe 7695 ab3d bdc7 973d 5a79 2f3e
00000140: 7efd dabd 14b0 0ebe 2a7f dc3d 34cb a9bd
00000150: 084e fe3d 7e3a 4ebd 686d ec3d 4688 24be
00000160: 246e d5bd 0484 813d d777 313d 6f88 54bd
00000170: f757 fd3d aa1e 0d3e 98ca 15be 6b94 e2bd
00000180: 1a67 3f3e c8f6 8cbd 3233 94bd b278 4bbe
00000190: 6e2e f1bd 4561 4c3d c198 e6bc e2b3 19be
000001a0: bdbd d23b 0764 0ebe d19f 30be 6369 e5bd
000001b0: a57d 37be edbc 02be dc6b 523e 2b69 273d
000001c0: c022 833d d322 44be 8fb4 09be 3e9e 8bbd
000001d0: 2964 f23c 9ecd 36be 4b21 b8bd 69e3 f5bd
000001e0: d498 153a 9290 9bbd 8e34 6abc afe2 0ebe
000001f0: f85a 10be b068 f6bd 6ef1 90bd e6ea 26be
00000200: 8de2 303e a77f 24bd bf67 343e f512 833d
00000210: 5043 31be 7cb7 123e 34c2 60bd 44d9 9bbd
00000220: fd3e 2cbe 1cec 50be 40d3 6d3d 3805 37bd
00000230: b564 9e3d 16ac 2abe c15c 193e 17c6 17be
00000240: e41e 10bd 2fbc 2e3d 66ea d73d cf9d 273e
00000250: 1181 3d3e 3a0b 27be d3d8 4f3d a4f6 b7bd
00000260: e432 a8bc 95c4 1bbe 55f7 3e3e d0da 18be
00000270: 5d42 df3d 9c3d 973d 4414 8a3d a4c5 ddbd
00000280: c34d 3f3e 061e 333d d0fd d23c 892a 38be
00000290: 63ef aa3d 0929 f5bc a936 c3bd f821 353e
000002a0: bc55 3a3d b545 e7bd 2890 d3bd a87a 15bc
000002b0: 288d ea3d 5308 52bd 4c84 eebd 34d1 8bbd
000002c0: 63d4 1dbe a3ac 923d 346d 213e 7645 45be
000002d0: 6703 413d a8ce d23d 4ee4 163d 92f5 97bd
000002e0: a0f0 d83d 4163 dd3d 4270 9d3d 5026 12bd
000002f0: 4414 55bd 14f2 b13c 0033 0ebd 069a 7ebd
00000300: 789e 053e de95 333e 02d2 a5bc 6b83 41bd
00000310: 2387 fd3a bb48 5bbc b8f4 443d 947b 623d
00000320: 7c25 3cbe bcc5 99bd 214e 303e 07a1 a33d
00000330: 736b 2bbc 152a f8bd 1661 fdbd 934f 39be
00000340: 2acd 85bd 02fd 8a3d aae7 043e 9d03 c13d
00000350: dce1 3abe 6aba f9bd 4b1d 0bbd fed0 4b3e
00000360: 6f9a f13c 2156 58bd f70a ad3d b2ac 9bbd
00000370: d804 06be 58a9 193e 6cde bbbd 3253 24bd
00000380: 4eb6 50be 9d74 0c3e 6b6e 1e3e b3a3 983d
00000390: 4689 11be 49f2 4ebe e5e8 2abe be0d 1b3e
000003a0: f6a3 c63d 629c 303e a065 da3d df52 543d
000003b0: dbcc 55ba cb7e 1fbe 6602 32be 241f 44be
000003c0: 0414 ab3d ce4c cdbd d737 28bd 9dfb eebd
000003d0: d6b6 15bd 00d2 11be 94cc 07be cdbb 8e3d
000003e0: 49f2 7fbd 2d0b 003e b673 87bd 1cb0 19be
000003f0: 6f64 12bd decb cfbd f328 82bd 2b1d 49be
0.15606509 0.16941649 -0.047822554 0.18854716 -0.043979883 0.04238607 -0.0988052 0.1216456
0.17826748 -0.15026394 0.1765881 0.037633833 0.15089692 0.0258386 0.09733085 -0.03108443
0.15613294 0.031285927 -0.09485009 0.051857445 -0.09202916 -0.02464471 -0.08108544 0.13401012
-0.16118732 -0.094126455 -0.057642814 -0.120807305 0.020783396 -0.20039585 0.1856431 -0.17199591
0.15649742 0.034387216 -0.06604552 0.12621294 0.032264113 0.16359122 0.021172069 -0.06590365
0.05395074 -0.054415762 0.08586781 0.18246931 0.119631864 -0.089939624 0.11917978 0.03540937
0.1037734 -0.124386296 -0.20208578 -0.080235355 -0.15777566 0.16624096 0.057842974 0.08258885
0.066309884 -0.0030273367 0.16001558 -0.14472117 0.012497277 -0.13714379 0.06400266 -0.06831297
0.06359061 -0.04366205 0.16905013 -0.121071294 -0.12395114 -0.121019475 0.18180722 0.0697119
0.19636764 -0.16851804 -0.20246096 -0.15843783 -0.13644806 0.08378117 0.07411144 0.17136136
-0.10692881 -0.13934356 0.10766442 -0.08290711 0.12417227 -0.05034875 0.11544305 -0.16067609
-0.10421398 0.06324008 0.04332718 -0.051887926 0.123702936 0.13781229 -0.14628065 -0.11063465
0.18691674 -0.06883007 -0.07236327 -0.1987026 -0.11776434 0.04989745 -0.02814901 -0.15010026
0.00643131 -0.13905345 -0.17248465 -0.112017415 -0.17919023 -0.12767382 0.20548958 0.04087178
0.064031124 -0.1915391 -0.13447784 -0.06817292 0.029588776 -0.17851874 -0.08990725 -0.12006266
0.0005706672 -0.07595934 -0.014294757 -0.1395366 -0.14097202 -0.12031686 -0.07077299 -0.16300544
0.17273922 -0.0401608 0.17617701 0.064001 -0.17310834 0.14327806 -0.054872707 -0.076097995
-0.16820903 -0.20402569 0.05806279 -0.04468271 0.07734052 -0.16667208 0.14976789 -0.14821659
-0.03518571 0.042659935 0.10542755 0.16368793 0.18506266 -0.16312876 0.05074389 -0.0898259
-0.020532079 -0.15211709 0.18649037 -0.1492722 0.1090133 0.07384798 0.067421466 -0.108287126
0.18682007 0.043729804 0.025755793 -0.17984976 0.08346441 -0.029926794 -0.0953191 0.1768874
0.04549192 -0.112925924 -0.1033023 -0.009123482 0.11452705 -0.05127747 -0.116463274 -0.06827012
-0.1541305 0.07161834 0.15764314 -0.19264778 0.047122385 0.10293323 0.036838822 -0.07419886
0.105927706 0.10809947 0.07687427 -0.03568107 -0.05202128 0.021721877 -0.034716606 -0.062158607
0.13048732 0.17537639 -0.020241741 -0.04724447 0.0019342642 -0.0133840395 0.048084944 0.055293635
-0.18373674 -0.07508418 0.17217304 0.07989698 -0.01046263 -0.121174015 -0.12372033 -0.18096761
-0.065332726 0.06786539 0.12978998 0.09424517 -0.18250221 -0.12193759 -0.033963483 0.19903943
0.029492585 -0.052816514 0.08449357 -0.076012984 -0.13087785 0.15006006 -0.09173283 -0.040118404
-0.20382044 0.1371636 0.15471809 0.07453098 -0.14212522 -0.20209612 -0.16690405 0.15141961
0.09699242 0.17247155 0.10663915 0.051836845 -0.0008155831 -0.15575711 -0.17383727 -0.19152504
0.08353427 -0.10024415 -0.041068878 -0.11669085 -0.03655132 -0.14240265 -0.13261634 0.06969414
-0.06248692 0.12504263 -0.06613867 -0.15008587 -0.035740312 -0.101463065 -0.06355467 -0.19640033

customer_encoder.conv1d.bias f4 [128]
00000000: 3743 52bd 80ec 963c 1e8d 5fbd a879 4cbe
00000010: 28ce acbc 1318 cc3d 0038 c3bc f5c9 cdbd
00000020: ea48 d33b 96a1 183d 6644 69bd 9b11 22be
00000030: 9944 e0bd 5740 08bd 576e 963d e9e4 393e
00000040: 64bd 753b 6d94 953d ea96 f03d 4a38 b6bd
00000050: 2bf2 8abd d4b4 0a3e d19b 153e fd2f 463d
00000060: 4590 21be cb4b ed3d 3cc4 2cbe 6304 d13d
00000070: ee78 c53c 5713 873d 7eba 4bbe eeff 92bd
00000080: cf93 b13d 95da 203e d8c4 6ebd 9965 3a3e
00000090: aba8 3abd 0e2b fcbd 61f3 b4bd 59af 503c
000000a0: 8970 14bd 4242 ca3d 3049 e7bd b6c9 6dbd
000000b0: c21e 4fbe 12a6 2a3e 7a4d 1dbd 9ed0 24be
000000c0: ef80 20bc a585 c3b9 5b36 683d f15c b7bc
000000d0: 6782 033e cd3e 90bd 4c43 7abd 56bc 46bd
000000e0: d7c2 153d 176e 273e 62e2 18bc b2db 203e
000000f0: a82c 243e f3b7 d9bd 8245 8fbc f767 c5bd
00000100: e1ec ad3d bef6 92bd e5fe 7e3d 49a8 473c
00000110: 0728 09be 5b82 0cbe c935 4cbe 69db e9bd
00000120: 7498 693d 0e69 4c3c 282c 1d3e 01d2 37be
00000130: 71c2 c3bb 1d7e 3bbe a7b6 953a 1e46 983d
00000140: 787e 3bbe 6892 383e 27db 81bd a13e 393e
00000150: 7f6f 0cbd a81e ed3d c40e 3e3e f90d 98bd
00000160: d46b 4bbd 3854 db3d d2f4 32be 7076 f73d
00000170: b83c 03be a919 423e f1f0 08be 3d2c acbd
00000180: 92d6 1b3e 96de b5bd 8427 333e 5be0 0f3e
00000190: a80b 3f3e aea4 4abe a8c5 193b c18e 89bd
000001a0: 714c 473d 3ccd 1dbe 0e6c ab3d 4bae 1ebc
000001b0: 8bac c5bd 0311 3cbe 04ae da3d 3050 97bd
000001c0: 9228 1a3e 73e4 143d 6282 7e3d 4c7d fdbc
000001d0: a816 e8bc c1e3 8dbd 39e2 34be 846a 033e
000001e0: 1fa6 03be 0eb1 f33d 91fe 8cbd faf5 023e
000001f0: 6720 333e d2b0 ffbd 3297 2c3e 0e56 a33b
-0.051333632 0.018423319 -0.05457794 -0.19968283 -0.021094397 0.09965529 -0.023830414 -0.10048286
0.006447901 0.037263475 -0.056949995 -0.15827028 -0.10950584 -0.033264484 0.073452644 0.18153729
0.0037496919 0.073037006 0.117475346 -0.08897455 -0.06784471 0.13545543 0.1461022 0.04838561
-0.1577769 0.11586722 -0.16871732 0.10205915 0.024105515 0.06595486 -0.1989536 -0.07177721
0.086707704 0.15708382 -0.058293194 0.18202819 -0.04557101 -0.123128995 -0.08835483 0.012737119
-0.036240134 0.09875919 -0.11293256 -0.058053695 -0.20226577 0.16664913 -0.038403966 -0.16095206
-0.009796365 -0.0003729287 0.056692462 -0.022383185 0.12842713 -0.07043228 -0.061099336 -0.048519455
0.036562767 0.1635059 -0.009331318 0.15708807 0.1603266 -0.10630789 -0.017489199 -0.0963897
0.08492447 -0.071759686 0.062254805 0.012186118 -0.13394175 -0.13721602 -0.19942392 -0.11418802
0.057030156 0.012476219 0.15348876 -0.17951204 -0.005974107 -0.18309827 0.0011422232 0.07435249
-0.18309963 0.180246 -0.06340628 0.18090297 -0.03428602 0.11578113 0.1856032 -0.0742454
-0.04966338 0.10709423 -0.17476204 0.12083137 -0.12816131 0.18955101 -0.13373162 -0.08406875
0.15218571 -0.088803455 0.17495543 0.14050429 0.1865679 -0.19789383 0.002346376 -0.06716681
0.048656885 -0.15410322 0.08370219 -0.009685109 -0.096520506 -0.18365864 0.10677722 -0.073883414
0.15054539 0.03635068 0.06213606 -0.030943535 -0.028331116 -0.06928206 -0.17664422 0.12833601
-0.12856339 0.11899005 -0.06884492 0.12789145 0.1749283 -0.12484898 0.16854551 0.0049846238

vehicle_encoder.lstm.weight_ih_l0 f4 [512, 2]
00000000: 84ad 8cbd 190a 103d 24a5 4b3d 63ed 9f3d
00000010: 2601 b0bd 0656 a13d 5b2b 833d 4346 ad3d
00000020: 3477 4b3d a5cf 2cbd bb43 8c3d 3f6e a73d
00000030: 2238 15bd a7c8 8bbc 8ddf 8e3d f9f5 913d
00000040: dfc6 743d 06d8 8d3d 4eaa 3ebd 83b8 82bc
00000050: 23ae 14bd 9265 393d 90d8 a03c 07df 90bd
00000060: 4534 2bbc ece5 93bd 3c89 aebd 4acd a03d
00000070: 01e9 34bd 2976 233d c280 93bc c963 81bc
00000080: d196 bb3a b6cd 8f3d a8da 31bc 12a9 983d
00000090: a817 5d3d 12fd 7d3d afe7 a8bd 5509 33bd
000000a0: 1d68 91bd 5eb4 93bc e2ef 8dbc 3a81 953c
000000b0: a7d8 a43d f229 253d 4bd1 7bbd 9c1b 66bd
000000c0: b41b 873d 34bf 053c 7ac9 d23c 4376 3bbd
000000d0: dab7 38bc 7f09 cc3c 7187 68bd 02c3 723d
000000e0: 6930 323d 993a 53bd 4099 11bd 0593 a4bc
000000f0: 2665 553c 7e48 06bd bdf9 ab3d fd7a b0bd
00000100: 4353 4abd 72f6 58bd 7025 ca3c f55c 5a3c
00000110: 257c cfbc d2ae 993d dd2d 9abd a59f 043d
00000120: 0064 44bd 3d2f a0bc 8d06 b1bd 4823 88bd
00000130: bd43 9bbd 93ae 1b3d d468 06bd 279b 3c3d
00000140: 2eff 42bd 57d2 b9bc 2831 303c 7e09 983d
00000150: cf11 b3bc 082d 5a3d 5bdb bb3c ab1a 573d
00000160: 560a 683d 4d95 163d 7c0f e8bc 2606 d9bc
00000170: 1619 0f3d 947c 483d 4ebe 52bb ed60 3d3d
00000180: 6a0b 53bd a795 533d 4f0c 36bc c4e1 7bbd
00000190: 581a 32bd d725 8cbd 55e9 953c dbdd 54bd
000001a0: b0f4 c5bc 194d 96bb 7378 56bd 1f2c 673b
000001b0: 7594 37bc f072 e33c 3818 833d 7b43 59bd
000001c0: ee67 4d3d 5e18 9638 51f3 56bd 7611 2bbd
000001d0: 3843 b03c 04d3 8c3c 0c83 70bb ae82 36bd
000001e0: 1f1b 373d e5ff 5a3c 8371 adbd 033b 62bc
000001f0: c37a afbc 3adc 0fbd af8c 43bd 8efe 90bd
00000200: 8045 b13d b3a8 a6bd 473d a53d b77d 90bd
00000210: 6ec6 b4bc ee0b 17bd c59a 42bd f575 fc3c
00000220: 509f 4f3d 4e2d 71bd 7586 2bbd 8b1a 353d
00000230: 851e 10bc 5deb bf3c f02c 403d d13f 02bd
00000240: 5dd7 41bd 3e86 0b3d 49f3 f3bc acb6 67bd
00000250: da5b 38bd d36c 29bd 21da b23d 7f3d 883c
00000260: b0ba 183d 1a99 393c eb8a 6ebd 031f 843d
00000270: 462e 51bc 1acd afbc 7cf9 913d dedc 3dbd
00000280: bd66 973c 7767 9abd 73fd 3b3d 20a9 103d
00000290: 9bac 91bd 90ff 4e3d a909 0f3c d96e 41bd
000002a0: b586 973d 2cab 143d f147 023d 4c3e 03bd
000002b0: f8a3 41bd ab10 3cbd 9995 0b3d 9eba ca3c
000002c0: 7d5f 59bd 57c1 a33d 428c 513d 2f5c 0abd
000002d0: 8b02 353d f1d7 20bd 3aeb e73c 490c 993d
000002e0: d090 a0bd a8df 34bd 21e5 fbbb 7782 2a3c
000002f0: 64ce 92bd c6ac 68bd 772c 11bc 942c 53bc
00000300: 41e4 9f3c ba4e 403c 1c4f 983c 87af c03b
00000310: 2582 1f3c b06c b7bb 16dc 0a3d 7b36 803d
00000320: 31ca 2ebd 9bf6 36bd 7740 243d 8981 80bd
00000330: 8566 633d 65dc 1e3d 8aef 6f3c 053d 17bd
00000340: 9579 1f3b 1f08 90bd 3587 a3bd 94a8 a93d
00000350: e6fd 9dbd b95d 90bd c209 0ebd 554f 7f3b
00000360: 948e ab3c 629c 30bd 75f3 eebb bd3e a6bc
00000370: 1b73 973d fc46 9b3d 27be 103d 63ea daba
00000380: f01a 833d 80e6 95bd 5a44 193d c5a7 4fbd
00000390: 9ca4 8f3d d4d6 9dbd 53b4 053d c36b 93bd
000003a0: 763e 553d 633e 8a3c 0bdd 9c3d 5188 88bd
000003b0: 3908 683d 7f6e 71bd 12f1 3fbd 3663 0e3d
000003c0: c044 66bc af53 8ebd 2be5 9abd 7206 bfbc
000003d0: d7ca b43c 506c 9a3d d98f 853d 6820 033b
000003e0: 0241 5fbd 76bd a1bd 75a9 9e3d f83a 4fbd
000003f0: fa7c 76bc be17 92bd eb11 73bd 14a9 9b3c
-0.06869033 0.03516588 0.049718037 0.0780895 -0.08593969 0.07877736 0.06404754 0.08460667
0.049674228 -0.042190213 0.06848856 0.08175325 -0.036430486 -0.017063452 0.06976233 0.07126994
0.05975997 0.06925969 -0.046549134 -0.015957123 -0.036298882 0.04526288 0.019634515 -0.07073789
-0.010449474 -0.072215885 -0.08522269 0.07851656 -0.044167522 0.03990761 -0.018005732 -0.015794652
0.0014311915 0.07021658 -0.010855354 0.074541226 0.05397764 0.062008925 -0.08247315 -0.04371007
-0.07099936 -0.018030342 -0.0173263 0.018250097 0.08049136 0.040323205 -0.061478894 -0.056178674
0.06597081 0.008163262 0.025730837 -0.04576708 -0.011274302 0.024906872 -0.056769792 0.059268005
0.0435032 -0.051569555 -0.03554654 -0.020089636 0.013024604 -0.032783978 0.08397243 -0.08617208
-0.04939581 -0.052969404 0.024676055 0.013327827 -0.025327751 0.075040475 -0.07528279 0.03237881
-0.04794693 -0.019553775 -0.086438276 -0.06647354 -0.075812794 0.038008284 -0.032814816 0.046046402
-0.04760664 -0.022683306 0.010753907 0.074236855 -0.021859078 0.0532656 0.022931745 0.052515667
0.056650482 0.036763478 -0.028327696 -0.02649219 0.034936033 0.048946932 -0.0032156887 0.046235014
-0.051524557 0.05165639 -0.011111333 -0.061494604 -0.043482155 -0.06843155 0.018299738 -0.05196939
-0.024164528 -0.0045868275 -0.052360963 0.00352741 -0.0112048285 0.027764767 0.06401104 -0.05304287
0.050147943 7.157096e-05 -0.05247814 -0.0417647 0.021516427 0.017190464 -0.0036699204 -0.04455822
0.0447036 0.013366674 -0.08468916 -0.013808015 -0.021420842 -0.035122134 -0.04774159 -0.070798025
0.08655834 -0.081376456 0.08068328 -0.07055228 -0.022067275 -0.03687661 -0.04751088 0.030817965
0.05068904 -0.058881097 -0.041876275 0.044214766 -0.008796339 0.02342766 0.046917856 -0.03179914
-0.047324527 0.03406357 -0.029779093 -0.056570694 -0.04500947 -0.04136355 0.08733011 0.016630886
0.037287414 0.011328006 -0.05823795 0.064512275 -0.01276738 -0.021460105 0.071276635 -0.046353213
0.018481607 -0.075392656 0.045896005 0.03531754 -0.07113 0.050536692 0.0087303305 -0.047224853
0.0739874 0.036296055 0.03180689 -0.032041833 -0.047275513 -0.045914333 0.034078214 0.02474719
-0.05306958 0.07995861 0.05115915 -0.03377932 0.04419188 -0.039268438 0.028310407 0.07473046
-0.07840121 -0.044158608 -0.0076872264 0.010407082 -0.07168272 -0.056805395 -0.008860699 -0.012889046
0.01951802 0.01173752 0.01859241 0.0058802995 0.009735619 -0.0055976734 0.033901297 0.06260391
-0.042673294 -0.044668775 0.04010054 -0.06274707 0.055517692 0.038784403 0.014644513 -0.036923427
0.0024333943 -0.07032799 -0.07984773 0.08284107 -0.07714443 -0.07049126 -0.034677275 0.0038957198
0.02094201 -0.04311789 -0.007292206 -0.020293588 0.073950015 0.075818986 0.035337593 -0.0016701933
0.06401622 -0.07319355 0.0374187 -0.050697107 0.070138186 -0.07706991 0.032642674 -0.07198288
0.05206152 0.016875451 0.07659348 -0.06666625 0.056648467 -0.058943268 -0.046860762 0.034762584
-0.014054477 -0.06949555 -0.075632416 -0.023318503 0.022069378 0.0754019 0.065215774 0.002000833
-0.054505356 -0.07897465 0.07747165 -0.050593346 -0.015044445 -0.07133435 -0.05934326 0.019001521

vehicle_encoder.lstm.weight_hh_l0 f4 [512, 128]
00000000: e4a6 76bd da5e 92bd 614c 7f3d 7f9a fd3b
00000010: b78a e8ba 2653 b2bd b5a3 a13d 693f 77bd
00000020: 730b 283d 9305 4fbc edb2 983b 4653 383d
00000030: 5a1d d0bc c64e d9bc b61f 943d b0dd 8cbd
00000040: c268 183d c5d3 abbc 933f 01bd 6c72 6a3d
00000050: 6904 8b3c 5ec4 a4bd 0f8e a53d a8a5 3abd
00000060: ebac 9e3d 7fe8 f1bc f0bf ac3d 134f cb3c
00000070: d10c bebb b979 123d fe09 8ebb c309 2dbd
00000080: d04d 3e3d ae5f 633d 660c 17bc 4001 a63d
00000090: fbb8 6e3b 49d5 37bd c853 3dbd 942d 6b3d
000000a0: 6398 17bd b663 6c3d 7dee b3bd 8533 8c3a
000000b0: 4859 80bd d2ee 053d 477f 8f3d 7d13 163d
000000c0: 63e6 03bd b21e adbd ec4d 24bd f54d 4ebd
000000d0: f6f5 a83d 7273 3abd 277d 133d 90a9 943d
000000e0: 1a7e 093d b008 9bbd 3477 40bc b612 e6bc
000000f0: 9371 623d e130 09bc b71b 30bb 32b7 9c3d
00000100: 5b29 bb3c 41d2 213d 838f f5bc b0cb 743d
00000110: 8085 6b3c 8acc a1bc 3ff7 793c 9d0d 8bbd
00000120: 3969 af3b a167 1d3d c48d acbd 60bc 47bd
00000130: 8952 6a3d 0052 843b 3c88 9eba 5fb6 313c
00000140: b374 1abd 9869 993d eae2 2ebc c879 0bbd
00000150: 54a3 373d 3c30 9abd 1c72 93bc 8b59 2e3c
00000160: 40ff efbc 9620 483d 9549 9ebd 8f39 debc
00000170: 4b38 10bd e6a1 aa3d 3050 083d bb87 86bd
00000180: 1988 133d c0ff 5b36 3e8b a43d 5651 403d
00000190: 00d5 5bbd 9796 9d3d 19f6 8fbc d902 98bc
000001a0: 8695 e43c bd31 b03d e029 ca3c c3eb abbd
000001b0: 262e dbbc 4c61 a73d b098 f0bc 765e 35bd
000001c0: a04b 93bd 2f45 4fbd 99d6 3ebd 3eff 9c3c
000001d0: 8ac1 093d 64c5 a83d 25a7 713d 76d0 12ba
000001e0: a458 4b3d 8d1f 473d 9f67 98bd aa1a 3f3d
000001f0: e9bc 7dbd 163e 883d faaf 17bd 0cae 8b3c
00000200: d2e7 46ba 0777 263d 06a6 603c 3f53 83bd
00000210: e7b6 113d f118 543d 8aed 3abd 6196 6bbd
00000220: a8d8 74bd 12e6 30bd 0add 30bc 8825 e63b
00000230: 06fc 65ba 9951 c1bc c98c 613d d29b 953b
00000240: f5b5 51bd eafb bcbc 881b 55bd d0a4 00bd
00000250: fc63 aabd 8c7e 813c 4f93 8bbd 5faf 0a3d
00000260: 62d9 7a3d a931 87bd b378 3fbd 7250 8fbd
00000270: 1db5 bc3c c9c4 8d3c 9b48 3abd 1084 5c3d
00000280: ea26 153d ca40 a4bd e3da 94bb ef63 1cbd
00000290: 0ae2 7dbc ffac 4a3d 7c03 18bc cfdc 7bbd
000002a0: 4388 7d3d f5fb a4bd 71b3 fabc aae8 093d
000002b0: cf4b 9f3d ef65 b03d f6b9 acbc 8f7a f23c
000002c0: bd86 9fbd 7d05 90bc 9c94 debc 7bc5 ce3c
000002d0: 7ca8 6dbd e6b1 9d3c df3e 3c3d 8f7e 8d3d
000002e0: 229e 72bc 7404 a63d 884c abbd 56cc cfbc
000002f0: e09e 073d 8989 b83c f8f9 2a3d 2e0a 71bd
00000300: d965 603d a227 abbd 69f5 78bd 5e71 bebb
00000310: fa0a afbd ef65 acbd 0404 a1bd 4f5a 923d
00000320: 7272 9f3c 771a e8bc 3b4f 66bb ed2d 9ebd
00000330: 0d8d aabd 0fc9 7cbd 255d aebd 4f82 6f3d
00000340: 2fef fabc f8a2 c0bc 6aed 9bbd aafb 6c3c
00000350: cd1c 5ebc 5e54 77bd 88b1 663d 8235 993d
00000360: 5a48 81bd 6f0c 4f3d a7f6 6dbc 6d15 91ba
00000370: 6e6f 1a3d 0001 81bc 8531 993d dc08 603d
00000380: b58d 6abd 67e8 5bbd 2b53 b3bd 3c62 e53c
00000390: 01dc 87bd f13f 98bd a293 69bd 3b39 b2bd
000003a0: 4bd4 92bd 0902 a13d 04eb 493d 324b a13d
000003b0: 4721 2ebd e863 16bd ff6e fbbc 8b68 b93a
000003c0: 517f 82bd 446a 4f3c 8f66 67bd 0a59 603c
000003d0: ec0b a53d b0a1 713c 6699 843d 2258 81bd
000003e0: 9dde 47bc 25e1 5fbd 30c9 1bbc ffdf 0fbd
000003f0: 67ba 4ebd e4c3 aebd 0ae4 04bd c1ef 3d3c
-0.060217753 -0.07146998 0.0623287 0.0077393646 -0.0017741536 -0.087072656 0.07892553 -0.060363207
0.041026544 -0.012635606 0.0046600015 0.04500129 -0.02540462 -0.02652682 0.07232611 -0.06878221
0.03720928 -0.020975003 -0.03155477 0.057238027 0.016969876 -0.080452666 0.08083736 -0.04556814
0.07747825 -0.029529808 0.08435047 0.024817979 -0.0057998677 0.035760615 -0.0043346873 -0.042245638
0.046460927 0.05551117 -0.009219265 0.08105707 0.0036426175 -0.04488114 -0.04622248 0.057416514
-0.03701056 0.05771228 -0.087857224 0.0010696506 -0.06267029 0.03269846 0.07006698 0.03663968
-0.032202136 -0.0845312 -0.040113375 -0.050367314 0.08250038 -0.045520253 0.036008026 0.07258904
0.033567525 -0.075700164 -0.01174717 -0.028085094 0.055284094 -0.00837347 -0.0026871988 0.07652129
0.022846868 0.039507154 -0.029975658 0.059764564 0.014375091 -0.019750852 0.015256702 -0.06789706
0.0053531197 0.038428906 -0.08425477 -0.048763633 0.057207618 0.0040380955 -0.0012095044 0.010846703
-0.03770895 0.074908435 -0.010674218 -0.034051687 0.044833496 -0.07528731 -0.017998748 0.010641466
-0.029296517 0.0488592 -0.077288784 -0.027127055 -0.035209935 0.08331661 0.033279598 -0.06568857
0.036018465 3.278241e-06 0.08034371 0.046952568 -0.05366993 0.07694738 -0.017573403 -0.018556045
0.02790333 0.08603237 0.02467817 -0.08394577 -0.026755404 0.08172855 -0.029369682 -0.044279538
-0.07192159 -0.050603088 -0.046591375 0.019164678 0.03363184 0.08240774 0.058997292 -0.0005600521
0.04964508 0.048614074 -0.07441639 0.04665629 -0.061947737 0.06652467 -0.03703306 0.017050765
-0.00075876445 0.040640857 0.013711458 -0.06412362 0.03557482 0.0517816 -0.04563669 -0.05751646
-0.059776932 -0.043188162 -0.010794887 0.007023517 -0.0008773211 -0.02359848 0.055065904 0.0045656944
-0.05119892 -0.02306934 -0.05202821 -0.031407177 -0.08319852 0.015807413 -0.06815206 0.033858653
0.06124247 -0.06601269 -0.046745967 -0.069977656 0.02303558 0.017305749 -0.0454794 0.053836882
0.036414064 -0.0802017 -0.004542695 -0.03818124 -0.015495786 0.04948139 -0.0092781745 -0.061489876
0.061897527 -0.080558695 -0.030603142 0.03366915 0.07778131 0.08613192 -0.021084767 0.029599456
-0.07789371 -0.017580742 -0.027170472 0.02524065 -0.058022007 0.019249868 0.045958396 0.06908905
-0.01480821 0.08106318 -0.083642066 -0.02536599 0.0331105 0.02252652 0.041742295 -0.0588476
0.05478463 -0.08357169 -0.060780916 -0.0058118543 -0.085470155 -0.0841788 -0.07862094 0.07146131
0.019463751 -0.028332932 -0.003514244 -0.077236034 -0.083276846 -0.061715182 -0.0851386 0.05847388
-0.03063163 -0.02351521 -0.076136425 0.014464298 -0.013556671 -0.060383193 0.05632165 0.07480909
-0.06312628 0.050548967 -0.0145241385 -0.0011069007 0.037703924 -0.015747547 0.07480148 0.05469595
-0.05726405 -0.053688433 -0.087560974 0.028000943 -0.06633759 -0.07434071 -0.05702556 -0.08702322
-0.07169398 0.07861716 0.049296394 0.078756705 -0.042512204 -0.03671637 -0.030692575 0.0014145536
-0.0637194 0.012659613 -0.056494292 0.013693104 0.080589145 0.014748022 0.06474571 -0.06315638
-0.012199071 -0.054658074 -0.009508416 -0.03512573 -0.050470736 -0.08533457 -0.032444037 0.011592806

vehicle_encoder.lstm.bias_ih_l0 f4 [512]
00000000: 6027 2a3d 0753 173d c83b 9d39 5283 12bd
00000010: 3abc 9abd 270a 3e3d cc4f 6c3d 94ce c23c
00000020: ea70 0e3d f88d b03d b480 93bd 0e6c 77bd
00000030: b52f 2fbc b04f 103d 05df a13d 38ed b83d
00000040: f3b6 7f3c d146 3a3d f0ff a43d 948b 3c3d
00000050: 5a5b 9cbb 6405 0cbd bcd1 b9bc b6c9 a63d
00000060: 9ddd adbd 27b6 633c 6df3 643c 45ab 87bc
00000070: 7511 66bd 1453 8bbd 264b 0dbb da15 6abd
00000080: 6188 173d 6343 85bd 74b4 b3bc 5b97 28bc
00000090: 4c59 153d 9cd6 833d 86d8 a33d 50f7 cc3b
000000a0: aa7a b5bd 5566 c3bc 6c2a 723c 7844 f93c
000000b0: 06d1 a03d 8e01 afbd 2971 d0bc ef16 713d
000000c0: 9bd3 4c3d 2e22 08bd 5fe1 c53c d61e 6c3d
000000d0: 27a0 b639 9dd5 f4bb 1c2e 183c 364e 16bd
000000e0: efdf afbd 6406 2e3d 7979 cb3c 0b6b 7bbd
000000f0: db7a 743c c2d1 debc 3ee6 a43d fd55 2ebd
00000100: 9f6a a03d e5b3 123d d42f 1d3c e6af c23c
00000110: 64bb 4a3c c024 433d 91a8 1dbd 74be c0bc
00000120: 713f 26bd c526 9b3c 4284 43bd e1c0 3e3d
00000130: 5951 92bc d6e4 b13d 315d 0e3d d9e3 abbd
00000140: 58a1 5e3c f821 0d3d 000d 66bd 15d1 393c
00000150: e3d5 ef3c 2adc a9bd ba99 9cbd 757d 69bb
00000160: ae2b 043d 0b67 45bd 9355 49bd b907 33bd
00000170: f534 9e3c feed 0dbd ede9 17bd 8ffc f43b
00000180: 5ae8 20bc 5534 50bc 26d7 633d 3bf3 8bbd
00000190: 70c1 04bc 83f8 09bc cf2d 013d b92a 46bd
000001a0: 4947 493c d171 a9bd 01ed 953d 2d3e 7f3c
000001b0: 4bca 30bc 7a57 9dbd 821c 843d 30f7 723d
000001c0: f2dd 743d 0e41 6bbd fa6d bd39 3dc3 59bd
000001d0: 78db 52bd 2252 8abd 110e 663d 27e7 8bbc
000001e0: 0e3f 3b3d 4eda 8bbc c55c 19bc 3efb f3b9
000001f0: a872 8abd 064d a6bd ea9a 0f3d 7411 7bba
00000200: efd7 37bb b780 9c3b 85e6 a53b cfbd 473d
00000210: d937 90bc 9254 babc ebda 9abd 3700 5c3c
00000220: b0dc 6a3d ba10 3dbd 6e15 0fbd 88b3 3abd
00000230: 8306 aa3d e767 a8bd d9a5 4a3d e62b 4abd
00000240: 3010 8fbd 493c 9e3d 1a16 a03c 3f62 1f3d
00000250: 07d6 cebc 3e11 a2bd fe90 653c e1c9 053d
00000260: d4b2 9a3d 9e20 47bd b671 ae3d f88f b43d
00000270: a61c 5abd 9ae9 edbc e371 9f3d ef6f 043d
00000280: 6130 98bd a82c 9ebd 1bae aebd b999 3ebd
00000290: 9135 133d 54be 2dbd ccbb ae3d 730a 50bc
000002a0: 3638 563d 317b 58bd 7722 a53d 6515 c23c
000002b0: 28e8 873d 012f 263d 768e 92bd 6f54 763d
000002c0: 3092 c3bc 171c 66bd c842 653d e3d9 94bd
000002d0: ceb6 e53c 83f6 9bbd b248 91bd 1622 233d
000002e0: 7b60 c03c 69ef a13d 0132 863d 971b 93bd
000002f0: d474 943d aa54 a93d 06b3 903b 214b 483d
00000300: e717 813d 44a3 8fbd b9ce 513d f739 643d
00000310: 7979 abbd f810 c43c 8517 323d 071b e43c
00000320: 62ca b8bc 3802 8b3c ac9e 723d 485b 123d
00000330: 3324 83bd 0d50 d1bc 4b51 b53d 8bdd 5a3d
00000340: 871f 3abd 6f20 91bd afb9 7c3d dbea a53d
00000350: 8dd6 63bd 8e31 89bd 0756 77bc 0cbd 25bc
00000360: 88ff aa3c de63 413d 2e10 fdbc 8c01 723d
00000370: 92ba 80bd c768 3e3d 3420 6b3c f3ac 25bd
00000380: 2456 3f3c ca14 9f3c 562f 2d3d 0f51 efbc
00000390: 9461 2e3c 6224 4dbd 3dd0 5bbd 7ca7 81bd
000003a0: ba94 003d 2dfb 2bbc 055f a23c e7b2 2dbd
000003b0: 3b24 0c3d 320e 9cbd bcad 843c b012 8cbd
000003c0: 9f39 b6bd 24bd 8ebd 385d a93d b502 a53d
000003d0: f900 363d 2fcf b73c 241f a33d e22c 42bd
000003e0: 8fe0 773d 1ae1 1d3d ebd6 7c3d bf2a 283d
000003f0: 2a01 00bc 1156 97bd 7f48 1ebd 3874 39ba
0.041541457 0.036944415 0.00029989914 -0.035769768 -0.075554326 0.0463964 0.057693288 0.023780145
0.034775652 0.086208284 -0.072022825 -0.060405783 -0.010692527 0.035232246 0.07903866 0.09029621
0.015607583 0.045477692 0.08056629 0.04603155 -0.004771632 -0.03418483 -0.022683017 0.08143942
-0.08489535 0.013898409 0.013974053 -0.01656116 -0.056168992 -0.06802955 -0.0021559685 -0.057149746
0.036995295 -0.065069936 -0.021936633 -0.010289992 0.036462113 0.06437418 0.08000283 0.006255068
-0.08861287 -0.023852507 0.014780622 0.030428156 0.07852368 -0.085452184 -0.025444584 0.05885976
0.05000649 -0.03323572 0.024155317 0.057646595 0.00034833068 -0.0074717537 0.009288337 -0.03669568
-0.08587634 0.042486563 0.024838196 -0.06138138 0.014921869 -0.02719963 0.08051728 -0.042562474
0.07832836 0.035816092 0.009593923 0.023765516 0.012373779 0.04764247 -0.038490836 -0.023528315
-0.040587846 0.018939385 -0.047733553 0.046570662 -0.017861055 0.08686225 0.034756843 -0.08393068
0.013588272 0.034456223 -0.05616474 0.011341353 0.029276794 -0.08293946 -0.076465085 -0.0035627757
0.03226822 -0.048193973 -0.049153876 -0.043708537 0.019312361 -0.034650795 -0.037088323 0.0074763964
-0.009821022 -0.012707789 0.055625103 -0.06833502 -0.00810276 -0.008421066 0.031537827 -0.048380587
0.012285062 -0.08273662 0.073205955 0.015578789 -0.010790418 -0.076827005 0.0645075 0.059317768
0.059781976 -0.057435088 0.00036130828 -0.05316471 -0.051478833 -0.06753947 0.05616576 -0.017077995
0.04571443 -0.01707187 -0.009360497 -0.00046535762 -0.0676015 -0.0812016 0.035059847 -0.0009577491
-0.002805229 0.004776086 0.0050628805 0.048765 -0.017604755 -0.022745404 -0.075612865 0.013427786
0.05733937 -0.04615853 -0.034932546 -0.04558137 0.08302023 -0.08222943 0.04947457 -0.04935827
-0.069855094 0.07726342 0.019541789 0.038912054 -0.02524854 -0.07913445 0.01401162 0.03266323
0.0755364 -0.04861509 0.085177824 0.08816522 -0.053249978 -0.029042054 0.07785394 0.03233331
-0.074311025 -0.07723361 -0.08529302 -0.04653332 0.035939757 -0.04241784 0.08531913 -0.012697804
0.0522997 -0.05285186 0.08063214 0.023691842 0.06636077 0.04057217 -0.071560785 0.060139116
-0.023873419 -0.056179132 0.05597189 -0.07268121 0.02804127 -0.07615378 -0.07093944 0.03982743
0.023483505 0.07906992 0.06552506 -0.07182997 0.07248846 0.082681015 0.0044158725 0.048899774
0.06303387 -0.07013562 0.051222537 0.055719342 -0.083727784 0.023933873 0.04347946 0.027844919
-0.022557441 0.016968831 0.059233353 0.035731584 -0.06403389 -0.025550866 0.08853396 0.053433936
-0.045440223 -0.07086264 0.06170052 0.08101436 -0.055624533 -0.06698905 -0.015096194 -0.010115873
0.0208738 0.04721438 -0.030891504 0.059083506 -0.062855855 0.046486642 0.01435094 -0.04044814
0.011678252 0.019419093 0.04228147 -0.029213456 0.010643382 -0.050083525 -0.05366539 -0.06330773
0.031391837 -0.010496897 0.0198207 -0.042406943 0.03421424 -0.07619895 0.016196124 -0.06839502
-0.08897709 -0.069696695 0.08269733 0.08057157 0.04443452 0.02243766 0.07964924 -0.047406085
0.06051689 0.03854475 0.0617284 0.04105639 -0.0078127775 -0.07389463 -0.038643356 -0.0007074508

vehicle_encoder.lstm.bias_hh_l0 f4 [512]
00000000: 79a4 503b 20e2 1ebd 4e1a d0bc 650d e3bc
00000010: 76af 973d 4abe 87bc bcca 8cbd da7c 4ebd
00000020: 1142 563d 8b49 a9bd 2ffc c3bc f40f 75bd
00000030: c390 7ebc b61b a0bd 13f6 8cbd a4f1 27bd
00000040: 3d6e 403c a640 a13d d220 9ebd 1c78 25bd
00000050: 61ea a53d 5129 743d 7a91 a5bd b44c 85bc
00000060: c4fe 7dbd 74be e13b 8b15 2f3d 50f0 a5bd
00000070: 51bd 69bc b19f b0bd 7851 76bd 7ffe c7bb
00000080: 1580 2cbd eba0 673d 0a8d 723d fd41 573c
00000090: 9d9f d6bc 75ea 98bd 1d09 06bd dd55 413c
000000a0: f811 943d 84e6 9cbd 72b1 3fbc 4b53 823d
000000b0: 1aba aa3d 6b62 333d 4b3f 1a3d d9ef 873c
000000c0: 0935 a3bd 7d2c c3bc d750 b0bd 2b82 51bd
000000d0: d42d 56bd 31d6 8f3d d678 833d a280 513d
000000e0: f781 983d a894 fd3c 97bd 3e3d eebb a13c
000000f0: 47a5 8ebb 503a 02bd c450 053d b1a6 823c
00000100: 9eb5 8a3d ed96 89bd 56d0 23bd 4ebf 22bd
00000110: 2026 a3bd 44f8 f2bc 3a16 4cbc ec90 8f3d
00000120: a4d0 aabd e6b3 9d3d bcf8 a03c d651 cebb
00000130: 1b59 84bd f39b 2cbd 3cad 96bd db40 1f3d
00000140: 8b94 1d3d 533a 5ebd daa4 9abd 8465 0cbc
00000150: 5fa9 683d 0b15 903c f9d4 85bd 4401 abbd
00000160: dbdd 593d e920 143d 0b1d a5bd 5693 93bd
00000170: bf6b 783c 4ad0 23bb 4317 3dbd b8b1 843a
00000180: e262 6fbd 7445 803d a2fb 933c 47dc 6d3d
00000190: 49b3 9cbd 4332 c9bc e8a7 bc3c f22f 0e3c
000001a0: 695a 253d 2d85 8fbd 698a 033c 81a5 15bd
000001b0: f730 4a3d fecf 5e3a 5f25 b13c a456 843d
000001c0: 3526 d0bc 3bb3 a0bd 6dae 5a3b 67f3 953d
000001d0: 6d36 a03d ab16 18bd 5d7d 8abc b708 3fbd
000001e0: defb a83d 8c40 c03c 0466 22bd e182 3fbd
000001f0: ba87 9fbd adbf 4f3d 98bc ffbc 67e8 9ebd
00000200: cead 6b3c 6a3c 01bd 706b 833d 2163 52bd
00000210: 23c4 a93d 215e 0a3d 8b14 f1bb abfc 783c
00000220: 82dd 9ebd cf9b 573d afe9 343d c42e 4f3d
00000230: 6631 0a38 5fee 38bd 61cc 553c d8bc d03c
00000240: 842b 83bd 1738 0c3d 52e7 ad3d 0756 ab3d
00000250: 4742 f43c 0fbf a13d 3afb 37bd 80ed 8bbb
00000260: ca7d 50bd 84ca 20bd b12b b7bc 83c6 f6bc
00000270: 781e 923d 3e3b 29bc 529b 513d 1852 863a
00000280: e1c0 1e3d 5663 a4bc 1d16 3cbc 6338 44bd
00000290: b5ef a5bd 9265 6fbd 51f9 973d 79f6 1e3c
000002a0: a28f 99bc a77a 993b ced8 ca3b a789 423b
000002b0: 8c9a 8a3d 2a62 98bb 0782 b13d 77ce 063a
000002c0: 9ddf 393d b178 86bc 8219 8a3c 691d 1cbb
000002d0: 7f62 a33d 0080 b53d 5a30 53bd 7198 2a3c
000002e0: 1b53 93bd 2e15 bcbc f251 b6bd 2831 4abb
000002f0: a8ac 4b3c dfb5 7b3d 3f8f 3a3d c14d 8ebd
00000300: e9aa 1c3d 82fa a6bd 329e 713d fef7 5d3d
00000310: 4deb de3c 097a 413d 28f7 a93d 4ab8 8c3c
00000320: 537e 75ba 7086 193d 9575 a4bd e5d5 0dbd
00000330: cc18 6e3b e0f2 133d a66d a9bd 6aec 65bc
00000340: d218 afbd cbc9 5a3d 129d 57bd 8586 aebd
00000350: 4f01 83bc fd3d e83c 7aa3 d7ba d016 573c
00000360: 360d c33b 7093 6a3d 8f24 11bd 0f98 c33c
00000370: c1c0 943d 616c 3e3d e4e8 703d 8486 6ebc
00000380: 36da 0cbd 68d2 a4bd 0e1e 913c fc40 95bb
00000390: 34bb 65bd 3e8b 2dbc c2e7 a5bd a315 e63b
000003a0: b768 84bd 4c06 96bd 0f72 abbc 2c5c d2bb
000003b0: 537e 063d 804d 7d3d 7e2d 79bb 6327 8e3d
000003c0: d8f0 29bd 1302 5a3d 1789 ab3d da03 88bd
000003d0: c139 2dbd 32fd 583d 6e8f 17bd 8783 813d
000003e0: 7753 acbd fcd0 6fbd a254 993b 68f0 5a3c
000003f0: e3dd 873d 86f4 81bd 836b 123c 6f5c eebc
0.0031836315 -0.03878987 -0.025403168 -0.027716348 0.074065134 -0.01657023 -0.06874606 -0.050412036
0.0523091 -0.0826598 -0.023923961 -0.059829667 -0.015537444 -0.078177854 -0.068828724 -0.04100193
0.011745033 0.07873659 -0.07721104 -0.04039775 0.08101345 0.059609715 -0.08084388 -0.016271926
-0.06201054 0.006889159 0.042745154 -0.081024766 -0.014266328 -0.08624209 -0.06013629 -0.0061033363
-0.042114336 0.056549948 0.059216537 0.013138291 -0.026199156 -0.07466594 -0.032723535 0.011800257
0.0722999 -0.07661155 -0.011700021 0.06363543 0.08336277 0.04379503 0.037658017 0.01659386
-0.079691 -0.023824925 -0.08609169 -0.05114953 -0.0522898 0.07023276 0.06419532 0.051148064
0.07446664 0.030954674 0.046567526 0.019742932 -0.0043531987 -0.031793892 0.032547727 0.015948625
0.06772922 -0.0671824 -0.039993607 -0.039733224 -0.07966256 -0.029659398 -0.012456471 0.070100635
-0.08340576 0.077003285 0.019649856 -0.0062963767 -0.06462308 -0.042140912 -0.073572606 0.03888021
0.03847174 -0.05425484 -0.07550974 -0.008569125 0.05680215 0.01758816 -0.06534762 -0.08349851
0.053190093 0.036164198 -0.0806218 -0.072058365 0.015162407 -0.0024995976 -0.046164762 0.0010123765
-0.05844391 0.06263247 0.018064324 0.0580714 -0.076513834 -0.0245601 0.023029283 0.008678423
0.040369425 -0.07007823 0.008028605 -0.03653479 0.049363103 0.0008499621 0.021624265 0.06461838
-0.025408844 -0.078466855 0.0033368126 0.07321816 0.07822881 -0.037130993 -0.016905481 -0.04663917
0.08251165 0.023468278 -0.03964807 -0.046755675 -0.0778956 0.050719906 -0.031217858 -0.07759171
0.0143847 -0.031551756 0.064169765 -0.051364068 0.08289363 0.033781175 -0.0073571852 0.0151969595
-0.07757093 0.052638825 0.04416817 0.05058171 3.294777e-05 -0.045149203 0.013049216 0.025480673
-0.06404784 0.03423318 0.084913865 0.08366018 0.02981676 0.0789777 -0.044917323 -0.0042702556
-0.05090121 -0.039255634 -0.0223597 -0.030123955 0.07134718 -0.010329066 0.051173516 0.0010247855
0.038758162 -0.020066898 -0.011479882 -0.047905337 -0.08102361 -0.058446474 0.074206 0.009702318
-0.018745247 0.0046838108 0.006190396 0.0029684098 0.06767759 -0.004650374 0.08667379 0.000514246
0.04537927 -0.016414972 0.016857866 -0.002382124 0.07977771 0.08862305 -0.051559784 0.010412321
-0.071935855 -0.022959318 -0.089023486 -0.0030852053 0.012431301 0.061452743 0.045546766 -0.06948424
0.03824893 -0.08153249 0.058988757 0.054191582 0.02721181 0.047235522 0.082990944 0.01717772
-0.0009364832 0.037481725 -0.080302395 -0.034627814 0.0036330698 0.036120296 -0.08272867 -0.014033416
-0.08549656 0.0534151 -0.05264003 -0.08521751 -0.015991835 0.02834987 -0.0016451918 0.0131279975
0.0059525026 0.057269514 -0.035435256 0.023876218 0.072633274 0.046490077 0.05881585 -0.014558438
-0.03438779 -0.08047944 0.017714527 -0.004554866 -0.056086734 -0.01059228 -0.08100845 0.0070216223
-0.06465285 -0.0732542 -0.02092841 -0.006419679 0.032835316 0.061841488 -0.00380215 0.06941106
-0.041489452 0.053224634 0.08375757 -0.066413596 -0.042291407 0.05297584 -0.03700202 0.06323915
-0.08414357 -0.058548912 0.0046792785 0.013362981 0.066341184 -0.06345467 0.008936766 -0.02909681

attention.wq.weight f4 [128, 128]
00000000: 5c73 f93c 3b9d a2bb efef 46bd 9ab8 43bd
00000010: d75f 4ebd cc32 973b 9ed7 673d bf30 efbc
00000020: e919 b1bd b9e0 963c 780d 893d 3393 89bd
00000030: 1b6f 4f3d eb52 b03a 8faf d53c 717c ab3d
00000040: d99d 843d e733 cbbc 15b6 c7bc 59b9 b2bd
00000050: 1457 abbd d21b 87bc 2b97 58bd 22e7 a43b
00000060: f9fe 56bd 9de6 9e3d 8e59 24bd f1c0 86bc
00000070: 24e7 d0bb e600 dfbc 8dab d83c 4cb7 a83d
00000080: 9a0f 15bd 2990 af3d b601 04bd 8fbc 853d
00000090: 118c 28bd cb9d 4e3d e677 ab3b 3175 a43d
000000a0: f7aa b23c 9931 6dbd b3bc 9d3d 0938 17bd
000000b0: 4f86 91bd 77b4 5d3d 878f 3bbb 600c 2abd
000000c0: 3421 53bd 112d 01bd d098 93bb 9d79 4c3d
000000d0: 5e90 b83c 0bdd be3c 4de1 a13d 1ae7 c53c
000000e0: 2f52 f7bb aba7 73bd 1e53 153c c57f 90bc
000000f0: 2032 0bbd 19a4 1b3d 69a9 69bc 0791 87bc
00000100: 37dc 7f3d 95e1 46bd 0bcb d33c 032c 35bd
00000110: 1ae9 333d 3a89 69bc 5637 96bd 3384 ffbc
00000120: 416f 61bd 8c9b 9b3d 0404 f0bc c072 703d
00000130: e365 87bd f72f a83d 160d 86bd 5089 a8bd
00000140: 10fc 9ebd 4e66 953d 37fb f23c cff0 68bd
00000150: a748 8f3d d036 2fbd 1b24 8f3d bd00 913d
00000160: ad3f f2bc 5be5 e33c ba77 9ebd 3da4 e939
00000170: 5fd2 0dbd 56ea 81bd cd6a 88bd a57f 7dbd
00000180: f12e 5e3c ef14 9c3d 9052 8abd a8a2 9fbd
00000190: 0a42 a73d c8d3 093c c17a 44bc dd10 8ebc
000001a0: 31fe a1bd 8522 a83c 1633 abbb 77bc 8abd
000001b0: 3d7d c63c 4f4a 8abd 5b8c 2b3d f684 8cbd
000001c0: 0a1c 5f3d d904 acbd 5ec0 543d 5bef e93c
000001d0: 06a4 00bd c2e2 a9bd 5eb7 8bbd 218c 963d
000001e0: 287a aebc cc49 a7bd a2d2 3c3d 2ee5 b23d
000001f0: b138 f0bc 438d b63c 68b2 303d 7efc e13c
00000200: 59c3 9b3c bb6f 32bd b696 9abd 8731 a83d
00000210: 75cb 9e3b 57b6 a7bd 754b 373d 4962 ac3c
00000220: f73a 913d 0be3 1cbc b490 6ebc 92dc f33c
00000230: df1f 0c3c 7f4a b3bc fd8d 7abb 65c3 873d
00000240: eb5a a7bd f475 c7bc 5b05 38bc 126f 82bc
00000250: 416f 0d3d 3716 a43d 6853 05bd 5454 90bd
00000260: 987d 7d3c 1d06 c63c 059b 973d ad7a 93bd
00000270: 7bf5 9fbd 0914 87bd 6d91 1a3d 2df8 9b3d
00000280: 44fa 453d cc11 93bd 3d0c 0bbd a9fa 9c3d
00000290: 743b 383d ff8b a33d fd0a 50bd d44c 8c3d
000002a0: 01e4 f33c af8b 723d 60df 933d 90fb a6bd
000002b0: d670 d9bc ff80 63bd f1b2 2fbd 7930 a63d
000002c0: 8a00 363d aa9a 45bd 21f4 273d b8d4 3cbd
000002d0: 5639 a1bd 952e 11bc 1780 263d 6901 283d
000002e0: b3f8 21bd bb16 b73d 4551 893d ee69 373d
000002f0: 3260 a03d 501f 5bbc dae6 7abd 77e2 bbbc
00000300: e668 1abc 7f48 503d 44d4 08bb 4741 683c
00000310: e944 c7bc 9f1c a5bd 007e 58bd 2dba a23d
00000320: 52d6 1c3d c0aa 683b b952 6a3d dcb2 603d
00000330: cfb3 833d b4ae eebb 4c7b c33c 2975 903d
00000340: 3642 613d 6520 123d da31 c1bc 08c9 063d
00000350: b816 503d 4e2c 8fbd a71c b13c 7c83 243d
00000360: 4198 ae3d e1c5 7bbd d675 763d 0677 acbc
00000370: 99e3 4abd 86e5 933b 6eaa afbd ebae 9fbd
00000380: c96e 8bbd 0682 603d bf20 9cbd de70 95bd
00000390: 53b5 e0bc c435 88bd 608b 98bc 04e5 8ebd
000003a0: 8860 af3d fe4e 9abc e65f 99bd 619a 993d
000003b0: 3f26 abbd 8f9c 8fbd 421a 6d3d e453 a33d
000003c0: 6b2c 973c 342b 8a3d d365 063d 125e a63d
000003d0: a124 22bc f395 aabc 194d 1dbd 094c cfbc
000003e0: a456 a53d 426f 983d be60 54bd f3b0 88bd
000003f0: 9186 00bd d20f c13c 04cb 70bc 1851 ae3c
0.030450515 -0.004962591 -0.048568662 -0.04778347 -0.05038437 0.0046142098 0.056602113 -0.029198049
-0.0864752 0.018417703 0.06692022 -0.06717529 0.050643068 0.0013452446 0.02608469 0.08373345
0.064754196 -0.024805022 -0.024378816 -0.087267585 -0.08366218 -0.016492758 -0.05287854 0.005032436
-0.052489255 0.0775883 -0.04012447 -0.016449424 -0.0063752104 -0.027222108 0.02644899 0.08238086
-0.036391832 0.08572418 -0.032228194 0.06530105 -0.041149203 0.05044345 0.005232799 0.08030165
0.021810038 -0.057908628 0.07702007 -0.036918674 -0.071056955 0.054127183 -0.0028619485 -0.041515708
-0.051545337 -0.03153712 -0.0045043007 0.049920667 0.022529777 0.02329876 0.07904301 0.02415805
-0.007547639 -0.059486073 0.009114055 -0.01763905 -0.03398335 0.037998293 -0.014261582 -0.016548647
0.062465873 -0.048554976 0.025853654 -0.044231426 0.043923475 -0.014253909 -0.07334773 -0.031190967
-0.05503774 0.075980276 -0.02929879 0.058703184 -0.0661123 0.082122736 -0.06545465 -0.08229315
-0.07762921 0.07294904 0.029660804 -0.056870278 0.06996279 -0.042776883 0.069893084 0.07080219
-0.029571379 0.027819326 -0.0773768 0.0004456359 -0.034624454 -0.06343524 -0.06660996 -0.06188931
0.013560996 0.0762118 -0.06754029 -0.07794696 0.08166893 0.008412309 -0.011992157 -0.017342025
-0.07909811 0.020524273 -0.005224596 -0.06774228 0.02422964 -0.067524545 0.0418819 -0.06861298
0.0544701 -0.08399362 0.05194127 0.028556516 -0.031406425 -0.08295204 -0.06822084 0.07350946
-0.021298483 -0.081683725 0.046099313 0.08735119 -0.029323908 0.022284156 0.04313889 0.027586218
0.019014047 -0.043563586 -0.07548277 0.082125716 0.0048460313 -0.081890754 0.044749696 0.02104296
0.07091325 -0.009575616 -0.014560867 0.029768262 0.008552521 -0.021886108 -0.0038231604 0.066290654
-0.08171638 -0.024348237 -0.011231746 -0.015922103 0.034529928 0.0801205 -0.032550246 -0.07047334
0.015471838 0.024172837 0.074026145 -0.07201133 -0.078104936 -0.06595618 0.037736345 0.07615695
0.048334375 -0.07181129 -0.03394722 0.07664997 0.044978574 0.079856865 -0.05079173 0.06850591
0.029771807 0.059215244 0.0722034 -0.081534505 -0.026543062 -0.055542942 -0.04289526 0.08114714
0.044434108 -0.048243202 0.041004304 -0.046101302 -0.07872264 -0.008861204 0.0406495 0.04101697
-0.03954382 0.08939882 0.06704954 0.044778757 0.07830848 -0.013374165 -0.061255313 -0.022935135
-0.009424424 0.050850388 -0.0020878473 0.01417572 -0.024324851 -0.080621 -0.052854538 0.079456665
0.03829033 0.0035502166 0.057207797 0.054858074 0.0643078 -0.00728401 0.023862503 0.070535965
0.054994784 0.035675425 -0.023583341 0.032906562 0.050802916 -0.06990872 0.021620108 0.040164456
0.08525134 -0.06146801 0.06017097 -0.021052849 -0.04953346 0.0045134453 -0.08577429 -0.07797035
-0.0680824 0.0548115 -0.07623433 -0.07296918 -0.027430212 -0.0665088 -0.018621147 -0.06977275
0.08563334 -0.018836495 -0.07488994 0.075001486 -0.08356904 -0.07012283 0.05788637 0.07974985
0.018453797 0.067465216 0.03281195 0.08123411 -0.009896428 -0.020823454 -0.038403604 -0.025304811
0.08073166 0.07443096 -0.051850073 -0.066743754 -0.031378333 0.023567114 -0.01469684 0.021278903

attention.wq.bias f4 [128]
00000000: bfee 94bd ba6f 223d b9ee a83d 26b3 efbc
00000010: 136b 243c 9ba6 943c b828 babc 391e 80bd
00000020: 77a4 0bbd 3946 6bbc 103e 64bd 9d10 d83c
00000030: 39c8 3b3c f59b aa3d ef36 80bd 70ee ccbc
00000040: 199d 9c3c 989c 2c3d 1dbc 663d c8e2 4a3d
00000050: 2a73 9739 6b61 a4bd c6af 993d 7b01 35bd
00000060: 5046 45bd 75c7 73ba 2dad abbd 7cb6 913b
00000070: 13e2 9e3d 915c 10bd 1973 aebd a503 99bb
00000080: db87 233c 6816 bfbc 3c93 0cbd 7b77 6cbd
00000090: 1dff 563d 363f a6bd 5340 82bd 46db 31bd
000000a0: 52df a4bd e340 eabb dbb0 a2bd 37d1 c43c
000000b0: 3b9d 53bc 710f c03c 4daa f9bc 3fec be3b
000000c0: 14c5 34bb cab2 dabc 618e 3abd 0e30 3cbc
000000d0: a6a6 59bd 4ef1 bd3a ccdc 69bd 17ee 34bc
000000e0: 7de7 99bd d7bd 6a3d a23e 7abd 40f5 503d
000000f0: 50bf b0bc c6ae 5fbd 5f2b 35bd 3bb1 03bd
00000100: c7f2 7fbc 2c4c db3c 5ce3 653c c210 4dbc
00000110: 4a2b 2fbd 6527 583d 555b b0bd 5343 863d
00000120: ac57 9bbd 3ba1 50bd f125 89bc 2e13 1a3d
00000130: 2dd7 ab3d 5087 a33d b233 b13d 2051 02bc
00000140: dd81 753d 007b a83d fec5 3ebd 70c2 0e3d
00000150: b8db 843b 2afa 943c cba2 b0bd dc4b 8bbd
00000160: 0988 2e3b 129f 2cbb e614 7d3c 5410 3fbd
00000170: 1d29 19bc 7432 9e3d a4a9 973d e2cf 893d
00000180: 22b9 a43d 0ae1 173b 7a39 d5bc 94f5 783d
00000190: 010d 853d b73f a63d 680e 343d bcc4 18bd
000001a0: 004a 993d 0769 8fbd b79d 2fbd 1f60 18bd
000001b0: d47e 143c 3108 823c 3f92 8b3d 2cf8 81bd
000001c0: 9aff a83b cf50 7abd 95fa 6d3d 3cd6 543c
000001d0: 3e5d 8a3d e7c4 9a3d 49d4 8c3d 0e9e 8bbd
000001e0: 8fc1 28bd 334b 943d 81e2 8fbd a0e5 ddbc
000001f0: 8018 a83d a8db 9ebd c929 903d 9592 f5bc
-0.072721 0.039657332 0.08248658 -0.02926023 0.010035294 0.01814585 -0.022724494 -0.062557645
-0.034092393 -0.014360004 -0.05572325 0.02637511 0.011461311 0.08330528 -0.06260478 -0.02501604
0.019117879 0.042141527 0.056331743 0.04953268 0.00028886768 -0.080263935 0.07504229 -0.044190865
-0.04816276 -0.0009299436 -0.0838264 0.0044468027 0.07757964 -0.03524453 -0.08518047 -0.004669624
0.009981121 -0.023326114 -0.0343201 -0.057731133 0.05248939 -0.08117525 -0.06359925 -0.043422006
-0.080504075 -0.0071488484 -0.07943889 0.024025543 -0.012915905 0.023444863 -0.030476714 0.0058265026
-0.0027583288 -0.026696581 -0.04554594 -0.0114860665 -0.053137444 0.001449147 -0.057095334 -0.011043093
-0.07514856 0.05730995 -0.061094888 0.05101514 -0.0215756 -0.054610036 -0.044230815 -0.032151442
-0.0156218475 0.02676972 0.0140312575 -0.012516202 -0.042765893 0.052771945 -0.0861117 0.0655581
-0.075850815 -0.05093501 -0.016741725 0.037615947 0.08390651 0.07984793 0.08652438 -0.007953912
0.0599383 0.082265854 -0.04657554 0.0348534 0.004054513 0.018185694 -0.086248 -0.068015784
0.0026631376 -0.002633993 0.015446877 -0.04664643 -0.009348181 0.07724467 0.07405403 0.067291036
0.08043124 0.0023174905 -0.026028384 0.060781077 0.06496621 0.081176214 0.04395905 -0.037296996
0.074848175 -0.07002454 -0.042875018 -0.037201043 0.009063441 0.015873047 0.068150036 -0.06346163
0.005157423 -0.06111222 0.0581003 0.012990531 0.06756066 0.075570874 0.06876428 -0.06817256
-0.041200217 0.072409056 -0.07025624 -0.027087033 0.08207798 -0.0775674 0.0703922 -0.029977122
