checkpoints/model_epoch_20_policy.pt (torch, 482024 bytes, 13 tensors)

customer_encoder.conv1d.weight f4 [128, 1, 14]
00000000: f14c 513e 411a 633e 0c39 80bd 26da 7a3e
00000010: e8f5 6ebd b692 5b3d 8a42 05be 2f52 213e
00000020: 8038 713e 8b8a 49be d191 6d3e 974a 4e3d
00000030: d711 4a3e 6f8b 123d 73f8 033e ec8e 1abd
00000040: 42f8 523e 1df5 223d 872e 00be ac91 8b3d
00000050: b09a fbbd 6a9f 01bd b281 ddbd f46c 363e
00000060: b297 57be 268a fcbd fa47 9abd 753d 24be
00000070: fa9e ce3c 3528 87be 6f23 773e df10 69be
00000080: e27c 533e a4bb 343d 8ebf b1bd eaa7 293e
00000090: b612 2b3d d965 5c3e d077 ed3c a2c0 abbd
000000a0: e2e7 923d 4d57 95bd b861 e63d 8b56 743e
000000b0: e82f 1e3e 05b2 eebd e2c9 1d3e 485b 433d
000000c0: e51e 0c3e a27e 27be e3c9 86be 6b6b d1bd
000000d0: b1b8 50be 5a94 613e ac41 9f3d 23c5 e13d
000000e0: aa1b ad3d 771c 98bb 2c2b 563e 2402 43be
000000f0: 500d 8b3c 1e0a 3bbe cff5 a73d ecd9 babd
00000100: 15a6 a63d 6e70 67bd 396a 623e 3418 22be
00000110: f77d 23be 7299 23be 7f27 763e 1967 b63d
00000120: 49ab 833e 5313 61be ccbf 87be 6767 55be
00000130: 82ec 38be 940e de3d 6188 c23d bb5d 633e
00000140: c21f 0ebe 569f 3bbe 0b87 103e c7d1 dbbd
00000150: 6f1c 263e 33e9 81bd 218c 1c3e 0c4b 55be
00000160: 39f4 09be 6d04 a63d 76dd 673d c69e 8abd
00000170: af65 233e 5e5c 393e 7291 46be 3385 11be
00000180: 159d 7a3e 73c4 b9bd 3d05 c2bd 6667 84be
00000190: fbb5 1cbe 93a1 873d a2c3 0fbd 60dd 46be
000001a0: 9068 b73b 8810 3abe 2bf6 68be 9499 17be
000001b0: 4d39 70be 3075 2ebe 7482 883e b9d0 4d3d
000001c0: 72ac a83d 893e 7fbe 74be 33be 7b56 b5bd
000001d0: 2131 2a3d 7b48 70be b7c7 edbd 139a 23be
000001e0: 31a7 3538 0eb3 cbbd dc21 9ebc 1e8e 3abe
000001f0: ff97 3cbe 7af7 1ebe 595d bbbd 5d05 58be
00000200: 447c 653e ee95 5bbd 4ca7 6b3e a7ed a93d
00000210: daeb 67be f90f 3e3e f8ff 96bd ed51 d3bd
00000220: ee8b 63be e6ed 87be 2b2a 9c3d a2a4 70bd
00000230: c10d d53d 0b9a 60be 4c2e 4b3e 8ff5 48be
00000240: 66f3 3ebd b57f 633d 08a5 0e3e 675a 5c3e
00000250: dd96 7a3e ac02 58be 3b31 8c3d 76be e8bd
00000260: e704 e9bc 8b99 4dbe ed4e 793e 11e1 48be
00000270: a63e 123e 3e11 c13d 5511 b13d 79bc 13be
00000280: 2bb3 783e f666 6f3d 312d 0c3d a176 70be
00000290: 20f5 e53d aa91 26bd 1209 fbbd b48f 6b3e
000002a0: 31f6 733d 9364 17be bf7c 0abe 24f4 46bc
000002b0: 719b 183e 0fb7 8abd 7158 1cbe 8ea5 bbbd
000002c0: 7800 4dbe 6037 c43d b968 533e ab3b 81be
000002d0: e108 7d3d c1fe 0d3e 6f8c 463d ebe6 c2bd
000002e0: 2ed5 0e3e 38bb 0f3e 4402 cc3d d982 41bd
000002f0: beb9 8ebd ff89 e53c 3a05 3cbd c03e a1bd
00000300: 1b41 303e 8a88 6c3e 1f46 d2bc eff1 79bd
00000310: bef3 7f3b 7d97 82bc 098e 833d f5b0 9a3d
00000320: aab8 78be 732e c9bd 3887 663e 7e8a d43d
00000330: f1b1 5dbc 9e54 24be 856c 27be d9c6 75be
00000340: 84a3 b2bd ade8 b93d c97e 2e3e beb9 fc3d
00000350: f6e8 71be 93d0 24be 551e 2bbd 1327 843e
00000360: 85ec 1f3d 8723 8dbd 4118 e33d aecb d1bd
00000370: 4832 31be c16c 483e 1a7b f8bd 935d 5dbd
00000380: be1f 88be 2a29 373e bc58 4f3e ae09 c73d
00000390: d184 3ebe cb16 87be 4ef0 5ebe 8dba 4c3e
000003a0: db56 023e 684b 653e d079 0e3e 26c1 893d
000003b0: 943b 46bb 7bdb 4fbe 4280 6abe 04ff 7fbe
000003c0: 9401 e03d 68fa 05be 4e15 5dbd 057d 1dbe
000003d0: abfb 42bd 5252 41be 1495 31be 4293 b73d
000003e0: a181 a0bd a2b1 293e 8ff7 adbd 7fea 48be
000003f0: 0836 41bd aea9 04be 8678 a7bd 0477 82be
0.20439507 0.22177984 -0.06260881 0.2449728 -0.058339983 0.05360671 -0.13013664 0.15754007
0.2355671 -0.19681756 0.23200156 0.050364103 0.19733368 0.035777505 0.12887745 -0.037733957
0.20602515 0.03978454 -0.12517749 0.06814894 -0.12285364 -0.03164617 -0.10815753 0.17815
-0.21053961 -0.12331037 -0.0753326 -0.16039069 0.02522229 -0.26397863 0.2413461 -0.22760342
0.20653108 0.04412426 -0.08679114 0.1656796 0.04176589 0.21523227 0.028987795 -0.08386351
0.071731344 -0.07292042 0.11249107 0.23861139 0.15447962 -0.11655048 0.15409043 0.047694474
0.1368366 -0.163569 -0.26325902 -0.102255665 -0.20382954 0.22029248 0.07776198 0.11023929
0.08452542 -0.004642065 0.20914906 -0.19043785 0.016974121 -0.18265578 0.08201181 -0.091235965
0.081371464 -0.056503706 0.22110833 -0.15829545 -0.1596602 -0.15976503 0.24038504 0.08906383
0.25716618 -0.21980028 -0.26513517 -0.20840226 -0.1805897 0.10842624 0.094986685 0.22203724
-0.13879302 -0.183225 0.14114015 -0.10733371 0.16221784 -0.06343307 0.1528783 -0.2082941
-0.1347207 0.08106313 0.056607686 -0.06768565 0.15956758 0.18101642 -0.1939142 -0.14210968
0.24473985 -0.09070673 -0.094736554 -0.25860137 -0.15303795 0.06622615 -0.03509868 -0.19420385
0.0055971816 -0.18170369 -0.22750156 -0.14804679 -0.23459359 -0.17036891 0.26662028 0.05024788
0.08236016 -0.24926199 -0.17553121 -0.088543855 0.04155076 -0.23465149 -0.11610358 -0.15976743
4.3309472e-05 -0.09946261 -0.019303255 -0.18218276 -0.18417357 -0.15524092 -0.09148664 -0.21095796
0.22410685 -0.05360978 0.23013037 0.08297282 -0.22648564 0.1856078 -0.07373041 -0.103183605
-0.22221348 -0.2654869 0.076252304 -0.058750756 0.10403014 -0.21933763 0.1984188 -0.19624923
-0.04661884 0.055541713 0.13930142 0.21518861 0.24471612 -0.21094769 0.068453275 -0.113644525
-0.02844472 -0.20078103 0.24346514 -0.19617106 0.14281711 0.09427117 0.08645884 -0.14427365
0.24287097 0.0584478 0.034222785 -0.23482753 0.112283945 -0.04066626 -0.122575894 0.23004037
0.05956096 -0.1478446 -0.1352415 -0.012143169 0.14903046 -0.06773197 -0.15268113 -0.091624364
-0.2001971 0.095808744 0.20645417 -0.25240836 0.061776046 0.13866712 0.04847377 -0.095167
0.13948509 0.14036262 0.0996137 -0.047243927 -0.06969021 0.028019903 -0.045903422 -0.07873297
0.17212336 0.2309896 -0.025668202 -0.06102174 0.0039055194 -0.015941376 0.064235754 0.07553283
-0.24289194 -0.098233126 0.2251252 0.10377978 -0.013531194 -0.16047904 -0.1634999 -0.24001636
-0.087225944 0.090775825 0.17040552 0.12340115 -0.23624024 -0.1609519 -0.041776974 0.2581106
0.039043922 -0.06891542 0.110886104 -0.10243927 -0.17304337 0.19572736 -0.12132855 -0.054044317
-0.26586717 0.17886797 0.20248693 0.09718643 -0.18605353 -0.26384577 -0.21771356 0.19993038
0.12728445 0.22392046 0.13913655 0.06726293 -0.0030247914 -0.20298569 -0.22900489 -0.24999624
0.10937801 -0.13083804 -0.053975396 -0.15379722 -0.04760329 -0.18879059 -0.17342025 0.08963634
-0.07837225 0.16571668 -0.08494484 -0.19620703 -0.04717067 -0.12955353 -0.08177285 -0.25481427

customer_encoder.conv1d.bias f4 [128]
00000000: 6ba0 78be f0a2 713e c0cb a6bc a851 07be
00000010: 0fc0 bbbd 46ae 55be 9e8b 553e 217a 6dbd
00000020: e6d8 19be ce8c 4fbe f9ed 1f3e 2a3f 17bd
00000030: 3001 e6bc 9dac 8ebd ac17 04be 7ba4 423d
00000040: d68e 523e f79c 1ebe 66ea 503c 5820 50be
00000050: c454 00be c934 703e 394f 383b 49d0 833e
00000060: aee2 3fbd 6929 15be 8a75 23be f98b 723e
00000070: e76e 52be 509c 0f3e 290e 883d 4b90 a13d
00000080: 906b 1a3e 4028 8fbd c25b 293e 6e0c 5abe
00000090: 568d c0bd d658 483e 4d51 a23d fca6 11bd
000000a0: 679f 7fbd af1d 27be b96e 263e 4890 0bbc
000000b0: 8dff 13bc 7c69 813d 37fb 493e d99c 0bbe
000000c0: 7d83 bcbd 0874 393e 3093 1a3e 8ca2 06be
000000d0: bd67 87be 6837 4b3d 5bea 0f3e 8aad 823d
000000e0: 781f 423e 3b32 59be 2902 0a3e 3723 2abe
000000f0: fd02 1a3e 1091 4b3e bd58 ad3d 296d 5d3e
00000100: 426c 34be 30d0 74be 4a8c 83be 94ca 2b3e
00000110: 95c2 bf3d c05c 48be 0d7d 043e 58b3 793e
00000120: 1bf0 86be f184 463e 0ff2 273d d362 cb3c
00000130: 0545 763e 88cd 773e b599 e63d 613d 583e
00000140: f6ab e33d db5d 323d ad97 70be e167 4c3d
00000150: d4b1 42be b89d a83d 1cd7 403d 365d c43b
00000160: 0f1a 3bbe ffd6 25be 344a 4a3e 4e47 053e
00000170: fa47 103e 2515 a3bd 80bf 3cbd a23a 8cbd
00000180: ec30 3c3e 9649 ecbd fb60 2c3e 5cb0 3c3e
00000190: f94a 7abe 5f52 cb3a 124e 50bd 6651 17be
000001a0: 4347 ec3d ce19 05bd 909e 6f3e 5f4a 2bbe
000001b0: 585c fe3d 9ca5 69be f328 09be d74f 953c
000001c0: 1937 583e 2a25 103e 29b3 60be 599b f23c
000001d0: b354 21be 153d 3e3c a5fd 63be 2b8c a0bd
000001e0: e8b1 3b3e 431f 7bbe 9f6e 82be 935a 473d
000001f0: 4316 163d f240 48bd db01 6f3e dec7 24be
-0.24279945 0.23597312 -0.020360827 -0.13214743 -0.09167492 -0.20867261 0.20854041 -0.0579778
-0.15024146 -0.20268556 0.15618123 -0.036925472 -0.028076738 -0.06966517 -0.12899655 0.047520142
0.205623 -0.15489565 0.012751197 -0.20324838 -0.12532336 0.23457636 0.0028123392 0.25744846
-0.046847038 -0.14566578 -0.15962806 0.23686208 -0.20550118 0.14024472 0.06643326 0.0788885
0.15080094 -0.06990099 0.16538909 -0.21293804 -0.09401958 0.19565138 0.07925663 -0.03555964
-0.062407877 -0.16319917 0.16253175 -0.008518286 -0.009033096 0.06318948 0.19724737 -0.13634051
-0.09204767 0.18110669 0.1509521 -0.13147944 -0.26446334 0.049613386 0.14054243 0.06380756
0.18957317 -0.21210568 0.13477387 -0.16614996 0.15040202 0.19879556 0.08464191 0.21623673
-0.17619422 -0.23907542 -0.2569297 0.16776496 0.093632855 -0.19566631 0.12938328 0.2438482
-0.2635506 0.1938665 0.04100233 0.024827396 0.24049766 0.24199498 0.11259786 0.21117164
0.11116783 0.04354654 -0.2349536 0.049903754 -0.19013149 0.082332075 0.047080144 0.005992557
-0.1827166 -0.16195296 0.19754869 0.13015482 0.14089957 -0.079630174 -0.046081066 -0.06847121
0.18378037 -0.11537473 0.1683387 0.18426651 -0.24442662 0.0015512219 -0.050855704 -0.14777145
0.115370296 -0.032495312 0.2340033 -0.16727589 0.12419957 -0.22817081 -0.13394527 0.018226547
0.21114768 0.14076677 -0.21943344 0.029615091 -0.15754966 0.011611243 -0.22264726 -0.07839235
0.18329585 -0.24523644 -0.25475022 0.048670363 0.036642324 -0.04889006 0.23340552 -0.16091868

vehicle_encoder.lstm.weight_ih_l0 f4 [512, 2]
00000000: 0a20 59bd 7909 85bd 3183 7abc 5606 afbc
00000010: b960 5d3d 9ca6 b0bb ec84 ec3c f512 13bd
00000020: 3ab6 943d 3fd0 993d 4f68 a3bd 3906 c1bc
00000030: faf5 97bd 297b 1c3d b99e 9fbd 1ab3 2bbd
00000040: 9773 b23d e05b afbd ec40 843d e162 eb3b
00000050: 116e 913d cd52 36bd 117c 6c3d ffa3 273c
00000060: b216 f63b 142a 7a3d 5ac9 acbd b490 92bd
00000070: 0322 ad3d 1e93 5cbd 228d 81bd d524 81bb
00000080: 0836 e5bc 91b0 40bc 0643 71bd c6df 063d
00000090: c7b1 9bbd 7c6c 053c b2a0 503d 5d10 843c
000000a0: 11a8 3f3c ed4c 573c bbeb d6bc 5ab0 8abc
000000b0: 9e1c 16bd 5947 71bd 177f 3fbd 8b09 b33d
000000c0: ad47 64bc b9af 003d b644 7b3d 1ec6 e7bb
000000d0: dfcb 44bd 194e 77bd 4f57 03bd ea9c 043d
000000e0: 9b07 97bd 18f1 20bc ea49 093d 22ba 933d
000000f0: 371c dc3c bff9 8a3c 8842 783d 099b 2a3d
00000100: 35db ed3c 2918 e8bc 6a14 92bd 017b 9fbc
00000110: 29b4 7fbc c602 de3b 8e42 19bc 93f7 143d
00000120: 4280 753d 7640 0dbd 215e abbd 30f5 38bd
00000130: 658f 2bbd f67d 4d3d 8767 6bbd 0782 1bbc
00000140: 178c 98bc ac8b 58bd 084f 283d a5d1 11bd
00000150: 7f82 9bbb a4d2 7dbd e59e 1bbc 34e9 433c
00000160: cabd 8ebb e724 0cbd 9352 d33c 1b7e c0bc
00000170: 8d14 48bd 8f5f 85bd 8afe 9dbc 6521 a9bd
00000180: f4c2 963d 1b9a 2ebd 6e68 15bd b223 153c
00000190: d2ba bb3c 775a 14bc 710f 7a3d c9aa 51bd
000001a0: ee35 043d 234c 26b9 d4ac 93bd 8d9e 0dbd
000001b0: 39d4 bb3c f4b4 8d3c dfbe 853d 2c60 773d
000001c0: 6299 45bd ed8e 1abd b926 a2bc 47dc 83bd
000001d0: 5ef8 c9bc 4b38 96bd 8461 0b3d a2f0 813d
000001e0: b414 013c 7892 7ebd edb1 8bbd eec3 12bd
000001f0: 80e1 ca3c 5962 f93a 105c 763c b968 a83d
00000200: 4376 2a3d 95f0 a13c 29ea 8bbc d302 2e3d
00000210: 9dc5 003d 2ab0 a4bd d5b3 55bd 8456 683b
00000220: 97cb 043d 0352 2e3d 3a57 5abd 0eb1 b3bd
00000230: 02f9 a5bb 65dd 2bbc 7e85 cc3c f3b4 cbbc
00000240: 2ef1 8a3d 9357 cd3b 0898 823d e1b5 7fbd
00000250: 3d40 143d 5978 3e3c d5d2 33bd d134 343d
00000260: 9614 b1bd 204f 943d 033c e63b ede9 073c
00000270: cef9 233d d804 d43b 5f5a 193d 4dc9 643d
00000280: 0f7e 8ebd f474 6d3d 3179 52bc b7a0 a4bc
00000290: 84b4 983c 3945 8f3d 787b 46bd 5bc6 75bd
000002a0: e9f5 5c3d 6633 2ebd e84a e63c a650 57bc
000002b0: c2cf be3c baa9 873d 0e7f 35bd 3fb8 2cbd
000002c0: 2c8a 303d f6a3 af3b f70a 2bbc 493b a0bd
000002d0: 1ac4 9b3d 63a4 04bb ae42 84bc 6b98 13bd
000002e0: 318c 92bc a32c 2d3d dc14 ebba f54a 9d3d
000002f0: e0d1 a9bb 88ff 3dbc f45b 4e3d a12e e9ba
00000300: d2a4 95bc 5e1b e93c 7ebf 903d a5bb bf3c
00000310: 0097 7c3d af8a 6b3d c473 d63c d26b 023d
00000320: 658c e33c 6cd1 133c bbda 9c3d 5bfa a83d
00000330: 0581 003d 8234 8fbb ab50 a13d 03e9 8dbd
00000340: 64e2 863d 5d6a 443d e379 6c3d 6325 bcbb
00000350: 8966 86bd 563d 823d 6d58 1dbd 66a0 c03c
00000360: 5fcd 4e3d f3b7 a7bd 2493 a83b ab21 03bd
00000370: 8a9a 823d 750f 61bd 4ceb 5b3d ba27 623d
00000380: 1871 483d 18a2 ae3d c6e1 663c 9a6d a3bd
00000390: 3214 7f3d f18e f03b 30ff db3a 1d64 acbd
000003a0: 0ade a7bc ff3a 32bd 491c af3d f26c 7d3d
000003b0: 1f21 873d 0811 773d ec9e 64bd 4780 19bd
000003c0: 37e4 08bd 493b 0cbd dc6a 8b3d 23db f23c
000003d0: b871 8f3d 8c3d 95bb 47ff 9fbd 0875 cbbc
000003e0: 4984 7e3d 2306 5c3d 85cf d83c 7ca5 d7bc
000003f0: 4895 aabd 9cc8 45bd aa35 403d b183 0dbd
-0.05300907 -0.064959474 -0.0152900675 -0.021365326 0.05404732 -0.005390955 0.028871976 -0.03590675
0.072613195 0.07510423 -0.0797888 -0.023562538 -0.07419963 0.038203392 -0.07793946 -0.04191885
0.08713453 -0.08562446 0.06457695 0.007183418 0.071010716 -0.04451256 0.057735506 0.010231971
0.0075100297 0.061075285 -0.08436842 -0.07156506 0.08453753 -0.05385124 -0.06325747 -0.0039411583
-0.027979866 -0.011760847 -0.05890181 0.03292825 -0.07602268 0.0081435405 0.0509345 0.016121084
0.011697785 0.013140899 -0.026235452 -0.016929794 -0.036648385 -0.058905933 -0.04675206 0.087420546
-0.013933104 0.031417582 0.061344825 -0.007073178 -0.04804599 -0.060377214 -0.032065686 0.032376207
-0.073744975 -0.009823106 0.033517756 0.072132364 0.026868923 0.016964791 0.060610324 0.04165176
0.02903519 -0.028331833 -0.071328 -0.019467833 -0.015606918 0.006775233 -0.009354247 0.036368918
0.05993677 -0.034485303 -0.08367563 -0.045155704 -0.0418848 0.050168954 -0.05747178 -0.00949145
-0.018621488 -0.052867576 0.041090995 -0.035600323 -0.004745781 -0.06196846 -0.009498333 0.011957455
-0.0043561207 -0.03421488 0.02579621 -0.023497632 -0.048847724 -0.06512367 -0.019286413 -0.082583226
0.07361403 -0.042627435 -0.036476545 0.009102749 0.022916231 -0.009054772 0.061049882 -0.051188264
0.032277994 -0.00015859357 -0.07210699 -0.034575034 0.022928344 0.0172982 0.065305464 0.06039445
-0.04824198 -0.03773396 -0.019793855 -0.06438499 -0.024654564 -0.07334956 0.034028545 0.06344725
0.007878471 -0.062151402 -0.06821046 -0.035831384 0.02476573 0.0019026502 0.015036598 0.08223099
0.04161669 0.019768039 -0.01707943 0.042483162 0.03143846 -0.08041413 -0.052173454 0.0035451958
0.03242072 0.04255868 -0.053305842 -0.08774005 -0.0050650844 -0.010489796 0.024965998 -0.024866557
0.067842826 0.006266543 0.06376654 -0.062429313 0.036194075 0.011625373 -0.043902237 0.043995682
-0.086465046 0.072416544 0.007026197 0.008295518 0.040033154 0.006470304 0.0374397 0.055856038
-0.069576375 0.057972863 -0.012846277 -0.020096166 0.018640764 0.06995625 -0.048457593 -0.06000362
0.053945456 -0.042529486 0.02811189 -0.013141787 0.023292426 0.0662417 -0.044310622 -0.0421679
0.04310052 0.005360122 -0.010439626 -0.07823808 0.07605763 -0.0020239584 -0.016145077 -0.03603403
-0.017889114 0.042278897 -0.0017935294 0.076803125 -0.0051824898 -0.011596568 0.050380662 -0.0017790386
-0.018267069 0.028455433 0.07067774 0.023404906 0.061667442 0.057505306 0.026178248 0.031841107
0.027776906 0.009022098 0.07658907 0.082508765 0.031373043 -0.004370273 0.07876714 -0.06929209
0.06586149 0.047953 0.057733428 -0.0057417615 -0.06562526 0.06359355 -0.038414408 0.023513984
0.050488826 -0.081893824 0.0051444937 -0.03201453 0.06377132 -0.05494638 0.053691193 0.055213667
0.04893598 0.08527011 0.0140919145 -0.07979889 0.06227512 0.0073412587 0.0016784426 -0.084175326
-0.020491619 -0.043513294 0.08550317 0.061871476 0.06598114 0.060318977 -0.055815622 -0.03747585
-0.033420768 -0.034236226 0.06807491 0.029645508 0.07004112 -0.004554456 -0.07812362 -0.024836078
0.062137876 0.05371679 0.02646614 -0.026324026 -0.083292544 -0.04828702 0.046926178 -0.03454942

vehicle_encoder.lstm.weight_hh_l0 f4 [512, 128]
00000000: 75ea 8e3d b09b 983b 08e7 cbbb 07a3 8e3d
00000010: d61f 1c3d 48f9 ac3d 5300 943d 68f4 69bd
00000020: 2bbd 5b3d dc46 333d 4463 7dbd 8e3c 2a3d
00000030: 2a6b 38bd 0210 54bd c189 263b f47f 23bc
00000040: 5630 c8bc 23de 69bd 6821 483d 1087 b23d
00000050: 6843 9dbc fc92 77bd 14db 70bb 320c 9fbd
00000060: 90dc 94bd ac00 eabc 5131 603d 5663 8abd
00000070: c5b7 58bc 7fb0 3fbd 5728 a8bd ed9a aabc
00000080: e342 8bbb b514 65bc 812d 863d f451 0d3d
00000090: e1c3 5d3d 0553 0a3d 5b23 253c aa38 473d
000000a0: 54a8 6abd 8615 3c3d d960 293d db0d 16bd
000000b0: e51f 1bbb 46c4 8abd 8110 a0bd 3dab 71ba
000000c0: d0f4 883c 9768 9fbc 9cfe d83c e0f0 89bd
000000d0: 267d 43bd 1969 793d 0e58 aebd f824 553c
000000e0: a62c 8d3d ecef 853d 4f82 ef3c fe12 a3bd
000000f0: 870d 483c d470 f7bc 71dc c6bc 7da1 8c3d
00000100: ddae fdbc ce99 7fbd 9824 93bd 2505 683d
00000110: b805 a83b 227a b43d 10d6 9a3c 72e8 a6bd
00000120: 3366 b93c eccf a33d cb6a 643d 9f51 e13c
00000130: 161d 87bd 1cd9 55bd dca8 793d 138b 75bd
00000140: 7601 ad3c 1ef9 2abc 55e2 f93c 6f2c dc3b
00000150: 40bc 8bbd 0fa8 0cbd aa40 9c3d 0986 203c
00000160: c35c 343d 4ff7 32bd 8911 913d 4b45 a2bc
00000170: 5e9e ecbc 7970 8c3c e919 01bd c032 15bd
00000180: 668c 5bbc 2544 c3bb 1e21 4abd b0a5 fe3c
00000190: ee9a adbd a7a1 5a3d 00cb a93d 3261 5d3c
000001a0: a709 b0bc 9c06 a4bd ea8f 263d 3366 923d
000001b0: 9b95 9c3d 2559 f93b f1aa f73c 14a7 ab3d
000001c0: 3ab0 653c 765a 2bbd 3cae adbd d9a9 1a3d
000001d0: 936f 093d d40b 9f3d f854 35bd 2b08 1f3d
000001e0: 31ef f6bc 3a72 bbbc 6bc1 4f3d c611 a4bd
000001f0: 1d36 873d b3a4 243d 1d9a 5abd 32e1 343d
00000200: 78c1 babc fff5 f83b d987 b7bc ed7b afbd
00000210: 9585 27bc 40a3 333d 498c 1fbc 2341 2dbd
00000220: 2739 133b 0834 763c d56a c1bc 52aa 8ebd
00000230: 9bc2 3dbd 6f40 5fbc 52e0 063d 5946 a33d
00000240: 3501 ac39 bb36 043d 2a1e 503d b143 22bd
00000250: 26f4 e8bc cc96 6b3d 50c2 833d 3c91 a73c
00000260: ce78 8ebd 472c 503d 1a38 98bd f146 373d
00000270: eeba 383c 4ff8 e33c 40dc b1bd e063 01bd
00000280: b955 1e3d 7d7f 8c3d 0781 c6bc 9e20 9f3d
00000290: be24 a7bc f39b 5fbd ffff 17bd c984 d13b
000002a0: a42e 84bc bb06 323d 17ce 4dbd 0159 c5bc
000002b0: c538 b3bd eef2 913d 5a4d 91bc b329 91bd
000002c0: b865 55bb 095c 9cba 1197 be3c c70a 0dbc
000002d0: bc25 693d 74d9 fcbc f18e cfbc 2aa1 b1bc
000002e0: 652c 873c a65b 8f3d 94bf 9dbb 3146 8c3d
000002f0: de37 8f3d df40 3abd 9838 f3bb 4c25 26bd
00000300: 80ca 133d d489 f4bc 2dba d43c 2f54 d63b
00000310: 6faa 69bd 463b 6ebd caeb aebd af0d 48bd
00000320: eb5e cd3c dd6b 983b d772 893d 9ed3 9dbd
00000330: 5268 00bb 0292 9fbd c35b b13a 968f 013d
00000340: 7b8e a0bd 7b23 a23d 4c1a d8bc 3cad a13d
00000350: ac55 80bc e175 523d 095e a33d c9c5 08bd
00000360: 25a1 babc 7f54 423d 947c 99bd 9706 533d
00000370: 9e6b 60bd ed92 a53d 3162 6dbd 8dd4 17bd
00000380: cf08 873d 75e0 1fbd 6c67 9c3d e5a0 7d3d
00000390: 37ff a73d 19b2 b1bd e4e2 073b 4fe6 f3bc
000003a0: 6f8c a73c 612e 87bd c4d6 113d 0c25 a4bb
000003b0: c780 26bd 4347 a2bd 0ed5 3f3d 9619 08bd
000003c0: b795 863d f1fb 8a3c 5a89 d33c 7867 68bc
000003d0: ad52 5dbc bb8a fabc aa54 9cbd c106 683d
000003e0: f6ae 68bd bfb9 4e3d a30f febc 1eb8 653d
000003f0: 933f 9c3d 39bc 61bd 7138 933d 2ee1 c03a
0.06978313 0.0046572313 -0.0062226094 0.06964689 0.0381163 0.08445984 0.07226624 -0.05711785
0.0536472 0.04376875 -0.061862245 0.041561656 -0.045024075 -0.05177308 0.0025411698 -0.009979237
-0.02443711 -0.05709661 0.048859984 0.087171674 -0.01919718 -0.06044291 -0.0036751674 -0.07765998
-0.072686315 -0.028564773 0.05473453 -0.06757228 -0.013227408 -0.04679918 -0.08210819 -0.020825827
-0.004249917 -0.013981988 0.06551648 0.034501985 0.054141883 0.03377058 0.01007923 0.048638023
-0.057289436 0.045918964 0.041352127 -0.036634307 -0.0023670134 -0.067757174 -0.07815648 -0.0009218937
0.016718298 -0.019459052 0.026488595 -0.067353964 -0.047726773 0.060891245 -0.08512889 0.013009302
0.06893282 0.06539902 0.02923694 -0.07962607 0.012210256 -0.030205168 -0.024275037 0.06866739
-0.03096717 -0.06240254 -0.07184714 0.05664553 0.005127635 0.088123575 0.018900901 -0.08149804
0.02263174 0.07998642 0.05576591 0.02750474 -0.065973446 -0.052209005 0.060952052 -0.059947085
0.02111886 -0.010435371 0.030503431 0.006719164 -0.06823015 -0.03433996 0.07629521 0.0097975815
0.044033777 -0.043692883 0.07083423 -0.019808432 -0.02888411 0.017143475 -0.03151885 -0.036425352
-0.013400173 -0.005959051 -0.04934799 0.031084865 -0.08476816 0.05337682 0.08290672 0.013511943
-0.021488978 -0.08009073 0.04066459 0.07148399 0.076457225 0.007609504 0.030232878 0.08381477
0.0140190665 -0.041834317 -0.08480498 0.037759636 0.03355367 0.07765928 -0.044270486 0.03882615
-0.030143352 -0.022881616 0.050721567 -0.080112025 0.06602118 0.040196132 -0.05336963 0.044160075
-0.022797331 0.0075976844 -0.022403644 -0.08568559 -0.0102247195 0.04385686 -0.009738036 -0.042298447
0.0022464485 0.015027054 -0.023610512 -0.0696608 -0.04632817 -0.013626202 0.032928772 0.07972402
0.00032807296 0.032278758 0.050810017 -0.039615337 -0.028436732 0.057516858 0.064335465 0.020454995
-0.069566354 0.050823476 -0.074325755 0.04474539 0.011275036 0.027828364 -0.086845875 -0.03158939
0.03865597 0.06860254 -0.024231447 0.07769893 -0.020403262 -0.054592084 -0.03710937 0.006394003
-0.016135521 0.04346345 -0.05024537 -0.024090292 -0.08751062 0.07126413 -0.01773708 -0.070880316
-0.003256185 -0.0011929284 0.023265393 -0.008608527 0.056920752 -0.030865408 -0.025336714 -0.021683294
0.016500661 0.069999024 -0.0048140977 0.068493254 0.06993078 -0.045472022 -0.007422518 -0.040562913
0.03608179 -0.029850878 0.025967682 0.006540797 -0.057047304 -0.058161996 -0.08541067 -0.048841175
0.025069674 0.00465153 0.06711357 -0.077063784 -0.001959343 -0.07791521 0.0013531375 0.031631075
-0.07839676 0.079169236 -0.026379727 0.0789437 -0.015665852 0.05138195 0.0797692 -0.033391748
-0.022781918 0.047443863 -0.074944645 0.051519956 -0.05479013 0.080846645 -0.05795497 -0.03706794
0.06593477 -0.03903242 0.07636914 0.06192102 0.08202975 -0.086765476 0.0020734603 -0.029772906
0.020452706 -0.06600643 0.035605207 -0.005009299 -0.040650155 -0.07923748 0.046834044 -0.033227526
0.065715246 0.016965838 0.02582233 -0.014184825 -0.013508481 -0.03058373 -0.07633336 0.056647066
-0.05680748 0.05047011 -0.031013316 0.05608379 0.07629313 -0.055111144 0.071885 0.0014715546

vehicle_encoder.lstm.bias_ih_l0 f4 [512]
00000000: 5ced a6bc 9841 a8bd fbc8 2b3d 17c1 13bb
00000010: 9453 093d 4e3d e8bc a7d3 49bd e444 a23d
00000020: 35c2 9c3c ceed ad3c 4f2a 7e3d d68f 253d
00000030: 3835 903c 9bc4 2bbd 7080 db3c 6be4 863d
00000040: 0fa3 973d 0553 0e3a fd4f a7bd defa 53bd
00000050: 7eaa 4a3d d4f6 a43d 6393 633d cdd3 4a3d
00000060: a08e ad3d 1b9a cbbc 664c 803d bcb9 3ebc
00000070: d2b9 853d c5bc 263d ce3a c3bb 7816 22bc
00000080: a96b 1e3d b8e4 acbc e81d 6dbb 10c0 013d
00000090: 4eb7 2dbd 0d76 92bc 9324 433d 9dc3 9c3c
000000a0: e73d 863d 97d9 db3c e777 373d 96dc 353b
000000b0: 50ad d6bc c122 d1bc 9957 3e3d 45f7 0e3c
000000c0: 4d43 b5bc 0210 90bd a14b 35bd 1d20 833d
000000d0: 0283 eb3b 6d42 333d fc8a 91bd e693 a93d
000000e0: 7ffd ee3c bffe 8f3d 2f30 cebc 0006 8e3d
000000f0: aa13 78bd 9a52 703c 30dd 573c a3e3 28bd
00000100: 6329 debb 5def fe3c e5c4 28bd f3bd 223c
00000110: 1243 ba3c fe21 a1bd bcca 04bd eb58 683d
00000120: 7b0d 7fbd e8fb c23a b4bb 823d 56e9 c3bc
00000130: 4865 6f3d 1f32 343d f28f 38bd 8b62 9a3d
00000140: f2d0 8d3d e138 8f3d b3d3 c83c cd05 6a3d
00000150: 2fc4 1fbd b656 4bbb c3be 863d d892 99bd
00000160: d544 7c3c ebc5 9e3d 2eb6 393b 6e81 1ebd
00000170: 0622 86bd 6339 32bd c584 a5bc f9be 183c
00000180: d947 0f3d 4bc3 4abd 1df0 99bd 5d50 a3bb
00000190: 47c9 dcbc e17c 15bd 8b17 79bd e3a2 4d3b
000001a0: f94a 113b cea8 c03c 0407 a43a 0616 2ebd
000001b0: c71d 2abd 6188 653b afae c3bc 1ab4 74bc
000001c0: 6b8a c5bc 10ac c9bc e5ca a13d 2b7b 4c3c
000001d0: 41f6 883d 819f 493d 6984 8f3d 17f7 37bc
000001e0: d1b5 94bd 018d 4bbd b3d5 28bc a796 b73c
000001f0: 8329 b2bc fd46 a7bd 29dd 4abd c32a 973d
00000200: bd10 53bd ce47 6bbd e8e3 743d eb08 2abd
00000210: 1d65 74bb bdd2 a53d d1f7 9e3d 2c48 993d
00000220: f39f 73bd 9d82 0c3c f72b 3dbb be2a 863a
00000230: d656 af3d 69e7 4b3d bc71 9fbd c303 b23d
00000240: d5c8 a83d 2cac 8abd dda5 96bd ebb2 8f3d
00000250: 6d24 e0bc fc46 8fbd 2498 193d bae1 ba3b
00000260: c044 5e3d 7e1f 7dbd ffba a43d 2b51 f1bc
00000270: a390 55bd 4c26 043d 6980 92bd d8d2 8fbd
00000280: ffb5 8bbc b26d e83b ed7f 01bd 37a2 d2bb
00000290: 4611 a8bd 7102 7f3d b19d 07bc 9556 4f3c
000002a0: 2cbf 593d b97b 433d 4cfc 943d 858a 4c3d
000002b0: ffdb ba3c 78e9 5abd f108 813d 764e 8bbc
000002c0: ae45 1c3d 92a3 ad3d 86ea 4ebd f6e4 17bc
000002d0: 59ca 7cbd f606 d2bb 9145 b5bc 554f 79bd
000002e0: 5864 ecbc fb43 063d a721 85bd d954 26bc
000002f0: 7183 843d 3e63 973d 4d63 acbd 6b88 5a3d
00000300: aa24 563c 3e2a eb3c ce5d 5e3d af1d 913d
00000310: f077 35bd d7f2 8f3d cdde 93bb 35b0 663c
00000320: 673f fe3c dffd a0bd 5e8b 1fbd c55f b2bd
00000330: 6b9a 783c f532 3d3d 6606 10bd cad0 bb3c
00000340: e015 81bc 2113 d6bc 039d 7bbd ec96 023d
00000350: ff3f 11bc 87ad 1d3d 702b a83d 1819 8fbd
00000360: e465 b7bb 5406 d1bc 1037 633d 65ba 9e3d
00000370: 86ab 923d d8ef 8dbb 90b6 cf3c 0a97 03bd
00000380: 3221 b2bd b39d b3bd f88b 023d ff97 85bd
00000390: d673 51bd d00f de3c 3fb0 a2bd 9ccf 623d
000003a0: 4f48 803d 06cd acbb 20d4 d13c 1db7 703d
000003b0: cdcc 0b3d 239a adbd 92e8 083d 6cad b4bd
000003c0: 0023 5fbd 74c8 b3bd 905e 45bd 0c5d 16ba
000003d0: 1249 b23b 5d0e 913b dabc 4e3b cef0 98bd
000003e0: 45b4 8f3c 14db d6bc 9f0e 603d c4e3 9a3d
000003f0: dcb9 cbbb 0a64 ea3b 83a5 51bd f49a 193d
-0.020376854 -0.08215636 0.041939717 -0.002254551 0.033526972 -0.028349545 -0.049274113 0.07923296
0.019135574 0.021231558 0.062052067 0.040420376 0.017603502 -0.041935544 0.026794642 0.06586536
0.07404148 0.0005429241 -0.081695534 -0.051752917 0.049479 0.08054891 0.05556048 0.049518395
0.08474469 -0.024853757 0.06264572 -0.011640962 0.06529583 0.04070737 -0.005957938 -0.009893052
0.03867689 -0.021105155 -0.0036181156 0.031677306 -0.04241114 -0.017878557 0.0476423 0.019136244
0.06554776 0.026837153 0.044792082 0.0027749888 -0.026205689 -0.025529267 0.04647026 0.008725946
-0.022126818 -0.07034303 -0.04426158 0.064026095 0.007187248 0.04376452 -0.07106587 0.082801625
0.02917361 0.07031011 -0.02516946 0.06934738 -0.060565628 0.014668131 0.013175294 -0.041232716
-0.006779836 0.031119997 -0.0412034 0.009932983 0.02273706 -0.078678116 -0.032419905 0.056725424
-0.062268715 0.0014876099 0.06383458 -0.023914974 0.0584462 0.04399311 -0.045059152 0.07538327
0.06924619 0.06993271 0.024515009 0.05713444 -0.039005455 -0.0031027026 0.06579354 -0.07498711
0.01539727 0.077525936 0.0028337347 -0.038697653 -0.06549458 -0.04351176 -0.020204911 0.009322875
0.03498063 -0.049502652 -0.07516501 -0.0049839453 -0.026951445 -0.036496047 -0.060813468 0.0031377606
0.0022169931 0.023517992 0.0012514298 -0.042501472 -0.041532304 0.0035023915 -0.023887007 -0.014935518
-0.024113854 -0.024618179 0.07900027 0.012480537 0.06687594 0.04922438 0.07007677 -0.011228344
-0.07261241 -0.04969502 -0.010304856 0.022410704 -0.02174831 -0.08167837 -0.04952732 0.07381203
-0.051529635 -0.057441525 0.05978766 -0.04151241 -0.0037291714 0.08096836 0.07762111 0.07484469
-0.05947871 0.0085760625 -0.0028865316 0.0010236127 0.085614845 0.049781237 -0.07785365 0.08692124
0.08241431 -0.067711204 -0.07355855 0.07016548 -0.02736112 -0.06995961 0.03749861 0.0057031782
0.054264784 -0.06179761 0.08043479 -0.02945765 -0.05213989 0.032263085 -0.071533985 -0.07022637
-0.017054556 0.007093155 -0.03161614 -0.006428029 -0.0820642 0.062258188 -0.008277343 0.01265492
0.05316083 0.047725413 0.07274684 0.04993679 0.02280998 -0.05344531 0.063005336 -0.017005187
0.03815239 0.08478464 -0.050516628 -0.009270897 -0.06171641 -0.006409521 -0.022127898 -0.060866673
-0.028856441 0.032779675 -0.06500559 -0.010152065 0.06470383 0.07391976 -0.084173776 0.053352755
0.013070265 0.028706666 0.054288678 0.0708574 -0.044303834 0.0702874 -0.004512644 0.014080097
0.031036092 -0.07860922 -0.03895127 -0.08709673 0.015173535 0.046191175 -0.035162352 0.022926707
-0.015757501 -0.026132168 -0.061429035 0.03188221 -0.0088653555 0.038495567 0.0821141 -0.06987208
-0.005596863 -0.025515713 0.055472434 0.07750396 0.07161622 -0.00433157 0.025355607 -0.032126464
-0.08697738 -0.08770313 0.031871766 -0.065231316 -0.05113586 0.02710715 -0.079437725 0.055373773
0.06263792 -0.005273464 0.025613844 0.05876838 0.03413086 -0.08476665 0.03342492 -0.0882214
-0.054476738 -0.08778468 -0.048185885 -0.0005735911 0.0054408396 0.004426761 0.003154567 -0.07467805
0.017542014 -0.026227511 0.054701444 0.07562974 -0.0062172245 0.007153039 -0.051183235 0.03750129

vehicle_encoder.lstm.bias_hh_l0 f4 [512]
00000000: e499 8fbd 35e5 023c 94dc ad3d 0de1 b03d
00000010: 0da2 8b3d 45d4 a2bd cd7c 9d3d 95fd 38ba
00000020: f05a a03d fe22 a2bc 30e3 12bd ae02 493d
00000030: 3f6e 813b 6c99 8fbd 9caa b1bb fdf0 e73c
00000040: d5d0 6abc 13d2 55bd e3f5 32bd d6cb 2ebc
00000050: b8a8 d2bc 3c2b b13d ca63 77bd ad77 333d
00000060: 4c2c 86bd bba5 babc cac3 4ebd c7c5 d33b
00000070: dcb1 a3bd fdea 493d 2ffc bbbc 7b93 463d
00000080: 075a 8f3b 9174 5cbd d4c8 a73d 9b9e abbd
00000090: c266 66bd 3268 39bd c6fd 923d bd4f 2dbd
000000a0: 69c0 413d f47a a03d d599 8b3d 0000 db3c
000000b0: 3769 453d b1c2 903d f393 4fbd 460b 863d
000000c0: 8ad0 abbd 1053 3bbd 00de 2fbb a672 d5bc
000000d0: d37c 90bc 616e 3c3d 60f4 bd3b ec00 bd3c
000000e0: 2f0f 053c 745b 05bd 2a75 a93d cc9e 3f3d
000000f0: 583e 26bd cc51 9bbd 7570 a2bc feda 5bbd
00000100: 8b65 5ebd 9f5d 8ebd 652f 973d fc7e 26bd
00000110: c9b8 71ba 40e9 8bbd 6adb a33d bc04 81bd
00000120: 1333 39bc e959 b3bd eb13 503d dbf1 2e3d
00000130: 8f8c 9c3c b4b8 853d 020e aebd 8b5d e93c
00000140: 2fbe c33c b78a 59bd b0a7 783d 79aa 97bd
00000150: c944 ad3d 6dc6 de3c a331 8c3d 91d3 29bd
00000160: c2f7 b23d e0e7 55bd 563d 7abc bbdb 68bd
00000170: ca56 853d c3d5 09bd 8b0a a63d be09 c23b
00000180: 30a7 933d e2ef b73c eac8 f5bc 5437 993d
00000190: 0684 8a3d 36a9 3bbb 03a8 adbc ecdf 633d
000001a0: 15c1 49bd b2cb 063d 9e8c a5bb c981 233d
000001b0: cd19 36bd 89f2 80bd 25ae 8c3d e28f 9cbd
000001c0: b3d1 3a3d a4fe e1bc 0a40 bc3c fd89 adbd
000001d0: a2ab 0abb b508 293d b8b6 c2bc e427 453b
000001e0: 11cf 28bd 66d8 ed3c 5830 393d af47 f73b
000001f0: ef9e 2e3c a513 8ebd 350e 413d 3628 50bd
00000200: 286f 71bd ef77 283b 45f0 28ba 7561 9abd
00000210: ec49 9abd b159 75bd f214 a0bd d134 98bd
00000220: e3e9 533d f631 41bd c1ed ad3d dabf 92bd
00000230: 2472 97bc aee1 53bc 2b55 943d 0364 273d
00000240: 6591 6f3c f2f9 1cbd f633 343d 44c6 8abd
00000250: 9d4b a13c 6094 633d a839 d33c 724a 413d
00000260: e4e8 9fbc 6256 933d 0ace 6c3b 7f33 2d3d
00000270: 1835 d43b 0730 3a3c 24d5 88bd 891e 693d
00000280: 6641 afbd c82e 1dbd 428e 633c 5793 f53c
00000290: 07a8 45bd 506d 09bd 79e1 15bd e6f9 b3bd
000002a0: 44af 9fbd 9405 d83c 42a9 943b 322a b9bc
000002b0: fcc0 203d 09c4 f13c 090f 9bbd a5fe 24bc
000002c0: e420 e83b 64bc 9cbc 2347 8e3d c7aa 68bd
000002d0: 4ce6 263d 98bb 423d 75eb 8bbd ba4d 93bd
000002e0: c568 433d 08bd 32bd 1622 833d 9caa b83b
000002f0: 38c6 06bc b2b3 953d e4a4 b1bc 73a9 d23b
00000300: bd8b 75bd 4807 a5bb e3d6 a13d b788 a43d
00000310: f2ff 1ebd 46b8 1abd 1b99 9f3d ca6d 9c3d
00000320: 29c2 6cbc 92dc 26bc 50e2 78bd 2db9 9dbd
00000330: 28bd a33b 157f 8cbd aac4 163d a61b 8c3d
00000340: 0e02 16bd ea18 60bd 1273 a8bd c4a3 febb
00000350: f1c8 1cbd e94a b43d 48cb 313d a9f4 8c3d
00000360: 7adb 9b3d 9c6d c03b 28da 52bd 6905 83bc
00000370: fd8c 94bd 34ac 49bd ba37 a4bd 10f4 fb3c
00000380: 814b 8cbd 47b7 a63a 7a69 853d 3ba1 3dbc
00000390: 3c3f 8a3d ed3b 7f3c 46ea c9bc bc9d cc3c
000003a0: 0027 a33d 14d8 303d d971 99bd 4e7e adbc
000003b0: fc6a afbc b5a5 28bd b9a1 a6bb c93e a6bd
000003c0: c1ed 873d ddcb 6bbd 7ab6 2d3d 8d18 c73c
000003d0: 51a5 d33c 9a2d 8ebd c24b 81bd 2322 90bd
000003e0: 50d1 503d 2b52 713d c53b 963c 2891 073d
000003f0: 6cce 1a3d 2ef7 003d dd58 4ebd 3c39 bb3c
-0.07011774 0.0079892175 0.084893376 0.08636675 0.06818018 -0.079506435 0.076898195 -0.00070568296
0.07829845 -0.019792076 -0.035861194 0.04907482 0.00394991 -0.07011685 -0.0054219496 0.028313154
-0.014332016 -0.052202296 -0.043691527 -0.010668715 -0.025715217 0.086508244 -0.0603979 0.043815304
-0.06551418 -0.022784105 -0.050479688 0.006462786 -0.07992908 0.049296368 -0.022947399 0.048480492
0.004374746 -0.053822104 0.08192602 -0.08379861 -0.05625034 -0.045265384 0.0717731 -0.042312372
0.047302637 0.078359514 0.068164505 0.026733398 0.048196044 0.070683844 -0.050678205 0.06545119
-0.08389385 -0.04573351 -0.0026835203 -0.026055645 -0.017637646 0.046003703 0.005796954 0.023071729
0.008121296 -0.03255792 0.082743004 0.0467823 -0.0405868 -0.07583961 -0.019829014 -0.053675644
-0.054296058 -0.069514506 0.07382087 -0.040648445 -0.00092209555 -0.06831598 0.08000834 -0.06299731
-0.011303681 -0.087573834 0.050800245 0.04271112 0.019109992 0.0652937 -0.084987655 0.028486988
0.023894398 -0.053110804 0.060706794 -0.07405562 0.08460385 0.027194226 0.06845405 -0.04146153
0.08738662 -0.052223086 -0.015273413 -0.056850176 0.06510694 -0.033651125 0.0810748 0.0059215715
0.07209623 0.022453252 -0.03000303 0.07481256 0.06763463 -0.0028634793 -0.021198278 0.05563347
-0.049256403 0.032909103 -0.0050521633 0.039918695 -0.0444582 -0.0629626 0.06869153 -0.07644631
0.04561014 -0.027587242 0.022979755 -0.08473585 -0.002115943 0.04126807 -0.023768768 0.003008359
-0.0412131 0.02903385 0.04521212 0.007546387 0.01065801 -0.06937341 0.04713269 -0.0508196
-0.058943897 0.0025706252 -0.00064444944 -0.0753812 -0.07533631 -0.05989999 -0.07816495 -0.07431949
0.051736724 -0.047166787 0.084926136 -0.07165499 -0.018487044 -0.012932224 0.07242807 0.040866863
0.014622067 -0.038324304 0.043994866 -0.067760974 0.019689376 0.055561423 0.025784329 0.047190137
-0.01952023 0.071942106 0.003613355 0.04228544 0.006476056 0.01136399 -0.06681278 0.056913886
-0.08557396 -0.038374692 0.013888897 0.029977484 -0.048255946 -0.033551514 -0.03659198 -0.08787899
-0.07797101 0.026369847 0.0045367787 -0.022603128 0.039246544 0.029512422 -0.07571227 -0.010070478
0.007083999 -0.0191328 0.06947162 -0.05680349 0.040746972 0.047542185 -0.06832019 -0.071925595
0.047707338 -0.043637305 0.06402986 0.0056355726 -0.00822597 0.07309665 -0.021685071 0.0064288913
-0.059947718 -0.0050362684 0.079023145 0.08033889 -0.038818307 -0.037773393 0.077928744 0.07638128
-0.014450588 -0.010184424 -0.060762703 -0.07701335 0.0049969144 -0.068601765 0.036808647 0.06841211
-0.036623053 -0.05471126 -0.08225073 -0.007770987 -0.03827757 0.088033505 0.043406755 0.06882603
0.07610221 0.0058724415 -0.05147758 -0.01599379 -0.07253454 -0.04923649 -0.080184415 0.030756027
-0.06850339 0.0012719416 0.06514259 -0.011574085 0.06750342 0.015578252 -0.024647843 0.024977557
0.07966423 0.04317482 -0.07492418 -0.02117839 -0.021413319 -0.041173656 -0.005085197 -0.08117444
0.06637145 -0.057567466 0.04241035 0.024303699 0.025835665 -0.069422916 -0.06313278 -0.07037761
0.050980866 0.058916252 0.018339047 0.033097416 0.037794515 0.03148573 -0.050377715 0.02285444

attention.wq.weight f4 [128, 128]
00000000: 4049 04bd f15d a63d be64 b2bd 9b9e 0f3d
00000010: 3834 57bd 39e8 38bd 86db 3dbd acac 8bbd
00000020: d765 c13c ca36 213c 808e 423d 68dc 19bd
00000030: f9b4 84bc ca1a 94bd 30f4 223d 573d d03b
00000040: 7dc6 29bd 913c be3c 9e68 a3bd aae4 a53d
00000050: 2205 18bd d4c3 733d d4a1 86bd 5b53 9abd
00000060: fc85 3e3b 72d7 be3b 12b2 3c3d 307e 973c
00000070: 7809 a73d 761a f63c cb00 86bc 737f e73c
00000080: 6d57 a8bd eec1 c53c 70f6 143b e6bf 89bd
00000090: 695b 373d 2dd6 d0bc c672 9ebb 9606 493a
000000a0: b7d2 18bc 3bfa 5d3c af10 a73d e8fd ab3b
000000b0: 0ec9 da3b e04c 50bd ba9f 1039 e16d f03c
000000c0: 4d95 643d 66aa a53d a54c 7b3c 6433 243c
000000d0: a05d febc 9c54 6dbd d175 263d 5f6c 663c
000000e0: fb67 29bd a944 3d3d 4843 bc3c f971 333d
000000f0: c395 0d3b dc06 f73c 1b7e 50bd 5272 84bd
00000100: 33d6 d0bc e454 403d 7fd2 debc 2807 713d
00000110: bd08 ff3c cbad 77bd 93c7 7dbd efd5 0f3d
00000120: 1b1c 563c 5464 913c c826 81bc 0d62 303d
00000130: 483e 05bd fd74 143d c844 4e3d 2778 353d
00000140: 2cc8 07bd ff83 1c3d 9b41 7f3c a84e 8cbd
00000150: f3fc 993d 2b31 b2bd 795b 533d ec64 1cbd
00000160: 7c8d 8c3d d02b 943d bd4b 983d 340f 1dbd
00000170: b2c4 18bd d4ad 7f3c 3a15 85bc 1011 b4bd
00000180: af6f eebc 0fd9 91bd ae5e f7bc fc0a b33d
00000190: ff97 a73d a8a3 993d 052f 8a3c c9f9 96bd
000001a0: 17f1 dcbc 57e6 5c3d b68c c43c e7ca 2d3d
000001b0: 6219 0e3c b6b9 c13c a00e b3bd 7ade 59bc
000001c0: 7747 933c 5a17 9c3c 4d66 8a3c 560d dcbc
000001d0: 2a7f 533d f36a e33c 56bf e73c 55cf 713d
000001e0: 8e92 e4ba c385 833d 5729 533b 6f68 aebd
000001f0: 7f26 523d 524d 993d 4667 6d3b b816 a93d
00000200: 04de 47bd de75 a73d 5816 cdbc a51c 7dbd
00000210: d779 32bc ff25 70bd 25af 5abd 160d b3bc
00000220: e43b 3ebd 4573 a6bd 6a8c 09bd 0aa8 0b3c
00000230: aaf0 803d 47f6 943d 7014 6b3c 97b3 60bd
00000240: c1b0 ed3c 8d05 a0bd fa02 bd3c 61ac cabc
00000250: 8c85 9a3a a0db 2a3d dc00 463c 3dc4 083d
00000260: 8264 43bd 9e2e 8c3d fd05 9bbb 9f32 483d
00000270: 71b8 94bd b391 9f3d 2e09 4d3d c1c8 903c
00000280: a393 573d 11b9 9d3c b49c c8bc 6a0a a0bd
00000290: ab9d 00bc 4503 b5bc 3bc1 963d b172 1ebc
000002a0: c742 7dbd d282 26bc c3e8 0ebc e2ab a53d
000002b0: e245 3a3d 8c39 83bc 0e93 9cbd 33b9 a3bd
000002c0: c11c a23d 6a4b be3c 65d9 00bd 6360 90bc
000002d0: e99a b23d 5161 6fbc 85bf b53d c815 013d
000002e0: 343d eeba 4000 943c b982 d3bc 32b9 efbb
000002f0: 5e1c e73c 7fc3 74bd 5bcf 0cbd 8249 50bd
00000300: 19f8 59bd 3d1d a13d 2023 9c3d 7bb3 963d
00000310: e81f 583d db8e aa3c 6715 923c cc07 673c
00000320: 3c64 b03d 764f 9a3d fc56 d4bb 7c0d 8abd
00000330: ff65 0b3d 1d50 293d 279a 6bbb d994 7d3d
00000340: c0ad 283d a028 66bd 10e4 b03d 6d72 90bd
00000350: e7d0 b23b aed2 76bd d4fc 403d 4b8e f5bc
00000360: 6178 c13c e313 23bc 49f7 30bd ed28 843d
00000370: 797d 57bd 1902 923d c684 94bd 635b a9bd
00000380: 6977 a3bd 3bd8 db3c 64a8 5dbb b5b0 c3bc
00000390: 723e 553c 273a 8abd b843 8ebd d42c 6a3c
000003a0: fe29 66bd 61cc 76bd cf7e 0cbc dced 1fbd
000003b0: 9ec3 93bc a86f 1a3d 470e 6a3d 4dd5 a33c
000003c0: 085b 48bd 2bf7 763c bcd2 483d a0d8 27bd
000003d0: 8196 503d 8233 eb3c 117f a8bd d5f0 893c
000003e0: 66bf 6d3c f089 66bd a5b9 febc bb74 273d
000003f0: e8a5 fb3c 058e 9a3d b712 0bbd eb56 ac3d
-0.03229642 0.08123387 -0.08710621 0.035063367 -0.052540034 -0.04514334 -0.046351932 -0.06820044
0.023608131 0.009839723 0.04749918 -0.03756371 -0.016199576 -0.07231672 0.039783657 0.0063549685
-0.04144906 0.02322224 -0.079789385 0.08100255 -0.03711427 0.059512928 -0.06573835 -0.0753543
0.002907156 0.005824023 0.04606826 0.018492788 0.08156103 0.030041914 -0.0163578 0.028259015
-0.082198 0.024140324 0.0022729896 -0.06726055 0.04476491 -0.025492752 -0.0048354594 0.0007668523
-0.009327582 0.013548429 0.08157479 0.005248774 0.0066767996 -0.050854564 0.00013792413 0.02934927
0.055806447 0.080891415 0.015338098 0.010022018 -0.031050503 -0.057942018 0.040639702 0.014063924
-0.04135893 0.046208058 0.022981301 0.043809865 0.0021604158 0.030154638 -0.050901514 -0.06467117
-0.025492763 0.046955958 -0.027199982 0.058844715 0.031132096 -0.060468476 -0.061957907 0.035116132
0.013068224 0.017748035 -0.015765563 0.04306226 -0.0325301 0.03624438 0.050358564 0.04430404
-0.033149883 0.03821182 0.015579606 -0.0685094 0.07518949 -0.08700784 0.051600907 -0.038182184
0.068629235 0.07234919 0.07436321 -0.038344577 -0.03729696 0.015605409 -0.016245473 -0.08792317
-0.02910599 -0.07121479 -0.030196514 0.087423295 0.08183288 0.07501918 0.016868124 -0.073718615
-0.02697043 0.053930607 0.023992877 0.04242983 0.008673044 0.023648124 -0.08743024 -0.013297671
0.017978413 0.019054104 0.016894484 -0.026861828 0.051634945 0.027760958 0.028289478 0.059035618
-0.0017438696 0.064219974 0.0032220685 -0.08516013 0.051306244 0.07485451 0.0036224886 0.082562864
-0.048795715 0.08176778 -0.025035068 -0.061794896 -0.010893307 -0.058629986 -0.053389687 -0.021856826
-0.046443835 -0.08127455 -0.033581175 0.00852395 0.06295903 0.07273536 0.014348134 -0.05485877
0.029014947 -0.07813559 0.023072708 -0.0247404 0.0011789068 0.041713357 0.012085166 0.033390272
-0.047703274 0.06844829 -0.0047309385 0.0488764 -0.07261742 0.07791462 0.050057583 0.017673852
0.05263103 0.019253286 -0.024488784 -0.07814486 -0.007850091 -0.022096286 0.073610745 -0.009670899
-0.061831262 -0.010163026 -0.008722487 0.08089425 0.0454768 -0.016018651 -0.07645236 -0.07994308
0.079156406 0.02322932 -0.031457324 -0.017624086 0.08720953 -0.014610604 0.0887442 0.031514913
-0.0018176199 0.018066525 -0.02581917 -0.007315778 0.028211769 -0.059756752 -0.034377437 -0.050851353
-0.05321512 0.07866905 0.07623887 0.07358452 0.052764803 0.020820072 0.017832471 0.01410098
0.08612868 0.07534687 -0.006480096 -0.06740853 0.034032818 0.041336168 -0.0035950036 0.06190953
0.041181326 -0.056191087 0.086372495 -0.07053075 0.005457032 -0.060259514 0.047116116 -0.029975077
0.023616971 -0.009953472 -0.04320458 0.064531185 -0.052609894 0.07129306 -0.07251887 -0.08269384
-0.0798176 0.026836505 -0.0033822292 -0.023887971 0.013015376 -0.06749373 -0.0694651 0.014292914
-0.05619239 -0.060253505 -0.008575155 -0.0390452 -0.018037613 0.03770414 0.057142522 0.01999917
-0.04891494 0.015073578 0.049029097 -0.040978074 0.05092478 0.028711084 -0.08227361 0.01683847
0.014510965 -0.05628389 -0.031094382 0.040882807 0.030718759 0.07546619 -0.033953395 0.08415016

attention.wq.bias f4 [128]
00000000: a703 393d 8812 98bd d6d7 02bd 6c29 313d
00000010: a2de 57bc 0c42 31bc 31c2 3fbd 057f 3ebd
00000020: f7b6 e0bc d517 f33c c3a6 ff3c 94c0 013d
00000030: 3ee4 1e3d 909d 48bd b13f 92bd 6126 90bd
00000040: 1bd2 18bc 9f31 efbc 0b32 273d 91ce ae3d
00000050: 1a59 60bd f04a 853d 925a 1a3d 3c08 883d
00000060: 4ba3 0a3d 85e2 9ebd a2a7 e9bc 2ea6 6f3d
00000070: 8e68 823c 3f2d a0bb f52b 703d c2a7 af3b
00000080: 0cfc 743d 831f cabc 57bb b33a 2910 54bd
00000090: 30ba 13bc cbe7 0b3c 8d6b 7abd 35d1 ab3d
000000a0: 6712 13bd f708 8b3a f3e5 083d 8502 663c
000000b0: b797 bb3c b6b5 2ebd 8d47 a03d 936a a2bc
000000c0: eec0 49bd fbf8 74bd 9ec2 643b 4b28 18bd
000000d0: 1f15 8b3d 5fb6 7ebc c769 1e3d 05e1 28bd
000000e0: 148a 9bbd 12b8 8abd 8e20 523d 5ec8 25bd
000000f0: 53dd 2d3d f387 d0bc b075 1a3d a645 63bd
00000100: 6de7 5ebd de54 c7bc caa6 fc3c 1439 55bd
00000110: 66e0 cebc 3a77 54bd b400 ec3c 77d3 503d
00000120: 5657 923d 5537 92bc 8b92 663d 060f 3ebd
00000130: ea80 06bd a175 273d 3e2e 02bd a395 9c3c
00000140: 18a9 82bd 7023 1d3d 09eb a8bd 6254 8b3d
00000150: 5b5a f4b9 286c 123d f38e 1c3d 821b d23c
00000160: 7db7 e23c a470 703c 7b69 76bd 338b 3bbd
00000170: 5ed0 4abc 7e22 afbb d684 8fbb fcf5 ae3d
00000180: 5720 68bd e1ad 8b3c 29c4 733d 72a9 d1bc
00000190: 18ba b9bc 9319 813d 7321 62bd fea9 663c
000001a0: 069a 103c 6119 093d db84 86bd c8d0 77bc
000001b0: fde3 c03c bd7d 4abd f580 893d ec2f 94bd
000001c0: 9776 323c 91eb 113d d9f3 573c 50fb 8c3d
000001d0: 75f4 69bc fc06 b0bb 1470 a63d 2749 993d
000001e0: d99d 56bb 9cab 54bd 3580 fdbc 8631 9bbd
000001f0: 0822 a23d 62ff 723d c8b0 7a3d bca7 9cbd
0.0451695 -0.074254096 -0.03194412 0.043252394 -0.013175638 -0.010818969 -0.046816055 -0.046507854
-0.027430994 0.02967445 0.031207448 0.031677797 0.038791887 -0.04897839 -0.071410544 -0.0703857
-0.009327437 -0.029198466 0.04081921 0.08535493 -0.054772474 0.06508434 0.03768403 0.066421956
0.033847135 -0.07758049 -0.028522316 0.05850809 0.015918996 -0.0048882063 0.05863567 0.0053605745
0.059810683 -0.02467323 0.0013712448 -0.051773224 -0.0090165585 0.0085391505 -0.061137725 0.083895124
-0.03590622 0.001060753 0.03342242 0.014038687 0.022899492 -0.04265376 0.07826147 -0.01982621
-0.049256258 -0.05980776 0.003490604 -0.0371478 0.06791138 -0.01554641 0.038675096 -0.04123022
-0.07594696 -0.0677339 0.051300578 -0.04047429 0.0424474 -0.02545545 0.03770989 -0.055486344
-0.054419924 -0.02433246 0.03084125 -0.052056387 -0.025253486 -0.051871516 0.028808929 0.05098292
0.07145564 -0.01784865 0.056292098 -0.046401046 -0.032837786 0.040883664 -0.03178238 0.019114321
-0.06379908 0.038363874 -0.082479544 0.06803204 -0.00046606627 0.035747677 0.038222264 0.025647882
0.027675385 0.014675293 -0.060159188 -0.045787048 -0.01237878 -0.005344688 -0.004379849 0.085430115
-0.056671467 0.017050685 0.059513245 -0.025593493 -0.022671744 0.06303706 -0.05520768 0.014078615
0.008825785 0.03347147 -0.06568309 -0.015125461 0.023546213 -0.04943632 0.0671405 -0.07235703
0.010892532 0.035625044 0.013180696 0.068838716 -0.0142794745 -0.0053719264 0.08126846 0.07484656
-0.0032747893 -0.051921472 -0.030944923 -0.07577805 0.07916647 0.059325583 0.061203748 -0.0764918
