checkpoints/model_epoch_20_policy.pt (torch, 487144 bytes, 13 tensors)

customer_encoder.conv1d.weight f4 [128, 1, 24]
0.15605952 0.1694242 -0.047819756 0.1878996 -0.043868322 0.041012544 -0.09923102 0.11970525
0.17964423 -0.1492855 0.17711243 0.03918302 0.1502408 0.027765252 0.09765223 -0.028454646
0.15752265 0.029594852 -0.09575263 0.052229576 -0.09487493 -0.024014836 -0.082300246 0.1341993
-0.16111639 -0.09411433 -0.057649046 -0.12211469 0.02032578 -0.20178379 0.18441035 -0.17351279
0.15754497 0.034335446 -0.06625663 0.12656888 0.031240944 0.16531758 0.021404885 -0.0638444
0.0550587 -0.05595021 0.08592385 0.18237376 0.11723808 -0.08923008 0.118726596 0.035568357
0.10360467 -0.124428 -0.20204246 -0.07937209 -0.15751311 0.16740744 0.05849322 0.08466888
0.06472293 -0.0041022943 0.15983015 -0.1454857 0.01341734 -0.13973553 0.06392801 -0.07080604
0.06227381 -0.041925494 0.16908853 -0.121084966 -0.120927885 -0.1216757 0.18298 0.06894992
0.19638361 -0.16851549 -0.20244126 -0.15910278 -0.13630192 0.08250687 0.07313079 0.16973111
-0.105486244 -0.13878393 0.10827014 -0.08197557 0.12333787 -0.04803651 0.115863256 -0.1580536
-0.102769546 0.06163298 0.04312415 -0.05188683 0.120911255 0.13872097 -0.14731872 -0.10992057
0.18689457 -0.06887944 -0.0723711 -0.1980506 -0.11785329 0.05080415 -0.027256452 -0.14843999
0.0048903185 -0.13974264 -0.17325607 -0.1127486 -0.17811511 -0.1304012 0.20505142 0.038030967
0.06265082 -0.18990523 -0.134337 -0.068050064 0.032786157 -0.17954704 -0.08879009 -0.121360384
0.0005480392 -0.07596306 -0.01415246 -0.13887532 -0.14111903 -0.11918718 -0.070133716 -0.16120024
0.1712629 -0.040912267 0.17568646 0.06301615 -0.17230284 0.14085531 -0.05523119 -0.078754835
-0.16951655 -0.2023577 0.05821028 -0.044738673 0.080275424 -0.16742772 0.1509019 -0.14890373
-0.03522967 0.042601608 0.105389535 0.16426484 0.18498407 -0.16193098 0.05107841 -0.08764697
-0.022208603 -0.15336987 0.18599221 -0.15037721 0.10965055 0.07132561 0.06728539 -0.11085035
0.18546022 0.045449074 0.026062675 -0.18001145 0.08650052 -0.030526865 -0.09412841 0.1762731
0.045498837 -0.112945445 -0.10332329 -0.009277684 0.11477602 -0.0524638 -0.11623257 -0.06988786
-0.15270157 0.07334867 0.15781969 -0.19163325 0.046782296 0.105986685 0.03592666 -0.07207259
0.10659959 0.10653955 0.076336734 -0.035822455 -0.054760862 0.021660065 -0.035580415 -0.06172451
0.1304708 0.17543308 -0.020170772 -0.046241004 0.002036716 -0.011962291 0.04877688 0.057383474
-0.18519585 -0.07586289 0.17194256 0.07909047 -0.009557897 -0.123433925 -0.12398701 -0.18331851
-0.066588975 0.069575965 0.12997541 0.094109215 -0.17961152 -0.12277772 -0.033147864 0.19841444
0.029522182 -0.05285458 0.08443928 -0.07714697 -0.13103269 0.14880237 -0.092734315 -0.0408424
-0.20312628 0.13699862 0.1545259 0.07520557 -0.14288782 -0.2012341 -0.16656989 0.1526738
0.098032884 0.17119817 0.10676872 0.051877283 -0.00279621 -0.15522023 -0.17412354 -0.19211714
0.08355174 -0.10022755 -0.04107498 -0.11700259 -0.03636483 -0.14336105 -0.1330606 0.06796102
-0.06086441 0.12638688 -0.06564987 -0.14925638 -0.036508657 -0.0985591 -0.06347019 -0.19383018
00000000: 11ce 1f3e 8a7d 2d3e a6de 43bd c168 403e
00000010: 45af 33bd c5fc 273d a239 cbbd 0728 f53d
00000020: a8f4 373e 4cde 18be f65c 353e 607e 203d
00000030: b9d8 193e f473 e33c e4fd c73d b819 e9bc
00000040: 9e4d 213e e770 f23c f419 c4bd aeee 553d
00000050: ca4d c2bd c3ba c4bc 088d a8bd 8b6b 093e
00000060: b2fb 24be 04bf c0bd 6821 6cbd 4417 fabd
00000070: 4082 a63c 69a0 4ebe 11d6 3c3e 56ad 31be
00000080: 7853 213e 53a3 0c3d 8eb1 87bd 469b 013e
00000090: 02ed ff3c 0349 293e 4c59 af3c dac0 82bd
000000a0: 3b85 613d 0c2c 65bd d8f8 af3d 30c0 3a3e
000000b0: 851a f03d 43be b6bd ee26 f33d 20b0 113d
000000c0: af2e d43d 1bd4 febd 38e4 4ebe d68d a2bd
000000d0: 1e4b 21be db6c 2b3e 9696 6f3d e166 ad3d
000000e0: 758d 843d 8a6c 86bb 84aa 233e 34fa 14be
000000f0: 67d4 5b3c d516 0fbe b0ec 823d c202 91bd
00000100: d312 7f3d 11ba 2bbd 8b25 2d3e 65fb f7bd
00000110: 0aa9 f7bd 1c31 f9bd 1c5f 3b3e 9e35 8d3d
00000120: c918 493e 538f 2cbe c34c 4fbe d7eb 22be
00000130: bb92 0bbe 5df9 a83d 98c5 953d fecd 2d3e
00000140: 2c09 d8bd 601d 0ebe bcbc dd3d cfe2 a7bd
00000150: 9198 fc3d eec1 44bd b749 ed3d ced8 21be
00000160: d778 d2bd dd72 7c3d f3a2 303d 4987 54bd
00000170: 52a0 f73d df0c 0e3e b8da 16be 091e e1bd
00000180: 4a61 3f3e aa10 8dbd 4d37 94bd c7cd 4abe
00000190: 115d f1bd 0318 503d ec48 dfbc a700 18be
000001a0: f73e a03b b218 0fbe 0a6a 31be bde8 e6bd
000001b0: cf63 36be e487 05be 00f9 513e 5cc6 1b3d
000001c0: 134f 803d 8476 42be a38f 09be d55d 8bbd
000001d0: c74a 063d 2edb 37be 94d7 b5bd cb8b f8bd
000001e0: 4aaa 0f3a 8592 9bbd b8df 67bc 5535 0ebe
000001f0: 8281 10be 6918 f4bd 44a2 8fbd ad11 25be
00000200: 8b5f 2f3e 9f93 27bd 27e7 333e 9c0e 813d
00000210: 2870 30be 603c 103e 1a3a 62bd 374a a1bd
00000220: bf95 2dbe db36 4fbe e76d 6e3d e63f 37bd
00000230: 7167 a43d 2c72 2bbe 0786 1a3e 387a 18be
00000240: fd4c 10bd 067f 2e3d 78d6 d73d 0b35 283e
00000250: 776c 3d3e 3cd1 25be 9837 513d 4180 b3bd
00000260: d1ee b5bc fe0c 1dbe be74 3e3e 7cfc 19be
00000270: 7890 e03d 2913 923d eccc 893d 8205 e3bd
00000280: 49e9 3d3e cf28 3a3d 6481 d53c ec54 38be
00000290: 2f27 b13d 7a13 fabc 65c6 c0bd ef80 343e
000002a0: fd5c 3a3d f14f e7bd 299b d3bd 6d01 18bc
000002b0: b10f eb3d 48e4 56bd 570b eebd 5e21 8fbd
000002c0: cd5d 1cbe d437 963d 7c9b 213e 823b 44be
000002d0: cb9e 3f3d 8c0f d93d d527 133d cb9a 93bd
000002e0: e350 da3d 6831 da3d 6f56 9c3d 91ba 12bd
000002f0: ed4c 60bd 7370 b13c c5bc 11bd d7d2 7cbd
00000300: 239a 053e bba4 333e 2d3d a5bc 3567 3dbd
00000310: 6d7a 053b 7cfd 43bc 44ca 473d ef0a 6b3d
00000320: fba3 3dbe 015e 9bbd b611 303e 2ffa a13d
00000330: ba98 1cbc edca fcbd e7ec fdbd d9b7 3bbe
00000340: cd5f 88bd d87d 8e3d 4618 053e 55bc c03d
00000350: 15ec 37be e372 fbbd 0ec6 07bd 282d 4b3e
00000360: 81d8 f13c 0b7e 58bd 80ee ac3d 3bff 9dbd
00000370: 6f2d 06be a65f 183e 7deb bdbd 5c4a 27bd
00000380: 5600 50be 5e49 0c3e 0a3c 1e3e 6105 9a3d
00000390: 2f51 12be 5010 4ebe 4c91 2abe 8556 1c3e
000003a0: 77c5 c83d 934e 2f3e 8fa9 da3d 467d 543d
000003b0: 9f40 37bb 0df2 1ebe 714d 32be 5bba 44be
000003c0: 2d1d ab3d 1a44 cdbd 3d3e 28bd 0e9f efbd
000003d0: 4af3 14bd 3dcd 12be 0a41 08be 262f 8b3d
000003e0: f64c 79bd 906b 013e 7073 86bd aad6 18be
000003f0: 1a8a 15bd 5ad9 c9bd a9fc 81bd 6b7b 46be

customer_encoder.conv1d.bias f4 [128]
-0.051347654 0.018360356 -0.054663945 -0.19984098 -0.021124717 0.0996538 -0.023771767 -0.10051533
0.006447474 0.03720426 -0.05697937 -0.15826872 -0.10947497 -0.033391472 0.07350116 0.1815136
0.0038065496 0.07305141 0.11744765 -0.08902855 -0.067757525 0.13540256 0.14615643 0.048388314
-0.15771672 0.11583953 -0.1687152 0.102023795 0.024098448 0.06594299 -0.19897388 -0.071787424
0.08676646 0.15712026 -0.058457524 0.18204267 -0.045532737 -0.123164065 -0.0884006 0.012642908
-0.03633301 0.09880721 -0.112950936 -0.058089696 -0.2022777 0.16659318 -0.03848151 -0.16090466
-0.009848615 -0.00036760146 0.05666204 -0.022408392 0.12842144 -0.07041309 -0.061090533 -0.0484803
0.03650223 0.1635235 -0.009417055 0.15706623 0.1603103 -0.10630039 -0.017553749 -0.09636339
0.08492358 -0.07181218 0.062274586 0.012193889 -0.13407192 -0.13723996 -0.1993678 -0.11415982
0.0570141 0.012438405 0.15353876 -0.1795381 -0.005977145 -0.18302935 0.0012117128 0.07436724
-0.1831108 0.18020925 -0.06341568 0.18082653 -0.03424399 0.11578734 0.18557274 -0.07435459
-0.04960337 0.10707631 -0.17474626 0.12080496 -0.12820537 0.18966106 -0.13373089 -0.08404393
0.15228611 -0.08884526 0.17499854 0.14044623 0.18658535 -0.19783781 0.002277072 -0.06716704
0.04863007 -0.15412693 0.08370839 -0.009671631 -0.09651054 -0.18361396 0.10677486 -0.07388845
0.15061226 0.036336932 0.062065594 -0.030975033 -0.028262183 -0.06934992 -0.1767138 0.12836437
-0.12855706 0.118972436 -0.068835326 0.12786701 0.17493312 -0.124841616 0.16853878 0.004976159
00000000: eb51 52bd 7568 963c 4de7 5fbd 1da3 4cbe
00000010: be0d adbc 4b17 cc3d 02bd c2bc fbda cdbd
00000020: 5545 d33b 7e63 183d 3363 69bd 3211 22be
00000030: 6a34 e0bd 7fc5 08bd c787 963d b3de 393e
00000040: 4e77 793b fa9b 953d 6588 f03d 9a54 b6bd
00000050: 75c4 8abd f8a6 0a3e 08aa 153e d332 463d
00000060: 7e80 21be 473d ed3d adc3 2cbe daf1 d03d
00000070: 1c6a c53c 1e0d 873d cfbf 4bbe 4905 93bd
00000080: 9db2 b13d 22e4 203e 2871 6fbd 6569 3a3e
00000090: 8980 3abd 713d fcbd 600b b5bd 3324 4f3c
000000a0: ecd1 14bd 6f5b ca3d d252 e7bd 76ef 6dbd
000000b0: e321 4fbe 6797 2a3e ca9e 1dbd 31c4 24be
000000c0: 165c 21bc a2ba c0b9 7516 683d ce91 b7bc
000000d0: e980 033e bd34 90bd 113a 7abd 4793 46bd
000000e0: 5d83 153d b472 273e fe49 1abc f8d5 203e
000000f0: 6228 243e 05b4 d9bd e1cc 8fbc 2b5a c5bd
00000100: 6aec ad3d 4412 93bd a313 7f3d e1c8 473c
00000110: 264a 09be a288 0cbe 1327 4cbe a0cc e9bd
00000120: 9e87 693d 74ca 4b3c 4439 1d3e d6d8 37be
00000130: eddb c3bb 0c6c 3bbe 56d2 9e3a da4d 983d
00000140: 6681 3bbe c688 383e 14e0 81bd 972a 393e
00000150: 6d43 0cbd ea21 ed3d c806 3e3e 3847 98bd
00000160: e72c 4bbd d34a db3d aff0 32be 9768 f73d
00000170: 4548 03be 8236 423e c0f0 08be 391f acbd
00000180: e4f0 1b3e 81f4 b5bd d132 333e 23d1 0f3e
00000190: 3b10 3f3e ff95 4abe ee3a 153b e08e 89bd
000001a0: 5330 473d 73d3 1dbe 4e6f ab3d c375 1ebc
000001b0: 51a7 c5bd 4c05 3cbe c7ac da3d d452 97bd
000001c0: 1a3a 1a3e 09d6 143d 7e38 7e3d 5abf fdbc
000001d0: 1886 e7bc 5507 8ebd 76f4 34be f371 033e
000001e0: 76a4 03be d2a7 f33d 89f9 8cbd 92ef 023e
000001f0: ab21 333e f6ac ffbd 6e95 2c3e 0c0f a33b

vehicle_encoder.lstm.weight_ih_l0 f4 [512, 2]
-0.06768465 0.036039244 0.049478076 0.07715753 -0.08527805 0.07906024 0.06837391 0.08830162
0.047582142 -0.04350562 0.06691971 0.08060546 -0.033237576 -0.013924361 0.068634905 0.07081931
0.057751346 0.06726265 -0.04533485 -0.015334625 -0.035182353 0.04612708 0.021486994 -0.068824254
-0.01017865 -0.0710746 -0.083934344 0.07981481 -0.043861493 0.039844662 -0.019513642 -0.017877908
-0.0003566657 0.06881454 -0.012372254 0.07317391 0.050657164 0.05955918 -0.08003085 -0.04130425
-0.07227556 -0.019003576 -0.017879363 0.018445477 0.08061861 0.04071874 -0.06043412 -0.054298665
0.06618079 0.008246979 0.025954343 -0.04505067 -0.010393289 0.025504928 -0.05894627 0.056733448
0.044082683 -0.05147215 -0.036068317 -0.0208278 0.013542557 -0.03300112 0.0846388 -0.08475313
-0.049016416 -0.05252723 0.022975678 0.011617854 -0.024393732 0.07599706 -0.075676754 0.03179654
-0.04879722 -0.020173613 -0.08596148 -0.06681323 -0.074351035 0.039058544 -0.033590738 0.045996048
-0.046684973 -0.020738192 0.00980229 0.073222995 -0.023722531 0.051312655 0.02289146 0.05230044
0.05690017 0.036876015 -0.02747474 -0.025625357 0.034607492 0.048326883 -0.00485034 0.044226028
-0.05185747 0.051279906 -0.010957846 -0.061040953 -0.042259146 -0.067015275 0.017706066 -0.052555513
-0.02480435 -0.005093681 -0.05317756 0.0031466715 -0.010904204 0.028411519 0.065018184 -0.05225757
0.048675604 -0.0012795322 -0.051338784 -0.04103632 0.021889726 0.017828995 -0.0035188894 -0.044552546
0.04538402 0.0138004795 -0.08562228 -0.015544519 -0.024585327 -0.038345944 -0.0482463 -0.071193315
0.086569615 -0.08130623 0.08134062 -0.07035677 -0.022710187 -0.037484188 -0.04701158 0.03154852
0.0499436 -0.059382673 -0.04064564 0.04557141 -0.009558748 0.02263683 0.046259016 -0.03242265
-0.049691003 0.032106668 -0.032265935 -0.05888604 -0.04531687 -0.040860668 0.089066155 0.01802398
0.036974702 0.010517808 -0.059656095 0.06357638 -0.01406671 -0.02285229 0.07181184 -0.045382097
0.019250967 -0.074161716 0.04494336 0.03468761 -0.07238791 0.049684733 0.0099398475 -0.04546097
0.075571746 0.038229357 0.030593809 -0.033254813 -0.04799594 -0.046961095 0.033671398 0.024275802
-0.052768815 0.08043136 0.052452732 -0.033620264 0.04591787 -0.037362345 0.027330937 0.073057644
-0.077962436 -0.043824732 -0.0051107476 0.012957004 -0.073762685 -0.059190985 -0.008789479 -0.013464023
0.018396387 0.010625331 0.018163294 0.0059040557 0.009171623 -0.0050759143 0.032428697 0.060913663
-0.044218216 -0.04588836 0.037727274 -0.064934276 0.058237337 0.041661493 0.012867357 -0.038371556
0.0036538024 -0.06879495 -0.07917892 0.08347972 -0.08054458 -0.074601665 -0.033741087 0.005657257
0.020337233 -0.04327631 -0.007649786 -0.019445928 0.07393959 0.07685491 0.03580482 -0.0010813319
0.066148594 -0.07150472 0.037208777 -0.051286638 0.06870293 -0.07838661 0.033175748 -0.07251651
0.050724264 0.015221173 0.075170085 -0.06716876 0.056840032 -0.05897248 -0.046627954 0.034759726
-0.013700032 -0.06858198 -0.07557043 -0.023340132 0.024713015 0.07780504 0.064510055 0.00090400013
-0.05404051 -0.078716315 0.07833154 -0.049842708 -0.014210185 -0.07008611 -0.060082387 0.018349461
00000000: 409e 8abd e39d 133d 86a9 4a3d c404 9e3d
00000010: 42a6 aebd 56ea a13d 9f07 8c3d 7bd7 b43d
00000020: 7ee5 423d f332 32bd 330d 893d 7a14 a53d
00000030: 2024 08bd 0123 64bc 7590 8c3d b709 913d
00000040: ad8c 6c3d 00c1 893d 09b1 39bd 143e 7bbc
00000050: 5f1b 10bd c0ef 3c3d 7e05 b03c bbf3 8cbd
00000060: 5ac4 26bc 8f8f 91bd c5e5 abbd f275 a33d
00000070: 1ca8 33bd 2834 233d 13db 9fbc b174 92bc
00000080: dcfe bab9 a3ee 8c3d ffb4 4abc 34dc 953d
00000090: e37d 4f3d 54f4 733d 37e7 a3bd a52e 29bd
000000a0: 3505 94bd 63ad 9bbc be77 92bc f81a 973c
000000b0: 5f1b a53d b2c8 263d c589 77bd 4768 5ebd
000000c0: cb89 873d 561e 073c 349e d43c 0d87 38bd
000000d0: 9d48 2abc b6ef d03c a571 71bd 5561 683d
000000e0: 0b90 343d 76d4 52bd 5fbc 13bd 109f aabc
000000f0: 9ae1 5d3c 2f2c 07bd 1b57 ad3d 0d93 adbd
00000100: 70c5 48bd cb26 57bd 7d37 bc3c d058 3e3c
00000110: 5dd5 c7bc 59a4 9b3d 6afc 9abd 173d 023d
00000120: 98df 47bd 2243 a5bc 930c b0bd 60d5 88bd
00000130: 5b45 98bd dafb 1f3d 7196 09bd 5a66 3c3d
00000140: be38 3fbd 24e3 a9bc c999 203c f0f5 953d
00000150: c155 c2bc 382d 523d df86 bb3c fc38 563d
00000160: 2710 693d 4e0b 173d b512 e1bc 45ec d1bc
00000170: 96c0 0d3d 69f2 453d 9aef 9ebb 5a26 353d
00000180: 8068 54bd e10a 523d 8a88 33bc 1406 7abd
00000190: ed17 2dbd 4e3f 89bd 500c 913c 7344 57bd
000001a0: 7e32 cbbc e5e8 a6bb b7d0 59bd 6338 4e3b
000001b0: 8ca7 32bc 46bf e83c 4128 853d 090c 56bd
000001c0: 1260 473d fab5 a7ba 9e48 52bd b315 28bd
000001d0: 1552 b33c 1d0e 923c 2b9d 66bb bb7c 36bd
000001e0: 98e4 393d 681b 623c bc5a afbd 70ae 7ebc
000001f0: 2b67 c9bc a310 1dbd ea9d 45bd cdcd 91bd
00000200: 694b b13d e183 a6bd e995 a63d 3617 90bd
00000210: b70a babc 0589 19bd 378f 40bd 0539 013d
00000220: a991 4c3d 3f3b 73bd 0b7c 26bd 16a9 3a3d
00000230: 4c9c 1cbc e070 b93c 187a 3d3d 9dcd 04bd
00000240: cb88 4bbd 4882 033d 4929 04bd 7d32 71bd
00000250: 2f9e 39bd 845d 27bd 5168 b63d 07a7 933c
00000260: c972 173d e252 2c3c f359 74bd 5534 823d
00000270: 0f78 66bc ba34 bbbc 1612 933d 94e2 39bd
00000280: 34b4 9d3c 19e2 97bd 8716 383d 9814 0e3d
00000290: 1d40 94bd 3882 4b3d beda 223c 4835 3abd
000002a0: 5cc5 9a3d 6396 1c3d de9f fa3c 3336 08bd
000002b0: 6497 44bd 475a 40bd 05eb 093d 0cde c63c
000002c0: 1d24 58bd 32b9 a43d add8 563d 67b5 09bd
000002d0: 6014 3c3d 4209 19bd 21e5 df3c 3f9f 953d
000002e0: c5aa 9fbd 9081 33bd 0f78 a7bb 9d49 543c
000002f0: e410 97bd 3f72 72bd bf01 10bc 3598 5cbc
00000300: 05b4 963c de15 2e3c 30cb 943c cf76 c13b
00000310: 9344 163c db53 a6bb f4d3 043d 9b80 793d
00000320: 291e 35bd 6ff5 3bbd ea87 1a3d 43fc 84bd
00000330: 468a 6e3d 3ea5 2a3d 9bd1 523c 7e2b 1dbd
00000340: a274 6f3b 5ee4 8cbd 8f28 a2bd 6af7 aa3d
00000350: 8ff4 a4bd c2c8 98bd 1834 0abd 8360 b93b
00000360: 459a a63c 8042 31bd 0eab fabb 114d 9fbc
00000370: a46d 973d 1b66 9d3d 13a8 123d 7abb 8dba
00000380: ea78 873d 1171 92bd 3b68 183d f011 52bd
00000390: 1fb4 8c3d 2989 a0bd 4be3 073d 8983 94bd
000003a0: 3fc4 4f3d 3a62 793c c6f2 993d c68f 89bd
000003b0: 18d1 683d 218d 71bd f4fc 3ebd 3760 0e3d
000003c0: 1976 60bc b674 8cbd abc4 9abd ce33 bfbc
000003d0: f372 ca3c 4058 9f3d d91d 843d 6cfa 6c3a
000003e0: 9559 5dbd 0536 a1bd 496c a03d de27 4cbd
000003f0: d6d1 68bc 4e89 8fbd f318 76bd 9c51 963c

vehicle_encoder.lstm.weight_hh_l0 f4 [512, 128]
-0.060406942 -0.06945044 0.0638511 0.009907374 0.0001342978 -0.08516842 0.07719817 -0.058183115
0.039151125 -0.010282277 0.002625469 0.04310691 -0.023159066 -0.024451777 0.07012741 -0.06729942
0.0396538 -0.023092553 -0.029375486 0.059494108 0.014583603 -0.08256514 0.07876037 -0.043494463
0.07647303 -0.027425135 0.0865185 0.02645343 -0.0039611836 0.03341873 -0.0026992182 -0.04411165
0.048642177 0.05759877 -0.011294502 0.08351601 0.00592507 -0.047001485 -0.048496064 0.059793394
-0.035377845 0.05553865 -0.08559625 0.0033004142 -0.060751468 0.031430166 0.07210293 0.034441814
-0.030112537 -0.08268338 -0.042155813 -0.05243666 0.08471161 -0.04791137 0.033949945 0.07078336
0.031545725 -0.0777962 -0.009704333 -0.025974806 0.057243664 -0.0077351937 -0.0049640895 0.07887427
0.020799315 0.041213844 -0.028331494 0.057578098 0.012505883 -0.017563095 0.017232263 -0.06983448
0.003009096 0.04078814 -0.08266716 -0.04667445 0.055190377 0.0018131043 -0.0033185433 0.008754489
-0.039953887 0.07287089 -0.008635947 -0.031884387 0.04680336 -0.073409356 -0.01604205 0.008578301
-0.027093219 0.048576448 -0.075218156 -0.02516034 -0.03735881 0.081586264 0.03548916 -0.065319985
0.033917557 -0.0021901797 0.08043268 0.04911151 -0.051603228 0.079056814 -0.0155526325 -0.020438056
0.026109295 0.088035434 0.027074985 -0.08558171 -0.028468296 0.08129277 -0.031466622 -0.042270735
-0.07014044 -0.04846704 -0.04861713 0.021415625 0.035568856 0.08461307 0.058490284 0.0015914631
0.047473803 0.050676398 -0.076507114 0.044290107 -0.060249597 0.06862894 -0.03883822 0.018371258
-0.0005153836 0.040438313 0.01315403 -0.06499523 0.035416953 0.051638596 -0.045502987 -0.057973247
-0.059474263 -0.04367489 -0.010369647 0.007315817 -0.0011713578 -0.023997817 0.055462345 0.004135529
-0.052032094 -0.022642938 -0.052865945 -0.031872567 -0.08268015 0.016187211 -0.06766599 0.033604465
0.060677752 -0.06630858 -0.047262765 -0.070568465 0.022838939 0.017761819 -0.04668761 0.054049466
0.03599053 -0.08058221 -0.0041042664 -0.038706534 -0.016018786 0.050040953 -0.008842997 -0.06211907
0.06148255 -0.08013502 -0.03124733 0.033283748 0.077648506 0.086004406 -0.021301504 0.030092873
-0.07828133 -0.017749712 -0.026850536 0.025724793 -0.0586165 0.019709501 0.04635642 0.06963884
-0.014437406 0.08148022 -0.08401937 -0.025768591 0.032784652 0.022117209 0.042343687 -0.059460543
0.05521783 -0.08337628 -0.061232205 -0.005089149 -0.08528505 -0.084950075 -0.07915922 0.0717167
0.020192651 -0.028948026 -0.004558142 -0.07768866 -0.08270157 -0.06068066 -0.08483826 0.05882354
-0.030147754 -0.023116611 -0.07697564 0.013909107 -0.014033696 -0.060832262 0.056033365 0.07502472
-0.06367533 0.049671803 -0.015090221 -0.0012707022 0.038530447 -0.01548898 0.07417546 0.05374938
-0.056847904 -0.053213097 -0.08685001 0.027724665 -0.0673076 -0.07472367 -0.05749994 -0.086698756
-0.07154038 0.07805875 0.0486819 0.07868869 -0.042565227 -0.036428932 -0.030400757 0.0011414627
-0.06387402 0.012365548 -0.056018148 0.013237047 0.08028645 0.014230889 0.06456477 -0.063724965
-0.011557508 -0.0555641 -0.0090978285 -0.03450918 -0.050518252 -0.08600638 -0.03199475 0.011767773
00000000: 456d 77bd 083c 8ebd 5ec4 823d 8a52 223c
00000010: 4bd2 0c39 c86c aebd 131a 9e3d 6b51 6ebd
00000020: ee5c 203d ff76 28bc 0f10 2c3b df90 303d
00000030: 15b8 bdbc 184f c8bc f69e 8f3d 47d4 89bd
00000040: 066c 223d 982c bdbc dca4 f0bc 18b0 733d
00000050: 10f0 6e3c ea17 a9bd 1e4d a13d 4027 32bd
00000060: e49d 9c3d adaa e0bc 9c30 b13d ddb4 d83c
00000070: d1cc 81bb 14e2 083d 5ee5 30bb 6bae 34bd
00000080: 053d 473d b0ec 6b3d 930c 39bc 710a ab3d
00000090: 1727 c23b a184 40bd cfa3 46bd ebe9 743d
000000a0: 5ce8 10bd 7f7c 633d 164d afbd c34b 583b
000000b0: 88d6 78bd ebbc 003d b3aa 933d dc12 0d3d
000000c0: 91ae f6bc e755 a9bd 93ab 2cbd d3c7 56bd
000000d0: 487d ad3d b63e 44bd 190f 0b3d def6 903d
000000e0: 1736 013d 9d53 9fbd ecfe 1ebc 1ec9 d4bc
000000f0: 5578 6a3d 8277 fdbb cda9 a2bb d588 a13d
00000100: 5363 aa3c d9cf 283d 7317 e8bc 03d7 6b3d
00000110: 7ae5 4c3c 7be0 8fbc ad2a 8d3c 6105 8fbd
00000120: 4134 453b 7711 273d 664d a9bd b52d 3fbd
00000130: 4e0f 623d afa5 ed3a eb7b 59bb fd6e 0f3c
00000140: b0a6 23bd 553d 953d c97d 0dbc 3499 02bd
00000150: e1b4 3f3d a557 96bd 9e6a 83bc 018c 0c3c
00000160: 99f2 ddbc 19f8 463d fa0b 9abd 0f1d cebc
00000170: 8d05 19bd b316 a73d 155d 113d 7cc6 85bd
00000180: 23ed 0a3d 1e89 0fbb e4b9 a43d 2729 493d
00000190: e85d 53bd 8ae8 a13d 78d0 7ebc b66d a7bc
000001a0: 29e3 d53c ec4b b43d 5ccc dd3c 7745 afbd
000001b0: 5836 e9bc d37c a63d 25e3 00bd 1424 2dbd
000001c0: caa5 8fbd 6085 46bd c122 47bd d26f af3c
000001d0: a6b0 113d 9e49 ad3d 8293 6f3d a498 d03a
000001e0: e473 423d 0e92 4f3d c3af 9cbd 8b69 353d
000001f0: 48c8 76bd 548d 8c3d d314 1fbd 527f 963c
00000200: cf1a 07ba a5a2 253d 0084 573c 381c 85bd
00000210: 5e11 113d fe82 533d 5761 3abd 5b75 6dbd
00000220: 499b 73bd 71e4 32bd 74e5 29bc 85b9 ef3b
00000230: 3f88 99ba 1297 c4bc 7c2c 633d 5583 873b
00000240: 9b1f 55bd af7d b9bc f689 58bd cf8c 02bd
00000250: 3654 a9bd 0b9b 843c 7794 8abd d6a4 093d
00000260: 3c89 783d cbcc 87bd 9a96 41bd 3386 90bd
00000270: ba18 bb3c 3c81 913c 823b 3fbd f962 5d3d
00000280: ce6a 133d 4908 a5bd 157d 86bb be8a 1ebd
00000290: d439 83bc bef7 4c3d 38e2 10bc 9170 7ebd
000002a0: 20d5 7b3d d41d a4bd 67fa ffbc 8a54 083d
000002b0: 2e06 9f3d 1423 b03d 7e80 aebc 5485 f63c
000002c0: f651 a0bd d867 91bc a8f5 dbbc cdbc d23c
000002d0: db17 70bd d275 a13c 3be0 3d3d cf9e 8e3d
000002e0: df8a 6cbc 1adf a63d 5912 acbd a718 d3bc
000002f0: 3349 063d 262f b53c 9370 2d3d e68c 73bd
00000300: 172c 623d 2fc1 aabd 9fce 7abd e0c2 a6bb
00000310: eea9 aebd 4efa adbd 3b1e a2bd 35e0 923d
00000320: 0f6b a53c 6924 edbc 775c 95bb 3b1b 9fbd
00000330: 715f a9bd 498c 78bd afbf adbd f4f0 703d
00000340: 6cf8 f6bc 0c5f bdbc 68a5 9dbd 06e3 633c
00000350: 96ed 65bc 402b 79bd 3e83 653d 8fa6 993d
00000360: 3668 82bd a974 4b3d f93c 77bc b18d a6ba
00000370: 1ad2 1d3d 7ec5 7dbc 4ee9 973d 4f28 5c3d
00000380: 59d9 68bd faf5 59bd 6bde b1bd d61e e33c
00000390: 91d8 89bd b908 99bd 0f85 6bbd 1e8f b1bd
000003a0: c383 92bd 44dd 9f3d ac66 473d 8927 a13d
000003b0: e058 2ebd 8136 15bd 020b f9bc 229d 953a
000003c0: 62d0 82bd de98 4a3c 4973 65bd 33e0 583c
000003d0: 396d a43d ad28 693c 893a 843d 3c82 82bd
000003e0: b45b 3dbc 2f97 63bd 0f0f 15bc 7f59 0dbd
000003f0: 3aec 4ebd 1d24 b0bd ed0c 03bd 9ecd 403c

vehicle_encoder.lstm.bias_ih_l0 f4 [512]
0.042441495 0.03604995 0.00060886575 -0.031972624 -0.07682583 0.04527648 0.060860943 0.023354845
0.032740235 0.086806744 -0.071136825 -0.058478113 -0.009511271 0.036540307 0.0789247 0.088167116
0.01419509 0.044094868 0.07807215 0.04845307 -0.0057327882 -0.033931084 -0.022303363 0.08333412
-0.084816344 0.01459194 0.0145597905 -0.019175254 -0.05612201 -0.06877335 -0.0023284254 -0.05565625
0.03740262 -0.06680038 -0.020975163 -0.010913194 0.03587297 0.064012185 0.08101848 0.0062063015
-0.086660154 -0.02485361 0.012802453 0.030215848 0.07862787 -0.08460324 -0.026129317 0.056823894
0.04961965 -0.0327318 0.025606174 0.057076238 -0.00017739553 -0.007832305 0.009924075 -0.03590497
-0.087242916 0.043233357 0.025493652 -0.061365433 0.015353426 -0.028925085 0.07726692 -0.04293
0.078435935 0.03595207 0.008970213 0.0245119 0.01187731 0.049051598 -0.039291456 -0.024157729
-0.042581934 0.016607465 -0.047197912 0.047968093 -0.018696345 0.08591847 0.033327967 -0.08290114
0.014821977 0.033855572 -0.056966733 0.0131582655 0.031221014 -0.08413953 -0.077565186 -0.004020993
0.032771174 -0.04805338 -0.047215536 -0.045415018 0.019587444 -0.0320918 -0.03951838 0.006912183
-0.010958968 -0.012651296 0.05616354 -0.07006507 -0.009384398 -0.010611992 0.034449715 -0.049822118
0.013820555 -0.08213541 0.06905569 0.017318364 -0.01090838 -0.076004095 0.06557665 0.05995169
0.0614539 -0.058040928 -0.0009405657 -0.05371861 -0.053177822 -0.06805623 0.056155767 -0.017089672
0.04662848 -0.017054165 -0.0069358665 -0.0013736683 -0.06739229 -0.08042645 0.036363672 -0.0015607306
-0.0017881138 0.0033744888 0.0056818966 0.05353214 -0.017215548 -0.023297913 -0.07316338 0.013437311
0.055397812 -0.046929587 -0.033391286 -0.044924494 0.085917 -0.082105756 0.048385732 -0.04968915
-0.07076851 0.07721707 0.01716448 0.040916305 -0.026328275 -0.07791712 0.015172498 0.035154916
0.076260276 -0.04731488 0.08601309 0.085947275 -0.0522989 -0.03016512 0.077377744 0.033228982
-0.0737339 -0.07917688 -0.08447443 -0.047005348 0.0358797 -0.04445264 0.08655261 -0.012214281
0.055179168 -0.053465392 0.07940321 0.023495639 0.065829456 0.039875697 -0.072040714 0.058982924
-0.024110518 -0.05580629 0.058177516 -0.07225518 0.02792824 -0.075796045 -0.07004453 0.04164049
0.023011012 0.07888412 0.06646655 -0.072675325 0.07408326 0.08206235 0.002193646 0.04835536
0.06286753 -0.07111967 0.050311614 0.05594218 -0.085723534 0.025570221 0.04329574 0.028071241
-0.024548013 0.01534458 0.059369948 0.037610903 -0.06417385 -0.026053311 0.087935664 0.053809218
-0.04320288 -0.07119456 0.062136337 0.08243124 -0.054324806 -0.06887522 -0.016760375 -0.010116208
0.021224707 0.047532592 -0.029524004 0.05675116 -0.0631018 0.048588615 0.011975715 -0.03998462
0.011501009 0.020090483 0.041882306 -0.030746965 0.00901535 -0.051393025 -0.05108236 -0.064810686
0.031393606 -0.010169705 0.01586072 -0.040765733 0.0338236 -0.07540891 0.017866936 -0.06739975
-0.087036856 -0.070719 0.080600366 0.07959898 0.04174124 0.021896606 0.08056253 -0.045139726
0.06251246 0.0384653 0.06382768 0.03950439 -0.008453186 -0.07312858 -0.036411926 -0.00021875364
00000000: 22d7 2d3d 1da9 133d 4a9c 1f3a baf5 02bd
00000010: dc56 9dbd d573 393d 5349 793d a952 bf3c
00000020: a01a 063d bcc7 b13d 2fb0 91bd bf86 6fbd
00000030: 29d5 1bbc 4aab 153d 46a3 a13d f690 b43d
00000040: 8692 683c d29c 343d 4be4 9f3d ba76 463d
00000050: 1dda bbbb 52fb 0abd 8bb5 b6bc 14ab aa3d
00000060: 31b4 adbd 0813 6f3c 308c 6e3c 6c15 9dbc
00000070: 31e0 65bd 0bd9 8cbd 7f98 18bb cff7 63bd
00000080: 7d33 193d a3ce 88bd 1bd4 abbc 41cd 32bc
00000090: 89ef 123d d218 833d 04ed a53d 3b5e cb3b
000000a0: e17a b1bd cc99 cbbc 61c1 513c 3a87 f73c
000000b0: a607 a13d 7744 adbd 260d d6bc 2cc0 683d
000000c0: f93d 4b3d c811 06bd 0ac4 d13c c6c8 693d
000000d0: 4003 3ab9 1153 00bc 9698 223c 1711 13bd
000000e0: 6aac b2bd 7615 313d 10d8 d03c 525a 7bbd
000000f0: f08c 7b3c 4df4 ecbc 1e3e 9e3d 5ed7 2fbd
00000100: 05a3 a03d 7a42 133d cdf7 123c 2ecd c83c
00000110: 0d99 423c 54ea 483d 14f0 20bd 6ee6 c5bc
00000120: 656a 2ebd 610c 883c 9952 41bd 317a 443d
00000130: 1429 99bc 06f6 af3d e882 083d 13c8 a9bd
00000140: e1d7 723c 24ac 0a3d f355 69bd c495 573c
00000150: 36c3 ff3c 5951 acbd 7fda 9ebd 89c2 83bb
00000160: 113b 063d 9fd3 44bd 1465 41bd 1905 3abd
00000170: d975 a03c b172 03bd 06de 21bd 987f e23b
00000180: 3e8d 33bc 6247 4fbc bd0b 663d 477e 8fbd
00000190: 05c1 19bc ecdd 2dbc 251b 0d3d 4712 4cbd
000001a0: 9c6f 623c 9c36 a8bd 126d 8d3d 3edf 8d3c
000001b0: 10b9 32bc 09a8 9bbd 0d4d 863d e78f 753d
000001c0: 16b7 7b3d 53bc 6dbd 4c90 76ba 0c08 5cbd
000001d0: fdd0 59bd 1161 8bbd 9703 663d a4ff 8bbc
000001e0: 81fd 3e3d 2db5 8bbc 4446 e3bb a90c b4ba
000001f0: f804 8abd 9fb6 a4bd 13f2 143d 6e91 ccba
00000200: 255f eaba 8726 5d3b 342f ba3b 8444 5b3d
00000210: 9f07 8dbc 44db bebc afd6 95bd 2b28 5c3c
00000220: d1e8 623d 3d39 40bd 4dc5 08bd bf02 38bd
00000230: 41f5 af3d 1027 a8bd 1e30 463d da86 4bbd
00000240: 15ef 90bd fc23 9e3d 869c 8c3c db97 273d
00000250: 65ae d7bc 0393 9fbd 1296 783c 9afe 0f3d
00000260: 592e 9c3d 3fcd 41bd a227 b03d 2005 b03d
00000270: 5f37 56bd d71c f7bc 3978 9e3d 1d1b 083d
00000280: cd01 97bd 7d27 a2bd ee00 adbd ae88 40bd
00000290: 98f6 123d f913 36bd 7f42 b13d 681e 48bc
000002a0: 8d03 623d 87fe 5abd 269e a23d ed79 c03c
000002b0: 98d1 863d b354 233d 158a 93bd 1498 713d
000002c0: 6c83 c5bc 2395 64bd 8c4b 6e3d 86fa 93bd
000002d0: c4c9 e43c f53a 9bbd 8273 8fbd 388f 2a3d
000002e0: 9781 bc3c ff8d a13d 9d1f 883d cdd6 94bd
000002f0: f7b8 973d 4e10 a83d 46c3 0f3b 4510 463d
00000300: b1c0 803d 31a7 91bd 8d13 4e3d a123 653d
00000310: d28f afbd a478 d13c e056 313d a9f5 e53c
00000320: ea18 c9bc d567 7b3c e72d 733d e40d 1a3d
00000330: 946d 83bd c16d d5bc 9d17 b43d 0e67 5c3d
00000340: 81f5 30bd 74ce 91bd ac82 7e3d b6d1 a83d
00000350: b083 5ebd 740e 8dbd 0e4d 89bc 74be 25bc
00000360: 70df ad3c 89b1 423d 53dc f1bc e873 683d
00000370: 843b 81bd db04 473d ca35 443c eac6 23bd
00000380: ba6e 3c3c cc94 a43c c88c 2b3d 0fe1 fbbc
00000390: 1eb5 133c 7e81 52bd bd3b 51bd 77bb 84bd
000003a0: 9596 003d d69e 26bc 57ee 813c f8f9 26bd
000003b0: 9d8a 0a3d fd6f 9abd ae5d 923c e108 8abd
000003c0: 6140 b2bd 20d5 90bd ce11 a53d ca04 a33d
000003d0: ddf8 2a3d 8360 b33c f8fd a43d 6fe4 38bd
000003e0: 8806 803d ca8d 1d3d 16b8 823d 5bcf 213d
000003f0: 3b7f 0abc 70c4 95bd ac24 15bd 3c61 65b9

vehicle_encoder.lstm.bias_hh_l0 f4 [512]
0.004083667 -0.039684333 -0.0250942 -0.023919206 0.07279363 -0.01769015 -0.06557842 -0.050837338
0.050273687 -0.08206135 -0.023037927 -0.057901997 -0.014356189 -0.076869786 -0.06894268 -0.043131024
0.010332545 0.077353776 -0.079705164 -0.037976224 0.08005229 0.059863456 -0.08046426 -0.014377221
-0.061931487 0.0075826906 0.043330893 -0.083638884 -0.014219336 -0.086985886 -0.060308773 -0.0046098353
-0.041707017 0.05481958 0.060177978 0.0125150895 -0.026788298 -0.07502794 -0.03170791 0.011751484
0.07425262 -0.07761265 -0.013678185 0.06342312 0.08346696 0.044643912 0.03697329 0.014557975
-0.08007784 -0.023320997 -0.08464081 -0.05171988 -0.05281552 0.0698722 0.06483109 0.051938776
0.07310006 0.031701468 0.047222976 0.019758882 -0.003921642 -0.033519365 0.029297376 0.015581099
0.0678368 -0.06704639 -0.040617328 -0.038986843 -0.080159046 -0.028250296 -0.013257086 0.06947124
-0.08539986 0.07467136 0.0201855 -0.004898943 -0.065458365 -0.043084655 -0.0750015 0.03990972
0.039705455 -0.054855492 -0.07631169 -0.006752212 0.058746375 0.01638808 -0.06644772 -0.083956756
0.053693045 0.03630479 -0.078683466 -0.07376482 0.015437496 5.9403756e-05 -0.048594818 0.00044816278
-0.059581853 0.06268899 0.018602768 0.05634137 -0.07779548 -0.026751038 0.02594116 0.0072368793
0.041904926 -0.06947702 0.0038783553 -0.03479522 0.049245127 0.0016728854 0.022693392 0.06525229
-0.023736916 -0.079072654 0.0020349356 0.0726643 0.076529816 -0.03764776 -0.016915461 -0.046650857
0.08342572 0.023485987 -0.037223436 -0.047663976 -0.077686384 0.05149504 -0.02991402 -0.078194685
0.015401813 -0.03295335 0.06478875 -0.046596926 0.08328283 0.033228654 -0.0049077305 0.015206489
-0.07951246 0.05186776 0.04570943 0.05123859 0.002929713 -0.04502558 0.011960368 0.025149811
-0.06496126 0.0341868 0.082536556 0.08566439 0.028737022 0.080195025 -0.043756448 -0.0017785715
-0.05017737 -0.037955422 -0.02152443 -0.03234188 0.072298296 -0.01145213 0.050697364 0.0019204528
0.03933529 -0.022010202 -0.010661297 -0.048377365 -0.081083685 -0.060481276 0.075439475 0.010185845
-0.015865797 0.004070282 0.004961436 0.0027721992 0.06714627 -0.0053468747 0.08619387 -0.0006419663
0.045142185 -0.016042128 0.01906349 -0.001956071 0.0796647 0.08898078 -0.050664872 0.012225399
-0.07240836 -0.023145126 -0.08808201 -0.0039305594 0.014026101 0.060834073 0.04332454 -0.07002863
0.03808259 -0.08251654 0.05807783 0.054414425 0.025216063 0.048871886 0.08280721 0.017404044
-0.002927045 0.03585746 -0.080165826 -0.032748494 0.0034930967 0.035617862 -0.083326966 -0.013658157
-0.08325923 0.053083178 -0.05220422 -0.08380063 -0.014692098 0.026463704 -0.0033093747 0.0131276585
0.0063034217 0.05758773 -0.034067757 0.021543887 0.07238733 0.048592057 0.056440633 -0.014094916
-0.034565028 -0.07980807 0.017315347 -0.0060883695 -0.05771476 -0.011901778 -0.07842548 0.005518684
-0.06465109 -0.07292703 -0.02488839 -0.004778475 0.032444667 0.06263152 -0.0021313448 0.07040633
-0.039549246 0.05220231 0.0816606 -0.06738617 -0.044984683 0.0524348 -0.036088716 0.06550549
-0.08214804 -0.058628365 0.006778577 0.011810996 0.06570082 -0.06268863 0.011168185 -0.028608112
00000000: 48d0 853b 0a8c 22bd 5a92 cdbc 36f2 c3bc
00000010: d414 953d efea 90bc fb4d 86bd d03a 50bd
00000020: c8eb 4d3d c80f a8bd 09ba bcbc a52a 6dbd
00000030: 3936 6bbc e86d 9dbd d231 8dbd 28aa 30bd
00000040: d649 293c a86b 9e3d 763c a3bd f58c 1bbd
00000050: 74f2 a33d 6233 753d 72ca a4bd 708e 6bbc
00000060: dfab 7dbd 3878 f83b bc7b 313d dd4a abbd
00000070: 38f8 68bc a825 b2bd 5506 77bd 1a0e 97bb
00000080: fad4 2abd 7f8a 603d 2f7d 763d 170c 4d3c
00000090: 2273 dbbc 40a8 99bd 27e0 01bd 4c89 403c
000000a0: c211 983d 62f3 9ebd 771a 60bc fbe3 813d
000000b0: baf0 aa3d 89dc 363d 4e71 173d 9384 6e3c
000000c0: daff a3bd ad0b bfbc 2958 adbd 3ad8 53bd
000000d0: 1655 58bd 2819 8f3d 2ac6 843d c1bd 543d
000000e0: 7cb5 953d 66d9 013d e16c 413d 61dd a13c
000000f0: 1e81 80bb 9a4b 09bd 0d01 f03c de47 7f3c
00000100: 05ee 8a3d 9e4f 89bd 5b5e 26bd abb0 1fbd
00000110: 6d2a a4bd 2a6d e7bc 4034 59bc f046 8e3d
00000120: 1fe6 aebd 4ced 983d 105c a53c 5087 a0bb
00000130: 090f 86bd 8979 30bd 639a 99bd 6078 233d
00000140: 30a2 223d 27b0 60bd 4e49 9cbd a941 ddbb
00000150: 0aa0 703d 4b40 863c be15 88bd 85f1 abbd
00000160: 3ded 5b3d 55b4 143d cc24 a1bd 0312 97bd
00000170: 8ded 7c3c 4c28 7938 5c0b 47bd 64f7 ea39
00000180: 1a0c 74bd 1663 803d d564 983c 35c6 663d
00000190: 3d53 9fbd fe24 dbbc 8e82 d43c 5823 ed3b
000001a0: 80a4 2b3d f849 8ebd 012c 7e3b 6f85 0ebd
000001b0: 42b5 493d b844 db3a 7ee7 b93c fea2 853d
000001c0: ec73 c2bc d8f0 a1bd 8e5c 053b 05d1 943d
000001d0: aabb 9c3d 8a34 1abd 4b92 8abc f814 3fbd
000001e0: 1bdb aa3d af65 c03c 9a77 18bd 4d3b 43bd
000001f0: 0a1a 9fbd 77ec 523d 3f0e f5bc 8924 a0bd
00000200: e357 7c3c 18fa 06bd f7af 843d 6bdc 3ebd
00000210: 3090 aa3d c51a 083d 07d1 a0bb a324 793c
00000220: 6ed7 a2bd 4a73 543d d039 3b3d 8edf 513d
00000230: 6e00 403b be6c 38bd 6bf5 433c fa06 ce3c
00000240: 690a 85bd 7507 0c3d ed08 a93d d070 af3d
00000250: e769 eb3c 4a3d a43d f639 33bd f51e e9ba
00000260: c986 4dbd 2577 1bbd 0054 b0bc eb78 04bd
00000270: 2111 943d b7a1 3bbc 0aa8 4f3d b4b7 fb3a
00000280: 0b1e 213d bd4e b4bc b8ac 2ebc 5827 46bd
00000290: 340f a6bd 37bb 77bd 0380 9a3d 88e2 263c
000002a0: fdf8 81bc 0060 853b 8b93 a23b c9ad 353b
000002b0: fc83 893d d634 afbb 6986 b03d a149 28ba
000002c0: 03e7 383d c86a 83bc 092b 9c3c 6d31 00bb
000002d0: 3f27 a33d 8e3b b63d f885 4fbd 0a4d 483c
000002e0: d64a 94bd d99a bdbc 5764 b4bd eccb 80bb
000002f0: bbcd 653c 262d 793d 1375 313d 2c6b 8fbd
00000300: 7dfc 1b3d 6ffe a8bd 05e3 6d3d a9e1 5e3d
00000310: eb91 ce3c e32d 483d d496 a93d ed92 8e3c
00000320: abd3 3fbb 46df 123d fb2d a4bd 4923 06bd
00000330: 70ec 643b 09e4 113d 54a7 aabd 76c6 5fbc
00000340: d183 aabd bf6d 593d 18d4 55bd aa9f abbd
00000350: 20b7 70bc 69ca d83c 18e2 58bb 6415 573c
00000360: ef8c ce3b 1de1 6b3d a28a 0bbd ce7c b03c
00000370: cf3f 943d 7708 473d 4b2e 673d 5dee 66bc
00000380: 0f94 0dbd 6a72 a3bd ead8 8d3c f280 c7bb
00000390: 5066 6cbd adff 42bc 8a9d a0bd 14d6 b43b
000003a0: ca67 84bd c45a 95bd bde2 cbbc c194 9cbb
000003b0: b3e4 043d f444 803d 08ae 0bbb 3231 903d
000003c0: 64fe 21bd 17d2 553d ac3d a73d c301 8abd
000003d0: dc41 38bd dfc5 563d c3d1 13bd be27 863d
000003e0: 3b3d a8bd 4c24 70bd d31e de3b e882 413c
000003f0: 278e 863d e562 80bd c3fa 363c 8f5b eabc

attention.wq.weight f4 [128, 128]
0.030061295 -0.004717112 -0.04854845 -0.04697528 -0.049936682 0.0047156685 0.055895776 -0.028890166
-0.08638764 0.01870973 0.06678717 -0.06731446 0.051147636 0.001505955 0.02590834 0.084094025
0.065152 -0.024915129 -0.024193732 -0.086989336 -0.08393997 -0.01667135 -0.05299907 0.0053324555
-0.052701857 0.07787736 -0.03976871 -0.01663105 -0.006254898 -0.027489422 0.02687396 0.08230565
-0.036230907 0.0859058 -0.032473195 0.065616 -0.040940877 0.050342694 0.004983801 0.08074279
0.022176523 -0.058219228 0.07725059 -0.036435217 -0.070840955 0.054164317 -0.0025660563 -0.041753974
-0.051492065 -0.031358 -0.004688912 0.04963686 0.022841942 0.023007946 0.07883229 0.024126388
-0.0077240583 -0.059793364 0.009488183 -0.017410781 -0.03383154 0.03814612 -0.014471573 -0.016481858
0.062335815 -0.04833644 0.025812302 -0.044398066 0.04375134 -0.013982997 -0.07336671 -0.031167427
-0.055239473 0.07614137 -0.02874696 0.059100498 -0.06678215 0.08195185 -0.06569714 -0.08256442
-0.0778966 0.07280224 0.029732523 -0.056479022 0.07017234 -0.042846873 0.06986336 0.070441484
-0.029321609 0.028392565 -0.07691017 0.00079730875 -0.03476751 -0.06355029 -0.066350706 -0.06133965
0.013181306 0.07580316 -0.06779551 -0.07762936 0.08121815 0.008595465 -0.011799476 -0.017307557
-0.07917933 0.020438178 -0.0050787604 -0.06793325 0.024288636 -0.068043746 0.041533373 -0.06832178
0.055052277 -0.08363711 0.051845856 0.028961653 -0.03143215 -0.08255448 -0.06817312 0.07366036
-0.021505889 -0.08149457 0.045524355 0.086841546 -0.029446496 0.023515198 0.04287042 0.02737504
0.017818116 -0.042041183 -0.074808195 0.0842957 0.0059491578 -0.08058085 0.04354521 0.022581497
0.06919023 -0.0077911615 -0.01646535 0.027985495 0.009970043 -0.02038012 -0.0052846246 0.06804722
-0.07978965 -0.026277365 -0.00876125 -0.014150588 0.032656543 0.07822685 -0.034759477 -0.06901985
0.015433091 0.025334235 0.07574126 -0.07028671 -0.07596833 -0.06765658 0.03930873 0.07443706
0.05009472 -0.06991333 -0.03559125 0.07832522 0.046834048 0.07782117 -0.052454073 0.07047587
0.03152686 0.057505015 0.07463961 -0.079195224 -0.02522483 -0.05636042 -0.04146679 0.07952959
0.046052042 -0.04695789 0.039502967 -0.04777694 -0.07664748 -0.010471724 0.038933337 0.039317273
-0.040897697 0.0875355 0.06836403 0.04662669 0.08022849 -0.011831421 -0.06323751 -0.020981781
-0.011414399 0.051887624 -0.00062273303 0.012005418 -0.025912968 -0.07839694 -0.051204246 0.07782601
0.036567524 0.0053753 0.05885045 0.056620747 0.06280981 -0.009659079 0.021991879 0.06876058
0.05287213 0.03379578 -0.022228017 0.034959413 0.052961793 -0.0684441 0.023174668 0.0387778
0.087073974 -0.06107963 0.062262006 -0.019858971 -0.051589042 0.003223279 -0.08317719 -0.076745406
-0.06946129 0.053266343 -0.076160155 -0.07140855 -0.026012024 -0.06475859 -0.01628303 -0.071620665
0.08459263 -0.017229753 -0.072993785 0.07407713 -0.084949434 -0.06949768 0.056188785 0.08118525
0.019554019 0.06915554 0.031022683 0.08336258 -0.008160113 -0.018940726 -0.038571917 -0.023331134
0.07829425 0.07658563 -0.053767864 -0.06818882 -0.030518519 0.02534689 -0.016853623 0.02180578
00000000: 1b43 f63c 0192 9abb bdda 46bd 2769 40bd
00000010: 688a 4cbd e585 9a3b f8f2 643d 12ab ecbc
00000020: 01ec b0bd 2645 993c b6c7 883d 2adc 89bd
00000030: 2f80 513d 7763 c53a ba3d d43c 7d39 ac3d
00000040: 696e 853d d01a ccbc ef31 c6bc 7727 b2bd
00000050: b8e8 abbd 5b92 88bc 8e15 59bd e1bb ae3b
00000060: e7dd 57bd 2a7e 9f3d 84e4 22bd d73d 88bc
00000070: e3f5 ccbb 7f31 e1bc c726 dc3c dd8f a83d
00000080: dc66 14bd 61ef af3d 9d02 05bd ae61 863d
00000090: 9fb1 27bd 2434 4e3d 274f a33b 7a5c a53d
000000a0: 8aab b53c 4977 6ebd 8f35 9e3d 183d 15bd
000000b0: 1015 91bd 67db 5d3d 482b 28bb 3706 2bbd
000000c0: 58e9 52bd 3f71 00bd 72a5 99bb 0550 4b3d
000000d0: 061f bb3c 297b bc3c d372 a13d b4a4 c53c
000000e0: 191a fdbb e3e9 74bd 5374 1b3c 0ea1 8ebc
000000f0: f192 0abd 1b3f 1c3d 2d1a 6dbc f604 87bc
00000100: d753 7f3d 6efc 45bd 5274 d33c bfda 35bd
00000110: 9b34 333d f118 65bc 4941 96bd d552 ffbc
00000120: c942 62bd 02f0 9b3d bf7e ebbc 5d13 723d
00000130: 14c5 88bd 5fd6 a73d 398c 86bd 8917 a9bd
00000140: 4188 9fbd 5719 953d 9f91 f33c 8c56 67bd
00000150: 84b6 8f3d 3480 2fbd 8514 8f3d a043 903d
00000160: df33 f0bc 8697 e83c 1483 9dbd 7c02 513a
00000170: 6068 0ebd a826 82bd e1e2 87bd 493f 7bbd
00000180: 68f6 573c b03e 9b3d 5fd8 8abd 24fc 9ebd
00000190: b455 a63d fed3 0c3c 9752 41bc 94c8 8dbc
000001a0: c628 a2bd f76d a73c bb6b a6bb 9620 8bbd
000001b0: f6f8 c63c 855a 8bbd e61e 2a3d 4aec 8bbd
000001c0: 7f7e 613d ef49 abbd 525c 543d fd40 ed3c
000001d0: 00bf 00bd 5312 a9bd 599e 8bbd 3edb 963d
000001e0: 1e2d b0bc a0e6 a6bd bf77 3a3d fbd9 b13d
000001f0: c739 f1bc f2a2 c03c e598 2f3d 9f41 e03c
00000200: 4cf7 913c 6033 2cbd 0a35 99bd 39a3 ac3d
00000210: 27f1 c23b 9307 a5bd 765c 323d d5fc b83c
00000220: 9bb3 8d3d 004d ffbb 57e2 86bc d641 e53c
00000230: 6459 233c 36f4 a6bc a52a adbb 575c 8b3d
00000240: c268 a3bd a143 d7bc 598b 0fbc ded7 67bc
00000250: dec2 053d 6635 a03d f45f 0ebd 475a 8dbd
00000260: 13db 7c3c be89 cf3c 3c1e 9b3d 7bf2 8fbd
00000270: 4995 9bbd 888f 8abd 3102 213d 7572 983d
00000280: 1f30 4d3d b82e 8fbd 21c8 11bd f968 a03d
00000290: 0fd5 3f3d b560 9f3d 15da 56bd a755 903d
000002a0: 4f22 013d 618a 6b3d a7dc 983d 1b31 a2bd
000002b0: 4da4 cebc 2fda 66bd 15d9 29bd 69e0 a23d
000002c0: 11a1 3c3d eb56 40bd ddcd 213d c1b1 43bd
000002d0: 5bf9 9cbd 9891 2bbc 9078 1f3d 260b 213d
000002e0: 5884 27bd d045 b33d 7102 8c3d a1fb 3e3d
000002f0: d64e a43d 94d8 41bc ab82 81bd fce1 abbc
00000300: 7603 3bbc 1e88 543d e83e 23ba 5fb2 443c
00000310: 6f47 d4bc 938e a0bd 8bbb 51bd 3e63 9f3d
00000320: d4c7 153d 4923 b03b 2b0d 713d 28eb 673d
00000330: 6ea2 803d 1d41 1ebc 5028 b43c 59d2 8c3d
00000340: 7290 583d 726d 0a3d 8817 b6bc 9a31 0f3d
00000350: 77ee 583d 6c2c 8cbd cdd8 bd3c 78d5 1e3d
00000360: d753 b23d a22e 7abd 7206 7f3d 48af a2bc
00000370: 084f 53bd a63d 533b cd58 aabd b22c 9dbd
00000380: b941 8ebd cf2d 5a3d dbf9 9bbd a53e 92bd
00000390: 2b17 d5bc 27a0 84bd fd63 85bc dbad 92bd
000003a0: e73e ad3d 6925 8dbc c47d 95bd c0b5 973d
000003b0: f8f9 adbd cd54 8ebd 3626 663d 7444 a63d
000003c0: c02f a03c 6ba1 8d3d 4823 fe3c 00ba aa3d
000003d0: ffb1 05bc 9529 9bbc 96fd 1dbd ef20 bfbc
000003e0: bc58 a03d edd8 9c3d b13b 5cbd 94a6 8bbd
000003f0: f901 fabc 48a4 cf3c 9c10 8abc 09a2 b23c

attention.wq.bias f4 [128]
-0.07290617 0.040787347 0.08068413 -0.0293605 0.010099633 0.018726956 -0.022247517 -0.063084856
-0.034718163 -0.014158724 -0.05483241 0.026530122 0.009973387 0.08356715 -0.06332089 -0.024025772
0.019854603 0.04129928 0.05704237 0.049124915 0.0019979791 -0.08126913 0.07453966 -0.044671822
-0.048946448 -0.0006292428 -0.08337381 0.005707222 0.07808834 -0.03414797 -0.0852886 -0.0039914246
0.011347698 -0.023530975 -0.03515741 -0.057205897 0.053592473 -0.08078098 -0.06250462 -0.043708846
-0.08251394 -0.0065008 -0.080049805 0.024840819 -0.011789163 0.021963049 -0.030049197 0.005410325
-0.0043435544 -0.027429035 -0.04424184 -0.01345724 -0.053604167 0.0029301974 -0.05796092 -0.011156552
-0.07428354 0.057474278 -0.060397215 0.051794067 -0.021488365 -0.05407902 -0.046000805 -0.033435684
-0.016502481 0.026145825 0.013876801 -0.011164006 -0.04365161 0.05247345 -0.08645898 0.06719682
-0.077147394 -0.05198395 -0.016956016 0.036385868 0.08339633 0.07972626 0.08685999 -0.006719606
0.059537195 0.08223385 -0.04797423 0.034576204 0.0047431057 0.019940857 -0.08633041 -0.066021085
0.002446071 -0.0034618906 0.014878937 -0.047049485 -0.008062672 0.07609471 0.07432521 0.06703094
0.07988081 0.0024084966 -0.025180334 0.06062974 0.06480335 0.08121893 0.043160763 -0.03866168
0.076129474 -0.07017867 -0.041091356 -0.03650615 0.009448485 0.015636006 0.06773741 -0.06355917
0.005346925 -0.061892066 0.05937923 0.012866041 0.066877544 0.07573872 0.06970298 -0.0680792
-0.03943599 0.07190063 -0.07013518 -0.026855659 0.08311808 -0.07805548 0.070236996 -0.028796379
00000000: d44f 95bd a210 273d b93d a53d 6e85 f0bc
00000010: ee78 253c 4669 993c 6d40 b6bc a232 81bd
00000020: a234 0ebd fef9 67bc f397 60bd b355 d93c
00000030: 6b67 233c 4125 ab3d 62ae 81bd b2d1 c4bc
00000040: 1fa6 a23c 6f29 293d 43a5 693d 3537 493d
00000050: 87f0 023b 6e70 a6bd 40a8 983d cdf9 36bd
00000060: 127c 48bd c5f3 24ba e3bf aabd a603 bb3b
00000070: c8ec 9f3d bede 0bbd caab aebd 7fca 82bb
00000080: b2eb 393c 08c4 c0bc 3701 10bd bb50 6abd
00000090: c883 5b3d 8070 a5bd 6c02 80bd 0c08 33bd
000000a0: 12fd a8bd aa04 d5bb 27f1 a3bd f97e cb3c
000000b0: 5527 41bc daeb b33c bc29 f6bc 1849 b13b
000000c0: 6054 8ebb dbb2 e0bc ee36 35bd c17b 5cbc
000000d0: 0b90 5bbd 8e08 403b 6e68 6dbd f8c9 36bc
000000e0: f821 98bd 266a 6b3d 1263 77bd 0426 543d
000000f0: 5e08 b0bc f681 5dbd 576b 3cbd dbf3 08bd
00000100: 3630 87bc c52f d63c 865b 633c 3ce9 36bc
00000110: 08cc 32bd 66ee 563d 6811 b1bd 7d9e 893d
00000120: 74ff 9dbd 1fed 54bd 58e7 8abc 5909 153d
00000130: b2cb aa3d 8547 a33d a7e3 b13d 2430 dcbb
00000140: 46dd 733d 396a a83d a080 44bd c79f 0d3d
00000150: 0e6c 9b3b 025b a33c ffcd b0bd 1036 87bd
00000160: 434e 203b e3e0 62bb c9c6 733c f6b6 40bd
00000170: 4c19 04bc 8bd7 9b3d d137 983d 8447 893d
00000180: 8d98 a33d ded7 1d3b fd46 cebc e456 783d
00000190: 9eb7 843d 1c56 a63d 57c9 303d b65b 1ebd
000001a0: c5e9 9b3d d6b9 8fbd 694f 28bd 7987 15bd
000001b0: d2cd 1a3c 1517 803c e9b9 8a3d 4f2b 82bd
000001c0: 4235 af3b 8982 7dbd a337 733d 16cc 523c
000001d0: 18f7 883d e71c 9b3d 70c0 8e3d 1c6d 8bbd
000001e0: a287 21bd a340 933d 09a3 8fbd 6600 dcbc
000001f0: d039 aa3d 8ddb 9fbd 6ad8 8f3d 62e6 ebbc
