checkpoints/model_final_policy.pt (torch, 481970 bytes, 13 tensors)

customer_encoder.conv1d.weight f4 [128, 1, 14]
0	0x3e516740	0.20449543
1	0x3e635218	0.22199285
2	0xbd7fc98a	-0.062448062
3	0x3e820c21	0.2539988
4	0xbd5193aa	-0.051166214
5	0x3d58a858	0.05289492
6	0xbe04ecb8	-0.12980926
7	0x3e249d47	0.16075622
8	0x3e703dc0	0.23461056
9	0xbe478709	-0.19485106
10	0x3e6fcd7d	0.23418231
11	0x3d50ca72	0.050974317
12	0x3e4a691c	0.19766659
13	0x3d10c121	0.035340432
14	0x3e03fbbd	0.12889
15	0xbd1a7b2b	-0.03771512
16	0x3e52fe2b	0.2060477
17	0x3d0f5252	0.034990616
18	0xbe037d91	-0.12840869
19	0x3d8de12e	0.06927715
20	0xbdfd196f	-0.12358367
21	0xbd05dae3	-0.03267945
22	0xbddf4f60	-0.109038115
23	0x3e357076	0.17718682
24	0xbe589805	-0.21151741
25	0xbdfd3bae	-0.123648986
26	0xbd9b6c03	-0.07588961
27	0xbe2331f8	-0.1593703
28	0x3cce16e2	0.025157396
29	0xbe872fb7	-0.2640359
30	0x3e7716f5	0.24129851
31	0xbe637aa8	-0.22214758
32	0x3e56e155	0.20984395
33	0x3d30e447	0.043186452
34	0xbdafdc5a	-0.085869506
35	0x3e2a9f48	0.16662323
36	0x3d2c584f	0.042076405
37	0x3e5cb924	0.21555
38	0x3cf59873	0.02997992
39	0xbdabf283	-0.08395865
40	0x3d93c499	0.072152324
41	0xbd9691de	-0.07352041
42	0x3de67532	0.11252822
43	0x3e7464dd	0.23866601
44	0x3e1e404f	0.1545422
45	0xbe011110	-0.12604165
46	0x3e14ed26	0.1454359
47	0x3d44b358	0.048022598
48	0x3e0b3b8a	0.13596931
49	0xbe2cb9a6	-0.16867694
50	0xbe867a23	-0.26265058
51	0xbdd767ef	-0.10517871
52	0xbe5339e1	-0.20627548
53	0x3e5ef030	0.21771312
54	0x3da073bc	0.078345746
55	0x3de1353e	0.10996483
56	0x3dad204b	0.08453425
57	0xbb980646	-0.0046394197
58	0x3e5630d5	0.20917065
59	0xbe403c8c	-0.18773097
60	0x3c920f50	0.017829567
61	0xbe3bde7a	-0.18346587
62	0x3daa854c	0.083262056
63	0xbdbca9ad	-0.092120506
64	0x3da8f3ee	0.08249651
65	0xbd699bd2	-0.057033367
66	0x3e627cf9	0.22117986
67	0xbe224e6f	-0.15850233
68	0xbe231061	-0.15924217
69	0xbe248fde	-0.16070506
70	0x3e7631ee	0.24042484
71	0x3db67c08	0.08910376
72	0x3e83b12d	0.25721112
73	0xbe6c54a4	-0.23079163
74	0xbe8c3032	-0.2738052
75	0xbe5525f3	-0.20815258
76	0xbe383dd1	-0.17992331
77	0x3dd49260	0.10379481
78	0x3dc65dc4	0.09685853
79	0x3e61ad89	0.22038855
80	0xbe10c5a4	-0.14137894
81	0xbe3bbf3b	-0.18334667
82	0x3e10b067	0.14129792
83	0xbddb5a22	-0.10710551
84	0x3e261980	0.16220665
85	0xbd81e353	-0.06342187
86	0x3e1c8dec	0.15288514
87	0xbe595b5a	-0.21226254
88	0xbe0f5abe	-0.13999459
89	0x3da4ac34	0.08040658
90	0x3d6b32b9	0.05742142
91	0xbd94d4f3	-0.07267179
92	0x3e24ed20	0.16106081
93	0x3e38165a	0.17977276
94	0xbe4809b3	-0.1953495
95	0xbe133271	-0.1437471
96	0x3e7b3832	0.24533156
97	0xbdbc99d6	-0.092090294
98	0xbdc20f30	-0.09475553
99	0xbe846835	-0.25860754
100	0xbe1cbbac	-0.15305966
101	0x3d9b30c7	0.07577663
102	0xbcdd5d29	-0.027021961
103	0xbe475839	-0.19467248
104	0x3bdb400c	0.0066909846
105	0xbe3627b3	-0.17788582
106	0xbe69b588	-0.22823155
107	0xbe152c96	-0.1456779
108	0xbe6d9fcf	-0.23205493
109	0xbe2ce461	-0.16883995
110	0x3e8893cc	0.2667526
111	0x3d4dfd23	0.050290238
112	0x3da8b225	0.082371034
113	0xbe7f3d9a	-0.24925843
114	0xbe33bb0e	-0.17551824
115	0xbdbcf76d	-0.0922688
116	0x3d25e322	0.040499814
117	0xbe6f0f72	-0.23345736
118	0xbdec4ebc	-0.11538455
119	0xbe22b784	-0.15890318
120	0xb9914a24	-0.00027711794
121	0xbdca1b4b	-0.09868487
122	0xbc9d14cf	-0.019174961
123	0xbe3930c3	-0.18085007
124	0xbe3d02c8	-0.18458092
125	0xbe1d8bc1	-0.15385343
126	0xbdbb5d00	-0.09148598
127	0xbe580294	-0.21094733
128	0x3e657727	0.22408734
129	0xbd3b6241	-0.045748
130	0x3e71b46f	0.23603986
131	0x3da84df9	0.08217997
132	0xbe6741ef	-0.22583745
133	0x3e4061ab	0.18787257
134	0xbd97d6d9	-0.07414026
135	0xbdd07513	-0.1017858
136	0xbe61c2b7	-0.22046934
137	0xbe87a30b	-0.2649158
138	0x3d9cba97	0.07652777
139	0xbd730c80	-0.059338093
140	0x3dd52506	0.10407452
141	0xbe609243	-0.21930794
142	0x3e4b3575	0.19844611
143	0xbe525ed8	-0.20543993
144	0xbd61abff	-0.05509567
145	0x3d634b99	0.055492017
146	0x3e0d3d98	0.13793027
147	0x3e563f76	0.20922646
148	0x3e7b237e	0.24525258
149	0xbe5b817c	-0.21436113
150	0x3d863975	0.06553928
151	0xbdefdc1a	-0.11711903
152	0xbce297d4	-0.027660288
153	0xbe4e301e	-0.20135543
154	0x3e793ed6	0.24340376
155	0xbe48e605	-0.19618995
156	0x3e123b62	0.14280465
157	0x3db64bc7	0.08901172
158	0x3da9f81b	0.082992755
159	0xbe12ef2a	-0.14349046
160	0x3e77e07e	0.2420673
161	0x3d68e468	0.05685845
162	0x3d0999d2	0.03359396
163	0xbe711e90	-0.23546815
164	0x3de3386e	0.110947475
165	0xbd27881d	-0.040901292
166	0xbdfb22fd	-0.12262533
167	0x3e6bffc7	0.2304679
168	0x3d73b191	0.059495512
169	0xbe1782ab	-0.1479594
170	0xbe0a9c2b	-0.13536136
171	0xbca99146	-0.020699155
172	0x3e1243a0	0.1428361
173	0xbd893b38	-0.06700748
174	0xbe1c9628	-0.15291655
175	0xbdc15e2b	-0.09441789
176	0xbe4c291b	-0.19937555
177	0x3dc164d4	0.094430596
178	0x3e5188c1	0.20462324
179	0xbe812c34	-0.25229037
180	0x3d7b2448	0.061313897
181	0x3e0e9555	0.13924153
182	0x3d468a83	0.04847194
183	0xbdc2e7c6	-0.095168635
184	0x3e0eda49	0.13950457
185	0x3e16b1fe	0.14716336
186	0x3dd679cf	0.10472452
187	0xbd449c05	-0.048000354
188	0xbd91642d	-0.07099185
189	0x3cf3d53a	0.02976476
190	0xbd429e21	-0.047514085
191	0xbda09aa8	-0.07841998
192	0x3e3275c0	0.1742773
193	0x3e6b1551	0.2295735
194	0xbccb3356	-0.024804752
195	0xbd78aed5	-0.060713608
196	0x3b801036	0.0039081825
197	0xbc82a871	-0.01594946
198	0x3d839b35	0.06426088
199	0x3d912afa	0.07088275
200	0xbe7afa09	-0.24509443
201	0xbdc65f02	-0.0968609
202	0x3e659697	0.22420727
203	0x3dd48576	0.10377018
204	0xbc697dc3	-0.014251175
205	0xbe24269d	-0.16030355
206	0xbe27deb4	-0.16393548
207	0xbe74d0c7	-0.23907767
208	0xbdb3cba7	-0.08779078
209	0x3dbc8aa1	0.09206129
210	0x3e2e7c7b	0.17039673
211	0x3dfcae1a	0.12337895
212	0xbe71edd4	-0.2362588
213	0xbe1ceb27	-0.15324079
214	0xbd115911	-0.03548533
215	0x3e841a2e	0.25801224
216	0x3d209dd1	0.039213005
217	0xbd859d4e	-0.06524144
218	0x3de171d5	0.1100804
219	0xbdce1626	-0.10062818
220	0xbe2efc91	-0.17088534
221	0x3e499d7f	0.19688986
222	0xbdf884d2	-0.121347085
223	0xbd5b8e30	-0.053602397
224	0xbe8822fa	-0.26589185
225	0x3e3724b6	0.17885098
226	0x3e4f5392	0.20246723
227	0x3dda46e6	0.10658054
228	0xbe35f959	-0.177709
229	0xbe87410a	-0.26416808
230	0xbe5e2407	-0.21693431
231	0x3e516c94	0.20451576
232	0x3e019767	0.12655412
233	0x3e682cef	0.22673391
234	0x3e1137b3	0.14181404
235	0x3d8e2e02	0.06942369
236	0xbb59db70	-0.0033242367
237	0xbe4ffc8e	-0.20311186
238	0xbe6a773d	-0.22897048
239	0xbe7ff860	-0.24997091
240	0x3de01699	0.1094181
241	0xbe0e57d5	-0.13900693
242	0xbd7afba8	-0.061275154
243	0xbe1d4153	-0.1535695
244	0xbd46f9af	-0.04857796
245	0xbe454021	-0.19262744
246	0xbe311ad5	-0.17295392
247	0x3db25e04	0.08709338
248	0xbda3f829	-0.08006317
249	0x3e278602	0.16359714
250	0xbdacc5ed	-0.08436189
251	0xbe493911	-0.19650675
252	0xbd40e006	-0.047088645
253	0xbe04985d	-0.12948747
254	0xbda75222	-0.081699625
255	0xbe7c663c	-0.24648374

customer_encoder.conv1d.bias f4 [128]
0	0xbe786d7b	-0.24260513
1	0x3e71a6e8	0.23598826
2	0xbca70338	-0.020387277
3	0xbe073f92	-0.13207844
4	0xbdbbbae2	-0.091665044
5	0xbe55a0e0	-0.2086215
6	0x3e5590ec	0.20856065
7	0xbd6d6d2b	-0.05796544
8	0xbe19db3d	-0.15025039
9	0xbe4f8f0c	-0.20269412
10	0x3e1ffc22	0.15623525
11	0xbd1771a5	-0.036973614
12	0xbce6d287	-0.02817656
13	0xbd8ea36a	-0.069647625
14	0xbe0419f9	-0.12900533
15	0x3d42aad5	0.0475262
16	0x3e5289c0	0.2056036
17	0xbe1e9a90	-0.15488648
18	0x3c52ec09	0.012873658
19	0xbe502376	-0.20326027
20	0xbe0054e9	-0.1253239
21	0x3e7037b6	0.23458752
22	0x3b386d46	0.0028141304
23	0x3e83cf99	0.25744322
24	0xbd40290b	-0.04691414
25	0xbe15139a	-0.14558259
26	0xbe239ad6	-0.15977034
27	0x3e728146	0.23682126
28	0xbe52708b	-0.20550744
29	0x3e0f9b18	0.14024007
30	0x3d880a32	0.066425696
31	0x3da17161	0.078829534
32	0x3e1a6ee7	0.15081368
33	0xbd8f36a4	-0.06992844
34	0x3e295ba7	0.16538869
35	0xbe5a0cf2	-0.21294
36	0xbdc07cd2	-0.093988076
37	0x3e485580	0.19563866
38	0x3da26470	0.07929313
39	0xbd11bec1	-0.035582308
40	0xbd7fcc70	-0.062450826
41	0xbe2712a7	-0.16315709
42	0x3e266d2e	0.16252586
43	0xbc0bffb1	-0.008544848
44	0xbc1206b0	-0.008912727
45	0x3d818f0a	0.06326111
46	0x3e49f874	0.19723684
47	0xbe0b9ece	-0.13634798
48	0xbdbc71c0	-0.092013836
49	0x3e396d0e	0.18108007
50	0x3e1a8c46	0.15092573
51	0xbe06a489	-0.13148703
52	0xbe875e2c	-0.26439035
53	0x3d4b0b9c	0.04957162
54	0x3e0ffb8f	0.14060806
55	0x3d82b728	0.063825905
56	0x3e4224a0	0.18959284
57	0xbe593014	-0.21209747
58	0x3e09f818	0.13473547
59	0xbe2a24dd	-0.16615625
60	0x3e1a0511	0.15040995
61	0x3e4b8fd0	0.19879079
62	0x3dad5733	0.084638976
63	0x3e5d7051	0.21624877
64	0xbe3452a8	-0.17609656
65	0xbe74ce6f	-0.23906873
66	0xbe839367	-0.25698397
67	0x3e2bcff9	0.16778554
68	0x3dbfb8da	0.093614295
69	0xbe4868a6	-0.1957117
70	0x3e049ad6	0.1294969
71	0x3e79b1e7	0.2438427
72	0xbe86f8b8	-0.26361632
73	0x3e467f1e	0.19384429
74	0x3d27c8e7	0.04096308
75	0x3ccb7017	0.024833722
76	0x3e764b81	0.2405224
77	0x3e77dd2a	0.24205461
78	0x3de6b4ba	0.112649396
79	0x3e583b66	0.21116409
80	0x3de38d24	0.11110905
81	0x3d324b74	0.04352899
82	0xbe708794	-0.23489219
83	0x3d4c87f1	0.04993433
84	0xbe42bd67	-0.19017564
85	0x3da88ceb	0.08230003
86	0x3d410b28	0.04712978
87	0x3bc4a789	0.006001417
88	0xbe3b184f	-0.18270992
89	0xbe25e986	-0.16202363
90	0x3e4a4d9d	0.1975617
91	0x3e054ecc	0.1301834
92	0x3e10594c	0.14096564
93	0xbda2f260	-0.079563856
94	0xbd3c905b	-0.046036106
95	0xbd8c896f	-0.06862151
96	0x3e3c33ea	0.18379179
97	0xbdec53fb	-0.115394555
98	0x3e2c5c23	0.16832022
99	0x3e3cbbad	0.18430968
100	0xbe7a3a2a	-0.2443625
101	0x3adf5f1a	0.0017041892
102	0xbd507581	-0.05089331
103	0xbe176a55	-0.14786656
104	0x3dec585b	0.1154029
105	0xbd051b0b	-0.032496493
106	0x3e6f9c25	0.23399408
107	0xbe2b4ac4	-0.1672774
108	0x3dfe7065	0.12423781
109	0xbe69a6ff	-0.2281761
110	0xbe090717	-0.13381611
111	0x3c95c877	0.018284066
112	0x3e583e3a	0.21117488
113	0x3e101b72	0.1407297
114	0xbe60ac39	-0.21940698
115	0x3cf24fd8	0.029579088
116	0xbe215014	-0.15753204
117	0x3c3d91cf	0.011570408
118	0xbe63f3ac	-0.22260922
119	0xbda07980	-0.07835674
120	0x3e3bb282	0.18329814
121	0xbe7b194c	-0.24521369
122	0xbe827cc9	-0.2548583
123	0x3d475bac	0.04867141
124	0x3d15e27d	0.03659295
125	0xbd484a2f	-0.048898872
126	0x3e6f10f1	0.23346306
127	0xbe24c59f	-0.16091011

vehicle_encoder.lstm.weight_ih_l0 f4 [512, 2]
0	0xbd332bbd	-0.043742884
1	0xbd6695df	-0.056295272
2	0xbc920fbe	-0.017829772
3	0xbcc7fdcb	-0.02441301
4	0x3d83b5ec	0.06431183
5	0x3b9955d1	0.0046794196
6	0x3d101ba5	0.035182614
7	0xbcf27c11	-0.029600175
8	0x3da21e44	0.07915929
9	0x3da8bece	0.08239518
10	0xbda08dfc	-0.07839581
11	0xbcb54e70	-0.022132128
12	0xbd93744b	-0.071999155
13	0x3d27e5a4	0.040990487
14	0xbd8c25e4	-0.068431646
15	0xbd05ca6f	-0.03266376
16	0x3dca106f	0.09866416
17	0xbd9583cc	-0.07300529
18	0x3d9831d6	0.074313805
19	0x3c88b5ea	0.016688306
20	0x3d97b073	0.07406702
21	0xbd2aa93b	-0.041665297
22	0x3d873fa4	0.06603935
23	0x3c99dd08	0.018782154
24	0x3c427900	0.011869669
25	0x3d85b183	0.06527998
26	0xbdabfa89	-0.08397395
27	0xbd90e47a	-0.070748284
28	0x3dbe65b6	0.092967436
29	0xbd38ae8e	-0.045088343
30	0xbd8b2778	-0.067946374
31	0xbc0f1d3e	-0.008734999
32	0xbcb87f02	-0.0225215
33	0xbc0dc138	-0.008652024
34	0xbd689fba	-0.056792952
35	0x3d0bbeea	0.034117617
36	0xbd8eeadf	-0.06978392
37	0x3c4b63c4	0.012413923
38	0x3d489030	0.048965633
39	0x3c6a699b	0.014307405
40	0x3c560990	0.013063803
41	0x3cabc4c1	0.020967843
42	0xbca89aeb	-0.020581683
43	0xbc37b7b7	-0.011213235
44	0xbce1476d	-0.027499879
45	0xbd4b3ed1	-0.049620453
46	0xbd39f26a	-0.0453972
47	0x3db63af5	0.08897964
48	0xbc053860	-0.008131117
49	0x3d1dba00	0.03850746
50	0x3d7e065e	0.06201779
51	0xbbbd4d52	-0.0057770396
52	0xbd3ff74d	-0.046866704
53	0xbd660749	-0.05615929
54	0xbce15058	-0.027504131
55	0x3d06373b	0.032767516
56	0xbd841ceb	-0.06450828
57	0xb9cb63c6	-0.00038793514
58	0x3d31811c	0.04333602
59	0x3da8f973	0.08250704
60	0x3cc24172	0.023712847
61	0x3c802c83	0.015646225
62	0x3d8d30fc	0.06894109
63	0x3d4b7893	0.049675535
64	0x3d14ac08	0.036296874
65	0xbca99165	-0.020699212
66	0xbd8f1092	-0.069855824
67	0xbc9541d6	-0.01821987
68	0xbca5a3e5	-0.020219753
69	0x3b41a724	0.0029549086
70	0xbc228f33	-0.009921837
71	0x3d14137f	0.036151405
72	0x3d7366de	0.059424274
73	0xbd1162f9	-0.03549478
74	0xbdac1106	-0.084016845
75	0xbd39be4a	-0.04534749
76	0xbd2ff505	-0.04295828
77	0x3d48e46f	0.049045976
78	0xbd623f47	-0.055236127
79	0xbbe04c88	-0.0068450607
80	0xbc323fe0	-0.010879487
81	0xbd3be979	-0.045876954
82	0x3d1c14c5	0.038105745
83	0xbd1e2078	-0.038605183
84	0xbb74bc0c	-0.003734353
85	0xbd77a503	-0.0604601
86	0xba5e376d	-0.0008476887
87	0x3cab6e24	0.020926543
88	0xbbfc1b73	-0.007693702
89	0xbd03ad69	-0.0321478
90	0x3d0c9047	0.03431728
91	0xbc6ce385	-0.014458542
92	0xbd1a9220	-0.037737012
93	0xbd5c1a95	-0.053736288
94	0xbc0a5100	-0.0084421635
95	0xbd98bf70	-0.07458389
96	0x3da2fec7	0.07958751
97	0xbd1373b8	-0.03599903
98	0xbd0cad1b	-0.034344774
99	0x3c326377	0.010887972
100	0x3d092972	0.03348679
101	0x3b22b0e6	0.0024824678
102	0x3d8e2b3c	0.0694184
103	0xbd2f164c	-0.042745873
104	0x3d2b5b5e	0.04183518
105	0x3c205e71	0.009788142
106	0xbd8405e9	-0.0644644
107	0xbcc8c7c9	-0.024509327
108	0x3cbd0d36	0.023077589
109	0x3c8ee156	0.017441433
110	0x3d908d3a	0.07058187
111	0x3d8597bc	0.06523082
112	0xbd1ff94c	-0.039056107
113	0xbce5ca44	-0.02805055
114	0xbc98e9f9	-0.018666254
115	0xbd80ef96	-0.062956974
116	0xbc820261	-0.015870275
117	0xbd838d1f	-0.06423401
118	0x3d29b659	0.041433666
119	0x3d90e9cc	0.07075843
120	0x3c05b8cf	0.008161738
121	0xbd7aa212	-0.06118972
122	0xbd747832	-0.05968494
123	0xbcdd8c97	-0.027044578
124	0x3d0235ef	0.031789716
125	0x3c113cfa	0.008864636
126	0x3caf990f	0.021435289
127	0x3db5d22c	0.08877978
128	0x3d21dba9	0.039516125
129	0x3c9142c8	0.01773204
130	0xbc380ed4	-0.011234004
131	0x3d482293	0.048861098
132	0x3ce764f4	0.02824638
133	0xbdac2d0b	-0.08407029
134	0xbd569d5d	-0.052396167
135	0x3b1035e6	0.0022004782
136	0x3d1a7e83	0.037718307
137	0x3d420077	0.047363725
138	0xbd3013e6	-0.042987727
139	0xbd9fd942	-0.078051105
140	0xbbee091a	-0.0072642686
141	0xbc591fe7	-0.013252235
142	0x3d09ed7e	0.033673756
143	0xbc80c5cb	-0.015719315
144	0x3d9d0431	0.07666815
145	0x3c7e1e34	0.015510131
146	0x3d8b3b1d	0.06798384
147	0xbd6c61de	-0.05771052
148	0x3d0d3160	0.034470916
149	0x3c1d3f96	0.00959768
150	0xbd4a692f	-0.049416717
151	0x3d21ef80	0.039535046
152	0xbdae5bf1	-0.0851363
153	0x3d9229aa	0.07136853
154	0x3c86f6c6	0.016475093
155	0x3c90a33b	0.01765596
156	0x3d395979	0.045251343
157	0x3c411542	0.011784853
158	0x3d32a928	0.04361835
159	0x3d812a83	0.063069366
160	0xbd82c272	-0.06384744
161	0x3d82afab	0.06381162
162	0xbbba784f	-0.0056906114
163	0xbc4ea224	-0.0126118995
164	0x3ca0e8e8	0.019642308
165	0x3d912a5b	0.07088157
166	0xbd356204	-0.044282928
167	0xbd657072	-0.05601544
168	0x3d784735	0.060614783
169	0xbd10e19c	-0.035371408
170	0x3cfaab05	0.030599127
171	0xbc2caa75	-0.010538687
172	0x3cc78cd2	0.02435914
173	0x3d91333f	0.070898525
174	0xbd334df6	-0.04377552
175	0xbd245d8b	-0.040128272
176	0x3d32e59d	0.043676008
177	0x3baec8c1	0.0053339903
178	0xbb4ac61f	-0.0030940843
179	0xbd8fde35	-0.070248045
180	0x3d9b66a3	0.07587936
181	0xbb48e715	-0.0030655314
182	0xbc0262da	-0.007958138
183	0xbcdf8e97	-0.027289672
184	0xbc9560d1	-0.018234642
185	0x3d2d6cc4	0.042340055
186	0xbb2b826e	-0.0026170271
187	0x3d9c74c1	0.076394565
188	0xbb111976	-0.002214042
189	0xbc27e0ed	-0.010246498
190	0x3d5b0ec8	0.053480893
191	0x3afe6dc2	0.0019411372
192	0xbc86827f	-0.016419647
193	0x3cfa48f5	0.030552367
194	0x3d9d22b6	0.07672636
195	0x3cee93c9	0.029123204
196	0x3d889d7b	0.06670662
197	0x3d8067d2	0.06269802
198	0x3ca9e203	0.020737654
199	0x3cd5ccba	0.026098598
200	0x3d0e65a8	0.034764916
201	0x3c82cfcf	0.015968231
202	0x3d9e9b3f	0.077444546
203	0x3dadab23	0.08479907
204	0x3d237bc0	0.03991294
205	0x3b919229	0.0044424725
206	0x3dac9350	0.08426535
207	0xbd81dd33	-0.063410185
208	0x3d8b431c	0.067999095
209	0x3d4c86b0	0.049933136
210	0x3d649815	0.0558091
211	0xbc040fdb	-0.008060421
212	0xbd865963	-0.06560018
213	0x3d80219e	0.06256412
214	0xbd0d9621	-0.034567002
215	0x3ce1c90d	0.027561689
216	0x3d5e2e9e	0.054243676
217	0xbda041d7	-0.07825058
218	0x3b7b6e2f	0.0038365235
219	0xbcff34e7	-0.031153155
220	0x3d75d0a3	0.060013425
221	0xbd6f9bbb	-0.058498126
222	0x3d498064	0.04919471
223	0x3d4f7423	0.050647866
224	0x3d64b49f	0.055836316
225	0x3dbd7a3d	0.09251831
226	0x3c86019b	0.016358187
227	0xbd9ddca6	-0.07708101
228	0x3d905908	0.07048231
229	0x3c83283b	0.016010394
230	0x3c31a8e0	0.010843486
231	0xbd98b975	-0.07457248
232	0xbc287cca	-0.010283658
233	0xbd089347	-0.03334358
234	0x3db8dfd7	0.09027069
235	0x3d89a5a3	0.06721046
236	0x3d7b01b7	0.061280932
237	0x3d68e072	0.056854673
238	0xbd47866e	-0.048712187
239	0xbd003575	-0.03130098
240	0xbd072468	-0.032993704
241	0xbd0ab549	-0.033864293
242	0x3d9e5c20	0.07732415
243	0x3d1f41b1	0.038881008
244	0x3d9ddbc2	0.07707931
245	0x3ac209eb	0.0014803981
246	0xbd8f37b4	-0.069930464
247	0xbc8b1ad1	-0.01698056
248	0x3d68b1ea	0.056810297
249	0x3d4bab93	0.049724173
250	0x3d1b7f4d	0.0379632
251	0xbc7530e9	-0.014965274
252	0xbda02172	-0.07818879
253	0xbd30dec5	-0.0431812
254	0x3d405b17	0.04696187
255	0xbd0f3d33	-0.034970473

vehicle_encoder.lstm.weight_hh_l0 f4 [512, 128]
0	0x3d75581b	0.059898477
1	0xbb595f20	-0.0033168271
2	0x3b8df722	0.004332439
3	0x3da23525	0.07920293
4	0x3ce377dc	0.027767114
5	0x3dc007f4	0.09376517
6	0x3da8f137	0.08249133
7	0xbd3dd399	-0.046344373
8	0x3d2cf15f	0.042222377
9	0x3d06e37f	0.0329318
10	0xbd552aee	-0.052042894
11	0x3d0186c8	0.031622678
12	0xbd102d67	-0.03519955
13	0xbd2b7818	-0.041862577
14	0x3c4bf988	0.01244963
15	0xba92c5d8	-0.0011197878
16	0xbc9e78f7	-0.01934479
17	0xbd4210ce	-0.047379307
18	0x3d67bbd8	0.056575626
19	0x3da2e363	0.07953527
20	0xbc129a50	-0.008947924
21	0xbd90420b	-0.07043847
22	0x3bdb5d38	0.006694462
23	0xbdb1898b	-0.08668812
24	0xbda98b60	-0.08278537
25	0xbc9f78b0	-0.019466728
26	0x3d7c32fd	0.061572064
27	0xbd97c188	-0.0740996
28	0xbb30b582	-0.0026963656
29	0xbd6c1f81	-0.057647232
30	0xbdbc0d20	-0.09182191
31	0xbcff8768	-0.031192496
32	0x3bb6073f	0.005555063
33	0xbb92c495	-0.004479001
34	0x3d944a80	0.07240772
35	0x3cd8d508	0.026468769
36	0x3d35b532	0.044362254
37	0x3cce5aaa	0.025189716
38	0x3c97d809	0.01853563
39	0x3d6e4772	0.058173604
40	0xbd8a393a	-0.06749196
41	0x3d5fa2a7	0.054598477
42	0x3d2fcae0	0.042918086
43	0xbcd968ed	-0.02653929
44	0xbb1db7d7	-0.0024065876
45	0xbd9f9be2	-0.07793404
46	0xbdb70b37	-0.08937686
47	0xbc50d898	-0.0127469525
48	0x3cdb1776	0.026744585
49	0xbc5a82e2	-0.013336869
50	0x3c78c1d3	0.01518293
51	0xbd6a0d56	-0.057141624
52	0xbd18a9d5	-0.03727134
53	0x3d49acb4	0.04923697
54	0xbd9b989c	-0.07597467
55	0x3b681097	0.003541028
56	0x3da32409	0.079658575
57	0x3d640e0a	0.05567745
58	0x3c9df123	0.019280022
59	0xbd8e0b00	-0.06935692
60	0x3caf4abf	0.021397946
61	0xbca2ece4	-0.019888349
62	0xbc554fd7	-0.013019524
63	0x3da08bb3	0.078391455
64	0xbd1e88fd	-0.03870486
65	0xbd584eaa	-0.052809395
66	0xbda5fc92	-0.081048146
67	0x3d839b19	0.06426067
68	0x3c804cfd	0.01566171
69	0x3dcaf78b	0.09910496
70	0x3ced7629	0.028987007
71	0xbd920564	-0.071299344
72	0x3d0a2381	0.033725265
73	0x3d8f5e52	0.07000412
74	0x3d797a38	0.060907573
75	0x3d0db1d1	0.034593407
76	0xbd7f2b22	-0.062296994
77	0xbd2adcdc	-0.041714534
78	0x3d901e80	0.070370674
79	0xbd906bae	-0.07051788
80	0x3cfadd90	0.030623227
81	0xb8878812	-6.462647e-05
82	0x3d24e9ac	0.04026191
83	0x3c840be5	0.016118953
84	0xbda04477	-0.07825559
85	0xbcd82593	-0.026385104
86	0x3daf4eb5	0.08559934
87	0x3a83d412	0.0010057709
88	0x3d1088d9	0.035286758
89	0xbd0a1c58	-0.033718437
90	0x3d98cd80	0.07461071
91	0xbcf7bc63	-0.030241197
92	0xbc9e460c	-0.01932051
93	0x3c0e5216	0.008686563
94	0xbd2b88f6	-0.041878663
95	0xbd3e33b9	-0.046436045
96	0xbca67734	-0.020320512
97	0xbc864433	-0.016389942
98	0xbd21f2b1	-0.03953809
99	0x3d21928f	0.03944641
100	0xbd998e3b	-0.074978314
101	0x3d32303a	0.043503024
102	0x3dbe7ed2	0.09301533
103	0x3b2b10f6	0.0026102639
104	0xbcff3979	-0.031155335
105	0xbd9064ec	-0.07050499
106	0x3d095619	0.033529375
107	0x3d7bad80	0.06144476
108	0x3db09f15	0.086240925
109	0x3c576746	0.013147181
110	0x3d17bc27	0.03704467
111	0x3d9a5504	0.07535747
112	0x3cca1869	0.024669843
113	0xbd03d8ac	-0.032189056
114	0xbdc273f9	-0.09494776
115	0x3cdfee40	0.027335286
116	0x3cba7e10	0.02276519
117	0x3d8be7d2	0.068313256
118	0xbd33e258	-0.04391703
119	0x3d4e4456	0.05035814
120	0xbd2004e6	-0.03906717
121	0xbd074be6	-0.033031367
122	0x3d23edea	0.040021814
123	0xbd907b8f	-0.07054817
124	0x3d9842f0	0.07434642
125	0x3ced8940	0.02899611
126	0xbd8185dd	-0.063243605
127	0x3d0e088f	0.03467613
128	0xbca5308d	-0.020164752
129	0x3c222461	0.009896369
130	0xbcd25bfe	-0.02567863
131	0xbdb51ee7	-0.08843785
132	0xbbe20e92	-0.0068987096
133	0x3d296f63	0.041365992
134	0xbc555008	-0.013019569
135	0xbd3b09cc	-0.04566364
136	0x3bc7dcc7	0.0060993168
137	0x3c95e8b7	0.018299444
138	0xbcdacfe9	-0.026710467
139	0xbd885f3b	-0.06658789
140	0xbd4a7d68	-0.049436003
141	0xbc87c26a	-0.016572196
142	0x3cf4a4ba	0.029863704
143	0x3d9d60e6	0.076844975
144	0xb908dae4	-0.00013051514
145	0x3cf11c4d	0.02943244
146	0x3d483c4f	0.04888564
147	0xbd17c0cb	-0.037049096
148	0xbcfa8d5a	-0.03058498
149	0x3d789144	0.06068541
150	0x3d7a1e5f	0.06106412
151	0x3cbe113b	0.023201576
152	0xbd87d838	-0.06633037
153	0x3d45a733	0.048255157
154	0xbd97be87	-0.07409387
155	0x3d3b952a	0.04579655
156	0x3c058879	0.008150213
157	0x3cffb77b	0.03121542
158	0xbdab5864	-0.083664685
159	0xbce993f9	-0.028512942
160	0x3d120138	0.035645694
161	0x3d86d59d	0.06583712
162	0xbcdae3c3	-0.026719933
163	0x3da43283	0.08017447
164	0xbc8f0ae5	-0.01746125
165	0xbd54c03a	-0.051941134
166	0xbd22d6d0	-0.039755642
167	0x3b876877	0.004132326
168	0xbc564d1a	-0.013079906
169	0x3d271964	0.0407957
170	0xbd490f83	-0.04908706
171	0xbcdf9f0f	-0.027297525
172	0xbdb5eb3f	-0.0888276
173	0x3d97e7d3	0.07417264
174	0xbc6742b7	-0.014115027
175	0xbd87e923	-0.06636264
176	0xbbd97575	-0.0066363164
177	0xbb30bbec	-0.002696748
178	0x3cdb4ae9	0.026769118
179	0xbc447df1	-0.011992917
180	0x3d5c1446	0.05373027
181	0xbce1b243	-0.027550822
182	0xbce72487	-0.02821566
183	0xbc9b4c8c	-0.018957399
184	0x3c556b21	0.01302603
185	0x3d9571cd	0.072970964
186	0xbb032af4	-0.0020014616
187	0x3d863512	0.06553091
188	0x3d89d09e	0.06729244
189	0xbd459dc7	-0.04824617
190	0xbc31b8ce	-0.0108472835
191	0xbd326520	-0.04355347
192	0x3d1dcd46	0.038525842
193	0xbd05e4ec	-0.03268902
194	0x3cee9d35	0.029127697
195	0x3b889616	0.0041682823
196	0xbd77f50e	-0.060536437
197	0xbd7c18bf	-0.061547037
198	0xbdb60857	-0.088883094
199	0xbd543e2c	-0.051817104
200	0x3caf4466	0.02139492
201	0x3c002acd	0.0078227045
202	0x3d84b647	0.06480079
203	0xbda2abeb	-0.07942947
204	0xbb54f3bc	-0.003249391
205	0xbda55116	-0.080721065
206	0xbaaa5f82	-0.0012998434
207	0x3d0f28b5	0.03495093
208	0xbda6319b	-0.0811493
209	0x3d9b2361	0.07575107
210	0xbcf29b2a	-0.029615004
211	0x3d9c4c9e	0.07631801
212	0xbc5032ac	-0.012707394
213	0x3d48c793	0.049018454
214	0x3da220df	0.07916426
215	0xbd05410e	-0.032532744
216	0xbca9da78	-0.020734057
217	0x3d359805	0.04433443
218	0xbd9c4259	-0.07629842
219	0x3d60113f	0.054703947
220	0xbd6c072e	-0.057624035
221	0x3daa327b	0.0831041
222	0xbd647d6a	-0.055783667
223	0xbd0afffc	-0.033935532
224	0x3d8a5f17	0.06756418
225	0xbd12b326	-0.03581538
226	0x3d971781	0.0737753
227	0x3d72df8b	0.05929522
228	0x3da20b28	0.07912284
229	0xbdab1a7f	-0.08354663
230	0xba878d8e	-0.0010341869
231	0xbcd7c96a	-0.026341159
232	0x3cbe3827	0.023220135
233	0xbd8d1b83	-0.06890013
234	0x3d1a05af	0.037603077
235	0xbafa8880	-0.0019114166
236	0xbd32981c	-0.043602094
237	0xbda2de43	-0.07952549
238	0x3d355cef	0.04427808
239	0xbcfaf58d	-0.030634666
240	0x3d7fd18d	0.062455703
241	0x3c6a7896	0.0143109765
242	0x3ceefe8c	0.029174112
243	0xbc3162ff	-0.010826825
244	0xbc258736	-0.010103038
245	0xbce4f4af	-0.027948705
246	0xbda1ef90	-0.07907021
247	0x3d58c827	0.052925255
248	0xbd5d9028	-0.054092556
249	0x3d5c6f12	0.053816862
250	0xbce159e1	-0.027508678
251	0x3d5b2800	0.053504944
252	0x3d971bb8	0.07378334
253	0xbd5111cd	-0.051042367
254	0x3d993c41	0.07482196
255	0x3b8db3cf	0.0043244134

vehicle_encoder.lstm.bias_ih_l0 f4 [512]
0	0xbc3cc92a	-0.011522571
1	0xbdae8e2a	-0.085232094
2	0x3d552be1	0.0520438
3	0x3b86c1d7	0.004112463
4	0x3d276256	0.040865265
5	0xbcdd8fd7	-0.027046127
6	0xbd3ed5df	-0.046590682
7	0x3db57213	0.088596486
8	0x3d020098	0.031738847
9	0x3cfbf10b	0.030754587
10	0x3d84c1e8	0.06482297
11	0x3d48d1bb	0.04902814
12	0x3cb2dcf3	0.021833872
13	0xbd280a3e	-0.041025393
14	0x3d11e287	0.035616424
15	0x3d7a2312	0.061068602
16	0x3d9e6e7d	0.07735918
17	0x3b008940	0.0019613057
18	0xbd9dd4d9	-0.07706613
19	0xbd5be05a	-0.053680755
20	0x3d6a7e09	0.057249103
21	0x3db0b647	0.08628517
22	0x3d8511ad	0.06497512
23	0x3d52afc7	0.051437166
24	0x3dbc14e5	0.09183673
25	0xbcc2e994	-0.02379302
26	0x3d8913be	0.06693219
27	0xbc3793da	-0.011204684
28	0x3d9964aa	0.07489903
29	0x3d51ed8f	0.051251944
30	0xbbf24e1b	-0.007394565
31	0xbad65202	-0.0016351345
32	0x3d3d524d	0.046221066
33	0xbca1cc39	-0.019750701
34	0xbbf64938	-0.0075160526
35	0x3d01b142	0.031663187
36	0xbd31784d	-0.04332762
37	0xbc93f2e8	-0.018060163
38	0x3d3e1e95	0.046415884
39	0x3cb224ae	0.021746006
40	0x3d95540a	0.0729142
41	0x3cc3d689	0.02390601
42	0x3d3fcb6e	0.046824865
43	0x3c410897	0.011781833
44	0xbcc6215a	-0.024185825
45	0xbc87c792	-0.016574655
46	0x3d6cfd78	0.057858914
47	0x3c89398b	0.016751071
48	0xbc7f43e6	-0.015580153
49	0xbd8c63dc	-0.06854984
50	0xbd066c54	-0.032818154
51	0x3d946cd6	0.07247321
52	0x3c8b62aa	0.01701482
53	0x3d5c70a2	0.053818353
54	0xbd910dff	-0.07082748
55	0x3db3b844	0.0877538
56	0x3d1f4cba	0.03889153
57	0x3d92bc23	0.071647905
58	0xbc8440bf	-0.016144155
59	0x3d9d7636	0.076885626
60	0xbd73df8b	-0.05953936
61	0x3cbf8bf9	0.023382174
62	0x3ca57d13	0.020201242
63	0xbd0e22d6	-0.03470119
64	0xbc0f37d9	-0.008741342
65	0x3d19ed76	0.037579976
66	0xbd380757	-0.044928875
67	0x3c0f1009	0.00873185
68	0x3ce254de	0.027628358
69	0xbd8d1c7e	-0.068902
70	0xbd10863f	-0.035284277
71	0x3d86e76d	0.0658711
72	0xbd585e90	-0.052824557
73	0x3bc769a4	0.0060855914
74	0x3d7d6eea	0.061873354
75	0xbce8eb8f	-0.028432636
76	0x3d6afcb6	0.05736991
77	0x3d5a4c09	0.05329517
78	0xbd22ac43	-0.039715063
79	0x3da96a8d	0.08272276
80	0x3d99d6dc	0.07511684
81	0x3d9e9ea4	0.07745102
82	0x3cd05a05	0.02543355
83	0x3d7aa1a4	0.06118931
84	0xbd02948f	-0.031879958
85	0xba05341a	-0.0005081311
86	0x3d9034c7	0.070413165
87	0xbd957906	-0.07298474
88	0x3c7c5146	0.0154002365
89	0x3daefff7	0.08544915
90	0x3af0ea49	0.0018380369
91	0xbcf51752	-0.029918347
92	0xbd86400f	-0.06555187
93	0xbd33bb9d	-0.043880094
94	0xbc96a44f	-0.018388895
95	0x3c52eb44	0.0128734745
96	0x3d175f1c	0.036955938
97	0xbd32ec15	-0.043682177
98	0xbd8f1fbd	-0.069884755
99	0xbc2fd546	-0.010732001
100	0xbca33a4e	-0.019925263
101	0xbd0d0ec4	-0.03443791
102	0xbd5421d6	-0.05179008
103	0x3c13ac9c	0.009013321
104	0x3b8b68db	0.004254443
105	0x3cae7fed	0.021301234
106	0x39ade6f3	0.00033169202
107	0xbd1d5e20	-0.038419843
108	0xbd1b6b76	-0.03794428
109	0x3b8f0dc9	0.004365657
110	0xbce0652f	-0.027391998
111	0xbc9f3d64	-0.019438453
112	0xbc882067	-0.016617013
113	0xbcb43277	-0.02199672
114	0x3db390be	0.08767842
115	0x3cb54184	0.022125967
116	0x3d9dbca6	0.077019975
117	0x3d5f65b4	0.05454035
118	0x3d87f2a8	0.0663808
119	0xbba3922b	-0.00499179
120	0xbd9402fd	-0.072271325
121	0xbd25c60c	-0.040472075
122	0xbb8a725e	-0.0042250594
123	0x3cf72afe	0.030171867
124	0xbcd37e14	-0.025816955
125	0xbd8fc53f	-0.070200436
126	0xbd35eb8b	-0.044414084
127	0x3d96a7bb	0.07356211
128	0xbd2a6e36	-0.04160901
129	0xbd7543e9	-0.059879217
130	0x3d905cce	0.07048951
131	0xbd0a7e3b	-0.03381179
132	0x3b8917a0	0.0041837245
133	0x3daa3a07	0.08311849
134	0x3da5ed47	0.08101898
135	0x3daf4ef4	0.08559981
136	0xbd470d7e	-0.04859685
137	0x3c9c8922	0.019108359
138	0x3a145515	0.000565843
139	0x3c30286d	0.010751826
140	0x3dbaa3e8	0.09113294
141	0x3d563807	0.052299526
142	0xbd8a6076	-0.0675668
143	0x3da85ac8	0.0822044
144	0x3dace6d7	0.08442467
145	0xbd83edb9	-0.064418264
146	0xbd85a082	-0.06524755
147	0x3d89a1df	0.067203276
148	0xbc9f08fe	-0.019413467
149	0xbd80e3ca	-0.06293447
150	0x3d4143f7	0.047183957
151	0x3c0c0f58	0.00854858
152	0x3d7dff16	0.062010847
153	0xbd7c46d3	-0.06159098
154	0x3dad52b3	0.08463039
155	0xbcde0e89	-0.02710654
156	0xbd2966a8	-0.041357666
157	0x3d3071e5	0.04307737
158	0xbd984e30	-0.07436788
159	0xbd75be86	-0.05999615
160	0xbc1517c9	-0.009099909
161	0x3c22ebbb	0.009943898
162	0xbd12e1ac	-0.03585975
163	0xbbcba71e	-0.0062149903
164	0xbda8965a	-0.08231802
165	0x3d7f3114	0.062302664
166	0xbc1b1163	-0.009464595
167	0x3c816450	0.015794903
168	0x3d7b3d2b	0.06133763
169	0x3d37ce34	0.044874385
170	0x3d993816	0.07481401
171	0x3d735cda	0.059414722
172	0x3cab56f3	0.020915484
173	0xbd346005	-0.044036884
174	0x3d980b0b	0.07423981
175	0xbbe2b707	-0.006918791
176	0x3d3c7c35	0.04601689
177	0x3db21023	0.08694484
178	0xbd20480d	-0.039131213
179	0xb73d4d68	-1.12833e-05
180	0xbd50b5a6	-0.050954483
181	0x3bb49ee3	0.005512105
182	0xbca82927	-0.020527435
183	0xbd5e2a92	-0.054239817
184	0xbc9c2ef0	-0.01906535
185	0x3d0e5587	0.034749534
186	0xbd640c4b	-0.055675786
187	0xba67fce7	-0.0008849636
188	0x3d87ff56	0.06640498
189	0x3dab64b5	0.08368818
190	0xbd9ecb0f	-0.07753574
191	0x3d7b1403	0.06129838
192	0x3c3a2b7b	0.011362906
193	0x3d156135	0.036469657
194	0x3d4ffa97	0.05077609
195	0x3d90949c	0.07059595
196	0xbd1f0160	-0.03881967
197	0x3da5bd64	0.08092764
198	0xbbf50e70	-0.0074785277
199	0x3cc6e3ff	0.024278639
200	0x3d254003	0.04034425
201	0xbd98862d	-0.07447467
202	0xbd25eb1b	-0.040507417
203	0xbdbd85ad	-0.09254012
204	0x3c82e234	0.015977003
205	0x3d64f2ce	0.05589562
206	0xbce24f98	-0.027625844
207	0x3d00f5e0	0.031484485
208	0xbbfe1146	-0.007753524
209	0xbc96f2c4	-0.018426307
210	0xbd745494	-0.059650972
211	0x3d1d3d65	0.03838863
212	0xba3b2011	-0.0007138262
213	0x3d254add	0.0403546
214	0x3db062b0	0.08612573
215	0xbd891639	-0.06693692
216	0xbbaa6492	-0.005199977
217	0xbc92d991	-0.01792601
218	0x3d618c72	0.05506558
219	0x3db104eb	0.08643516
220	0x3d91f793	0.07127299
221	0xbb81d919	-0.0039626476
222	0x3cf02760	0.02931565
223	0xbcdbe10f	-0.026840715
224	0xbdae710b	-0.08517655
225	0xbda458fb	-0.08024784
226	0x3d1d21c4	0.03836228
227	0xbd903017	-0.070404224
228	0xbd336655	-0.043798763
229	0x3cea541f	0.028604565
230	0xbd8dea6d	-0.06929479
231	0x3d7eb100	0.06218052
232	0x3d875138	0.06607288
233	0xbbe55fb9	-0.0069999364
234	0x3cdc74fe	0.026911255
235	0x3d84426b	0.06457981
236	0x3d1cb565	0.03825893
237	0xbda8bd6c	-0.08239254
238	0x3cefff80	0.029296637
239	0xbdbc8c92	-0.09206499
240	0xbd3bf503	-0.04588796
241	0xbdae90f5	-0.08523742
242	0xbd205b82	-0.03914977
243	0x3c16a9c5	0.00919575
244	0x3c826977	0.01591943
245	0x3c224983	0.009905222
246	0x38ff97ea	0.00012187644
247	0xbd8ddc47	-0.0692678
248	0x3c96f7a7	0.018428637
249	0xbc905cc2	-0.017622355
250	0x3d7f38fc	0.062310204
251	0x3dad3b85	0.08458618
252	0xbc29f3f6	-0.010373106
253	0x3c94ebb2	0.018178795
254	0xbd3a6ee0	-0.045515895
255	0x3d1b3e3f	0.03790116

vehicle_encoder.lstm.bias_hh_l0 f4 [512]
0	0xbd7aef67	-0.061263468
1	0x3ba1017a	0.004913506
2	0x3dc28e0d	0.0949975
3	0x3dbdeb32	0.092733756
4	0x3d9aa96b	0.07551845
5	0xbda028e4	-0.07820299
6	0x3da2fbb2	0.07958163
7	0x3c0dd9cd	0.008657885
8	0x3dba2aae	0.09090172
9	0xbc283f80	-0.010269046
10	0xbd0789b6	-0.033090316
11	0x3d6c4493	0.057682585
12	0x3c06068d	0.008180273
13	0xbd8dbc3b	-0.06920668
14	0x3b5ecfaa	0.003399829
15	0x3cc0a56a	0.023516376
16	0xbc347546	-0.011014288
17	0xbd5002c9	-0.050783906
18	0xbd1fff9c	-0.039062127
19	0xbc4e61ba	-0.012596542
20	0xbc9301a1	-0.017945113
21	0x3dbceaaf	0.0922445
22	0xbd50d3d6	-0.050983272
23	0x3d3b53a7	0.045734074
24	0xbd6f4c0d	-0.058422137
25	0xbcb1f534	-0.021723367
26	0xbd3d3522	-0.04619325
27	0x3be2118f	0.006899066
28	0xbd900704	-0.07032588
29	0x3d751bc7	0.059840944
30	0xbcc7c105	-0.024384031
31	0x3d686689	0.05673841
32	0x3c4347a2	0.011918934
33	0xbd56e853	-0.052467655
34	0x3d9fcd30	0.07802808
35	0xbdaba604	-0.08381274
36	0xbd6a27c1	-0.05716682
37	0xbd3a26a3	-0.045447003
38	0x3d907ac8	0.07054669
39	0xbd229f34	-0.03970261
40	0x3d5feca0	0.054669023
41	0x3d9a7a33	0.07542839
42	0x3d8fc39d	0.07019732
43	0x3d12645d	0.035740245
44	0x3d4daf33	0.05021591
45	0x3da31981	0.07963849
46	0xbd20ee14	-0.03928955
47	0x3d967ac1	0.07347632
48	0xbd9e6833	-0.07734718
49	0xbd33fab7	-0.043940272
50	0x3c0f85b1	0.008759902
51	0xbc903fc1	-0.017608525
52	0xbbffebb0	-0.0078100786
53	0x3d659c96	0.056057535
54	0x3bc5c419	0.0060353396
55	0x3ce59278	0.028023943
56	0x3c92238b	0.017839214
57	0xbcffc15b	-0.031220129
58	0x3dbbf106	0.09176831
59	0x3d5e7f39	0.054320548
60	0xbd220a39	-0.03956053
61	0xbd89791d	-0.06712554
62	0xbc51c401	-0.012803079
63	0xbd411a31	-0.04714412
64	0xbd666e52	-0.056257553
65	0xbd8122bb	-0.063054524
66	0x3d8f8e28	0.07009536
67	0xbd2b6a79	-0.041849587
68	0x3b82101d	0.003969206
69	0xbd6fc77f	-0.058539864
70	0x3d9dfda8	0.07714397
71	0xbd5c9383	-0.053851616
72	0xbaf3bbc1	-0.0018595384
73	0xbda9ef49	-0.08297593
74	0x3d480b6a	0.04883901
75	0x3d1c70c1	0.038193468
76	0x3c93bb64	0.01803369
77	0x3d98c5a4	0.07459572
78	0xbda31c2c	-0.07964358
79	0x3d12bed2	0.03582651
80	0x3cf3d5d4	0.029765047
81	0xbd3abf3d	-0.045592535
82	0x3d7c6adf	0.061625358
83	0xbd8f5c8d	-0.070000745
84	0x3dbbdc9b	0.091729365
85	0x3cf407a5	0.029788801
86	0x3d95a7a7	0.07307368
87	0xbd219fe2	-0.039459117
88	0x3db2f94e	0.08738957
89	0xbd3573c0	-0.04429984
90	0xbc8546cb	-0.016269108
91	0xbd44e5f6	-0.04807087
92	0x3d8538c1	0.065049656
93	0xbd0b57fd	-0.03401946
94	0x3da9c2a8	0.08289081
95	0x3c1b3132	0.009472178
96	0x3d97b2d6	0.07407157
97	0x3ce79e50	0.028273731
98	0xbcca876c	-0.024722777
99	0x3d8d71af	0.06906449
100	0x3d98e7bc	0.07466075
101	0xba531d90	-0.00080534164
102	0xbc47792e	-0.012174888
103	0x3d7bf0e2	0.06150902
104	0xbd4168ab	-0.04721896
105	0x3cfb6e7e	0.030692335
106	0xbbc3aff1	-0.0059719016
107	0x3d3439af	0.044000324
108	0xbd27677c	-0.040870175
109	0xbd7e5be3	-0.06209935
110	0x3d85808a	0.065186575
111	0xbda5c8b0	-0.08094919
112	0x3d5986b3	0.053106975
113	0xbccc850b	-0.024965784
114	0x3d01abb0	0.031657875
115	0xbd99c901	-0.075090416
116	0x3c038843	0.008028093
117	0x3d3ecee8	0.04658404
118	0xbce0fdb6	-0.027464729
119	0x3c1777fb	0.009244914
120	0xbd27696f	-0.040872034
121	0x3d1cb32a	0.0382568
122	0x3d521778	0.051291913
123	0x3c7acc8c	0.015307557
124	0x3bd7eb8d	0.006589359
125	0xbd6d23ce	-0.057895474
126	0x3d55ffd3	0.052245926
127	0xbd512e4f	-0.051069554
128	0xbd48cca1	-0.049023274
129	0x390b6157	0.00013292335
130	0x3c24c7cb	0.0100574
131	0xbd8a9c1e	-0.06768058
132	0xbd8a1546	-0.06742339
133	0xbd6c8b1b	-0.05774985
134	0xbd991f7c	-0.07476708
135	0xbd822e09	-0.06356437
136	0x3d803e2c	0.06261858
137	0xbd160e0c	-0.03663449
138	0x3db4ffc9	0.0883785
139	0xbd7da6ea	-0.06192676
140	0xbc547b94	-0.012968916
141	0xbc2a9f44	-0.010413948
142	0x3da96671	0.08271492
143	0x3d141208	0.03615001
144	0x3c8840c4	0.016632445
145	0xbd0f7d07	-0.035031345
146	0x3d563ea1	0.05230582
147	0xbd90d750	-0.070723176
148	0x3ce2670c	0.027637027
149	0x3d802d60	0.062586546
150	0x3d1148aa	0.03546969
151	0x3d4cf210	0.050035536
152	0xbc40e86c	-0.011774164
153	0x3d93c2ba	0.072148755
154	0x3bffe21b	0.0078089363
155	0x3d36d4d0	0.044636548
156	0x3c8d613c	0.017258279
157	0x3cb5af2a	0.022178251
158	0xbd8ea2eb	-0.06964668
159	0x3d8982d8	0.067144096
160	0xbd9ef6e2	-0.07761933
161	0xbd118191	-0.035523955
162	0x3c1e0747	0.00964529
163	0x3cf7521c	0.03019052
164	0xbd46b232	-0.048509784
165	0xbd093ead	-0.033507038
166	0xbd1abe65	-0.03777923
167	0xbdad8ba7	-0.08473902
168	0xbd8ef044	-0.06979421
169	0x3cc0aa8e	0.023518827
170	0x3bd86581	0.006603897
171	0xbc570b0d	-0.013125193
172	0x3d18fe78	0.037352055
173	0x3d1f6b77	0.038920846
174	0xbd840cef	-0.064477794
175	0x37858970	1.5918835e-05
176	0x3c74eaa4	0.014948521
177	0xbc8b0a1a	-0.01697259
178	0x3da59864	0.08085707
179	0xbd42bd62	-0.04754389
180	0x3d52faff	0.0515089
181	0x3d73904e	0.05946379
182	0xbd88a45a	-0.066719726
183	0xbd85bb59	-0.06529874
184	0x3d6b8379	0.05749843
185	0xbd2aab7c	-0.041667446
186	0x3d963d96	0.07335965
187	0x3c742a5b	0.014902676
188	0xbbd5ce26	-0.006524819
189	0x3da9b529	0.08286507
190	0xbc768803	-0.015047076
191	0x3c6b8319	0.014374518
192	0xbd7c8a0b	-0.061655086
193	0x3b32b2db	0.002726725
194	0x3d9aa54b	0.075510584
195	0x3da3ffa4	0.08007744
196	0xbd088962	-0.033334143
197	0xbcde4669	-0.027133184
198	0x3d99861d	0.07496283
199	0x3db150be	0.086579785
200	0xbba881d2	-0.005142429
201	0xbbc63df6	-0.006049867
202	0xbd7f420d	-0.06231885
203	0xbda8df15	-0.082456745
204	0x3bbe1112	0.005800375
205	0xbd713e5a	-0.058897354
206	0x3d35a342	0.044345148
207	0x3d9da266	0.07696991
208	0xbcea7289	-0.028619068
209	0xbd4088bc	-0.0470054
210	0xbda4cedd	-0.080472685
211	0xbaa5c040	-0.0012645796
212	0xbcf6cae0	-0.030126035
213	0x3db8198e	0.08989249
214	0x3d4239d3	0.047418427
215	0x3d92f788	0.07176119
216	0x3d9cab93	0.07649913
217	0x3c5c9059	0.01346215
218	0xbd5484c6	-0.051884435
219	0xbbe76d2f	-0.0070625762
220	0xbd9540f0	-0.072877765
221	0xbd48295d	-0.048867572
222	0xbd9c1b8d	-0.076224424
223	0x3d13a084	0.03604175
224	0xbd889b5a	-0.06670256
225	0x3c0efc9e	0.008727221
226	0x3d92b460	0.0716331
227	0xbc893111	-0.01674703
228	0x3d9945ff	0.07484054
229	0x3c8be24a	0.017075676
230	0xbc6da615	-0.014504929
231	0x3d023042	0.031784303
232	0x3daa2feb	0.08309921
233	0x3d29c5bb	0.041448336
234	0xbd96c9a4	-0.07362679
235	0xbc7bc59f	-0.015366941
236	0xbc8d99c4	-0.017285235
237	0xbd1eec42	-0.03879953
238	0xbc16f42d	-0.0092134895
239	0xbdae1def	-0.08501803
240	0x3d9984c0	0.07496023
241	0xbd615cde	-0.055020206
242	0x3d52b988	0.051446468
243	0x3d0b902c	0.03407304
244	0x3d14be41	0.036314253
245	0xbd82f54e	-0.063944444
246	0xbd8781c4	-0.06616548
247	0xbd850d9c	-0.064967364
248	0x3d547300	0.051867485
249	0x3d8a48ac	0.06752142
250	0x3cd49082	0.025947813
251	0x3d2c40c2	0.042053945
252	0x3d09c8a7	0.033638623
253	0x3d2e2083	0.042511474
254	0xbd37223a	-0.044710375
255	0x3cbe7fd0	0.023254305

attention.wq.weight f4 [128, 128]
0	0xbd1b469f	-0.037909146
1	0x3d9f3c10	0.07775128
2	0xbda2a24b	-0.07941111
3	0x3d2798cc	0.040917203
4	0xbd74b0a6	-0.059738778
5	0xbd254615	-0.04035004
6	0xbd249877	-0.040184464
7	0xbd791dca	-0.060819425
8	0x3c724fdc	0.014789548
9	0x3af3cd5b	0.0018600629
10	0x3d5c3782	0.053763874
11	0xbd34541b	-0.04402552
12	0xbc23ca50	-0.0099969655
13	0xbd873162	-0.06601216
14	0x3d3d7cc1	0.046261553
15	0x3c3b9f96	0.0114516225
16	0xbd1706b8	-0.036871642
17	0x3ce8a50d	0.028399015
18	0xbd99e1f5	-0.07513801
19	0x3d9e2b32	0.077230826
20	0xbd05bce6	-0.03265085
21	0x3d58ce2d	0.052931
22	0xbd70cc6e	-0.05878871
23	0xbda4c6df	-0.08045744
24	0xbb864f0c	-0.0040987786
25	0x3c2a807b	0.010406609
26	0x3d53cac9	0.051707063
27	0x3c70ae7b	0.014690037
28	0x3db5c7d5	0.088760056
29	0x3cb57f4c	0.022155426
30	0xbcb5255a	-0.022112537
31	0x3caf7d24	0.021421976
32	0xbd9b8084	-0.07592872
33	0x3cedfd71	0.029051514
34	0x3bb4fc68	0.005523253
35	0xbd913803	-0.070907615
36	0x3d1f569c	0.038900957
37	0xbcf36439	-0.029710876
38	0xba8073ed	-0.0009800174
39	0x3bbd0e55	0.005769531
40	0xbc7ebd1f	-0.01554802
41	0x3c910238	0.017701253
42	0x3dac3808	0.084091246
43	0x3c4350e5	0.011921142
44	0x3bf7ef5c	0.0075663757
45	0xbd6c2ae4	-0.05765809
46	0xbc08cb7a	-0.008349294
47	0x3ca2e6e5	0.01988549
48	0x3d7f9bf1	0.062404577
49	0x3daf4363	0.08557775
50	0x3be0f6fd	0.006865381
51	0x3c8b6c1c	0.017019324
52	0xbcc18b14	-0.023625888
53	0xbd87b252	-0.06625809
54	0x3d3c3af5	0.045954663
55	0x3c122eae	0.008922262
56	0xbd0a35fc	-0.03374289
57	0x3d247f46	0.04016044
58	0x3c8c6110	0.017136127
59	0x3d4ccf26	0.05000224
60	0x3bdb8f2e	0.006700418
61	0x3d18f716	0.037345015
62	0xbd2e2b60	-0.042521834
63	0xbd6fe93c	-0.05857204
64	0xbcef34b7	-0.029199941
65	0x3d584a97	0.05280551
66	0xbd060eb1	-0.032728855
67	0x3d7e8254	0.06213601
68	0x3d1ddca7	0.03854051
69	0xbd5798f0	-0.052636087
70	0xbd6359d4	-0.05550559
71	0x3d298e0c	0.041395232
72	0x3cadfb2f	0.021237938
73	0x3c3c45f3	0.011491287
74	0xbc5adc77	-0.013358227
75	0x3d3c5b02	0.04598523
76	0xbcf9e969	-0.030506806
77	0x3d2f88f5	0.04285522
78	0x3d64f77e	0.05590009
79	0x3d1966f5	0.037451703
80	0xbce13833	-0.027492618
81	0x3d3ab616	0.045583807
82	0x3cb147ee	0.021640744
83	0xbd8250d4	-0.06363073
84	0x3d8c9faa	0.06866391
85	0xbdab9f8e	-0.08380042
86	0x3d6a1213	0.057146143
87	0xbd2936a9	-0.041311894
88	0x3d85d54e	0.06534825
89	0x3da1a0ce	0.07891999
90	0x3d99127a	0.07474227
91	0xbd3a840b	-0.045536082
92	0xbd01ebe6	-0.03171911
93	0x3c433b0e	0.011915935
94	0xbca939ff	-0.020657538
95	0xbdc0cec0	-0.094144344
96	0xbd0382e7	-0.03210726
97	0xbd9f8693	-0.0778934
98	0xbcc8108d	-0.024421955
99	0x3dbc4659	0.09193105
100	0x3db46a4f	0.08809339
101	0x3d8c7841	0.06858874
102	0x3cc1b626	0.023646425
103	0xbda6d869	-0.08146746
104	0xbd02da2d	-0.03194635
105	0x3d746ae3	0.059672248
106	0x3cb4cd04	0.022070415
107	0x3d1345aa	0.03595511
108	0x3c766a0c	0.015039932
109	0x3cce66d5	0.025195519
110	0xbdaba6f4	-0.08381453
111	0xbc92fbbd	-0.017942304
112	0x3cc9eae6	0.024648141
113	0x3cc72213	0.02430824
114	0x3c26a506	0.010171181
115	0xbd0b822f	-0.0340597
116	0x3d346096	0.044037424
117	0x3cbbed9b	0.022940448
118	0x3d003e02	0.031309135
119	0x3d8a3662	0.06748654
120	0xbbd29111	-0.0064259847
121	0x3d6aede1	0.057355765
122	0xbb8aef18	-0.004239928
123	0xbda34eb6	-0.07973997
124	0x3d61c77a	0.055121876
125	0x3d86c843	0.06581166
126	0xbb19e37f	-0.0023481546
127	0x3d9e2c14	0.07723251
128	0xbd418874	-0.047249272
129	0x3da8f0c2	0.08249046
130	0xbce868af	-0.02837023
131	0xbd827ec8	-0.06371838
132	0xbc027a3c	-0.007963713
133	0xbd7426cf	-0.059607323
134	0xbd63eca0	-0.055645585
135	0xbcce8d59	-0.025213884
136	0xbd300770	-0.042975843
137	0xbd9fa867	-0.07795792
138	0xbd144ab8	-0.03620407
139	0x3c38d460	0.011281103
140	0x3d7730df	0.06034934
141	0x3d902105	0.07037548
142	0x3c3e7ce1	0.011626453
143	0xbd6a6f37	-0.05723497
144	0x3cedffd6	0.029052656
145	0xbda36942	-0.07979061
146	0x3cb9cf70	0.022681922
147	0xbcbd36e2	-0.02309746
148	0xbaa9152f	-0.001289999
149	0x3d367fc7	0.04455545
150	0x3c16446f	0.009171589
151	0x3d0bd2d7	0.03413662
152	0xbd383576	-0.04497286
153	0x3d88b541	0.066751964
154	0xbbbda5a2	-0.0057875672
155	0x3d47d914	0.048791006
156	0xbd9a456d	-0.07532773
157	0x3da64e1d	0.08120368
158	0x3d586471	0.052830163
159	0x3ca51f0b	0.020156404
160	0x3d4dba9c	0.050226793
161	0x3c924850	0.017856747
162	0xbcd27de5	-0.025694797
163	0xbd9d935f	-0.076941244
164	0xbbb8b51b	-0.005636824
165	0xbca2f13f	-0.019890426
166	0x3d918731	0.07105864
167	0xbc41e14e	-0.011833502
168	0xbd7538db	-0.059868675
169	0xbc42cb47	-0.011889285
170	0xbbfd32fb	-0.0077270246
171	0x3da00845	0.07814077
172	0x3d3c3549	0.045949254
173	0xbc5a70b4	-0.013332535
174	0xbd9567a5	-0.07295159
175	0xbd9be867	-0.076126866
176	0x3d9bf1ce	0.0761448
177	0x3cbf9a8f	0.023389129
178	0xbce3d9c6	-0.027813803
179	0xbcaa0cb5	-0.020758012
180	0x3dac216b	0.084048115
181	0xbc33a529	-0.01096467
182	0x3db1716e	0.08664213
183	0x3d085aa9	0.033289585
184	0xbba368aa	-0.004986842
185	0x3ca89b07	0.020581735
186	0xbcc25c72	-0.023725722
187	0xbc1e94c1	-0.00967902
188	0x3cdba5f1	0.026812525
189	0xbd7ddbab	-0.06197707
190	0xbd19972f	-0.037497696
191	0xbd585dc1	-0.052823786
192	0xbd567686	-0.052359127
193	0x3d9bdf2d	0.07610927
194	0x3da10d53	0.078638695
195	0x3d92e119	0.0717184
196	0x3d49eeb9	0.04929993
197	0x3c8df564	0.017328925
198	0x3c703c0f	0.014662757
199	0x3c465e5e	0.01210746
200	0x3da972cf	0.08273851
201	0x3d9fa746	0.07795577
202	0xbbe62228	-0.0070231147
203	0xbd8ad599	-0.06779022
204	0x3d03b1fc	0.03215216
205	0x3d1ce6b3	0.03830595
206	0xbbb313dd	-0.0054650144
207	0x3d8443eb	0.06458267
208	0x3d22a485	0.03970768
209	0xbd73d2a4	-0.059527054
210	0x3dab4196	0.08362119
211	0xbd930248	-0.071781695
212	0x3c0174a8	0.007901348
213	0xbd7eb90a	-0.062188186
214	0x3d38da64	0.04513015
215	0xbcebfbec	-0.02880665
216	0x3cd0dfc2	0.025497321
217	0xbc4ff79c	-0.012693312
218	0xbd31b05c	-0.04338108
219	0x3d89eb8c	0.0673438
220	0xbd5ff826	-0.054680012
221	0x3d953f82	0.07287504
222	0xbd923f8c	-0.07141027
223	0xbda467c6	-0.08027606
224	0xbda3cb7d	-0.07997797
225	0x3cf040be	0.029327746
226	0xbbaf33f2	-0.0053467685
227	0xbcd5465f	-0.026034532
228	0x3c268a65	0.010164832
229	0xbd8430da	-0.0645463
230	0xbd93f436	-0.07224314
231	0x3c8c9a16	0.017163318
232	0xbd5e7408	-0.054309875
233	0xbd8028c3	-0.06257775
234	0xbc0f18a5	-0.008733903
235	0xbd14db33	-0.036341857
236	0xbcaad0b5	-0.020851472
237	0x3d135131	0.035966102
238	0x3d6440f8	0.05572602
239	0x3cb7b182	0.02242351
240	0xbd529523	-0.05141176
241	0x3c486759	0.012231671
242	0x3d5515da	0.052022792
243	0xbd1ba6f2	-0.03800101
244	0x3d5d9cbb	0.054104548
245	0x3cf94698	0.03042917
246	0xbdaa0f70	-0.08303726
247	0x3c5c1450	0.013432577
248	0x3c870ce1	0.016485633
249	0xbd5a2ea1	-0.053267125
250	0xbce62ac9	-0.028096573
251	0x3d21b9b5	0.039483745
252	0x3cf0d615	0.029398957
253	0x3da22c33	0.079185866
254	0xbcff4513	-0.031160867
255	0x3db0a01a	0.08624287

attention.wq.bias f4 [128]
0	0x3d4c9608	0.04994777
1	0xbd9ddc6f	-0.0770806
2	0xbce0f2f0	-0.027459592
3	0x3d297886	0.041374706
4	0xbcae7256	-0.021294754
5	0xbc24a50f	-0.010049119
6	0xbd5647b0	-0.05231446
7	0xbd37d175	-0.04487749
8	0xbccb913d	-0.024849528
9	0x3d00f009	0.031478915
10	0x3d144fdd	0.036208976
11	0x3cdb42ec	0.02676531
12	0x3d05be46	0.032652162
13	0xbd6150a5	-0.05500855
14	0xbd985063	-0.074372075
15	0xbd8b190c	-0.06791887
16	0xbb03911d	-0.0020075508
17	0xbd062fab	-0.032760303
18	0x3d311e3b	0.04324172
19	0x3db6c9cb	0.08925208
20	0xbd5dedce	-0.054181866
21	0x3d862b32	0.065512076
22	0x3d1938f1	0.03740782
23	0x3d8fcc1f	0.07021355
24	0x3cf4ac19	0.029867219
25	0xbd9d21a3	-0.07672431
26	0xbcf62880	-0.030048609
27	0x3d8722c4	0.06598428
28	0x3c4b5479	0.012410277
29	0xbc10b9b6	-0.008833339
30	0x3d70bf9b	0.05877648
31	0x3c28d5c8	0.010304876
32	0x3d82edf9	0.06393046
33	0xbc9f6f7f	-0.019462345
34	0x3b1db633	0.0024064898
35	0xbd3a16c6	-0.045431875
36	0xbac3c17d	-0.0014934983
37	0x3b782a74	0.00378671
38	0xbd741128	-0.059586674
39	0x3daaf2af	0.083470695
40	0xbd22a064	-0.03970374
41	0xbbd6fa31	-0.006560587
42	0x3d206873	0.03916211
43	0x3c988386	0.018617403
44	0x3ce9306d	0.028465474
45	0xbd35c566	-0.044377707
46	0x3daa81a0	0.08325505
47	0xbc4fa2fd	-0.012673137
48	0xbd410592	-0.047124453
49	0xbd661523	-0.0561725
50	0xbb16c654	-0.0023006396
51	0xbd1e24c5	-0.038609285
52	0x3d7892f9	0.06068704
53	0xbc1d1517	-0.009587548
54	0x3d02787c	0.031853184
55	0xbd487da1	-0.048947934
56	0xbdaa671e	-0.08320449
57	0xbd8d219e	-0.068911776
58	0x3d5f05ca	0.05444888
59	0xbd1854bb	-0.03719018
60	0x3d24f3a3	0.040271413
61	0xbcf10bca	-0.029424567
62	0x3d15f920	0.036614537
63	0xbd5e1457	-0.054218616
64	0xbd6ba3a6	-0.057529114
65	0xbcc762a4	-0.024339028
66	0x3cceac3b	0.02522861
67	0xbd5fafd2	-0.054611035
68	0xbca49d25	-0.020094464
69	0xbd5a3adf	-0.0532788
70	0x3cf5b7e8	0.02999492
71	0x3d483c5f	0.0488857
72	0x3d8d3d9b	0.06896516
73	0xbcb84807	-0.022495283
74	0x3d7bf118	0.06150922
75	0xbd5d4634	-0.05402203
76	0xbcfd9207	-0.03095342
77	0x3d3814b4	0.04494162
78	0xbcde5d3a	-0.027144063
79	0x3cc50e9e	0.024054822
80	0xbd8efead	-0.06982169
81	0x3d317d15	0.04333218
82	0xbdb394d4	-0.08768621
83	0x3d999933	0.074999236
84	0xbbd63249	-0.006536756
85	0x3d0f7b86	0.03502991
86	0x3d15886a	0.036507048
87	0x3cc0ae79	0.023520695
88	0x3ceb7b0d	0.028745199
89	0x3c662383	0.014046553
90	0xbd88436a	-0.06653483
91	0xbd2a94d3	-0.041645836
92	0xbc950089	-0.018188732
93	0xbaf7c5bf	-0.0018903537
94	0xba762b8e	-0.00093906454
95	0x3db11722	0.0864699
96	0xbd84e622	-0.06489207
97	0x3c79407f	0.015213131
98	0x3d6fa059	0.05850253
99	0xbcb0546f	-0.021524636
100	0xbc8b9929	-0.017040806
101	0x3d8177fd	0.06321714
102	0xbd664d0d	-0.056225825
103	0x3c80be9f	0.015715895
104	0x3c7ae088	0.0153123215
105	0x3d22e65a	0.03977046
106	0xbd6fb47c	-0.058521733
107	0xbca818dd	-0.020519668
108	0x3cb0076b	0.021487912
109	0xbd59f9ff	-0.05321693
110	0x3d83bba2	0.064322725
111	0xbd9747a0	-0.07386708
112	0x3be15b4b	0.006877338
113	0x3d1a24bb	0.037632685
114	0x3c12bc6d	0.008956057
115	0x3d943b20	0.0723784
116	0xbc417376	-0.011807313
117	0xbc31c159	-0.01084932
118	0x3da881e1	0.082278974
119	0x3da6501d	0.08120749
120	0xbb87cca9	-0.0041442704
121	0xbd6df8c3	-0.058098566
122	0xbcf04440	-0.02932942
123	0xbd997eb7	-0.07494872
124	0x3dab3267	0.08359223
125	0x3d7791f6	0.060441934
126	0x3d65d975	0.056115586
127	0xbdabd5d0	-0.08390391
