checkpoints/model_epoch_20_baseline.pt (torch, 49960 bytes, 5 tensors)

fc1.weight f4 [128, 26]
000000 87 46 0f be c1 e9 3d 3e d0 24 43 3d 8c 93 40 3d
       -0.13991748 0.18546201 0.04764253 0.04701571
000010 87 86 22 3e 35 2e 22 3e c0 c1 eb 3b 62 86 e6 bd
       0.1587163 0.15837939 0.0071947277 -0.112561
000020 a6 25 f3 3d 2e 17 a4 bd 70 30 79 bd d0 98 4c bd
       0.11872415 -0.08012234 -0.06083721 -0.04995042
000030 75 b4 1a be 1c 38 a0 bd a3 e6 43 3e 58 9a 43 be
       -0.15107901 -0.07823202 0.1913095 -0.19101846
000040 5f a7 2e be 60 48 e5 bc 6e ac 0a be 9a 65 8a bd
       -0.17056035 -0.027988613 -0.13542339 -0.0675766
000050 6d af 12 3e 15 36 06 3e c0 02 8c bd d3 79 0d 3e
       0.14324732 0.13106568 -0.06836462 0.13816004
000060 bb 3a 0e be 91 9c 2f 3e cc 38 2b 3d 76 d9 bb 3d
       -0.13889591 0.17149569 0.041802213 0.09172337
000070 79 d1 2d 3e 69 b4 47 be 5a 54 03 be 8d cb 35 3e
       0.16974439 -0.19502415 -0.12825146 0.1775343
000080 61 b1 cd bd 2c c4 b8 bd 68 26 35 3d 72 6f f8 bd
       -0.10043598 -0.09021792 0.04422608 -0.121306315
000090 d7 57 16 3e 08 fa be 3c 7b 82 18 3e 8a c7 85 bd
       0.14681946 0.023312584 0.14893524 -0.065322
0000a0 d1 fa eb bd 38 f6 f4 bd 16 79 89 3d 30 f0 30 bc
       -0.11522449 -0.11961025 0.067125484 -0.010799453
0000b0 f3 bb ce bd 64 77 29 bd c1 23 2d 3e 4a c6 8d 3d
       -0.10094442 -0.041373625 0.1690817 0.06922586
0000c0 a8 a5 be bd a3 1b 16 3e 53 50 35 be d3 c7 c6 bd
       -0.0930894 0.1465898 -0.17706423 -0.09706082
0000d0 12 75 07 be 00 7a b3 ba df e0 33 be 62 e7 2c be
       -0.13228253 -0.0013692975 -0.1756625 -0.1688514
0000e0 20 76 52 3c 44 58 5d 3d 33 9e 25 be 10 f5 65 bc
       0.012845546 0.054039255 -0.1617363 -0.014035478
0000f0 e0 28 dc bb 75 e1 f0 bd da 8b c3 3d 4d 87 1e 3e
       -0.00671874 -0.117617525 0.09548159 0.154813
000100 e8 be 51 bd ad 17 9b bd e8 25 31 be 8f ea ea bd
       -0.051207453 -0.07572875 -0.17299616 -0.1147052
000110 10 5d 18 3c 66 4a 9d 3d e0 01 b0 bc ed 85 36 be
       0.009299532 0.07680206 -0.02148527 -0.17824526
000120 f3 ea 98 bd a2 60 c1 3d ad bf 97 bd 06 cf d3 bd
       -0.07466688 0.09442259 -0.07409606 -0.10342221
000130 80 75 fb 3c 43 a3 c4 bd 35 19 29 3e 25 71 11 3e
       0.030695677 -0.09601452 0.16513522 0.14203317
000140 cc e9 78 3d b1 4a 3b be f8 f8 62 bd 9e c3 f5 3d
       0.06076984 -0.18290211 -0.055413216 0.12000202
000150 d6 bd 15 be fe aa 37 be 46 41 f3 3d 93 55 01 3e
       -0.14623198 -0.17936322 0.11877684 0.126303
000160 c5 57 10 3e f7 33 05 3e 98 f1 cd 3c 43 e3 35 3e
       0.14095981 0.13008104 0.025139615 0.17762475
000170 58 c6 ee 3c 6d 81 2a 3e 63 8b 31 be 1a 51 88 3d
       0.029147312 0.16650935 -0.17338328 0.06656094
000180 3c 21 06 be 9d 1d f0 bd 22 66 21 be 20 a7 cd 3b
       -0.13098615 -0.11724398 -0.15761617 0.0062760264
000190 38 bd b2 bc 13 53 1c 3e d0 0f 3d bc 36 46 86 3d
       -0.021818742 0.15266065 -0.0115394145 0.065563604
0001a0 72 71 c8 bd 08 eb 0e 3d 51 11 23 be 54 08 6b 3d
       -0.09787263 0.034892112 -0.15924574 0.05738099
0001b0 7a f6 a8 3d 10 86 6e bd de cf b7 3d a8 9c 54 3d
       0.08250137 -0.05823332 0.089751944 0.05190721
0001c0 a2 e9 85 3d 60 de f1 3b 15 70 0d 3e c0 60 fb bc
       0.065387025 0.0073812455 0.13812287 -0.030685782
0001d0 b8 8c 17 be b4 0b 50 bd 30 b7 ae 3c 02 3c 01 be
       -0.14799774 -0.05079241 0.021327585 -0.12620547
0001e0 30 58 54 3c 60 d6 fc 3b 9d 60 07 be ba 79 ca bd
       0.012960479 0.007715985 -0.13220449 -0.09886499
0001f0 e2 de cc bd 94 e3 4d 3d 4c 42 66 3d 60 90 4f bc
       -0.10003449 0.050265864 0.05621557 -0.012668699
000200 a0 ef 3b 3d 2c 2f f4 bd b1 b1 3a be a0 fb ab bb
       0.04588282 -0.1192306 -0.18231846 -0.005248502
000210 7c 38 71 bd f9 b7 48 be b7 88 1d be cf 39 22 3e
       -0.05889176 -0.1960143 -0.15384184 0.15842365
000220 ee 0a eb bd 48 d6 41 3d 34 e9 79 3d 30 ac 65 3c
       -0.11476694 0.047323495 0.061013415 0.0140181035
000230 22 25 88 bd ec d8 1c be 61 a7 3a be 99 ef 23 be
       -0.066477075 -0.15317124 -0.18227912 -0.16009368
000240 f8 4a 93 bd f8 43 d3 bc 41 12 16 3e b5 c1 e8 bd
       -0.071920335 -0.025789246 0.14655401 -0.11365072
000250 ea b8 03 be 88 36 52 3d 30 4e c3 bc 48 b7 0c be
       -0.12863508 0.051321536 -0.023840994 -0.13741791
000260 e6 e8 ec 3d 61 d6 2f 3e 80 8c cb bd 88 8e 97 bc
       0.11567859 0.17171623 -0.099389076 -0.018500581
000270 6b 4b 3e 3e 4e a2 bf bd 84 c0 14 be 61 8f 15 be
       0.18583457 -0.09357129 -0.14526564 -0.14605476
000280 21 bb 13 3e 20 db ae 3b 70 db ad 3c 20 f9 ca bb
       0.14426853 0.0053361803 0.0212228 -0.006194249
000290 19 b3 25 3e 82 95 fa 3d 01 9e 28 3e 36 99 b6 bd
       0.16181602 0.122355476 0.16466524 -0.089159414
0002a0 3e ba e8 bd 56 df ab 3d aa 6c bf 3d 24 3a 49 3d
       -0.11363648 0.08392207 0.09346898 0.049127713
0002b0 14 68 57 3d 00 9c 32 be 50 20 54 bd 8a c6 80 3d
       0.05258949 -0.17442322 -0.051788628 0.06287868
0002c0 5a d1 d9 3d 8e 91 e3 3d 4a b3 80 3d 54 0d 5b 3d
       0.10635634 0.11111747 0.06284197 0.053479508
0002d0 0a 8f 85 3d 93 1d 0b be 1b eb 9a bd db 83 96 bd
       0.06521423 -0.135855 -0.07564374 -0.07349368
0002e0 a8 de 91 bd 80 47 40 3d 30 05 56 3d 74 53 91 bd
       -0.071225464 0.046943188 0.05225104 -0.070959955
0002f0 30 43 44 bd 69 54 02 be 4c cd 71 3d 08 b3 ef bc
       -0.047915637 -0.12727512 0.059033677 -0.029260173
000300 eb 1b d3 bd 45 6d 17 3e ea 87 c7 3d 3a d1 3c be
       -0.10308059 0.14787777 0.097427204 -0.18439189
000310 f8 c9 d6 3c 00 20 0d b9 08 59 45 be 42 cb e4 3d
       0.026219353 -0.00013458729 -0.19272244 0.11171581
000320 9e 46 a3 3d f0 d6 d5 bd a7 0f 43 be 3a 4f e1 3d
       0.079724535 -0.10441387 -0.1904894 0.110014394
000330 6e c8 e5 3d 1f 33 1f 3e 7f 73 45 3e 90 8c b8 3c
       0.112198696 0.15546845 0.1928234 0.022527963
000340 e9 24 b5 bd 80 e9 d4 ba 00 1c 87 3a 02 17 9b 3d
       -0.08844931 -0.0016243905 0.0010308027 0.07572748
000350 00 14 75 bc 4c 91 be bd 18 55 bc 3c 37 c2 ad bd
       -0.014958382 -0.09305057 0.022989795 -0.08484309
000360 60 01 32 bd 0e 0b 33 be c0 86 5e 3c 30 a2 c2 3c
       -0.043458343 -0.17484686 0.013581932 0.023758978
000370 34 47 02 be 70 a8 c1 3c eb a7 36 3e f0 cd a1 3c
       -0.12722474 0.023639888 0.17837493 0.019751519
000380 16 60 c2 3d a2 3b c6 3d 09 8c 0c 3e 1e 68 1d be
       0.09490983 0.09679343 0.13725294 -0.15371749
000390 46 4d 8e bd e4 4e 01 3d a3 b7 23 be fc 6b c0 bd
       -0.069483325 0.031569377 -0.1598802 -0.093955964
0003a0 9c 74 32 be 8a 73 a7 3d c0 8f 31 bb 12 33 92 3d
       -0.17427295 0.08176334 -0.0027093738 0.07138647
0003b0 59 73 10 3e 6d 2e 29 3e c0 c7 d7 bd ff 2b 29 3e
       0.14106502 0.16521616 -0.10536146 0.1652069
0003c0 45 16 3e 3e 9d 05 04 3e 98 dd b9 bc 51 9a e4 bd
       0.18563183 0.12892766 -0.022688672 -0.11162246
0003d0 82 76 ad 3d 50 69 54 bd 40 be 18 bd d0 75 41 3c
       0.08469869 -0.051858246 -0.03729081 0.011807874
0003e0 03 83 bf bd 5e f3 84 bd 2f f8 07 3e 7a cd e5 3d
       -0.093511604 -0.06491731 0.13278268 0.11220832
0003f0 04 69 77 3d 46 15 f3 3d 57 37 2b 3e c2 ac fc 3d
       0.060402885 0.11869292 0.16720329 0.123376384

fc1.bias f4 [128]
000000 ea 21 fd 3d 33 4d 2e 3e 7e c9 90 bd 70 52 70 bd
       0.12359984 0.17021637 -0.070696816 -0.05867237
000010 93 a6 43 3e b5 46 00 3e d6 e5 95 3d 5a 9d d6 3d
       0.19106512 0.12526973 0.07319228 0.10479231
000020 1f 1c 24 3e 4a 79 b9 3d b3 8e 2d be 84 2d 2a be
       0.16026352 0.09056337 -0.16948967 -0.16618925
000030 42 6a a0 3d 34 94 08 be 8a 34 c7 3d 0a 66 87 3d
       0.07832767 -0.13337785 0.09726818 0.06611259
000040 53 33 41 3e 9e f7 c9 bd 2e b1 ff bd f1 1f 0f 3e
       0.18867235 -0.09861682 -0.12484966 0.13977028
000050 df dd 1e 3e ae 5e 30 be d0 97 e8 bd dc 3e 36 3d
       0.15514325 -0.17223617 -0.11357081 0.04449354
000060 68 b1 d8 3c ca b2 d1 3d 98 d6 4f 3d 88 aa 51 bd
       0.026451781 0.102391794 0.050741762 -0.051188022
000070 bb 92 27 be 8b 44 41 3e 88 ea 20 be a4 0e 0c bd
       -0.16364567 0.18873803 -0.15714467 -0.03419365
000080 f8 a6 3d be 1d a4 42 3e c1 64 1a 3e 0a f6 d3 bd
       -0.18520725 0.19007917 0.15077497 -0.103496626
000090 48 6b 00 be dd e4 bb bd 82 ae 13 be 50 ed bb bc
       -0.12540925 -0.091745116 -0.14422038 -0.022940308
0000a0 9c ea 55 3d 92 76 90 3d 72 31 0a be 1a 56 f0 3d
       0.052225694 0.070538655 -0.13495424 0.117351726
0000b0 87 3c 19 3e 9f 99 41 3e e0 a9 83 bb 30 18 4c bc
       0.14964496 0.18906258 -0.0040180534 -0.012456939
0000c0 7d 06 13 3e 40 59 e8 bc 81 78 22 3e 80 43 22 be
       0.14357944 -0.02836287 0.15866281 -0.15846062
0000d0 f0 6a bf bc 6e 51 d8 3d 7e 8c 8a 3d 1e 71 d0 bd
       -0.023366421 0.105624065 0.06765078 -0.101778254
0000e0 7d 12 10 3e 08 6e dd bc b0 d9 1f 3c 93 e1 45 be
       0.14069553 -0.027030006 0.009756491 -0.19324331
0000f0 9a 7a 1b be 71 37 41 be 3a 83 a5 3d d1 76 22 3e
       -0.15183488 -0.18868805 0.0808167 0.15865637
000100 ea 10 ba 3d 5a 6c c1 3d 42 b6 07 be 0d 98 1a 3e
       0.09085257 0.094444945 -0.1325312 0.15097065
000110 18 01 bd bc 40 11 0c be ca 7d 0e be 22 d7 15 be
       -0.02307181 -0.13678455 -0.13915172 -0.14632848
000120 8c 5c 70 3d 95 fa 2d 3e e8 30 54 3d de 45 a4 bd
       0.05868201 0.1699012 0.051804453 -0.080211386
000130 68 e1 e5 3c c8 12 19 bd 0b a2 be bd d1 ba 01 3e
       0.028061584 -0.037371427 -0.09308251 0.12668921
000140 4b cd 31 be ee be 09 be da 1d b5 bd 5d d5 3b 3e
       -0.1736347 -0.1345174 -0.08843584 0.1834311
000150 2f c5 c5 bd 16 24 8b bd b8 4f dc bc 58 b6 32 3d
       -0.096567504 -0.06793992 -0.026893482 0.043630928
000160 1a ab 81 3d 4b a6 2c 3e ec 03 35 be c7 36 27 3e
       0.06331463 0.1686031 -0.17677277 0.1632949
000170 d8 fd 87 bc b0 83 1b be b7 f0 0e be 08 3d ad 3c
       -0.016600534 -0.15186954 -0.13959013 0.021147266
000180 3e 17 25 be c8 9e aa bc 2c d6 20 3d 89 6f 47 3e
       -0.16122147 -0.020827666 0.03926675 0.19476141
000190 96 57 95 3d f3 fe 31 3e 13 57 3b be 47 81 15 3e
       0.07292096 0.17382412 -0.18294935 0.14600097
0001a0 f0 68 d1 bc e7 e8 42 3e 2d 7f 96 bd 31 83 e0 bd
       -0.025562733 0.19034158 -0.073484756 -0.10962523
0001b0 b2 97 da 3d b0 08 27 bc a1 f6 b7 bd 5a 43 b2 3d
       0.10673465 -0.010194942 -0.089825876 0.087042525
0001c0 80 5a 0e bc 0d ad 06 be c8 96 18 be 67 de 07 3e
       -0.008688569 -0.13151951 -0.14901268 0.13268434
0001d0 44 80 d2 bd e8 1d dc 3c c9 f1 b4 bd 81 fd 26 be
       -0.10278371 0.02686973 -0.08835179 -0.16307642
0001e0 0e 7b d8 3d cb e2 09 3e 42 0c d7 3d ca d7 be bd
       0.10570346 0.13465421 0.10500385 -0.09318502
0001f0 b8 59 aa 3c 98 0d 45 be ae 95 03 be d8 a7 d6 3c
       0.020794734 -0.19243467 -0.12850067 0.026203081

fc2.weight f4 [64, 128]
000000 e7 63 b6 bd 0e 17 c0 3c ed 82 9e bd 3d aa ac bd
       -0.089057736 0.023448493 -0.07739816 -0.08430908
000010 ea 64 b0 bd 39 80 d8 3c 19 a6 b8 bd 36 d1 b6 3b
       -0.08612998 0.026428329 -0.090160556 0.005579139
000020 fc 99 69 3d 8d e4 93 3d b3 fc 68 3d a7 ca bd bd
       0.057031617 0.07221327 0.056881618 -0.092671685
000030 7e 8b 03 bd 29 be eb bc 73 07 99 bd bc 47 a4 bd
       -0.032115452 -0.028777199 -0.07472124 -0.08021495
000040 fb 24 9c 3d 3e f5 15 3d d6 bc c3 bd 9d 79 1b 3d
       0.07624241 0.036610834 -0.09557502 0.037957776
000050 37 4e a8 bd 72 fd 88 bd 32 c9 0b 3c a0 13 86 bd
       -0.08218043 -0.06688966 0.008531855 -0.06546712
000060 d2 61 a4 bd 5e e5 84 3d 6d b9 c5 bd 24 4f 5b 3c
       -0.0802647 0.06489061 -0.09654508 0.013385568
000070 0d e5 58 3d 21 11 84 3d 83 ec 96 bc ee ff e1 3c
       0.052952815 0.064485796 -0.018423324 0.027587857
000080 8f 8a 4e bc aa 02 8b bc 90 41 95 bd d5 42 74 bd
       -0.012606277 -0.016969044 -0.07287896 -0.05963405
000090 0f 28 c1 bd 19 5a 01 3d 5f b8 c9 3b a8 e6 08 bb
       -0.09431469 0.031580064 0.006156012 -0.0020889435
0000a0 2b f8 71 3d 21 6a e5 3c 66 df 3b bc af b1 64 3c
       0.059074562 0.028004708 -0.011466837 0.013958379
0000b0 fa b3 ba 3c 1d 63 b0 bb 59 1e 0c 3d 2c 61 6a bc
       0.022790898 -0.005382909 0.03420863 -0.014305394
0000c0 70 ce 43 3d b7 5c 3b 3b 31 ea 59 3d 25 8d c1 bd
       0.047804296 0.0028589198 0.053201858 -0.09450749
0000d0 5d 8e 2f bd 46 1d 5e bd 1b f9 d7 3c 24 76 fd b9
       -0.042860378 -0.054227136 0.0263639 -0.00048343942
0000e0 23 b6 75 bd 23 ca c9 3c ac 1c 34 bc 5c f9 c6 3b
       -0.059988152 0.02463252 -0.010993164 0.0060722064
0000f0 3e e0 fd b8 0b 81 75 bd 75 ec 4f 3d 3f c0 60 bd
       -0.000121057485 -0.059937518 0.050762612 -0.05487084
000100 9c 23 b7 bd a7 81 c8 bd a4 c5 b7 bd fd f6 a3 bd
       -0.08942339 -0.09790354 -0.08973244 -0.08006094
000110 dd ce cc 3c 87 f8 c5 bd 9a 1c 58 3d 20 4a 80 bd
       0.025000984 -0.096665435 0.05276165 -0.06264138
000120 65 04 21 3d 38 4a 10 bd f5 5b 19 bd 1f 22 a1 3b
       0.03931083 -0.03522703 -0.037441213 0.0049173976
000130 f5 3a 8b bd 91 c9 54 bd 06 91 84 3d 1a a2 68 bc
       -0.067983545 -0.05195004 0.064729735 -0.014198804
000140 cf b0 1d bd 4b 67 6e bc c9 f4 68 bd f8 b1 93 3d
       -0.038498696 -0.014550994 -0.05687407 0.07211679
000150 35 c3 b7 bd ec 1c 58 3d 1f da c4 bd 27 ae 9d 3d
       -0.0897278 0.052761957 -0.09611916 0.076992325
000160 af af 92 bd ac 35 aa ba ed c0 70 3d 7b ba 1c 3d
       -0.07162415 -0.0012985966 0.05877774 0.03826378
000170 88 17 97 bd 50 45 09 3b 45 57 05 3d 1d 20 37 bd
       -0.07377535 0.0020945854 0.03255393 -0.04470836
000180 2e 3a 81 bb c8 b0 27 bd 11 ed b9 bc b2 b5 c6 bc
       -0.003943703 -0.040940076 -0.02269605 -0.024256561
000190 b8 3f b1 bd 75 59 d3 3c b8 09 ae bd 22 54 89 3b
       -0.086547315 0.025799492 -0.084979475 0.0041909376
0001a0 4c ef 9f bd 13 3d 0a 3d 46 8e 8c 3d ed 20 87 3d
       -0.07809314 0.03374965 0.06863074 0.06598077
0001b0 d7 6e 51 bc 91 6c a1 bc cc 4a 8c bd fd 09 8b 3c
       -0.012782774 -0.019705089 -0.06850204 0.016972536
0001c0 0a 7c af 3c 7b c0 8c 3d 10 59 7d bd 49 d5 06 bc
       0.021421451 0.0687265 -0.061852515 -0.008229562
0001d0 65 b1 51 3d 3e 0e b2 bd 8a 26 3c 3d 05 bc 5e bd
       0.051194567 -0.08694123 0.04593519 -0.05437853
0001e0 34 90 54 3c 3b 1a af bd c9 7e c4 bc 23 2a 2b 3c
       0.012973834 -0.08549925 -0.023986237 0.010447058
0001f0 0e b3 25 3d c0 71 91 3d a4 5e 7d 3d a9 09 44 bd
       0.040453963 0.07101774 0.061857834 -0.047860775
000200 59 db 9a 3c 28 33 80 bd 3f 70 74 3b 7a a7 87 bc
       0.018903421 -0.06259757 0.003729835 -0.016559351
000210 a0 de d8 3d d9 b6 e8 bc ee e6 9e 3d dc 84 b9 3d
       0.10589337 -0.028407501 0.0775889 0.09058544
000220 5d 2b c1 3d 57 ba 67 3d 20 85 eb bc 24 28 bc 3d
       0.09432099 0.056574192 -0.028750002 0.09187344
000230 f6 c4 0c 3b 81 6d 4c bb f1 ca 08 bc 6c c3 bc bb
       0.0021479703 -0.00311932 -0.008349166 -0.005760601
000240 7f 84 35 bd 0a dc 0c 3c 4a ef cc 3b 79 2e b7 3d
       -0.04431581 0.008597383 0.0062541114 0.08944411
000250 30 e1 cf bc 38 66 2a bc d5 a3 8e 3b 22 7c 5f 3d
       -0.025375932 -0.010400347 0.0043530264 0.05456174
000260 87 99 8b 3d 0d 30 a3 3d 1e 83 c9 3d 63 bc 42 3d
       0.068163924 0.07968149 0.09839462 0.04754294
000270 91 41 0e bd cd f3 19 3d fe 36 ab 3d a8 fc 32 bd
       -0.034730498 0.037586022 0.08360098 -0.043697983
000280 77 55 d9 3d be ef 7b 3a e3 ed 5f 3d df 0c 28 bd
       0.10612004 0.00096106145 0.054670226 -0.0410279
000290 4f 01 b4 3d 3d 5b 6e 3d 46 08 99 3d e0 0b 73 3d
       0.08789312 0.05819248 0.07472281 0.059337497
0002a0 a9 82 b0 3d 40 f1 8c bb bd 2a a8 3c d5 96 52 3d
       0.086186714 -0.00430122 0.020528192 0.051413376
0002b0 d0 4f 97 3d 9a 80 34 bd 6f 4b b1 3c 6c 57 75 bb
       0.0738827 -0.044067957 0.021642415 -0.003743614
0002c0 b7 e5 dc bc 8b 42 ad bc 55 59 54 bd f7 21 b0 3d
       -0.026965005 -0.021149894 -0.051843006 0.08600228
0002d0 aa 42 a8 3d be c0 b6 3c 49 2d 10 bd 4e fe 55 bd
       0.0821584 0.022308704 -0.035199437 -0.052244477
0002e0 34 5b 5c 3d f1 a4 94 3d 46 07 09 bd d0 37 54 3d
       0.053797916 0.072580226 -0.033454202 0.05181104
0002f0 5a 94 20 bd 1c eb 6a 3d 1b da db 3d a1 6a 79 3d
       -0.03920398 0.057353124 0.1073496 0.060892705
000300 8a 2b c6 3d ba 8f a6 3d 94 b2 9e 3d 4a 33 c4 bb
       0.09676273 0.081328824 0.07748905 -0.0059875594
000310 b6 99 7e bd 79 e7 d8 3d 58 82 91 3c af 81 60 3d
       -0.06215831 0.10591025 0.017762348 0.054811176
000320 f0 19 6e 3d 17 9c 31 bd 00 f8 53 bc e2 9e b4 bc
       0.058130205 -0.04336175 -0.012937546 -0.022048417
000330 37 e4 88 bc cb d0 e9 3c e9 06 1c bd 3f 20 81 3d
       -0.016710384 0.028541943 -0.038092528 0.063049786
000340 a5 13 a3 bc 3d dd e3 bb 7e bb d0 bb d3 7e 26 3d
       -0.019906828 -0.006953864 -0.006370007 0.040648293
000350 66 56 9b 3c b0 20 95 3d ef 4d 34 bb 18 a7 b0 b8
       0.018962096 0.07281625 -0.0027512272 -8.4234576e-05
000360 66 45 a7 3d 9a 45 71 3d 83 4a aa 3c 67 54 ec 3b
       0.081675336 0.058904268 0.020787483 0.00721221
000370 54 d1 ce 3c 77 a1 a3 3d 79 47 b2 3d da bf 37 3d
       0.0252463 0.07989781 0.087050386 0.0448607
000380 31 ed 8f bc 3a 42 37 3d 31 11 c1 3d 3b e9 e4 3c
       -0.017569156 0.044740893 0.09427107 0.027943244
000390 a3 0c ca 3d 91 fb 64 bd 87 b8 be 3d 7c a9 87 bd
       0.098656915 -0.055903975 0.093125395 -0.066241235
0003a0 c3 d1 d6 bb db 71 9f 3d f8 56 04 bc 05 3d 66 bd
       -0.0065557673 0.07785388 -0.008077376 -0.056210537
0003b0 6d 8a 0e bd fe 20 d6 3d ff bd a7 3d 15 4f a0 3d
       -0.03479998 0.104555115 0.08190536 0.07827584
0003c0 f0 43 08 bd 88 a6 d0 3d 28 d9 8a 3d 27 3c 98 3d
       -0.033267915 0.10188013 0.067797005 0.07433348
0003d0 19 36 12 3d 5c 1b 15 bd 47 0b 4c bc ac 79 9e bb
       0.035696123 -0.036403045 -0.012453861 -0.0048362818
0003e0 48 02 01 bd 79 94 05 bd fa 04 ba 3d 48 fa 32 3c
       -0.031496316 -0.032612298 0.090829805 0.0109239295
0003f0 d6 fa 8b bd 18 76 d2 3d 75 74 26 3d dc 45 5d 3d
       -0.068349525 0.10276431 0.040638406 0.0540217

fc2.bias f4 [64]
000000 21 5e 2a bd e6 9c 44 3c 75 e8 c4 3a 07 d6 16 bc
       -0.041593675 0.012000298 0.0015022891 -0.0092063015
000010 34 48 aa bd bf 7f 6f 3d 47 0a bd bc d1 c4 dc 3d
       -0.08314553 0.058471438 -0.02307619 0.10779727
000020 60 d9 4f bc f2 fa dd 3d c4 19 50 3d ca 27 6f bd
       -0.012686104 0.1083888 0.050805822 -0.058387555
000030 74 fc 14 3d db 88 98 bc 5a fe 28 3d 77 e1 6d bd
       0.03637357 -0.018619945 0.041258194 -0.05807635
000040 09 19 3c bd 5b 68 9c 3d 19 25 1a bd b9 22 66 3d
       -0.045922313 0.07637092 -0.037633035 0.056185458
000050 1c 74 5c 3d 2c e6 55 bd bf ce 9d 3d 70 2a 4b bc
       0.053821668 -0.052221462 0.07705449 -0.012400255
000060 d3 c0 0c bd 8f 9c fa bc de 63 6f bd 64 17 d6 3d
       -0.03436358 -0.030592231 -0.05844485 0.1045368
000070 ad 28 c0 bc a6 43 1f bd af fb 8b 3d 35 37 7c bc
       -0.023456896 -0.038882874 0.06835114 -0.015394022
000080 99 0e 88 3c d8 df 88 bd 22 f4 40 bd 9c 19 dc 3c
       0.016608523 -0.0668332 -0.047107823 0.02686768
000090 ec 7f 74 3d 10 da f2 bc b2 2f 26 3d 57 17 d8 3c
       0.05969231 -0.029644996 0.04057283 0.026378317
0000a0 55 2f e2 3b 1e 89 08 3d 59 a2 b3 bd 27 0f 5c bc
       0.006902615 0.03333389 -0.087712 -0.013431347
0000b0 c1 62 e5 bb da 4d 74 bd d7 53 98 bb 36 d8 5e 3c
       -0.007000298 -0.059644558 -0.0046486664 0.013601353
0000c0 fc 77 80 3d a5 72 32 bc e4 84 68 bd 16 71 e2 bb
       0.06272885 -0.010891591 -0.05676736 -0.0069104536
0000d0 2a e0 ed bc ba b3 5c 3d 9f 49 21 3c 20 cf 52 bd
       -0.029037554 0.053882338 0.009844213 -0.05146706
0000e0 0a 4b 2a bd 0e be 5d bd da 51 51 bd 57 e9 bd bd
       -0.04157547 -0.05413633 -0.05110345 -0.09273022
0000f0 d0 45 d0 bd 62 14 b3 bd c5 06 cf 3d 05 d3 3c 3c
       -0.10169566 -0.08744122 0.10108713 0.01152492

fc3.weight f4 [1, 64]
000000 9d ba ba 3b a4 40 d5 bd c3 50 60 bd 38 79 d0 3d
       0.0056985156 -0.1041272 -0.05476452 0.10179371
000010 32 ff f2 3c f2 38 ad bc 2b 9b 93 bd 67 f0 74 bd
       0.029662702 -0.021145318 -0.0720733 -0.059799578
000020 66 4b 96 3c 87 28 0f be e1 3b 07 be 0f 84 d0 3d
       0.0183465 -0.13980304 -0.13206436 0.10181438
000030 9e 55 17 bd b2 58 8b 3b 73 67 10 be 71 0f 98 3d
       -0.036946885 0.0042525167 -0.14101963 0.0742482
000040 f4 85 9e 3c e7 34 e4 bd d6 c8 36 bd d8 22 b1 bd
       0.019350983 -0.11142903 -0.044625126 -0.08649224
000050 8f 1d 0b be c9 c3 96 bd 32 95 45 bd 8d 8d 30 bd
       -0.13585494 -0.07361562 -0.048237987 -0.043103743
000060 04 fe e5 bd da 50 30 3d 02 42 02 be 23 65 9f bd
       -0.1123009 0.043045856 -0.12720492 -0.07782962
000070 7c 12 b2 3d 28 bc 43 3d e8 f4 fd 3c 72 6e c9 bd
       0.08694932 0.04778686 0.03100057 -0.09835519
000080 f4 62 ac bc fd f2 b9 bc 6b 7f d7 3d e0 8f c0 b8
       -0.021043278 -0.022698874 0.1052235 -9.182072e-05
000090 af 73 12 bd e8 d3 0b be 4e 06 f2 bd 79 ff 82 ba
       -0.035754856 -0.13655055 -0.11817609 -0.000999435
0000a0 27 76 11 be 69 90 62 bd ca da 2f 3c 44 fc e2 3d
       -0.14205228 -0.0553135 0.010733316 0.11083272
0000b0 90 b0 d5 bd 76 9f e3 3d 73 6e 3a bd 1c db b3 3c
       -0.10434067 0.11114399 -0.04551549 0.021955065
0000c0 69 f7 88 3c 65 19 55 bd 4e bc c5 bd fc 4c 14 3b
       0.016719537 -0.05202617 -0.09655057 0.0022628894
0000d0 98 ab 82 bd 29 77 f0 bd 24 ad 72 3d 6a 97 53 3d
       -0.06380385 -0.11741478 0.05924715 0.05165807
0000e0 56 33 55 3d 0e 6f 43 3c bd 68 80 3b 26 71 5e 3c
       0.05205091 0.011928333 0.003918736 0.013576781
0000f0 ef c0 b4 3d e0 cd 2d 3d 1e b7 af bd e9 3c 09 3d
       0.08825862 0.042432666 -0.08579849 0.033505354
