checkpoints/model_epoch_100_policy.pt (torch, 482106 bytes, 13 tensors)

customer_encoder.conv1d.weight f4 [128, 1, 14]
0	0x3e51c3c4	0.20484835
1	0x3e63ae9c	0.22234577
2	0xbd7e5780	-0.062095165
3	0x3e7f0f6b	0.24908225
4	0xbd710b93	-0.05884893
5	0x3d5d5335	0.05403443
6	0xbe078a66	-0.13236389
7	0x3e218d8a	0.15776649
8	0x3e6ff583	0.23433499
9	0xbe4a1ecb	-0.19738309
10	0x3e6e405f	0.23266743
11	0x3d4a4c1c	0.04938899
12	0x3e490d0f	0.19633888
13	0x3d147620	0.036245465
14	0x3e0400fb	0.12890999
15	0xbd1a662d	-0.0376951
16	0x3e530369	0.2060677
17	0x3d180b57	0.03712019
18	0xbdffda60	-0.124928236
19	0x3d8c7143	0.068575405
20	0xbdf79bd3	-0.12090268
21	0xbd047202	-0.03233529
22	0xbdddfcc3	-0.10839226
23	0x3e35864b	0.1772701
24	0xbe5907c4	-0.21194369
25	0xbdfdd2e9	-0.123937435
26	0xbd9a0557	-0.0752055
27	0xbe234c3c	-0.1594705
28	0x3ccfa322	0.025346342
29	0xbe8716f4	-0.263847
30	0x3e77487b	0.24148743
31	0xbe65643c	-0.22401518
32	0x3e531933	0.20615081
33	0x3d370054	0.044678047
34	0xbdb6389c	-0.08897516
35	0x3e29eb5f	0.16593693
36	0x3d26d60f	0.040731486
37	0x3e5c1371	0.21491791
38	0x3cf33353	0.02968756
39	0xbdad635b	-0.08466216
40	0x3d912f96	0.070891544
41	0xbd949f36	-0.072569296
42	0x3de5f892	0.11229052
43	0x3e74268a	0.23842826
44	0x3e1e01fc	0.15430444
45	0xbdf815d9	-0.12113542
46	0x3e1c62b6	0.1527203
47	0x3d436b95	0.04771002
48	0x3e0bc980	0.13651085
49	0xbe27b9df	-0.16379498
50	0xbe862e5d	-0.26207247
51	0xbdd17608	-0.10227591
52	0xbe515a80	-0.2044468
53	0x3e618288	0.2202245
54	0x3d9fa0ab	0.07794317
55	0x3dde267a	0.108471826
56	0x3dad4070	0.08459556
57	0xbb96041e	-0.0045781275
58	0x3e5640e6	0.20923194
59	0xbe3fbd2e	-0.1872451
60	0x3c885950	0.01664415
61	0xbe39872c	-0.1811797
62	0x3da4868d	0.08033476
63	0xbdbaa4e0	-0.09113479
64	0x3da50cac	0.080590576
65	0xbd66f632	-0.056387134
66	0x3e6306fb	0.22170632
67	0xbe2299a8	-0.15878928
68	0xbe24274e	-0.16030619
69	0xbe22b32f	-0.15888666
70	0x3e75e2c3	0.24012284
71	0x3db5ddb2	0.08880176
72	0x3e838998	0.25690913
73	0xbe6538d2	-0.22384956
74	0xbe873536	-0.26407784
75	0xbe55dbf3	-0.20884685
76	0xbe357d14	-0.17723495
77	0x3ddc67bf	0.107619755
78	0x3dc68a44	0.09694341
79	0x3e65317b	0.22382157
80	0xbe0da4eb	-0.13832442
81	0xbe39a47d	-0.18129154
82	0x3e126d04	0.14299399
83	0xbddb6931	-0.10713423
84	0x3e2616be	0.16219613
85	0xbd81e8ce	-0.06343232
86	0x3e1c8b2a	0.15287462
87	0xbe547aa3	-0.20749907
88	0xbe0a72f8	-0.1352042
89	0x3da8e42a	0.08246644
90	0x3d5ef1db	0.05442987
91	0xbd89701b	-0.067108355
92	0x3e237a9f	0.15964745
93	0x3e3a2c6e	0.18181011
94	0xbe459fac	-0.19299191
95	0xbe11b909	-0.14230742
96	0x3e79d3fc	0.24397272
97	0xbdbbaf87	-0.091643386
98	0xbdc1b5d5	-0.0945851
99	0xbe8451e0	-0.25843716
100	0xbe1c8efa	-0.15288916
101	0x3d91f6e7	0.07127171
102	0xbd0f39c9	-0.034967218
103	0xbe466f9e	-0.19378516
104	0x3b986568	0.0046507604
105	0xbe3a1117	-0.18170582
106	0xbe6a5210	-0.22882867
107	0xbe18661a	-0.14882699
108	0xbe6fa23c	-0.23401731
109	0xbe2f5edd	-0.17126031
110	0x3e882fdb	0.2659901
111	0x3d53c667	0.051702883
112	0x3da8c4b8	0.08240646
113	0xbe7f3459	-0.24922313
114	0xbe33b1cd	-0.17548294
115	0xbdb57a4b	-0.08861216
116	0x3d307fc9	0.043090615
117	0xbe7206a1	-0.23635341
118	0xbde5f897	-0.112290554
119	0xbe24a288	-0.16077626
120	0x3915fcfc	0.00014303991
121	0xbdcc80ff	-0.099855416
122	0xbc9fb32c	-0.019494615
123	0xbe39c576	-0.18141732
124	0xbe3b4e92	-0.18291691
125	0xbe1dc701	-0.15407945
126	0xbdbb131d	-0.09134505
127	0xbe57dda3	-0.21080641
128	0x3e659c18	0.22422826
129	0xbd4aeb85	-0.049541015
130	0x3e6b16dc	0.22957939
131	0x3dab353d	0.08359764
132	0xbe69ff4a	-0.22851291
133	0x3e3e3592	0.18575123
134	0xbd9975a5	-0.07493142
135	0xbdd460ea	-0.103700474
136	0xbe62c6b7	-0.22146116
137	0xbe885fc1	-0.26635554
138	0x3d9a5957	0.075365715
139	0xbd6e5f99	-0.058196638
140	0x3dd4cdf1	0.10390843
141	0xbe60bdc8	-0.21947396
142	0x3e4b09f0	0.1982801
143	0xbe4d76da	-0.2006487
144	0xbd45cbc1	-0.048290018
145	0x3d681e2c	0.0566694
146	0x3e0d634e	0.13807413
147	0x3e5c1962	0.21494058
148	0x3e7afb37	0.24509893
149	0xbe57fd05	-0.21092613
150	0x3d8a0b24	0.06740406
151	0xbdeaac2c	-0.114586204
152	0xbceb9a38	-0.02876006
153	0xbe4f4107	-0.2023965
154	0x3e793d18	0.24339712
155	0xbe48e7c3	-0.1961966
156	0x3e1239a4	0.142798
157	0x3db99c20	0.090629816
158	0x3db23694	0.08701816
159	0xbe13ac1f	-0.14421128
160	0x3e7b397a	0.24533644
161	0x3d6cc426	0.05780425
162	0x3d0f02d1	0.034914795
163	0xbe6fe39f	-0.23426674
164	0x3de41905	0.111375846
165	0xbd238222	-0.039919026
166	0xbdf8d5ef	-0.121501796
167	0x3e6bb718	0.23019063
168	0x3d74081a	0.05957804
169	0xbe176d0b	-0.1478769
170	0xbe0a868b	-0.13527887
171	0xbc7521da	-0.014961684
172	0x3e19b753	0.15011339
173	0xbd8c1fc3	-0.068419956
174	0xbe1997bf	-0.14999293
175	0xbdbcb2b3	-0.09213772
176	0xbe4bf033	-0.19915847
177	0x3dc56819	0.09638996
178	0x3e531463	0.20613246
179	0xbe80abbb	-0.2513102
180	0x3d80e2a2	0.06293227
181	0x3e0eb06c	0.13934487
182	0x3d46980c	0.048484847
183	0xbdc2e102	-0.09515573
184	0x3e0edda9	0.13951744
185	0x3e0ec7bb	0.13943379
186	0x3dc7a24e	0.09747754
187	0xbd40ac4c	-0.047039315
188	0xbd9409d6	-0.072284386
189	0x3ce597be	0.028026458
190	0xbd3ee695	-0.04660662
191	0xbda49f78	-0.08038229
192	0x3e2f8de2	0.17143968
193	0x3e6b0ab9	0.22953309
194	0xbcd87d9a	-0.026427079
195	0xbd7ff16f	-0.06248611
196	0x3b7cad60	0.0038555488
197	0xbc8316d2	-0.016002093
198	0x3d837f98	0.06420821
199	0x3d93372a	0.07188256
200	0xbe78356c	-0.24239129
201	0xbdca091b	-0.09865018
202	0x3e68d84f	0.22738765
203	0x3dd305c7	0.10303836
204	0xbc4d32fa	-0.012524361
205	0xbe23dda0	-0.16002512
206	0xbe280405	-0.16407783
207	0xbe74bb0e	-0.2389948
208	0xbdb04ce9	-0.086084194
209	0x3dba15ba	0.09086175
210	0x3e2e7b99	0.17039336
211	0x3dfcac53	0.12337556
212	0xbe71eeb6	-0.23626217
213	0xbe22b107	-0.15887843
214	0xbd2ee483	-0.042698395
215	0x3e847020	0.25866795
216	0x3d13c22d	0.036073852
217	0xbd8c1a15	-0.06840912
218	0x3de28db0	0.11062181
219	0xbdd16302	-0.10223962
220	0xbe303972	-0.17209414
221	0x3e4774f9	0.19478215
222	0xbdfa4463	-0.12220075
223	0xbd5e8b25	-0.054331917
224	0xbe881a6b	-0.26582655
225	0x3e3735cc	0.17891616
226	0x3e4f64a8	0.20253241
227	0x3dcf08b6	0.10109083
228	0xbe3e371b	-0.18575709
229	0xbe869172	-0.2628284
230	0xbe600136	-0.21875462
231	0x3e4d4862	0.20047143
232	0x3e018b4c	0.12650794
233	0x3e6529d4	0.22379237
234	0x3e0f5831	0.13998486
235	0x3d889429	0.06668884
236	0xbb748c37	-0.003731502
237	0xbe4ee50c	-0.20204562
238	0xbe6aaba3	-0.22917037
239	0xbe801662	-0.25017077
240	0x3ddfadd0	0.10921824
241	0xbe0ae1b6	-0.13562664
242	0xbd60c2c8	-0.054873258
243	0xbe1dab5f	-0.15397404
244	0xbd433dd4	-0.047666386
245	0xbe41665e	-0.18886706
246	0xbe305b0c	-0.17222232
247	0x3db77ac6	0.08958964
248	0xbda21f5d	-0.07916138
249	0x3e29e1dd	0.16590066
250	0xbdae0992	-0.08497919
251	0xbe4aeb54	-0.19816333
252	0xbd4044ef	-0.04694074
253	0xbe04719e	-0.12933967
254	0xbda7049f	-0.08155178
255	0xbe803fcb	-0.2504867

customer_encoder.conv1d.bias f4 [128]
0	0xbe781444	-0.2422648
1	0x3e71ac69	0.23600926
2	0xbca59ca3	-0.020216292
3	0xbe077e9e	-0.13231894
4	0xbdbb9b89	-0.09160525
5	0xbe55ecab	-0.20891063
6	0x3e558f51	0.20855452
7	0xbd6cb031	-0.057785217
8	0xbe19d25e	-0.15021655
9	0xbe4f6c97	-0.20256267
10	0x3e1fd16b	0.1560723
11	0xbd178102	-0.036988266
12	0xbce60819	-0.028080033
13	0xbd8e9bd1	-0.06963313
14	0xbe042919	-0.12906303
15	0x3d42a88e	0.047524028
16	0x3e529a73	0.2056673
17	0xbe1ecc77	-0.15507685
18	0x3c555bc3	0.013022366
19	0xbe503dd1	-0.20336081
20	0xbe005ad9	-0.12534656
21	0x3e70230e	0.23450872
22	0x3b358a08	0.0027700681
23	0x3e83c46d	0.25735798
24	0xbd408c4c	-0.047008798
25	0xbe157219	-0.14594306
26	0xbe240fc8	-0.16021645
27	0x3e729255	0.23688634
28	0xbe528427	-0.20558225
29	0x3e0fb884	0.14035231
30	0x3d882e7f	0.066494934
31	0x3da19d9e	0.07891391
32	0x3e1a7d19	0.15086783
33	0xbd8fa2fd	-0.070135094
34	0x3e295a14	0.16538268
35	0xbe59ee26	-0.21282253
36	0xbdc03e6d	-0.09386907
37	0x3e484a03	0.19559483
38	0x3da3080c	0.07960519
39	0xbd11168a	-0.035421886
40	0xbd7fc152	-0.062440224
41	0xbe272fd9	-0.16326846
42	0x3e26b01c	0.16278118
43	0xbc0b727b	-0.008511181
44	0xbc0fac81	-0.0087691555
45	0x3d816546	0.063181445
46	0x3e49ca75	0.19706137
47	0xbe0be26e	-0.13660595
48	0xbdbc4927	-0.0919364
49	0x3e399e98	0.18126905
50	0x3e1a5cbc	0.15074438
51	0xbe0699a5	-0.13144548
52	0xbe875cdb	-0.2643803
53	0x3d4a3332	0.04936523
54	0x3e0ff3b9	0.14057817
55	0x3d82c2dc	0.06384823
56	0x3e424fd3	0.18975763
57	0xbe592346	-0.21204862
58	0x3e0a1722	0.13485387
59	0xbe2a16a7	-0.16610204
60	0x3e19ea6d	0.15030833
61	0x3e4b5495	0.19856484
62	0x3dad4747	0.08460861
63	0x3e5d6654	0.21621066
64	0xbe3499f8	-0.1763686
65	0xbe747fa7	-0.2387682
66	0xbe839f65	-0.25707546
67	0x3e2bf6d4	0.16793376
68	0x3dbf268b	0.09333523
69	0xbe48747e	-0.19575688
70	0x3e04c898	0.12967145
71	0x3e7982f3	0.2436636
72	0xbe86ef23	-0.26354322
73	0x3e46afb8	0.19402969
74	0x3d282cf4	0.041058496
75	0x3cc9f086	0.024650823
76	0x3e76525f	0.2405486
77	0x3e77d16b	0.2420098
78	0x3de72b1f	0.112875216
79	0x3e584dae	0.21123382
80	0x3de3f612	0.111309186
81	0x3d32e8b1	0.043678943
82	0xbe70946a	-0.23494115
83	0x3d4c9beb	0.049953382
84	0xbe42b471	-0.19014145
85	0x3da7efea	0.08200057
86	0x3d409c79	0.047024224
87	0x3bc740a8	0.0060807057
88	0xbe3b2d6f	-0.1827905
89	0xbe2607c8	-0.16213906
90	0x3e4a408d	0.19751187
91	0x3e057227	0.13031827
92	0x3e10437d	0.14088245
93	0xbda2ba61	-0.07945705
94	0xbd3b6e2a	-0.045759358
95	0xbd8b96aa	-0.06815846
96	0x3e3c52c7	0.18390952
97	0xbdec3d49	-0.11535127
98	0x3e2c87c5	0.16848667
99	0x3e3ca700	0.1842308
100	0xbe7a7cc1	-0.24461652
101	0x3aff58f6	0.0019481468
102	0xbd505b70	-0.05086845
103	0xbe179d5a	-0.14806119
104	0x3dec042f	0.115242355
105	0xbd055b30	-0.032557666
106	0x3e6f9b3d	0.23399062
107	0xbe2b4c03	-0.16728215
108	0x3dfe8e84	0.124295264
109	0xbe69baea	-0.22825208
110	0xbe08e722	-0.1336942
111	0x3c94807e	0.018127676
112	0x3e586ef2	0.21136072
113	0x3e104d4b	0.14091985
114	0xbe609dc8	-0.21935189
115	0x3cf1d552	0.029520664
116	0xbe217a1f	-0.15769242
117	0x3c3d684f	0.011560514
118	0xbe6410c2	-0.22272018
119	0xbda0c929	-0.07850868
120	0x3e3bee53	0.18352632
121	0xbe7b0f95	-0.24517663
122	0xbe828218	-0.2548988
123	0x3d477657	0.048696842
124	0x3d16207f	0.036652084
125	0xbd478e8e	-0.048719935
126	0x3e6f1bb7	0.23350416
127	0xbe24ad64	-0.16081768

vehicle_encoder.lstm.weight_ih_l0 f4 [512, 2]
0	0xbd49a712	-0.049231596
1	0xbd7f0cea	-0.062268175
2	0xbc881af3	-0.016614413
3	0xbcbff97f	-0.023434399
4	0x3d6a6d4f	0.05723315
5	0xbb3e648f	-0.0029051637
6	0x3cf5a08d	0.029983783
7	0xbd0ed7ef	-0.0348739
8	0x3d9a2d63	0.07528188
9	0x3d9ef379	0.077612825
10	0xbda27753	-0.079329155
11	0xbcbcca73	-0.023045754
12	0xbd9bfdba	-0.07616754
13	0x3d11db17	0.03560933
14	0xbd9ba3bb	-0.075995885
15	0xbd225b60	-0.039637923
16	0x3db347ee	0.08753954
17	0xbdae40b4	-0.08508435
18	0x3d841201	0.064487465
19	0x3bd152cd	0.0063880445
20	0x3d8d162d	0.06888995
21	0xbd3f50b1	-0.046707813
22	0x3d79cdb8	0.060987204
23	0x3c5bbccd	0.013411713
24	0x3bf54e8b	0.0074861697
25	0x3d7aa906	0.06119635
26	0xbda968f1	-0.08271969
27	0xbd906fe5	-0.07052592
28	0x3dafda82	0.08586599
29	0xbd57e4e2	-0.052708514
30	0xbd85b3cd	-0.06528435
31	0xbbc40ef4	-0.005983228
32	0xbce607cd	-0.028079892
33	0xbc57dba6	-0.013174927
34	0xbd6da3c5	-0.05801751
35	0x3d06e75a	0.032935478
36	0xbd91abca	-0.07112844
37	0x3c2666dd	0.01015636
38	0x3d46cda6	0.048535965
39	0x3c62e2c1	0.013848008
40	0x3c29b233	0.010357427
41	0x3c53d692	0.0129295755
42	0xbcd51f71	-0.026015969
43	0xbc84ba0c	-0.016201995
44	0xbd000b09	-0.031260524
45	0xbd5c94e2	-0.053852923
46	0xbd40b156	-0.04704412
47	0x3db17c03	0.086662315
48	0xbc420d15	-0.011843939
49	0x3d0a5d78	0.033780545
50	0x3d753bf2	0.05987162
51	0xbc037a84	-0.0080248155
52	0xbd48e424	-0.049045697
53	0xbd7a907d	-0.06117295
54	0xbd008f0f	-0.03138643
55	0x3cf29846	0.029613625
56	0xbd8ff870	-0.070298076
57	0xbbdd5317	-0.00675429
58	0x3d1ae26d	0.037813593
59	0x3d9c6ee4	0.07638338
60	0x3cd58b2b	0.026067337
61	0x3c943787	0.018092884
62	0x3d86b2e2	0.06577088
63	0x3d3b9d80	0.0458045
64	0x3cee6f15	0.029105702
65	0xbce332d8	-0.027734205
66	0xbd906ec1	-0.07052375
67	0xbc9a3e4e	-0.018828537
68	0xbca25203	-0.019814497
69	0x3b2fa1c7	0.0026799308
70	0xbc39d55b	-0.011342372
71	0x3d0ec9f8	0.03486058
72	0x3d74c148	0.05975464
73	0xbd0fa0dc	-0.035065517
74	0xbdab90bc	-0.08377215
75	0xbd36feae	-0.044676475
76	0xbd318b78	-0.0433459
77	0x3d4dd8e3	0.050255667
78	0xbd69087e	-0.056892864
79	0xbc195640	-0.0093589425
80	0xbc63a487	-0.013894207
81	0xbd4a6872	-0.049416013
82	0x3d27c6bb	0.04096101
83	0xbd14f1e0	-0.036363482
84	0xbb97ec62	-0.0046363333
85	0xbd8096d4	-0.06278768
86	0xbb8f44b8	-0.0043722056
87	0x3c8c644b	0.017137667
88	0xbbaf7472	-0.0053544575
89	0xbd0d2907	-0.034462955
90	0x3cf2b04f	0.029625086
91	0xbca0d402	-0.019632343
92	0xbd35bd9a	-0.04437027
93	0xbd75cea4	-0.06001152
94	0xbc909302	-0.017648224
95	0xbdab245f	-0.083565466
96	0x3d9a5214	0.075351864
97	0xbd251d03	-0.04031087
98	0xbd1b17eb	-0.037864607
99	0x3bd0feea	0.0063780444
100	0x3cdedfec	0.027206384
101	0xbb9d2662	-0.0047958354
102	0x3d83e0fd	0.064393975
103	0xbd433059	-0.04765353
104	0x3d09adb8	0.033612937
105	0x3b04fd87	0.0020292716
106	0xbd93a329	-0.07208855
107	0xbd004465	-0.031315226
108	0x3ca8d3c2	0.020608786
109	0x3c7dc86e	0.015489681
110	0x3d877757	0.06614559
111	0x3d781853	0.060570072
112	0xbd385c40	-0.04500985
113	0xbd0cf741	-0.034415487
114	0xbcbc8028	-0.023010328
115	0xbd89fb5f	-0.06737398
116	0xbcb72dba	-0.022360671
117	0xbd907fd2	-0.0705563
118	0x3d145a84	0.036219135
119	0x3d854db2	0.0650896
120	0x3c01240b	0.0078821285
121	0xbd802f2d	-0.06258998
122	0xbd882302	-0.06647302
123	0xbd089a1f	-0.033350106
124	0x3ce2f2d0	0.027703673
125	0x3b8d7b6c	0.0043176915
126	0x3c62ba10	0.013838306
127	0x3da73138	0.081636846
128	0x3d2601e0	0.040529132
129	0x3c9851a5	0.018593619
130	0xbc778ee4	-0.015109751
131	0x3d362121	0.044465188
132	0x3cea9569	0.028635697
133	0xbdaabe6c	-0.08337101
134	0xbd593b6e	-0.053035192
135	0x3b2b74a0	0.0026162043
136	0x3d000941	0.031258825
137	0x3d266728	0.04062572
138	0xbd5b13be	-0.053485624
139	0xbdb591ab	-0.088656746
140	0xbb886337	-0.004162218
141	0xbc1a9bfc	-0.009436604
142	0x3cd58826	0.026065897
143	0xbcc1ee25	-0.023673126
144	0x3d941dab	0.07232221
145	0x3c32b64e	0.010907723
146	0x3d811d7e	0.06304453
147	0xbd805c6a	-0.062676266
148	0x3d0a4843	0.03376032
149	0x3c1cd8ac	0.009573143
150	0xbd41eddf	-0.047345992
151	0x3d27598f	0.040856894
152	0xbdae3956	-0.0850703
153	0x3d905eac	0.07049307
154	0x3c3315f5	0.010930528
155	0x3c46a4a6	0.012124216
156	0x3d2c7573	0.042104196
157	0x3c0bd887	0.008535511
158	0x3d220337	0.039553847
159	0x3d6e8d0e	0.05823999
160	0xbd8879bf	-0.06663846
161	0x3d796bce	0.060893826
162	0xbc3822e9	-0.011238792
163	0xbc9e3ba5	-0.01931555
164	0x3c885ec4	0.01664675
165	0x3d8c64b1	0.06855143
166	0xbd40af6d	-0.0470423
167	0xbd6eb625	-0.058279175
168	0x3d6855c4	0.056722417
169	0xbd222e75	-0.039595086
170	0x3cdba9c0	0.026814342
171	0xbc784a19	-0.015154385
172	0x3ccb720c	0.024834655
173	0x3d8e0513	0.069345616
174	0xbd36818c	-0.04455714
175	0xbd2c6721	-0.04209054
176	0x3d2b2648	0.041784555
177	0x3b481184	0.0030528018
178	0xbc1aae9a	-0.009441042
179	0xbd9ceffa	-0.076629594
180	0x3d9be5c4	0.07612184
181	0xbafd5603	-0.0019328002
182	0xbc5a637b	-0.013329382
183	0xbd06c17f	-0.032899376
184	0xbca054ae	-0.019571628
185	0x3d26958f	0.040669974
186	0xbb485ac5	-0.003057168
187	0x3d977c69	0.07396776
188	0xbb2fac53	-0.0026805594
189	0xbc3b940e	-0.011448873
190	0x3d4b215d	0.049592365
191	0xbb1ef3d8	-0.002425423
192	0xbc9e9c01	-0.019361498
193	0x3cdfd90d	0.027325178
194	0x3d961a4a	0.07329233
195	0x3cc98e60	0.024604023
196	0x3d832424	0.06403378
197	0x3d727b79	0.059199784
198	0x3cc78c8d	0.024359012
199	0x3cf65407	0.030069364
200	0x3ce73586	0.028223764
201	0x3c1340ce	0.008987619
202	0x3d9d85bf	0.07691526
203	0x3dab1070	0.083527446
204	0x3d0dfec9	0.03466681
205	0xba4f9104	-0.00079180324
206	0x3da051a7	0.07828074
207	0xbd8f7808	-0.07005316
208	0x3d867bd6	0.065665886
209	0x3d410946	0.047127984
210	0x3d6d6502	0.057957657
211	0xbbc24a64	-0.005929278
212	0xbd8b502f	-0.06802403
213	0x3d7b3021	0.061325196
214	0xbd244269	-0.040102396
215	0x3cb64aa7	0.022252394
216	0x3d4b6d80	0.049664974
217	0xbda7b068	-0.08187944
218	0x3bd900dc	0.006622417
219	0xbd07aa8e	-0.033121638
220	0x3d81d7bb	0.063399754
221	0xbd646f2f	-0.055770095
222	0x3d560ee9	0.052260313
223	0x3d5c88e3	0.053841483
224	0x3d4e35ac	0.050344154
225	0x3db02701	0.086011894
226	0x3c677a55	0.014128287
227	0xbda270cc	-0.079316705
228	0x3d85a076	0.06524746
229	0x3c2fb485	0.010724192
230	0x3bc602b9	0.006042805
231	0xbda39895	-0.07988087
232	0xbc889155	-0.016670862
233	0xbd22fa4f	-0.039789494
234	0x3db10df0	0.086452365
235	0x3d81a101	0.06329537
236	0x3d84f1d9	0.06491441
237	0x3d70aaa9	0.058756504
238	0xbd613a84	-0.054987445
239	0xbd164eb2	-0.036696143
240	0xbd0fecbd	-0.03513788
241	0xbd12f9eb	-0.03588287
242	0x3d90657d	0.07050607
243	0x3d047e4c	0.03234701
244	0x3d8c8157	0.06860607
245	0xbbdd9b1f	-0.0067628766
246	0xbd9bd37c	-0.07608697
247	0xbcba6c0e	-0.022756603
248	0x3d78bdf0	0.060728014
249	0x3d5781ec	0.052614138
250	0x3cf53a99	0.029935168
251	0xbcc080a0	-0.023498833
252	0xbda6ae65	-0.08138732
253	0xbd3d4e33	-0.046217155
254	0x3d42e8f1	0.04758543
255	0xbd0cdec6	-0.03439214

vehicle_encoder.lstm.weight_hh_l0 f4 [512, 128]
0	0x3d8a4757	0.06751888
1	0x3b604224	0.003421911
2	0xbb436562	-0.0029815068
3	0x3d9377c0	0.07200575
4	0x3d0f66e1	0.035010222
5	0x3db27f28	0.087156594
6	0x3d991e20	0.07476449
7	0xbd5bd2b8	-0.053667754
8	0x3d502a4a	0.05082158
9	0x3d273938	0.040826052
10	0xbd717d6f	-0.058957513
11	0x3d1e1021	0.0385896
12	0xbd2c709a	-0.042099573
13	0xbd4832af	-0.04887646
14	0x3bb102e4	0.005401956
15	0xbbe3b0d0	-0.006948568
16	0xbcdce999	-0.026966857
17	0xbd5fb56f	-0.054616388
18	0x3d494965	0.04914226
19	0x3dae46d4	0.08509603
20	0xbc83bb85	-0.016080627
21	0xbd820e2e	-0.06350361
22	0xb9e0b521	-0.0004285956
23	0xbda33c57	-0.07970493
24	0xbd9ab091	-0.075532086
25	0xbcd90134	-0.026489832
26	0x3d59370f	0.053031024
27	0xbd8888a5	-0.06666688
28	0xbc2882ba	-0.010285074
29	0xbd4d653e	-0.05014538
30	0xbdafcd3c	-0.08584067
31	0xbcbe0a2a	-0.023198206
32	0xbacef8e6	-0.001579073
33	0xbc3f4a8f	-0.011675491
34	0x3d8a685f	0.067581885
35	0x3d05d600	0.03267479
36	0x3d52f1d4	0.051500157
37	0x3cfb2b51	0.030660303
38	0x3c5aa856	0.0133457985
39	0x3d526648	0.051367074
40	0xbd73c307	-0.059512164
41	0x3d46eb30	0.048564136
42	0x3d1ddc03	0.038539898
43	0xbd09540f	-0.03352743
44	0xbb42a40b	-0.0029699828
45	0xbd90ebc6	-0.0707622
46	0xbda74b48	-0.08168656
47	0xbb930d48	-0.004487667
48	0x3ca2ee9a	0.019889165
49	0xbcb4e84a	-0.02208342
50	0x3cbbfa5e	0.022946533
51	0xbd83416d	-0.06408963
52	0xbd37334c	-0.044726655
53	0x3d685a34	0.05672665
54	0xbda908c7	-0.08253627
55	0x3c30c9f0	0.010790333
56	0x3d93d540	0.072184086
57	0x3d802d9d	0.062587
58	0x3cd9ff70	0.02661106
59	0xbd9e8c6f	-0.07741629
60	0x3c654578	0.013993613
61	0xbceb68ab	-0.028736433
62	0xbca70ed4	-0.020392813
63	0x3d90f034	0.07077065
64	0xbd052c9d	-0.03251325
65	0xbd736cf6	-0.059430085
66	0xbd98f2d1	-0.074681886
67	0x3d73166c	0.059347555
68	0x3c091bda	0.008368457
69	0x3dbb0088	0.09130961
70	0x3cb77295	0.022393504
71	0xbda2bc58	-0.0794608
72	0x3cd7c756	0.026340168
73	0x3d9dd79c	0.0770714
74	0x3d66d34e	0.05635386
75	0x3cf004d9	0.029299187
76	0xbd852d12	-0.06502737
77	0xbd488ffb	-0.048965435
78	0x3d81be80	0.06335163
79	0xbd80300a	-0.06259163
80	0x3cbf2fdd	0.023338253
81	0xbbe90509	-0.007111196
82	0x3d09a013	0.033599924
83	0x3c106038	0.008812003
84	0xbd915056	-0.07095401
85	0xbd017e40	-0.031614542
86	0x3d9d5235	0.07681695
87	0x3be197c0	0.006884545
88	0x3d28cc55	0.04121049
89	0xbd269059	-0.040665004
90	0x3d93415e	0.07190202
91	0xbcbb1c77	-0.022840722
92	0xbcd7e18b	-0.026352664
93	0x3c694d73	0.014239657
94	0xbced9c4b	-0.02900519
95	0xbd1fde4f	-0.03903037
96	0xbc52fa08	-0.012876995
97	0xbc0c83aa	-0.008576313
98	0xbd413fe5	-0.047180075
99	0x3d0ad1ab	0.03389136
100	0xbda74ec4	-0.0816932
101	0x3d4da07a	0.05020187
102	0x3dafe9ab	0.085894905
103	0x3c2ac41e	0.010422735
104	0xbcc3ef85	-0.023917923
105	0xbd9e5ef3	-0.07732954
106	0x3d2261de	0.039644115
107	0x3d8c2bea	0.068443134
108	0x3da2de14	0.07952514
109	0x3c0542cc	0.008133601
110	0x3d054eaa	0.032545723
111	0x3da5ac5d	0.08089516
112	0x3c896858	0.016773388
113	0xbd1e0115	-0.03857525
114	0xbdb431e5	-0.08798579
115	0x3d0dfcf2	0.034665056
116	0x3cf7c340	0.03024447
117	0x3d9b6269	0.075871296
118	0xbd2dad59	-0.042401645
119	0x3d2cced9	0.042189453
120	0xbd06471e	-0.032782666
121	0xbcd56abb	-0.02605187
122	0x3d439c62	0.04775656
123	0xbd9fbc2b	-0.07799562
124	0x3d8b1002	0.067901626
125	0x3d16a47c	0.03677796
126	0xbd680403	-0.05664445
127	0x3d29ab88	0.04142335
128	0xbcb6475e	-0.022250827
129	0x3bf9254e	0.007603324
130	0xbcc89868	-0.024486735
131	0xbdb114b5	-0.08646528
132	0xbc0b0723	-0.008485588
133	0x3d301f92	0.042998858
134	0xbc2f8385	-0.010712509
135	0xbd37cba5	-0.044871945
136	0x3b6d4e7d	0.0036210113
137	0x3c85b9d1	0.016323956
138	0xbccde0eb	-0.025131663
139	0xbd8b9fae	-0.06817566
140	0xbd43cc7f	-0.047802445
141	0xbc742445	-0.014901225
142	0x3d0109e2	0.031503566
143	0x3d9f3f5f	0.07775759
144	0x3b10b9a1	0.00220833
145	0x3d01123f	0.03151154
146	0x3d527d63	0.05138911
147	0xbd1e2495	-0.038609106
148	0xbcfdcdf4	-0.030981995
149	0x3d734e5e	0.05940091
150	0x3d80512e	0.06265484
151	0x3cb14a66	0.021641921
152	0xbd8b431c	-0.067999095
153	0x3d4e4409	0.050357852
154	0xbd96c632	-0.073620215
155	0x3d316f88	0.043319255
156	0x3c25e041	0.010124267
157	0x3cefaab5	0.029256204
158	0xbdabb129	-0.083834
159	0xbcffafca	-0.031211752
160	0x3d19200c	0.037384078
161	0x3d8b2017	0.0679323
162	0xbcce7dd2	-0.02520648
163	0x3da090a0	0.07840085
164	0xbc9f60e6	-0.019455384
165	0xbd574719	-0.05255804
166	0xbd21ce73	-0.039503526
167	0x3b7a77a3	0.0038218282
168	0xbc80a7d9	-0.015705036
169	0x3d2ea9b3	0.042642307
170	0xbd46949f	-0.04848158
171	0xbcd2919a	-0.025704194
172	0xbdb1f6dc	-0.08689663
173	0x3d947e62	0.07250668
174	0xbc7e32e0	-0.015515059
175	0xbd8b6a80	-0.06807423
176	0xbbaa4c11	-0.005197056
177	0x3a015f28	0.0004935139
178	0x3cd25e18	0.025679633
179	0xbc2e14ae	-0.010625048
180	0x3d60f9d9	0.054925773
181	0xbce4c995	-0.027928153
182	0xbcda13ff	-0.026620863
183	0xbcad7ca9	-0.021177607
184	0x3c737cc4	0.014861289
185	0x3d91ef66	0.0712574
186	0xbb8071c6	-0.003919813
187	0x3d8b417e	0.06799601
188	0x3d8ec0a4	0.06970337
189	0xbd3afcbc	-0.045651183
190	0xbc1faa3e	-0.009745179
191	0xbd2a5df4	-0.041593507
192	0x3d1541d5	0.036439735
193	0xbd00c6a0	-0.031439424
194	0x3ce306c0	0.02771318
195	0x3b9429e9	0.0045215976
196	0xbd726a2a	-0.059183277
197	0xbd771524	-0.060322896
198	0xbdb3d5d7	-0.08781021
199	0xbd49b96d	-0.0492491
200	0x3cbac385	0.02279831
201	0x3bbfe36d	0.0058559687
202	0x3d8912e1	0.06693054
203	0xbd9f2b61	-0.07771946
204	0xbb8f3b29	-0.004371066
205	0xbda3ccb1	-0.07998026
206	0x3a16db17	0.0005754693
207	0x3d051165	0.03248729
208	0xbda24e47	-0.079250865
209	0x3d9d9b9e	0.07695697
210	0xbce5e4e4	-0.028063245
211	0x3da0b5b6	0.078471586
212	0xbc6f0f09	-0.014590987
213	0x3d4c68eb	0.049904745
214	0x3da16e7e	0.07882403
215	0xbcff635d	-0.03117531
216	0xbca9189f	-0.020641623
217	0x3d3baef2	0.045821138
218	0xbd98ff05	-0.07470516
219	0x3d583f07	0.052794483
220	0xbd64602b	-0.055755775
221	0x3daaaa89	0.08333308
222	0xbd6af00e	-0.05735784
223	0xbd141f5f	-0.03616273
224	0x3d854b16	0.06508462
225	0xbd1cbd6d	-0.038266588
226	0x3d9b938f	0.07596504
227	0x3d77ee0b	0.06052975
228	0x3da3d4c5	0.07999567
229	0xbdadcb4b	-0.08486041
230	0x3a189b76	0.00058215053
231	0xbce96944	-0.028492577
232	0x3cac3385	0.02102066
233	0xbd89520e	-0.06705104
234	0x3d1223da	0.035678722
235	0xbb5c5022	-0.0033617099
236	0xbd2e3e52	-0.042539902
237	0xbda5892d	-0.08082805
238	0x3d3d212e	0.04617422
239	0xbd008598	-0.031377405
240	0x3d84e87f	0.064896576
241	0x3c70ba5d	0.01469287
242	0x3ce131e7	0.027489616
243	0xbc51a781	-0.012796284
244	0xbc371c7e	-0.011176227
245	0xbcf89643	-0.030345088
246	0xbd9f21ed	-0.07770143
247	0x3d5ca67b	0.053869706
248	0xbd638116	-0.055543028
249	0x3d56a863	0.05240668
250	0xbcec0bcd	-0.02881422
251	0x3d635ec7	0.05551031
252	0x3d9b716a	0.075899914
253	0xbd586c0e	-0.052837424
254	0x3d971c25	0.07378415
255	0x3b2205eb	0.0024722766

vehicle_encoder.lstm.bias_ih_l0 f4 [512]
0	0xbc8f535e	-0.017495807
1	0xbdac8cbc	-0.084252805
2	0x3d361a9f	0.04445898
3	0xba984c28	-0.0011619376
4	0x3d13cb4c	0.03608255
5	0xbce50bdd	-0.027959758
6	0xbd54e119	-0.051972482
7	0x3da72945	0.081621684
8	0x3ca10d57	0.019659681
9	0x3ca78ea9	0.020453768
10	0x3d74dbd8	0.05977997
11	0x3d32d26d	0.04365771
12	0x3c9166f6	0.01774929
13	0xbd272193	-0.040803503
14	0x3ce557a8	0.0279959
15	0x3d82b445	0.0638204
16	0x3d952ac1	0.07283545
17	0x3a4c379a	0.00077902677
18	0xbda274a8	-0.07932407
19	0xbd5dc1ff	-0.054140087
20	0x3d499069	0.049209986
21	0x3da67e6c	0.08129582
22	0x3d78cd2a	0.060742535
23	0x3d4931c6	0.049119733
24	0x3db26657	0.08710926
25	0xbcd554a0	-0.026041329
26	0x3d7d9dba	0.061917998
27	0xbc6b432a	-0.014359275
28	0x3d8c5abd	0.068532445
29	0x3d38d89f	0.04512846
30	0xbba21fa3	-0.004947619
31	0xbbb47120	-0.0055066496
32	0x3d2080c5	0.039185304
33	0xbca6c924	-0.020359583
34	0xbbff49d6	-0.0077907844
35	0x3cf8ce78	0.03037189
36	0xbd2fb60f	-0.042898234
37	0xbc8e7462	-0.01738948
38	0x3d4312ac	0.04762523
39	0x3c9d8b42	0.019231442
40	0x3d8e146a	0.069374874
41	0x3cd633fd	0.026147837
42	0x3d3642d7	0.044497337
43	0x3c02f4cb	0.0079929335
44	0xbcd916bb	-0.026500097
45	0xbcb22a51	-0.021748694
46	0x3d534926	0.05158343
47	0x3bfe9251	0.007768907
48	0xbca2f60a	-0.019892711
49	0xbd95a0bb	-0.073060475
50	0xbd243c4b	-0.040096562
51	0x3d8a5f9d	0.06756518
52	0x3c17a3e9	0.009255388
53	0x3d408ffd	0.047012318
54	0xbd950da6	-0.07277994
55	0x3daa2c52	0.08309235
56	0x3d053a58	0.032526344
57	0x3d89b02c	0.06723055
58	0xbcb80d44	-0.022467263
59	0x3d91d9cd	0.0712162
60	0xbd799c6c	-0.06094019
61	0x3c8be342	0.017076138
62	0x3c803dce	0.01565447
63	0xbd2b65b5	-0.041845042
64	0xbc0119fc	-0.00787973
65	0x3d07eb5b	0.033183437
66	0xbd352a00	-0.044229507
67	0x3c15deca	0.009147355
68	0x3cab20ca	0.020889658
69	0xbda2d531	-0.07950819
70	0xbd00e505	-0.03146841
71	0x3d6d39af	0.05791634
72	0xbd6b38a9	-0.057427082
73	0x3a92bc97	0.001119512
74	0x3d7d5550	0.06184894
75	0xbcde16ca	-0.027110476
76	0x3d6766fa	0.05649469
77	0x3d43a321	0.047762994
78	0xbd2ffc2d	-0.042965103
79	0x3d9f867a	0.07789321
80	0x3d93dcae	0.07219826
81	0x3d90e3d9	0.070747085
82	0x3cbd41d9	0.023102688
83	0x3d715b8b	0.058925193
84	0xbd13e1bb	-0.036103945
85	0xbba7e432	-0.0051236385
86	0x3d8d0640	0.06885958
87	0xbd997dfe	-0.07494734
88	0x3c56f097	0.0131188845
89	0x3da1ee13	0.07906737
90	0x3b42b100	0.002970755
91	0xbd1185fe	-0.035528176
92	0xbd89abad	-0.06722198
93	0xbd3dac33	-0.0463068
94	0xbca07eb5	-0.019591669
95	0x3c0b5cf3	0.008506048
96	0x3d0a26ee	0.033728532
97	0xbd456f48	-0.04820183
98	0xbd964a1b	-0.07338353
99	0xbbdd8d60	-0.006761238
100	0xbcdc6af5	-0.02690647
101	0xbd1243f1	-0.035709325
102	0xbd699264	-0.057024375
103	0x3b1b542c	0.0023701293
104	0x3abddfe8	0.0014486285
105	0x3cbff4b9	0.023432123
106	0xba6de28f	-0.00090745924
107	0xbd331e48	-0.04373005
108	0xbd2a4959	-0.041573856
109	0x3b1d2166	0.0023976206
110	0xbcca0aed	-0.024663413
111	0xbc85141f	-0.016244946
112	0xbcbd6e99	-0.023124026
113	0xbcc68334	-0.024232484
114	0x3da8bcf1	0.08239163
115	0x3c89c49d	0.016817385
116	0x3d908913	0.07057395
117	0x3d4f5b46	0.050624155
118	0x3d8bd813	0.06828322
119	0xbc2a3067	-0.010387517
120	0xbd982587	-0.07429033
121	0xbd408965	-0.04700603
122	0xbc4c4bde	-0.01246926
123	0x3cc7d818	0.024395034
124	0xbcbbd026	-0.022926401
125	0xbda13f33	-0.078733824
126	0xbd425be3	-0.04745091
127	0x3d97d6ea	0.074140385
128	0xbd440dac	-0.0478646
129	0xbd6c529a	-0.057695962
130	0x3d811a3a	0.063038304
131	0xbd25b52d	-0.040455986
132	0xbac51c6e	-0.001503838
133	0x3daa4a15	0.08314911
134	0x3d98f7ae	0.07469116
135	0x3d9fa4dc	0.07795116
136	0xbd72bffa	-0.059265114
137	0x3c078cd2	0.00827332
138	0xbbc41294	-0.00598366
139	0x3b8d9403	0.004320623
140	0x3dad93cd	0.084754564
141	0x3d4ecb93	0.050487112
142	0xbd9a20c1	-0.075257786
143	0x3daedd20	0.0853827
144	0x3da68d0d	0.08132372
145	0xbd8998d7	-0.06718605
146	0xbd92e9fe	-0.07173537
147	0x3d89f2ac	0.06735739
148	0xbce4ad67	-0.027914716
149	0xbd8d1f03	-0.06890681
150	0x3d2f403f	0.04278588
151	0x3ba86b82	0.005139769
152	0x3d6a61e4	0.057222262
153	0xbd8267ed	-0.063674785
154	0x3da1a593	0.07892909
155	0xbcf93662	-0.03042144
156	0xbd452ec9	-0.04814032
157	0x3d14509f	0.0362097
158	0xbd926a48	-0.07149178
159	0xbd868b2a	-0.06569512
160	0xbc79499f	-0.015215307
161	0x3bd7c3d3	0.0065846234
162	0xbd10f4c2	-0.03538967
163	0xbc20b7f2	-0.009809481
164	0xbda7fb56	-0.082022354
165	0x3d7f1db8	0.0622842
166	0xbc0ceda4	-0.00860158
167	0x3c5da57c	0.013528224
168	0x3d65f3be	0.056140654
169	0x3d3a7eb7	0.045531
170	0x3d9608f4	0.073259264
171	0x3d5f7f7e	0.054564945
172	0x3cae3ea0	0.021270096
173	0xbd49cf29	-0.04926983
174	0x3d898c54	0.067162186
175	0xbc88ff67	-0.016723348
176	0x3d243b49	0.0400956
177	0x3dabdc6c	0.083916515
178	0xbd410177	-0.047120538
179	0xbbbd4337	-0.005775835
180	0xbd7a9adc	-0.06118284
181	0xbb5a94ad	-0.0033352778
182	0xbcc8eb51	-0.02452627
183	0xbd74365c	-0.059622154
184	0xbcd29625	-0.02570636
185	0x3cf76836	0.030201059
186	0xbd7a5623	-0.061117303
187	0xbc18118d	-0.009281528
188	0x3d81b828	0.06333953
189	0x3d9a2411	0.0752641
190	0xbda7f55a	-0.08201094
191	0x3d54e151	0.05197269
192	0x3c367e21	0.01113847
193	0x3cf8f3f8	0.03038977
194	0x3d52d81d	0.051475633
195	0x3d8dc066	0.06921463
196	0xbd3d0aaf	-0.046152767
197	0x3d8fb06e	0.07016073
198	0xbb83d421	-0.0040230905
199	0x3c60dcf9	0.013724559
200	0x3d103d9b	0.035215
201	0xbda09e1b	-0.07842656
202	0xbd2f1f64	-0.042754546
203	0xbdba0ad3	-0.09084096
204	0x3c782841	0.015146316
205	0x3d4e9be2	0.05044163
206	0xbd0ab3f3	-0.03386302
207	0x3cd6dcab	0.02622827
208	0xbc66095a	-0.0140403155
209	0xbcd04c1b	-0.025426915
210	0xbd819ead	-0.06329093
211	0x3d08cb63	0.03339709
212	0xbbc06856	-0.005871813
213	0x3d1edf87	0.03878739
214	0x3daa1497	0.083047085
215	0xbd8cf197	-0.06882017
216	0xbbeef525	-0.007292407
217	0xbcb784a5	-0.022402117
218	0x3d6345d4	0.055486515
219	0x3da6365f	0.08115839
220	0x3d8f0329	0.069830246
221	0xbba2b542	-0.0049654553
222	0x3cd62aeb	0.026143512
223	0xbd081c29	-0.03322998
224	0xbdb1b46c	-0.08676991
225	0xbdb06b5a	-0.08614226
226	0x3d10af22	0.03532327
227	0xbd886251	-0.06659377
228	0xbd51a61c	-0.051183805
229	0x3ce7f7b0	0.028316349
230	0xbd9d708f	-0.076874845
231	0x3d5dd8fe	0.054162018
232	0x3d79ad5e	0.06095635
233	0xbbe2c5f3	-0.00692057
234	0x3cc6bf2c	0.02426108
235	0x3d692c37	0.056926932
236	0x3d0c3ac3	0.034235727
237	0xbdad266a	-0.084545925
238	0x3d0325a5	0.032018322
239	0xbdb9f5c7	-0.090800814
240	0xbd5e2209	-0.054231677
241	0xbdb0fe3f	-0.086422436
242	0xbd3a65d3	-0.045507263
243	0x3b730122	0.0037079533
244	0x3c192e52	0.0093494225
245	0x3b6a0a1d	0.0035711594
246	0x3ad6db91	0.001639234
247	0xbd9b3db0	-0.07580125
248	0x3c8ace3d	0.016944045
249	0xbcb8be46	-0.022551667
250	0x3d579ac9	0.05263785
251	0x3d9c03a3	0.07617881
252	0xbc0b971e	-0.008519916
253	0x3c2e201f	0.010627775
254	0xbd4cbba8	-0.04998365
255	0x3d1d5099	0.038406942

vehicle_encoder.lstm.bias_hh_l0 f4 [512]
0	0xbd89b363	-0.067236684
1	0x3bc1180d	0.0058927597
2	0x3db30567	0.08741265
3	0x3db31de4	0.087459356
4	0x3d90ddeb	0.070735775
5	0xbda207e6	-0.07911663
6	0x3d97f60a	0.07419975
7	0x3adc99c9	0.00168305
8	0x3da16db6	0.07882254
9	0xbca88223	-0.020569867
10	0xbd1c31a7	-0.03813329
11	0x3d564545	0.052312154
12	0x3b86354b	0.0040957085
13	0xbd8d47e3	-0.06898477
14	0xbb8a4dc3	-0.0042206957
15	0x3cd73065	0.026268193
16	0xbc7e9348	-0.015538044
17	0xbd54da82	-0.051966198
18	0xbd293f36	-0.04132005
19	0xbc55e85c	-0.013055887
20	0xbcd4dcd5	-0.025984207
21	0x3db2b2d4	0.08725515
22	0xbd622a03	-0.055215847
23	0x3d31d5a6	0.04341664
24	0xbd815495	-0.06314961
25	0xbcc46040	-0.023971677
26	0xbd51bee6	-0.051207446
27	0x3b7565ee	0.0037444788
28	0xbd9d10f1	-0.07669247
29	0x3d5c06d7	0.05371746
30	0xbcb3b563	-0.021937078
31	0x3d588af3	0.052866887
32	0x3ba002e9	0.0048831594
33	0xbd5966c4	-0.05307652
34	0x3d9f3d28	0.077753365
35	0xbdae4b07	-0.08510404
36	0xbd686583	-0.056737434
37	0xbd376762	-0.044776328
38	0x3d92f4cf	0.071756
39	0xbd2cebeb	-0.042217176
40	0x3d516d6f	0.051129755
41	0x3d9f118d	0.077670194
42	0x3d8aff4c	0.06786975
43	0x3d02df67	0.031951334
44	0x3d44347c	0.047901616
45	0x3d9880cd	0.07446442
46	0xbd3aa266	-0.04556503
47	0x3d841583	0.064494155
48	0xbda73d39	-0.08165974
49	0xbd46747c	-0.048450932
50	0x3ac22e67	0.0014814854
51	0xbcb874b2	-0.022516582
52	0xbc7f173f	-0.015569507
53	0x3d49bbf1	0.0492515
54	0x3b85c97a	0.004082856
55	0x3cbf62a6	0.023362469
56	0x3c3bfd8f	0.011474027
57	0xbd11f894	-0.035637453
58	0x3daefde3	0.08544519
59	0x3d474669	0.048651133
60	0xbd27c71a	-0.040961362
61	0xbd96634d	-0.07343159
62	0xbc8e213d	-0.017349834
63	0xbd5e5d10	-0.05428797
64	0xbd62e6da	-0.05539594
65	0xbd8a23c8	-0.06745106
66	0x3d90fccf	0.070794694
67	0xbd29b6c7	-0.041434076
68	0xbb358098	-0.0027695056
69	0xbd8d9c73	-0.06914606
70	0x3da5ce3d	0.080959775
71	0xbd7d28b3	-0.061806392
72	0xbbd3bf9e	-0.0064620515
73	0xbdb41ae8	-0.087941945
74	0x3d47f1cb	0.048814576
75	0x3d21db20	0.039515615
76	0x3c8c8ff2	0.017158482
77	0x3d8d713d	0.06906364
78	0xbda9c422	-0.082893625
79	0x3cfded48	0.030996934
80	0x3cdbed17	0.026846452
81	0xbd5634c6	-0.052296422
82	0x3d72dec0	0.059294462
83	0xbd93ff9b	-0.07226487
84	0x3db335f5	0.08750526
85	0x3cce3834	0.025173284
86	0x3d927920	0.07152009
87	0xbd29a9e2	-0.04142178
88	0x3dae4d36	0.085108206
89	0xbd4f9795	-0.05068167
90	0xbc77fe9d	-0.015136388
91	0xbd5be04b	-0.0536807
92	0x3d81cd23	0.06337955
93	0xbd154893	-0.036446165
94	0x3da74c0d	0.081688024
95	0x3ba745b9	0.005104747
96	0x3d9116b1	0.07084406
97	0x3cc297ed	0.023754084
98	0xbce730c8	-0.028221503
99	0x3d959380	0.07303524
100	0x3d8a9b96	0.06767957
101	0xbb081a37	-0.0020767578
102	0xbc8e9dc0	-0.017409205
103	0x3d60bb00	0.054865837
104	0xbd4ce6c3	-0.05002476
105	0x3d0671a4	0.03282322
106	0xbbec4ab4	-0.0072110537
107	0x3d1e7987	0.038690116
108	0xbd36455f	-0.04449975
109	0xbd8335bc	-0.064067334
110	0x3d8b1714	0.06791511
111	0xbd9f3e62	-0.077755705
112	0x3d3edf99	0.046599958
113	0xbcded5c8	-0.027201548
114	0x3cd80834	0.026371099
115	0xbda4a83a	-0.08039899
116	0x3acf5c74	0.00158204
117	0x3d2ec47a	0.042667843
118	0xbcd16810	-0.025562316
119	0x3b7c4292	0.0038491827
120	0xbd2fae8d	-0.042891074
121	0x3d01efcd	0.031722832
122	0x3d3052cb	0.043047708
123	0x3c1c26bd	0.00953072
124	0x3c1b51bb	0.009479935
125	0xbd880bdb	-0.06642886
126	0x3d498f7b	0.0492091
127	0xbd4ecfe6	-0.050491236
128	0xbd626c17	-0.055278864
129	0x3b17caf7	0.0023161748
130	0x3b2acd33	0.002606225
131	0xbd983796	-0.07432477
132	0xbd95bb37	-0.07311099
133	0xbd6c6b01	-0.057719234
134	0xbda61515	-0.0810949
135	0xbd91d821	-0.071213014
136	0x3d54c9dc	0.05195032
137	0xbd426f6a	-0.047469534
138	0x3da795fb	0.081829034
139	0xbd8bff48	-0.068358004
140	0xbc9e7e37	-0.019347293
141	0xbc485111	-0.012226359
142	0x3d99a626	0.075023934
143	0x3d2116ac	0.039328262
144	0x3c5db33a	0.0135315005
145	0xbd1ad342	-0.037799127
146	0x3d3babb2	0.04581804
147	0xbd908683	-0.07056906
148	0x3c9cc2a3	0.019135779
149	0x3d67e448	0.05661419
150	0x3cfe89dc	0.031071596
151	0x3d3efbaf	0.046626743
152	0xbc87aea0	-0.01656276
153	0x3d8f7e35	0.07006494
154	0x3b0a210b	0.0021076824
155	0x3d2940e4	0.04132165
156	0x3c2ba1df	0.010475605
157	0x3c7ad93f	0.015310585
158	0xbd88bf03	-0.066770576
159	0x3d7badeb	0.061445158
160	0xbdab7d1e	-0.083734736
161	0xbd1f4401	-0.038883213
162	0x3c25bb0e	0.010115398
163	0x3cd9dfec	0.026596032
164	0xbd457c2f	-0.048214134
165	0xbd095209	-0.0335255
166	0xbd17357a	-0.036916234
167	0xbdb2300a	-0.08700569
168	0xbd9994f8	-0.07499117
169	0x3cc60b96	0.024175446
170	0x3ba573cd	0.005049205
171	0xbc934040	-0.017974973
172	0x3d1a7256	0.037706695
173	0x3d09fc51	0.033687893
174	0xbd928ba6	-0.07155542
175	0xbc20608e	-0.009788645
176	0x3c13e6d7	0.0090272045
177	0xbca3d8f9	-0.020000922
178	0x3d953ba8	0.07286769
179	0xbd5a59f0	-0.053308427
180	0x3d2915c6	0.04128053
181	0x3d4f532a	0.05061642
182	0xbd90d4e7	-0.07071858
183	0xbd90c13f	-0.07068109
184	0x3d504fd6	0.050857387
185	0xbd3d4ce8	-0.04621592
186	0x3d8b18ae	0.06791817
187	0x3bd53135	0.00650611
188	0xbc1d20a3	-0.009590301
189	0x3d987485	0.07444099
190	0xbc9fed38	-0.019522294
191	0x3ba57076	0.005048807
192	0xbd7d7560	-0.061879516
193	0xbb5bc0e5	-0.0033531722
194	0x3d9c140b	0.076210104
195	0x3da12b6e	0.07869612
196	0xbd2692b1	-0.04066724
197	0xbd1b3d15	-0.03790005
198	0x3da099c5	0.07841829
199	0x3d9bb356	0.07602565
200	0xbc284a95	-0.010271688
201	0xbc23de82	-0.01000178
202	0xbd843b2d	-0.064565994
203	0xbda5643b	-0.08075758
204	0x3ba2d8df	0.0049697007
205	0xbd83ca9b	-0.06435128
206	0x3d1c171d	0.03810798
207	0x3d92de9c	0.071713656
208	0xbd0ef972	-0.03490586
209	0xbd5d356c	-0.054006025
210	0xbdac433c	-0.084112614
211	0xbbcd000e	-0.00625611
212	0xbd1085fe	-0.035284035
213	0x3db4e3e9	0.08832533
214	0x3d359d97	0.044339743
215	0x3d8f1c2a	0.06987794
216	0x3d986285	0.07440666
217	0x3c133a28	0.0089860335
218	0xbd52cb64	-0.0514635
219	0xbc4a2ae2	-0.012339326
220	0xbd98355a	-0.07432051
221	0xbd4c44dc	-0.049870357
222	0xbda29aa7	-0.07939654
223	0x3cf2e9c7	0.02965249
224	0xbd8bdebb	-0.06829592
225	0x3b39a64d	0.0028327883
226	0x3d8c7b10	0.0685941
227	0xbc53f3e9	-0.012936571
228	0x3d8a2616	0.067455456
229	0x3c8985da	0.016787458
230	0xbcb4eb7c	-0.022084944
231	0x3cc2b086	0.023765814
232	0x3d9fb55e	0.07798265
233	0x3d2a18f0	0.04152769
234	0xbd9c3712	-0.07627691
235	0xbcbc9424	-0.023019858
236	0xbcae8f07	-0.021308435
237	0xbd27be38	-0.04095289
238	0xbbd4b8f8	-0.0064917766
239	0xbdab8724	-0.083753854
240	0x3d886e3e	0.06661652
241	0xbd663778	-0.056205243
242	0x3d38af37	0.045088973
243	0x3cea2b96	0.028585237
244	0x3cf3aa3a	0.029744256
245	0xbd8fee2d	-0.0702785
246	0xbd84663e	-0.06464814
247	0xbd926f06	-0.07150082
248	0x3d4e5e52	0.05038292
249	0x3d803049	0.0625921
250	0x3c855426	0.016275477
251	0x3d09d0ee	0.033646517
252	0x3d115fe6	0.035491847
253	0x3d0f32b5	0.034960467
254	0xbd496f02	-0.04917813
255	0x3cc2a487	0.023760093

attention.wq.weight f4 [128, 128]
0	0xbd0d96b6	-0.034567557
1	0x3da1dbad	0.07903228
2	0xbdacf83c	-0.084457844
3	0x3d1c496d	0.03815596
4	0xbd632f63	-0.055465113
5	0xbd2e3267	-0.042528536
6	0xbd33fe3c	-0.04394363
7	0xbd881a10	-0.06645596
8	0x3caf2b3b	0.021382919
9	0x3be4c639	0.006981638
10	0x3d4e4527	0.050358918
11	0xbd2647ad	-0.0405957
12	0xbc5b467d	-0.013383505
13	0xbd8e86c5	-0.06959299
14	0x3d2f4753	0.04279263
15	0x3c14b416	0.009076139
16	0xbd2ccc83	-0.042187225
17	0x3cd3061a	0.025759745
18	0xbd9ffce2	-0.078119054
19	0x3d9ffa39	0.07811398
20	0xbd1abe00	-0.037778854
21	0x3d681c0b	0.05666737
22	0xbd812828	-0.06306487
23	0xbd9ad821	-0.075607546
24	0xb9d3e527	-0.00040415788
25	0x3c0b7c5d	0.008513537
26	0x3d321902	0.04348088
27	0x3c8dde61	0.017317953
28	0x3dac892d	0.08424602
29	0x3cdffab9	0.027341234
30	0xbc8d0d79	-0.017218338
31	0x3cd1db6b	0.025617322
32	0xbda20a67	-0.0791214
33	0x3cd8def0	0.026473492
34	0x3bac469c	0.0052574407
35	0xbd8ff8b8	-0.07029861
36	0x3d2c7744	0.042105928
37	0xbce59cad	-0.02802881
38	0xbb58b988	-0.003306957
39	0x39bc1fba	0.00035881792
40	0xbc400cff	-0.0117218485
41	0x3c84f803	0.016231542
42	0x3da2b408	0.079444945
43	0x3c03f1c2	0.008053245
44	0x3c09d460	0.008412451
45	0xbd5c9473	-0.05385251
46	0xbb14eab5	-0.0022722904
47	0x3ce22fe7	0.027610732
48	0x3d6f45dc	0.058416232
49	0x3da57011	0.080780156
50	0x3c5bfacb	0.013426493
51	0x3c5095e0	0.0127310455
52	0xbce888b6	-0.028385501
53	0xbd6c9b58	-0.057765335
54	0x3d32e5ce	0.04367619
55	0x3c368a86	0.011141425
56	0xbd1edf16	-0.03878697
57	0x3d31add0	0.04337865
58	0x3ca61b2c	0.020276628
59	0x3d3cf0c3	0.046128046
60	0x3b93af51	0.0045069833
61	0x3d0588e4	0.032601252
62	0xbd4c83e6	-0.049930476
63	0xbd7c3253	-0.06157143
64	0xbce7a1a6	-0.028275322
65	0x3d4cab11	0.04996783
66	0xbcf4dddd	-0.029890949
67	0x3d78304b	0.06059293
68	0x3d081c14	0.033229902
69	0xbd6df60a	-0.05809597
70	0xbd754721	-0.059882287
71	0x3d1a8339	0.0377228
72	0x3c70acbf	0.014689623
73	0x3c77caaf	0.015124007
74	0xbc5638d3	-0.013075071
75	0x3d39bccb	0.045346063
76	0xbd0b75a3	-0.034047734
77	0x3d1d95ac	0.038472816
78	0x3d5a73dc	0.05333315
79	0x3d2aef93	0.041732382
80	0xbcf8db48	-0.030377999
81	0x3d268428	0.040653378
82	0x3c95ee5a	0.018302131
83	0xbd8711fe	-0.065952286
84	0x3d940393	0.07227244
85	0xbdac6308	-0.08417326
86	0x3d4a2b14	0.04935749
87	0xbd1df130	-0.038560092
88	0x3d8a1377	0.06741994
89	0x3d99fd9c	0.07519075
90	0x3d9da8bb	0.076981984
91	0xbd28cfd1	-0.041213814
92	0xbd0dd08b	-0.03462271
93	0x3c70329d	0.014660505
94	0xbc7163bd	-0.014733252
95	0xbdb97767	-0.09055977
96	0xbcfcba4b	-0.03085055
97	0xbd96b5b3	-0.07358875
98	0xbce207d0	-0.027591616
99	0x3db9353e	0.09043358
100	0x3dac9fa4	0.084288865
101	0x3d93ed56	0.072230026
102	0x3ca1d083	0.019752746
103	0xbd9c21a7	-0.07623606
104	0xbcf21afb	-0.02955388
105	0x3d6834de	0.056691043
106	0x3cb2d26a	0.021828849
107	0x3d23ac22	0.03995908
108	0x3c3d01e1	0.0115360925
109	0x3cb40f4b	0.021979949
110	0xbdad8287	-0.08472162
111	0xbc84d27d	-0.01621365
112	0x3ca5371e	0.020167883
113	0x3cac8461	0.021059217
114	0x3c691c23	0.0142279
115	0xbcf25346	-0.029580723
116	0x3d4a2e35	0.049360473
117	0x3ccf80cc	0.02532997
118	0x3cf55a0e	0.029950168
119	0x3d754979	0.059884522
120	0xbb9d30bf	-0.0047970708
121	0x3d7c2af4	0.0615644
122	0x3ac4a94c	0.0015004068
123	0xbda94165	-0.08264426
124	0x3d5c041c	0.053714857
125	0x3d93cf6a	0.072172955
126	0x3a89e34e	0.0010520013
127	0x3da3e749	0.080030985
128	0xbd424fd9	-0.04743943
129	0x3daa511c	0.08316252
130	0xbcd7c27c	-0.026337855
131	0xbd817e6d	-0.06322942
132	0xbc1816f6	-0.009282818
133	0xbd762bf4	-0.06010051
134	0xbd60bc49	-0.054867063
135	0xbcbbd68a	-0.022929449
136	0xbd372474	-0.0447125
137	0xbda3c989	-0.07997424
138	0xbd0fc4b0	-0.035099685
139	0x3c24ff69	0.01007066
140	0x3d7b50a9	0.06135622
141	0x3d91acce	0.07113038
142	0x3c522406	0.0128259715
143	0xbd6699f6	-0.056299172
144	0x3ce8b553	0.028406775
145	0xbda3024a	-0.07959421
146	0x3cb27808	0.021785751
147	0xbcbf09e0	-0.023320138
148	0x3ab0df82	0.0013494345
149	0x3d313760	0.0432657
150	0x3c2959d7	0.010336361
151	0x3d0aad11	0.033856455
152	0xbd3e139f	-0.04640543
153	0x3d8941b2	0.067019835
154	0xbb876157	-0.004131477
155	0x3d4c3f9d	0.049865354
156	0xbd9837b0	-0.074324965
157	0x3da31e1d	0.07964728
158	0x3d520e97	0.051283445
159	0x3c9db92d	0.019253338
160	0x3d51946e	0.051166944
161	0x3c91fe37	0.017821414
162	0xbcd37667	-0.025813295
163	0xbd9d9ada	-0.07695551
164	0xbbcf7e4f	-0.006332196
165	0xbcabc9c0	-0.020970225
166	0x3d94e99f	0.07271122
167	0xbc1af86c	-0.009458642
168	0xbd770c93	-0.060314726
169	0xbc3dbdb8	-0.011580877
170	0xbc03794e	-0.008024527
171	0x3da24eb2	0.07925166
172	0x3d35745b	0.04430042
173	0xbc6d408a	-0.014480719
174	0xbd998555	-0.07496134
175	0xbda1928d	-0.078892805
176	0x3d9ec865	0.07753066
177	0x3cb8f0b6	0.022575717
178	0xbcf7e43c	-0.030260198
179	0xbc9ceca3	-0.019155806
180	0x3db08336	0.086187765
181	0xbc604dbf	-0.013690411
182	0x3db2df64	0.08734015
183	0x3d06af57	0.03288206
184	0xbb675820	-0.003530033
185	0x3ca1409f	0.019684134
186	0xbcc67f53	-0.024230635
187	0xbc1107d0	-0.00885196
188	0x3cdb3060	0.026756465
189	0xbd795201	-0.06086922
190	0xbd112fcd	-0.035445977
191	0xbd54a8d0	-0.051918805
192	0xbd54a25f	-0.05191266
193	0x3d9e6a6e	0.077351436
194	0x3d9f3fd9	0.0777585
195	0x3d95cf50	0.07314932
196	0x3d51cfa4	0.051223412
197	0x3ca0dcac	0.019636475
198	0x3c840a3f	0.016118167
199	0x3c5056b6	0.012715986
200	0x3dad2e70	0.08456123
201	0x3d9daf24	0.07699421
202	0xbbf6ca4a	-0.007531439
203	0xbd8cba79	-0.06871504
204	0x3d0b46de	0.03400313
205	0x3d25a84f	0.040443715
206	0xbba413a7	-0.0050072256
207	0x3d822d74	0.06356326
208	0x3d22feb4	0.039793685
209	0xbd6bf20c	-0.05760388
210	0x3dadc527	0.084848695
211	0xbd93202f	-0.07183873
212	0x3be8299a	0.0070850374
213	0xbd7b9d50	-0.06142932
214	0x3d431f14	0.04763706
215	0xbcfca593	-0.03084067
216	0x3cc3fb3d	0.02392351
217	0xbc3c358d	-0.011487377
218	0xbd343b99	-0.04400215
219	0x3d87a0fc	0.06622502
220	0xbd5e2ad6	-0.05424007
221	0x3d91603d	0.07098434
222	0xbd98318f	-0.074313276
223	0xbda65942	-0.08122493
224	0xbda16f98	-0.07882613
225	0x3ce8bad2	0.028409395
226	0xbb9999ca	-0.0046875225
227	0xbccf62a7	-0.025315596
228	0x3c417064	0.011806581
229	0xbd871174	-0.06595126
230	0xbd916700	-0.07099724
231	0x3c82a937	0.015949829
232	0xbd5fb6a5	-0.054617543
233	0xbd7dde24	-0.061979428
234	0xbbfcaab7	-0.0077107805
235	0xbd19c2a8	-0.037539154
236	0xbc9f29ac	-0.01942905
237	0x3d1c6213	0.03817947
238	0x3d63972b	0.055564087
239	0x3cae39b3	0.021267748
240	0xbd4eb7c5	-0.050468225
241	0x3c659b57	0.014014087
242	0x3d4f608e	0.05062919
243	0xbd20b4e8	-0.039235026
244	0x3d550d37	0.052014556
245	0x3cf6295b	0.030049017
246	0xbdabd855	-0.083908714
247	0x3c85e7eb	0.016345939
248	0x3c823f60	0.01589936
249	0xbd602b2f	-0.054728683
250	0xbcf7c5bf	-0.03024566
251	0x3d226e31	0.039655868
252	0x3cef84bb	0.029238096
253	0x3d9def05	0.07711605
254	0xbd05214d	-0.03250246
255	0x3daf3466	0.08554916

attention.wq.bias f4 [128]
0	0x3d416099	0.047211263
1	0xbd99ef92	-0.075163975
2	0xbceb5929	-0.028729038
3	0x3d35fb6f	0.04442924
4	0xbc82b1e9	-0.015953975
5	0xbc1126ac	-0.008859318
6	0xbd4810ee	-0.04884427
7	0xbd3b924c	-0.045793816
8	0xbceadf87	-0.02867104
9	0x3ce3d5ee	0.02781197
10	0x3d071f1c	0.032988653
11	0x3cff8222	0.031189982
12	0x3d0eef11	0.03489596
13	0xbd545f78	-0.05184886
14	0xbd923932	-0.071398154
15	0xbd916474	-0.07099238
16	0xbbc8ec3c	-0.006131677
17	0xbcf4aaaf	-0.029866545
18	0x3d28e1ae	0.04123085
19	0x3db1b404	0.086769134
20	0xbd5e95cc	-0.054342076
21	0x3d7edcd3	0.062222313
22	0x3d1bb364	0.038012877
23	0x3d905dbb	0.07049128
24	0x3cffb888	0.031215921
25	0xbd9d58df	-0.076829664
26	0xbcfcb457	-0.030847711
27	0x3d78a8b0	0.060707748
28	0x3c7c4ba6	0.015398895
29	0xbb40d8d4	-0.0029426115
30	0x3d6aea65	0.057352442
31	0x3bafea22	0.005368487
32	0x3d7c7d24	0.06164278
33	0xbcbacaee	-0.022801843
34	0x3a56b507	0.00081904273
35	0xbd4cceec	-0.050002024
36	0xbb92ea49	-0.0044834954
37	0x3bfd75e6	0.007735002
38	0xbd7a5ac0	-0.061121702
39	0x3dabb574	0.08384219
40	0xbd15becc	-0.03655891
41	0xbb47b6d8	-0.0030473974
42	0x3d127840	0.03575921
43	0x3c661e8e	0.014045371
44	0x3cc1b088	0.023643747
45	0xbd2e2e62	-0.042524703
46	0x3d9d3a22	0.076771036
47	0xbc7d65d3	-0.015466171
48	0xbd3bf296	-0.045885645
49	0xbd6ecafc	-0.05829905
50	0x3b998331	0.0046848287
51	0xbd160159	-0.03662238
52	0x3d845722	0.06461932
53	0xbc71c304	-0.014755968
54	0x3d15f2a9	0.036608372
55	0xbd39db5d	-0.045375217
56	0xbda37ce3	-0.079828046
57	0xbd8d4cb9	-0.06899399
58	0x3d482543	0.04886366
59	0xbd273116	-0.040818296
60	0x3d267731	0.040641014
61	0xbce18310	-0.027528316
62	0x3d0ebd9a	0.034848787
63	0xbd58ca03	-0.05292703
64	0xbd5e6420	-0.054294705
65	0xbccb0405	-0.02478219
66	0x3cf7371f	0.030177651
67	0xbd4e9253	-0.050432514
68	0xbcbb7d87	-0.022887005
69	0xbd51c922	-0.051217206
70	0x3cefe0fa	0.029282082
71	0x3d53bd78	0.051694363
72	0x3d8d5c65	0.069023885
73	0xbc917268	-0.017754748
74	0x3d6d86f0	0.057990015
75	0xbd428399	-0.047488783
76	0xbd0790e0	-0.033097148
77	0x3d36e3e2	0.04465092
78	0xbd013e82	-0.031553753
79	0x3caeac77	0.021322472
80	0xbd879e0b	-0.06621941
81	0x3d1d0fdf	0.038345214
82	0xbdacd57b	-0.08439156
83	0x3d9063ab	0.0705026
84	0xbb87e1e6	-0.0041468022
85	0x3d15d137	0.036576476
86	0x3d1dfee0	0.038573146
87	0x3cc915c5	0.024546513
88	0x3ce34e4f	0.027747301
89	0x3c58bfaf	0.013229295
90	0xbd81a07a	-0.063294366
91	0xbd2ba85f	-0.041908618
92	0xbc85c62b	-0.016329845
93	0xbba5e4a5	-0.005062657
94	0xba95b762	-0.001142245
95	0x3dada973	0.084795855
96	0xbd77f2e4	-0.060534373
97	0x3c71d893	0.014761108
98	0x3d6bad7e	0.057538502
99	0xbcd0aad6	-0.025472086
100	0xbca0a701	-0.019610884
101	0x3d7dd01e	0.061966054
102	0xbd59b093	-0.05314691
103	0x3c570693	0.013124126
104	0x3c547727	0.012967861
105	0x3d0b2afc	0.03397654
106	0xbd7da757	-0.061927166
107	0xbc80bb98	-0.015714452
108	0x3cb61e10	0.022231132
109	0xbd504151	-0.05084354
110	0x3d8a06a2	0.06739546
111	0xbd94de6e	-0.072689876
112	0x3c0a0c71	0.008425818
113	0x3d15ff1a	0.036620237
114	0x3c120ab8	0.008913688
115	0x3d8fd866	0.070236966
116	0xbc4b3280	-0.012402177
117	0xbbb2bd8a	-0.0054547237
118	0x3da5f439	0.081032224
119	0x3da17573	0.0788373
120	0xbb235484	-0.0024922201
121	0xbd55e390	-0.052218974
122	0xbcffa0e1	-0.031204643
123	0xbd968727	-0.07349997
124	0x3da5fee2	0.08105256
125	0x3d7b7a37	0.06139585
126	0x3d7877ac	0.060661003
127	0xbd9f7cf5	-0.077875055
