checkpoints/model_epoch_80_policy.pt (torch, 487144 bytes, 13 tensors)

customer_encoder.conv1d.weight f4 [128, 1, 24]
0.15607966 0.16943106 -0.047843263 0.18538484 -0.046820533 0.041141663 -0.101145945 0.12049556
0.17910613 -0.1511093 0.17674124 0.036682554 0.15051015 0.026497465 0.097350724 -0.029045317
0.15795627 0.030457119 -0.09523665 0.052182242 -0.09300819 -0.024859833 -0.08338846 0.13480446
-0.16112648 -0.09409727 -0.057618327 -0.12814197 0.014829983 -0.20270628 0.18147318 -0.17321303
0.15639833 0.031631462 -0.069272295 0.12314202 0.029828882 0.1632051 0.021253522 -0.06509602
0.055648614 -0.056709062 0.08672978 0.18235303 0.11934817 -0.0904654 0.11627652 0.03533875
0.10372367 -0.12437986 -0.202046 -0.07417832 -0.15326911 0.16814712 0.060894754 0.084176645
0.065501235 -0.0014550813 0.16164692 -0.14286895 0.014140505 -0.13772574 0.06430515 -0.06938833
0.061588407 -0.041439082 0.16869207 -0.12112141 -0.12321293 -0.12022045 0.18477215 0.06931905
0.19630805 -0.16850302 -0.20255812 -0.16550118 -0.14216004 0.081519455 0.06990575 0.16979837
-0.1067395 -0.14187321 0.10516258 -0.08566903 0.12168194 -0.050263174 0.11563063 -0.15932451
-0.102269985 0.060724188 0.043903973 -0.052004714 0.12309873 0.13749833 -0.14970843 -0.11051253
0.18692522 -0.06887346 -0.072320566 -0.19531883 -0.115560256 0.051089365 -0.02577512 -0.14841299
0.004952058 -0.1382386 -0.17263916 -0.111683406 -0.17898181 -0.12892558 0.20544519 0.039329454
0.061484016 -0.19025482 -0.13445166 -0.068261124 0.030281741 -0.17787811 -0.087384 -0.12112089
0.00060400955 -0.07592924 -0.014148267 -0.13313295 -0.13608 -0.11834378 -0.0672499 -0.16147892
0.17233779 -0.038192593 0.17803799 0.06627029 -0.17117769 0.14293054 -0.05494911 -0.07748476
-0.17016464 -0.20179024 0.057686947 -0.04463442 0.07800748 -0.16622885 0.15284911 -0.14861834
-0.035282638 0.04259012 0.10539054 0.17038788 0.19016941 -0.16099782 0.05400159 -0.08828734
-0.020907572 -0.15027024 0.18849878 -0.14676419 0.11107956 0.073669575 0.06756858 -0.109683424
0.18489636 0.04631095 0.025512354 -0.17977475 0.08422557 -0.029304368 -0.09210063 0.17660137
0.045487054 -0.1129115 -0.10330184 -0.015204413 0.1099752 -0.052997995 -0.118929386 -0.069535784
-0.15383779 0.070090935 0.15538362 -0.19440725 0.045442473 0.103703186 0.035379607 -0.07339178
0.10721986 0.10568759 0.07685703 -0.035839397 -0.0526093 0.020438952 -0.03756764 -0.06257746
0.13049914 0.17539766 -0.020131545 -0.03978764 0.0075752554 -0.011005867 0.051970027 0.056914475
-0.1840631 -0.072622895 0.17480901 0.08273983 -0.007939749 -0.121028386 -0.1235538 -0.18188532
-0.067331806 0.07051229 0.12930077 0.094259515 -0.18202075 -0.12132125 -0.030629948 0.1991105
0.029570099 -0.052870736 0.08446449 -0.084156476 -0.13803038 0.14747748 -0.096604064 -0.040763076
-0.20491251 0.13343798 0.15062131 0.07040556 -0.14519414 -0.20346226 -0.16656817 0.15161745
0.09842799 0.16980816 0.10769759 0.051540326 -0.001018761 -0.15619361 -0.17699021 -0.19254722
0.08354347 -0.10022906 -0.041104164 -0.12348647 -0.04214812 -0.14489527 -0.1365868 0.06782192
-0.062104635 0.12301212 -0.06882773 -0.15268244 -0.03816169 -0.1009371 -0.063699506 -0.1949271
00000000: 59d3 1f3e 567f 2d3e 4cf7 43bd 86d5 3d3e
00000010: e3c6 3fbd 2984 283d 9b25 cfbd 60c6 f63d
00000020: 9967 373e 65bc 1abe a8fb 343e 7240 163d
00000030: 551f 1a3e 3611 d93c d15f c73d 72f0 edbc
00000040: 4abf 213e 3581 f93c 6f0b c3bd 0cbd 553d
00000050: 147b bebd d9a6 cbbc 92c7 aabd 2e0a 0a3e
00000060: 57fe 24be 12b6 c0bd 3201 6cbd a637 03be
00000070: 75f9 723c 3c92 4fbe 1bd4 393e c25e 31be
00000080: e226 203e fe8f 013d a2de 8dbd e231 fc3d
00000090: b35b f43c 3d1f 273e de1b ae3c 1051 85bd
000000a0: cdef 633d c347 68bd 629f b13d c1ba 3a3e
000000b0: d06c f43d ec45 b9bd 6222 ee3d 5dbf 103d
000000c0: 136d d43d deba febd 26e5 4ebe ceea 97bd
000000d0: 94f2 1cbe c22e 2c3e c76c 793d ce64 ac3d
000000e0: 8325 863d 6db8 beba c586 253e 3d4c 12be
000000f0: 94ad 673c fa07 0dbe 6bb2 833d 781b 8ebd
00000100: 2044 7c3d 07bc 29bd 9dbd 2c3e 800e f8bd
00000110: 1057 fcbd 2436 f6bd e934 3d3e 25f7 8d3d
00000120: fa04 493e 0e8c 2cbe 656b 4fbe 2479 29be
00000130: 6792 11be acf3 a63d bf2a 8f3d a0df 2d3e
00000140: 3d9a dabd 3647 11be 7b5f d73d 3f73 afbd
00000150: 6234 f93d c2e0 4dbd c0cf ec3d f725 23be
00000160: ed72 d1bd edb9 783d a7d4 333d e502 55bd
00000170: 301b fc3d 5dcc 0c3e 2b4d 19be 6554 e2bd
00000180: 5369 3f3e 870d 8dbd ce1c 94bd a901 48be
00000190: dbaa ecbd 1543 513d 5826 d3bc 93f9 17be
000001a0: e044 a23b 6b8e 0dbe 52c8 30be 45ba e4bd
000001b0: 0247 37be 1105 04be 3960 523e ec17 213d
000001c0: aad6 7b3d 29d2 42be b2ad 09be 7dcc 8bbd
000001d0: 6a11 f83c ae25 36be 62f6 b2bd 3b0e f8bd
000001e0: 6556 1e3a ca80 9bbd 22ce 67bc 0154 08be
000001f0: 8e58 0bbe 395e f2bd 51ba 89bd bb5a 25be
00000200: 5179 303e d66f 1cbd 974f 363e b8b8 873d
00000210: 3449 2fbe 625c 123e 5112 61bd 54b0 9ebd
00000220: a43f 2ebe 1aa2 4ebe 2649 6c3d 95d2 36bd
00000230: 63c2 9f3d e537 2abe 7a84 1c3e 682f 18be
00000240: 8784 10bd fa72 2e3d ffd6 d73d 297a 2e3e
00000250: c5bb 423e 9ddc 24be c530 5d3d fecf b4bd
00000260: 5b46 abbc 71e0 19be d305 413e 5a49 16be
00000270: ae7d e33d 13e0 963d 6561 8a3d b4a1 e0bd
00000280: 7955 3d3e 8db0 3d3d 49ff d03c df16 38be
00000290: 757e ac3d b70f f0bc 419f bcbd fdd6 343e
000002a0: a250 3a3d 253e e7bd ea8f d3bd ee1b 79bc
000002b0: ad3a e13d 6d14 59bd 4091 f3bd c768 8ebd
000002c0: a787 1dbe d68b 8f3d e21c 1f3e b212 47be
000002d0: e321 3a3d 5662 d43d 35ea 103d 6e4e 96bd
000002e0: 1696 db3d bc72 d83d 3867 9d3d 55cc 12bd
000002f0: d97c 57bd 976f a73c 87e0 19bd 9d28 80bd
00000300: 91a1 053e 729b 333e e9ea a4bc 5df8 22bd
00000310: d939 f83b f451 34bc 86de 543d 271f 693d
00000320: 0a7b 3cbe 50bb 94bd 2201 333e 8073 a93d
00000330: b915 02bc bbdd f7bd c609 fdbd 2540 3abe
00000340: 42e5 89bd bf68 903d 6c67 043e 220b c13d
00000350: a663 3abe 4777 f8bd a8eb fabc 9fe3 4b3e
00000360: fe3c f23c fc8e 58bd b8fb ac3d 3b5a acbd
00000370: d657 0dbe 5604 173e 5ad8 c5bd 2ff7 26bd
00000380: 96d4 51be f7a3 083e 793c 1a3e ca30 903d
00000390: c6ad 14be 6958 50be d990 2abe 9b41 1b3e
000003a0: 9d94 c93d 31e2 2d3e 8e90 dc3d f31b 533d
000003b0: f287 85ba 38f1 1fbe ec3c 35be 192b 45be
000003c0: d718 ab3d e544 cdbd d75c 28bd 79e6 fcbd
000003d0: 82a3 2cbd 6d5f 14be 69dd 0bbe 38e6 8a3d
000003e0: 6e61 7ebd c7ed fb3d 8ef5 8cbd c958 1cbe
000003f0: 6f4f 1cbd 1cb8 cebd e374 82bd f89a 47be

customer_encoder.conv1d.bias f4 [128]
-0.051347468 0.018349933 -0.05474593 -0.19964375 -0.021283591 0.09954452 -0.02370304 -0.10048942
0.0065156384 0.03726053 -0.0569444 -0.1583558 -0.109469146 -0.033071697 0.07348229 0.18157414
0.0037546859 0.07300328 0.11752412 -0.08893806 -0.06764111 0.13542373 0.14616165 0.04841205
-0.15773557 0.115847945 -0.16872069 0.10202378 0.024147328 0.06582421 -0.19902837 -0.07183957
0.08667562 0.15708438 -0.05849406 0.18204853 -0.04553735 -0.12306347 -0.08841404 0.012724659
-0.0362079 0.09881098 -0.1129987 -0.058223166 -0.2022486 0.16655554 -0.038402997 -0.16089135
-0.010002519 -0.00038043768 0.056672566 -0.022364886 0.12841225 -0.07041615 -0.061131064 -0.04842295
0.03651215 0.1634992 -0.009393374 0.15702224 0.16052443 -0.10619761 -0.017539214 -0.09635207
0.08494851 -0.07185139 0.062275436 0.012164939 -0.13399634 -0.13719434 -0.19941725 -0.11415031
0.057025377 0.012499836 0.1535036 -0.17957304 -0.0060778824 -0.18297812 0.0012407431 0.074412264
-0.18311337 0.1801094 -0.06338231 0.18087803 -0.03427484 0.11568864 0.18552895 -0.074351184
-0.04968166 0.10711942 -0.17480017 0.120810546 -0.12824611 0.18954442 -0.1338663 -0.08397715
0.15241908 -0.08900588 0.17490804 0.14057682 0.18654148 -0.19788216 0.0023219204 -0.06713335
0.048615083 -0.1541035 0.08369736 -0.009642242 -0.096418604 -0.18357755 0.1067928 -0.07379858
0.15061638 0.036333725 0.062161148 -0.030981151 -0.028352585 -0.0693869 -0.17677356 0.1282575
-0.1284677 0.11892632 -0.06890227 0.1279456 0.17489545 -0.12483145 0.16850266 0.004918387
00000000: b951 52bd 9952 963c 453d 60bd 696f 4cbe
00000010: ed5a aebc ffdd cb3d e12c c2bc 66cd cdbd
00000020: 2381 d53b 7f9e 183d 883e 69bd 0628 22be
00000030: 5c31 e0bd 3076 07bd e27d 963d 92ee 393e
00000040: 2d11 763b be82 953d 7cb0 f03d 2825 b6bd
00000050: 6c87 8abd 85ac 0a3e 66ab 153e b74b 463d
00000060: 6f85 21be b041 ed3d 1ec5 2cbe d8f1 d03d
00000070: 9ed0 c53c d8ce 863d 18ce 4bbe a020 93bd
00000080: fd82 b13d bada 203e 7897 6fbd ee6a 3a3e
00000090: 5f85 3abd b308 fcbd 6c12 b5bd 177b 503c
000000a0: bc4e 14bd 695d ca3d dd6b e7bd 6a7b 6ebd
000000b0: 421a 4fbe 898d 2a3e 764c 1dbd b4c0 24be
000000c0: 9be1 23bc 7b75 c7b9 7e21 683d 9136 b7bc
000000d0: 807e 033e 5836 90bd 9164 7abd 2557 46bd
000000e0: c48d 153d 566c 273e abe6 19bc 70ca 203e
000000f0: 8460 243e 227e d9bd 66ae 8fbc 3c54 c5bd
00000100: 7cf9 ad3d d226 93bd 8714 7f3d 744f 473c
00000110: 5636 09be ac7c 0cbe 0934 4cbe a3c7 e9bd
00000120: 7193 693d 1dcc 4c3c 0c30 1d3e ffe1 37be
00000130: f928 c7bb 9e5e 3bbe 6ea0 a23a 7565 983d
00000140: 1282 3bbe 996e 383e 96ce 81bd 1738 393e
00000150: c663 0cbd 2aee ec3d 4dfb 3d3e 6f45 98bd
00000160: ff7e 4bbd 6d61 db3d d1fe 32be 856b f73d
00000170: f352 03be ef17 423e 3f14 09be 36fc abbd
00000180: bf13 1c3e b748 b6bd 181b 333e 5ff3 0f3e
00000190: bb04 3f3e 9fa1 4abe 5c2b 183b 367d 89bd
000001a0: 9c20 473d 4fcd 1dbe 8569 ab3d 7ffa 1dbc
000001b0: 1e77 c5bd c1fb 3bbe 2fb6 da3d b623 97bd
000001c0: 2e3b 1a3e acd2 143d b09c 7e3d 2fcc fdbc
000001d0: ae43 e8bc b81a 8ebd 2104 35be ef55 033e
000001e0: 098d 03be a48f f33d a21c 8dbd 2c04 033e
000001f0: cb17 333e a2a7 ffbd f68b 2c3e 6c2a a13b

vehicle_encoder.lstm.weight_ih_l0 f4 [512, 2]
-0.067832485 0.03355411 0.052240957 0.080542855 -0.084219195 0.08162226 0.068946704 0.08942242
0.045919184 -0.042168688 0.06545502 0.08072869 -0.03480041 -0.015453767 0.070016816 0.07121132
0.061024584 0.069156215 -0.04340244 -0.012464153 -0.034549017 0.047375154 0.02134405 -0.06937474
-0.009503678 -0.070201516 -0.083933555 0.079431675 -0.041089945 0.04280342 -0.015900975 -0.014458479
-0.00043014716 0.06858056 -0.009147822 0.07479261 0.0532256 0.062312674 -0.07863443 -0.039258115
-0.07433852 -0.020706853 -0.021334874 0.015021925 0.07755568 0.03762891 -0.06015722 -0.05508845
0.069165386 0.010446693 0.023770321 -0.047668006 -0.005784341 0.029818581 -0.054532755 0.057830572
0.04748335 -0.050961014 -0.037237372 -0.021299077 0.015173355 -0.031606164 0.08067691 -0.08660579
-0.0481345 -0.05164145 0.026706012 0.015644908 -0.023464834 0.07744969 -0.07287996 0.034771528
-0.051758397 -0.022084769 -0.08386685 -0.06416584 -0.072067074 0.041748084 -0.030020794 0.049884487
-0.047384407 -0.02080181 0.014305237 0.07812954 -0.01893763 0.05553232 0.02429472 0.05470488
0.05794291 0.036836248 -0.023799615 -0.022136489 0.038729537 0.05309054 -0.0013341904 0.0466168
-0.052664626 0.0499268 -0.011218801 -0.060932804 -0.04106708 -0.066349216 0.016748976 -0.052762117
-0.020120535 -0.00055439794 -0.055995807 0.0009339954 -0.01165081 0.02707871 0.06267156 -0.054639913
0.048159122 -0.002356305 -0.048376773 -0.037332162 0.02301164 0.019152256 -0.002426472 -0.04252046
0.048745196 0.016733086 -0.084358305 -0.015788775 -0.021612167 -0.034628343 -0.05116105 -0.07389723
0.082965314 -0.08347001 0.086912885 -0.06476619 -0.018643735 -0.033234004 -0.04508513 0.033280805
0.050177958 -0.058478206 -0.041861694 0.044070918 -0.010558655 0.02084623 0.04377783 -0.03407614
-0.048350863 0.03350924 -0.033147328 -0.060255963 -0.04504332 -0.040750552 0.09196738 0.021522205
0.042172223 0.01743288 -0.060301837 0.064395346 -0.009805076 -0.019260533 0.070822015 -0.045408554
0.017291585 -0.07590089 0.043159653 0.033104207 -0.0757438 0.04471388 0.005503523 -0.048475914
0.07890161 0.04062648 0.028538166 -0.034746286 -0.048841134 -0.04806935 0.034971133 0.025711965
-0.049899504 0.083481915 0.054169785 -0.028936688 0.047265768 -0.03568242 0.031033304 0.07666325
-0.07159346 -0.037685353 -0.0043167206 0.014266263 -0.07237117 -0.057907164 -0.009856336 -0.0135175465
0.022254983 0.014030751 0.018017896 0.005399836 0.008530315 -0.007744256 0.03484167 0.06372311
-0.043839402 -0.045386083 0.03832151 -0.06419221 0.05802004 0.041560702 0.010494503 -0.037973363
0.0018865323 -0.07032335 -0.07565299 0.08707573 -0.075000055 -0.06977553 -0.035079878 0.0042691566
0.020826163 -0.03682574 -0.010034361 -0.017503329 0.07381098 0.076635525 0.03620352 -0.00024175574
0.07064806 -0.06671701 0.038484275 -0.049909696 0.067000315 -0.0789644 0.037668005 -0.06729617
0.05462839 0.017949319 0.080149114 -0.061658397 0.057789937 -0.05680968 -0.04716687 0.034248423
-0.016558353 -0.071816765 -0.07572969 -0.022265082 0.02743261 0.0809733 0.06647688 0.005085845
-0.051956575 -0.07712037 0.07999912 -0.047180876 -0.017145613 -0.07194738 -0.06261213 0.019988585
00000000: c2eb 8abd 0970 093d 9dfa 553d a7f3 a43d
00000010: 1d7b acbd 9229 a73d ee33 8d3d 1a23 b73d
00000020: c115 3c3d 13b9 2cbd 480d 863d 1555 a53d
00000030: e08a 0ebd cc31 7dbc fa64 8f3d 3ed7 913d
00000040: eaf4 793d c6a1 8d3d c2c6 31bd 7236 4cbc
00000050: 4583 0dbd 730c 423d b8d9 ae3c 5814 8ebd
00000060: 51b5 1bbc d0c5 8fbd 5be5 abbd 13ad a23d
00000070: ee4d 28bd a452 2f3d c342 82bc 42e3 6cbc
00000080: 6085 e1b9 f773 8c3d bfe0 15bc de2c 993d
00000090: 1603 5a3d 933b 7f3d 170b a1bd 1ecd 20bd
000000a0: cb3e 98bd 6ba1 a9bc 79c6 aebc 851e 763c
000000b0: 83d5 9e3d c620 1a3d 6b67 76bd 6da4 61bd
000000c0: 95a6 8d3d 9b28 2b3c fab9 c23c 873f 43bd
000000d0: 928a bdbb 1946 f43c bd5d 5fbd c0df 6c3d
000000e0: e77d 423d 7fbc 50bd 3786 18bd 677b aebc
000000f0: aa99 783c 7775 01bd f039 a53d 605e b1bd
00000100: ae28 45bd fc85 53bd 91c6 da3c c029 803c
00000110: 5339 c0bc f19d 9e3d 1742 95bd 976c 0e3d
00000120: 9d00 54bd 1eeb b4bc 62c2 abbd 6169 83bd
00000130: e797 93bd 0a00 2b3d 2bee f5bc ad53 4c3d
00000140: 2716 42bd 8f68 aabc 8360 6a3c 6102 a03d
00000150: 1723 9bbc dc75 633d b805 c73c 3912 603d
00000160: 8b55 6d3d 9be1 163d 69f7 c2bc 9557 b5bc
00000170: dda2 1e3d 7775 593d 00e0 aeba 42f1 3e3d
00000180: ddb6 57bd 0b80 4c3d 10cf 37bc ad94 79bd
00000190: f435 28bd 19e2 87bd 2635 893c 171d 58bd
000001a0: d2d3 a4bc 0455 11ba dc5b 65bd 5fd7 743a
000001b0: 0ae3 3ebc 2cd4 dd3c f259 803d 1ace 5fbd
000001c0: 8042 453d 3d6c 1abb b926 46bd 9ce9 18bd
000001d0: e882 bc3c 31e5 9c3c 7205 1fbb ef29 2ebd
000001e0: 0ba9 473d d313 893c 0cc4 acbd 7657 81bc
000001f0: 000c b1bc 73d6 0dbd 408e 51bd 6e57 97bd
00000200: b8e9 a93d 53f2 aabd 62ff b13d 23a4 84bd
00000210: bfba 98bc 6120 08bd 2fab 38bd 7451 083d
00000220: 6787 4d3d d886 6fbd 2b77 2bbd b583 343d
00000230: 35fe 2cbc b7c5 aa3c 6250 333d 6c93 0bbd
00000240: 8e0b 46bd fc40 093d 7ec5 07bd f5ce 76bd
00000250: 587f 38bd 0dea 26bd 6559 bc3d 564f b03c
00000260: c8bc 2c3d 66cf 8e3c 0fff 76bd b5e1 833d
00000270: 78a5 20bc 44c8 9dbc 220b 913d 52fe 39bd
00000280: 15a7 8d3c ed71 9bbd 2dc8 303d 4798 073d
00000290: 911f 9bbd e725 373d e656 b43b ae8e 46bd
000002a0: 2b97 a13d f467 263d dfc8 e93c 1f52 0ebd
000002b0: a40d 48bd 5ee4 44bd e43d 0f3d e6a1 d23c
000002c0: 6c63 4cbd 91f8 aa3d 23e1 5d3d a20c edbc
000002d0: c099 413d bb27 12bd 8e39 fe3c 9f01 9d3d
000002e0: 989f 92bd f55b 1abd 4773 8dbb 0bbd 693c
000002f0: 5637 94bd 1030 6dbd 787c 21bc b378 5dbc
00000300: 1550 b63c 3ce1 653c 449a 933c 1cf1 b03b
00000310: bcc2 0b3c 87c3 fdbb 24b6 0e3d 4381 823d
00000320: f290 33bd c2e6 39bd 04f7 1c3d 3577 83bd
00000330: 6ca6 6d3d 8e3b 2a3d 23f1 2b3c f589 1bbd
00000340: 8545 f73a b005 90bd f4ef 9abd c354 b23d
00000350: a199 99bd 79e6 8ebd ebaf 0fbd 48e4 8b3b
00000360: a19b aa3c 96d6 16bd 2967 24bc 2463 8fbc
00000370: 362a 973d 16f3 9c3d 244a 143d d07f 7db9
00000380: eeaf 903d eea2 88bd b0a1 1d3d 1c6e 4cbd
00000390: 7637 893d 16b8 a1bd c449 1a3d 93d2 89bd
000003a0: 05c2 5f3d 730a 933c 3825 a43d 848d 7cbd
000003b0: 24b5 6c3d 44b1 68bd 0c32 41bd 1348 0c3d
000003c0: 62a5 87bc ab14 93bd 2b18 9bbd 4365 b6bc
000003d0: 5aba e03c 54d5 a53d 0825 883d 29a7 a63b
000003e0: 6bd0 54bd 49f1 9dbd 94d6 a33d bc40 41bd
000003f0: f574 8cbc 2659 93bd ca3a 80bd 1abf a33c

vehicle_encoder.lstm.weight_hh_l0 f4 [512, 128]
-0.05981437 -0.070618644 0.062329274 0.008278372 -0.0007320638 -0.086242296 0.07790161 -0.059585463
0.040311817 -0.011522704 0.0037121938 0.044261042 -0.024280887 -0.02547253 0.0716038 -0.06828283
0.038352292 -0.022042602 -0.030868378 0.058440045 0.015637092 -0.081514396 0.08001377 -0.044864606
0.0778599 -0.028756684 0.08531106 0.02571963 -0.00504613 0.034573115 -0.0044948915 -0.043153167
0.04742682 0.056381114 -0.010006212 0.08222687 0.005005079 -0.045914795 -0.04717563 0.058420416
-0.03636888 0.05683522 -0.08685178 0.0019636343 -0.06177579 0.032736648 0.070873246 0.03555706
-0.031252813 -0.08386366 -0.040922057 -0.051298004 0.08340968 -0.04693253 0.03518727 0.07210588
0.032595824 -0.07653548 -0.010808405 -0.027156303 0.05594366 -0.008108371 -0.003836747 0.077860326
0.02194857 0.03995485 -0.029750373 0.058808435 0.013630668 -0.018906735 0.015839309 -0.06884822
0.004498791 0.039677832 -0.08408665 -0.04803286 0.057031706 0.0022554123 -0.0020910196 0.009908322
-0.03880754 0.07407403 -0.010031338 -0.03285169 0.04566853 -0.07468894 -0.017054122 0.009700995
-0.028279012 0.047136877 -0.07651464 -0.026409935 -0.036079872 0.08278389 0.034295794 -0.0647524
0.035096355 -0.0010594564 0.081411086 0.047888093 -0.051781643 0.07796164 -0.016788073 -0.01955139
0.027035676 0.08686544 0.025958354 -0.084583506 -0.029296001 0.08152171 -0.030431172 -0.0435079
-0.07143128 -0.049563535 -0.047694694 0.020214606 0.03443128 0.08326169 0.059973646 0.00056785793
0.048820864 0.049566004 -0.07502333 0.045642175 -0.0613018 0.06751397 -0.037956394 0.01855058
-0.0016267166 0.04349937 0.016269535 -0.060515583 0.037518602 0.05416898 -0.04714871 -0.054372806
-0.06268331 -0.04027995 -0.013581352 0.004208705 0.0018237191 -0.021433309 0.052036155 0.007607464
-0.048256353 -0.025868155 -0.048685472 -0.028664194 -0.08570927 0.013268884 -0.07106601 0.037146993
0.058248386 -0.063321605 -0.04381018 -0.06777837 0.02635655 0.0147140045 -0.041387357 0.05160749
0.03937917 -0.07704009 -0.0075967824 -0.035213932 -0.01341702 0.04651427 -0.012189494 -0.058034528
0.06473411 -0.08363969 -0.027024388 0.03723269 0.0803541 0.08328876 -0.017970487 0.026956797
-0.07528067 -0.014997488 -0.029997544 0.02259384 -0.054621566 0.01715136 0.043069724 0.06683842
-0.016918851 0.077839695 -0.08129652 -0.022501836 0.03654848 0.022991572 0.038747918 -0.056736775
0.051996678 -0.080397874 -0.05794456 -0.008941601 -0.0880613 -0.0809271 -0.0761756 0.06928068
0.01625844 -0.025762415 -0.0030214775 -0.07406567 -0.08738538 -0.061161533 -0.0884937 0.055723254
-0.033687014 -0.02638574 -0.07435328 0.016798384 -0.010462096 -0.05913757 0.058793377 0.07200351
-0.06011957 0.05460846 -0.011250008 0.0017013294 0.034383755 -0.01833233 0.07830211 0.055108566
-0.060002197 -0.056252617 -0.089754835 0.03102508 -0.06601073 -0.071649455 -0.05366464 -0.08926641
-0.073309734 0.08131903 0.05204165 0.0765307 -0.03703769 -0.034978982 -0.033358738 0.0042281915
-0.060508694 0.015552784 -0.05855355 0.017050246 0.08331441 0.018056018 0.06287031 -0.060451336
-0.015354238 -0.051897626 -0.013070927 -0.038145628 -0.048152868 -0.08230682 -0.035134565 0.008658934
00000000: eaff 74bd 82a0 90bd fb4c 7f3d 02a2 073c
00000010: f8e7 3fba cd9f b0bd e18a 9f3d e30f 74bd
00000020: 011e 253d b9c9 3cbc 4748 733b 114b 353d
00000030: b6e8 c6bc c4ab d0bc 03a5 923d ded7 8bbd
00000040: 4b17 1d3d b092 b4bc aedf fcbc d45e 6f3d
00000050: 5c19 803c 05f1 a6bd 42de a33d f3c3 37bd
00000060: 0375 9f3d 2393 ebbc 91b7 ae3d f9b1 d23c
00000070: 025a a5bb 8a9c 0d3d e249 93bb 60c1 30bd
00000080: a042 423d e2ef 663d 18f1 23bc 9066 a83d
00000090: a501 a43b 2711 3cbd 3c3b 41bd 3f4a 6f3d
000000a0: 89f7 14bd 0ccc 683d 59df b1bd 51b0 003b
000000b0: 9c08 7dbd dd16 063d fe25 913d 48a4 113d
000000c0: f302 00bd b6c0 abbd e39d 27bd db1d 52bd
000000d0: b2d2 aa3d 533c 40bd 8720 103d 3fac 933d
000000e0: 3383 053d a2be 9cbd bc15 31bc e576 debc
000000f0: 2e25 653d f9d8 04bc ef71 7bbb 3c75 9f3d
00000100: 7dcd b33c b2a7 233d 0eb7 f3bc 1de1 703d
00000110: 2a53 5f3c 4ce2 9abc 70c1 813c 4c00 8dbd
00000120: 986a 933b 3985 223d 9f35 acbd 1bbe 44bd
00000130: 149a 693d 8acf 133b 7d09 09bb 8456 223c
00000140: a8f4 1ebd 20b4 973d 7b5a 24bc 7e8f 06bd
00000150: ed0e 3b3d 84f6 98bd 16b5 8bbc ecf0 1e3c
00000160: 63a9 e7bc 9912 413d b5b3 9cbd a659 d8bc
00000170: 7dc8 13bd 9a8a a93d bf79 0c3d e89c 84bd
00000180: 32c1 0f3d 75dd 8aba dbba a63d 4e26 443d
00000190: fd18 54bd 5aaa 9f3d 2487 89bc 3d2a a0bc
000001a0: ec79 dd3c 82e6 b13d 9da6 d43c 1e3a adbd
000001b0: 2bfe efbc dbf4 a63d cb4a f9bc 5735 32bd
000001c0: 904a 92bd 2203 4bbd 835b 43bd 1a99 a53c
000001d0: d007 0d3d 1b85 aa3d eda6 753d 4ddc 143a
000001e0: 63f8 473d b905 4b3d d5a5 99bd 4af3 3a3d
000001f0: 9917 7bbd c444 8a3d 2a78 1bbd 63f7 973c
00000200: 8d37 d5ba 652c 323d b047 853c 30df 77bd
00000210: 1bad 193d 4be0 5d3d 011f 41bd 05b6 5ebd
00000220: 1b60 80bd 97fc 24bd 5284 5ebc 2de9 893b
00000230: dc09 ef3a e894 afbc dd23 553d 0948 f93b
00000240: 74a8 45bd 74e9 d3bc 6b6a 47bd 2cd1 eabc
00000250: 5788 afbd bc65 593c 0e8b 91bd 7227 183d
00000260: dc95 6e3d c2ae 81bd 4e72 33bd 63cf 8abd
00000270: b1e9 d73c 0213 713c ca85 29bd 6062 533d
00000280: 0d4c 213d 32c7 9dbd 6eee f8bb 7c3c 10bd
00000290: 10d3 5bbc bf85 3e3d 72b6 47bc 9db5 6dbd
000002a0: 5193 843d 494b abbd 4062 ddbc 4e81 183d
000002b0: b190 a43d 4c93 aa3d d836 93bc 80d4 dc3c
000002c0: c02c 9abd 06b8 75bc 69bd f5bc b716 b93c
000002d0: ddba 5fbd 0281 8c3c e169 303d 95e2 883d
000002e0: 6799 8abc 6b6a 9f3d ca7e a6bd c555 b8bc
000002f0: dcb3 153d d258 bc3c 23b6 1e3d d264 68bd
00000300: 78fa 543d a4a7 a4bd 4657 6dbd cb7f 12bc
00000310: 7c59 b4bd 1bbd a5bd f401 9cbd 07e3 8d3d
00000320: 6c30 853c b30b d3bc fb03 46bb beaf 97bd
00000330: 1bf7 b2bd 8484 7abd 2f3c b5bd 113e 643d
00000340: 65fb 09bd e826 d8bc 8846 98bd c49c 893c
00000350: 3669 2bbc 3d3a 72bd 53d1 703d 9476 933d
00000360: f03f 76bd 1fad 5f3d f451 38bc 24ff de3a
00000370: fbd5 0c3d af2d 96bc db5c a03d 85b9 613d
00000380: ddc4 75bd 2569 66bd 62d1 b7bd 4f28 fe3c
00000390: a230 87bd f3bc 92bd 74cf 5bbd 4fd1 b6bd
000003a0: 6a23 96bd 978a a63d a029 553d 21bc 9c3d
000003b0: d5b4 17bd 1f46 0fbd 2ca3 08bd a48c 8a3b
000003c0: f7d7 77bd 1bd1 7e3c d9d5 6fbd f5ac 8b3c
000003d0: bfa0 aa3d 37ea 933c 26c2 803d d29b 77bd
000003e0: 5890 7bbc 9b92 54bd 7127 56bc 973e 1cbd
000003f0: f13b 45bd 7a90 a8bd 43e9 0fbd 34de 0d3c

vehicle_encoder.lstm.bias_ih_l0 f4 [512]
0.041100733 0.039484616 0.0026254077 -0.030832348 -0.07715335 0.04434476 0.059242956 0.024163013
0.035474166 0.0898522 -0.070379436 -0.05926188 -0.008907098 0.03640285 0.082529716 0.091744944
0.013416935 0.046708815 0.080900975 0.050012127 -0.008045587 -0.038080845 -0.025440203 0.082725845
-0.08254419 0.012185506 0.019339012 -0.016073473 -0.05440894 -0.06945631 -0.00084371556 -0.058712725
0.038937762 -0.06272091 -0.018438842 -0.0073120673 0.032698244 0.06672246 0.083777495 0.009735497
-0.08719709 -0.01981299 0.017451968 0.032099348 0.0797959 -0.080504775 -0.021440018 0.06029708
0.04863049 -0.033330552 0.026394857 0.0563837 0.004742655 -0.010660618 0.008769776 -0.03825809
-0.08785467 0.047013562 0.02629123 -0.05994118 0.019134851 -0.028695371 0.080551 -0.045624554
0.0758336 0.042402074 0.013460972 0.026679676 0.012273118 0.047808144 -0.041010443 -0.026327962
-0.041248906 0.015301881 -0.0469827 0.05168349 -0.011815298 0.08607796 0.037773892 -0.08361546
0.013135022 0.032159645 -0.061962325 0.009298927 0.03413233 -0.08596853 -0.078191794 -0.0026810083
0.03601214 -0.04375049 -0.045557205 -0.041273512 0.026162308 -0.030227857 -0.038602922 0.006186324
-0.0074935425 -0.013136618 0.05413645 -0.06710758 -0.009023068 -0.009834484 0.034093313 -0.051128145
0.012684234 -0.077976234 0.0744758 0.015000676 -0.0048004105 -0.075889215 0.06472464 0.06057715
0.06686648 -0.0562509 -0.002087358 -0.048699174 -0.04950666 -0.062290665 0.058085702 -0.017829845
0.043271285 -0.016655535 -0.0037921558 0.0023116865 -0.06503088 -0.07799456 0.033867378 -0.0010212294
-0.003627775 0.0073034433 0.0075132763 0.055183813 -0.018969161 -0.02396187 -0.07450351 0.013435284
0.059201445 -0.042560432 -0.032212406 -0.04490308 0.086363845 -0.08211081 0.052289415 -0.046878975
-0.071953125 0.07957013 0.02002737 0.043345436 -0.029279051 -0.081887506 0.01139403 0.034399804
0.07977445 -0.050695986 0.091232836 0.08848684 -0.049547777 -0.031188643 0.079140425 0.031012222
-0.071880795 -0.0746434 -0.08132231 -0.042697787 0.03231127 -0.040906575 0.08992951 -0.0074403384
0.054499857 -0.048430055 0.08351721 0.025958255 0.06681 0.045013078 -0.06704693 0.06179473
-0.026189096 -0.055795718 0.059077792 -0.07281157 0.032435652 -0.0791606 -0.07163708 0.03811872
0.021441815 0.084128976 0.06817605 -0.07041636 0.07828186 0.08323319 0.006531697 0.044833474
0.059684623 -0.06565268 0.055921596 0.058566168 -0.08447115 0.023975825 0.04119296 0.025864117
-0.023516571 0.012909572 0.058804713 0.042361166 -0.05737352 -0.026043124 0.09224589 0.05424735
-0.044972535 -0.072572194 0.057594877 0.079878725 -0.050064683 -0.070806794 -0.01821883 -0.008646395
0.025880154 0.05366643 -0.027231924 0.06184519 -0.05680238 0.05130109 0.012898928 -0.042213254
0.015441532 0.019156598 0.039787836 -0.027345713 0.008734512 -0.05109931 -0.049605366 -0.06710804
0.029654011 -0.006134668 0.021322263 -0.042555656 0.040661607 -0.07391962 0.0167804 -0.066120155
-0.0818235 -0.06823163 0.0792265 0.084741905 0.045717232 0.028687159 0.08325601 -0.045805223
0.059080783 0.039270908 0.06761719 0.04374184 -0.005993116 -0.071063325 -0.039840687 0.0036938873
00000000: 3e59 283d 9fba 213d 080f 2c3b 1f94 fcbc
00000010: 9302 9ebd daa2 353d bea8 723d 83f1 c53c
00000020: 5c4d 113d 6e04 b83d 1823 90bd 96bc 72bd
00000030: 14ef 11bc 281b 153d 5705 a93d c6e4 bb3d
00000040: b4d2 5b3c be51 3f3d 69af a53d 84d9 4c3d
00000050: a3d1 03bc a9fa 1bbd f967 d0bc 2b6c a93d
00000060: ee0c a9bd b7a5 473c d96c 9e3c 84ac 83bc
00000070: e9db 5ebd 1c3f 8ebd cb2c 5dba c17c 70bd
00000080: 347d 1f3d d273 80bd 0e0d 97bc 119a efbb
00000090: 98ee 053d c9a5 883d 8993 ab3d a281 1f3c
000000a0: 6394 b2bd da4e a2bc 6ef7 8e3c 9b7a 033d
000000b0: 086c a33d b0df a4bd faa2 afbc 12fa 763d
000000c0: c430 473d 9e85 08bd 073a d83c 98f2 663d
000000d0: 4668 9b3b dfa9 2ebc 1baf 0f3c 84b4 1cbd
000000e0: 26ed b3bd 4b91 403d b560 d73c e284 75bd
000000f0: b1c0 9c3c 8e12 ebbc ecf7 a43d d0e0 3abd
00000100: a54e 9b3d ccad 2d3d 698b 5c3c 568f da3c
00000110: 3015 493c 79d2 433d 91fa 27bd bdad d7bc
00000120: 9df4 28bd beb4 7a3c ee70 40bd 11b2 533d
00000130: f494 41bc a449 b03d ccb8 1a3d 953e abbd
00000140: 4634 573c d5b9 033d 35cc 7dbd 875a 183c
00000150: 58ce 0b3d 4510 b0bd 0523 a0bd dbb3 2fbb
00000160: 7781 133d b733 33bd 319a 3abd 6a0e 29bd
00000170: 5652 d63c 69a0 f7bc 191e 1ebd a6b6 ca3b
00000180: 648c f5bb f83a 57bc 2fbe 5d3d b36f 89bd
00000190: 7dd5 13bc d120 21bc 6ea5 0b3d bf6b 51bd
000001a0: 89d1 4f3c 01b2 9fbd c586 983d 65c5 753c
000001b0: c34c 9dbb ce6b 9bbd 5a8e 843d bf1f 783d
000001c0: 4bf1 883d 5867 66bd 0ecc 08bb c978 47bd
000001d0: 7fc7 4abd 7f24 7fbd 46eb 6d3d e50f 92bc
000001e0: 3b3d 313d 3071 88bc d185 78bb aa7f 173b
000001f0: e92e 85bd 9dbb 9fbd 85b8 0a3d c6da 85ba
00000200: f7bf 6dbb b951 ef3b ee31 f63b 6c08 623d
00000210: 3765 9bbc af4b c4bc 4c95 98bd aa1f 5c3c
00000220: 377d 723d d953 2ebd 28f1 03bd 4bec 37bd
00000230: 87df b03d b629 a8bd 6d2d 563d 2b04 40bd
00000240: 295c 93bd aaf5 a23d 7010 a43c fc8a 313d
00000250: 9fda efbc a3b4 a7bd 07ae 3a3c cfe6 0c3d
00000260: c960 a33d 98a6 4fbd 48d8 ba3d 9738 b53d
00000270: 9cf2 4abd 537f ffbc 6014 a23d 580d fe3c
00000280: 3d36 93bd a4de 98bd 508c a6bd e0e3 2ebd
00000290: d258 043d a78d 27bd f72c b83d 15ce f3bb
000002a0: 3e3b 5f3d 985e 46bd 120b ab3d 68a6 d43c
000002b0: aed3 883d a25f 383d e74f 89bd 791c 7d3d
000002c0: 848a d6bc 0d8a 64bd 8efb 713d 3b1e 95bd
000002d0: 3fdb 043d f41e a2bd 76b6 92bd 6022 1c3d
000002e0: bfa6 af3c d04b ac3d e39f 8b3d 7436 90bd
000002f0: 3d52 a03d 2a76 aa3d d907 d63b 4ea3 373d
00000300: dd77 743d ea74 86bd 0b0e 653d 14e3 6f3d
00000310: 36ff acbd f368 c43c f3b9 283d fce0 d33c
00000320: d3a5 c0bc ab82 533c 36dd 703d e782 2d3d
00000330: 7f00 6bbd 6458 d5bc 6aeb bc3d 7832 5e3d
00000340: 1f35 38bd bba0 94bd 9be8 6b3d 7597 a33d
00000350: a010 4dbd 2703 91bd a83f 95bc 9ca9 0dbc
00000360: 9e02 d43c 55d1 5b3d 7c15 dfbc 6251 7d3d
00000370: 9da9 68bd 1721 523d 0656 533c cee7 2cbd
00000380: 7bfe 7c3c 4cee 9c3c 92f8 223d 1e04 e0bc
00000390: 331b 0f3c 834d 51bd ff2e 4bbd f16f 89bd
000003a0: f8ec f23c 5305 c9bb 07ac ae3c d74e 2ebd
000003b0: c98c 263d 2b63 97bd 0d77 893c 016a 87bd
000003c0: 1493 a7bd 06bd 8bbd 8141 a23d 2a8d ad3d
000003d0: fe41 3b3d 5501 eb3c 2182 aa3d 429e 3bbd
000003e0: b1fe 713d 88da 203d e27a 8a3d a52a 333d
000003f0: e761 c4bb a689 91bd fd2f 23bd 2515 723b

vehicle_encoder.lstm.bias_hh_l0 f4 [512]
0.0027429014 -0.036249667 -0.023077667 -0.02277895 0.07246611 -0.018621873 -0.067196436 -0.050029173
0.053007618 -0.079015896 -0.02228055 -0.058685765 -0.013752017 -0.07700726 -0.065337665 -0.03955316
0.00955439 0.079967745 -0.07687634 -0.036417168 0.07773946 0.055713695 -0.08360111 -0.0149855185
-0.059659332 0.00517626 0.04811012 -0.08053713 -0.0125062745 -0.08766884 -0.05882409 -0.0076663163
-0.040171877 0.05889903 0.06271429 0.016116217 -0.029963037 -0.07231767 -0.028948884 0.015280684
0.07371569 -0.07257209 -0.009028673 0.06530658 0.08463499 0.048742402 0.041662596 0.01803117
-0.081066996 -0.023919754 -0.08385216 -0.05241242 -0.04789547 0.06704389 0.0636768 0.049585655
0.07248831 0.035481673 0.048020534 0.021183155 -0.00014022092 -0.033289637 0.03258146 0.012886535
0.06523446 -0.060596414 -0.036126558 -0.03681908 -0.07976324 -0.029493727 -0.014976088 0.06730098
-0.084066816 0.07336577 0.020400723 -0.0011835456 -0.058577333 -0.04292518 -0.07055555 0.03919548
0.03801848 -0.05655142 -0.08130731 -0.010611549 0.06165771 0.014559053 -0.06707433 -0.08261676
0.05693401 0.04060768 -0.07702509 -0.069623366 0.02201236 0.0019233462 -0.04767936 -0.0002776964
-0.056116432 0.062203664 0.016575675 0.059298895 -0.07743413 -0.025973532 0.025584737 0.005930861
0.0407686 -0.06531785 0.0092984615 -0.037112948 0.05535311 0.0017877341 0.021841416 0.06587778
-0.01832433 -0.07728264 0.000888144 0.07768373 0.08020101 -0.031882197 -0.014985522 -0.047391016
0.080068514 0.023884617 -0.03407974 -0.043978613 -0.075324975 0.053926956 -0.032410324 -0.077655196
0.013562153 -0.029024405 0.066620134 -0.04494525 0.081529215 0.03256469 -0.006247842 0.015204458
-0.07570886 0.056236915 0.04688831 0.051260002 0.0033765435 -0.045030616 0.015864037 0.027959991
-0.066145875 0.036539864 0.08539944 0.08809355 0.025786245 0.07622464 -0.047534917 -0.0025336845
-0.0466632 -0.04133653 -0.01630469 -0.029802334 0.07504943 -0.012475638 0.05246005 -0.0002962889
0.041188437 -0.017476758 -0.0075091715 -0.044069804 -0.0846521 -0.05693521 0.07881638 0.014959787
-0.016545095 0.009105635 0.009075445 0.005234812 0.06812681 -0.00020949346 0.09118765 0.0021698312
0.043063596 -0.01603157 0.019963766 -0.0025124613 0.08417205 0.08561622 -0.052257475 0.008703619
-0.07397756 -0.017900303 -0.0863725 -0.0016716195 0.018224716 0.06200492 0.047662586 -0.07355054
0.034899678 -0.07704955 0.0636878 0.05703841 0.026468428 0.047277473 0.080704466 0.0151969185
-0.0018956059 0.033422455 -0.080731094 -0.027998239 0.01029344 0.035628054 -0.07901674 -0.013220022
-0.08502884 0.051705524 -0.056745697 -0.086353146 -0.010431987 0.024532147 -0.004767836 0.014597472
0.010958858 0.063721575 -0.03177567 0.026637897 0.07868673 0.05130453 0.05736383 -0.016323527
-0.030624503 -0.08074203 0.015220873 -0.0026871103 -0.057995602 -0.011608049 -0.07694845 0.0032213144
-0.06639071 -0.068891995 -0.019426847 -0.006568393 0.039282676 0.064120814 -0.0032178839 0.071685925
-0.034335848 0.054689687 0.080286734 -0.06224324 -0.041008692 0.05922536 -0.033395216 0.06484003
-0.08557968 -0.057822756 0.0105680665 0.01604843 0.06816089 -0.0606234 0.0077394336 -0.024695467
00000000: 40c2 333b 887a 14bd 600d bdbc ec9a babc
00000010: 1d69 943d e68c 98bc 499e 89bd 64eb 4cbd
00000020: 841e 593d 16d3 a1bd b385 b6bc 7c60 70bd
00000030: 2450 61bc fbb5 9dbd c1cf 85bd 7f02 22bd
00000040: 048a 1c3c 21c6 a33d 5871 9dbd 2b2a 15bd
00000050: de35 9f3d 0b34 643d 0f37 abbd d285 75bc
00000060: 585d 74bd 9e9d a93b 1e0f 453d a7f0 a4bd
00000070: 1ee7 4cbc b98b b3bd 87f1 70bd b935 fbbb
00000080: 448b 24bd 1c40 713d 5a70 803d 2806 843c
00000090: 0b75 f5bc 491b 94bd 3626 edbc d65b 7a3c
000000a0: 40f8 963d ada0 94bd 00ed 13bc 75bf 853d
000000b0: 1c55 ad3d 1da6 473d 66a6 2a3d 1bb6 933c
000000c0: 7406 a6bd 5cf3 c3bc aeba abbd 68ae 56bd
000000d0: 0a2e 44bd 4f4e 893d fb68 823d 541a 4b3d
000000e0: c074 943d 3b55 113d 2eb1 443d 4c88 ad3c
000000f0: 4408 13b9 b75a 08bd 2374 053d 0c22 533c
00000100: a599 853d f233 78bd 71f9 13bd 9bcf 16bd
00000110: e95a a3bd d49c f1bc 445e 75bc 19d5 893d
00000120: 392b acbd cb40 963d 6b1f a73c 3321 9bba
00000130: c9ee 6fbd 50d2 2fbd 6e7f 90bd 718b 203d
00000140: 44b9 1b3d 76a2 67bd 7284 a6bd 10dc 2dbc
00000150: cb8c 7c3d 1889 6e3c 445e 89bd fa32 a9bd
00000160: a333 693d 3d54 263d 55bf 9dbd b296 8ebd
00000170: 4453 b43c ca18 fc3a 6f4b 43bd c897 91b9
00000180: 58da 65bd 45c9 7e3d b6c9 873c 66e3 723d
00000190: c995 9ebd 72c6 d4bc 1597 d13c ab57 c23b
000001a0: fafc 263d 5dc5 85bd 9358 183c bf03 18bd
000001b0: f1b9 623d 6752 ea3a c5ec b23c eeea 863d
000001c0: e81c 96bc 5c46 9ebd 56d2 683a a618 9f3d
000001d0: 6d40 a43d e896 02bd d685 75bc 151d 42bd
000001e0: f6fa a33d aca9 c33c 3397 0bbd eb22 34bd
000001f0: fb43 9abd 83e2 5c3d b0c0 04bd b009 9fbd
00000200: cb33 5e3c 97c4 edbc 2370 883d 8318 38bd
00000210: caf8 a63d 8d62 053d b3ba ccbb 1e1c 793c
00000220: 3f0d 9bbd ae58 663d f50d 403d 02f6 513d
00000230: 0049 5d3b 0672 38bd 4cf5 813c 5a0c e53c
00000240: 7d77 87bd d3aa 153d e7e5 ae3d 646a b43d
00000250: ad3d d33c aa1b 9c3d f9b3 42bd 2c0c 26bb
00000260: e921 3fbd 7e50 29bd 6a91 85bc 0624 f4bc
00000270: 84b3 993d 9e66 4cbc 59e0 563d 3957 9bb9
00000280: 35b5 283d 6b2b 8fbc 7f0f f6bb 8a82 34bd
00000290: 155e adbd e534 69bd 7b6a a13d e519 753c
000002a0: 9489 87bc cd2f 153c 2db1 143c c988 ab3b
000002b0: 1286 8b3d 79ab 5bb9 97c0 ba3d ba33 0e3b
000002c0: 7463 303d a454 83bc 0d8b a33c 1ba8 24bb
000002d0: 6562 ac3d 8f57 af3d ef0b 56bd a099 0e3c
000002e0: 8c81 97bd a8a3 92bc 11e4 b0bd 3e1a dbba
000002f0: 004c 953c dff8 7d3d d839 433d aaa1 96bd
00000300: f7f2 0e3d 28cc 9dbd c06e 823d 1ca1 693d
00000310: 51d4 d83c 06a6 413d 6248 a53d 7ffc 783c
00000320: fb75 f8ba fce5 083d 5856 a5bd 905c e5bc
00000330: d1a5 283c b9ee 113d 87d3 a1bd cb98 58bc
00000340: 9a23 aebd 2cc9 533d 2d6e 68bd ebd9 b0bd
00000350: edea 2abc a4f7 c83c 823b 9cbb 3c2a 6f3c
00000360: c88c 333c 7580 823d 3427 02bd b837 da3c
00000370: 8226 a13d b324 523d 56f6 6a3d ebb8 85bc
00000380: 3de0 fabc 145c a5bd f860 793c 3b1a 30bb
00000390: cc8c 6dbd b02f 3ebc 2697 9dbd b01c 533b
000003a0: daf7 87bd 3f17 8dbd 0d25 9fbc ad3b d7bb
000003b0: dfe6 203d c651 833d 22e3 52bb 12d0 923d
000003c0: bfa3 0cbd 4b02 603d 5f6d a43d c5f2 7ebd
000003d0: bbf8 27bd 4b96 723d 6cc9 08bd daca 843d
000003e0: 6644 afbd 8ed7 6cbd af25 2d3c ff77 833c
000003f0: f097 8b3d 3e50 78bd 139b fd3b 264e cabc

attention.wq.weight f4 [128, 128]
0.030119829 -0.0022210034 -0.04520289 -0.044009954 -0.048240382 0.00693216 0.054453414 -0.025712116
-0.0893329 0.021651447 0.06415268 -0.0698292 0.053543545 0.0037638803 0.022917012 0.086037
0.06805977 -0.027421389 -0.02100017 -0.08438022 -0.08629231 -0.01900468 -0.055884246 0.008411181
-0.054738346 0.08054153 -0.037172303 -0.015295413 -0.00392289 -0.030180898 0.029846039 0.080139875
-0.033222612 0.08890474 -0.03560133 0.0686567 -0.038872197 0.04755429 0.002048651 0.08391841
0.024017062 -0.061166845 0.08010044 -0.03354988 -0.068666 0.051133245 0.00018779279 -0.044166632
-0.048655894 -0.02870107 -0.0075591463 0.047046386 0.026033277 0.02100081 0.075808115 0.021237122
-0.010010521 -0.062947005 0.011839364 -0.014635886 -0.03068737 0.037412375 -0.017376265 -0.014167295
0.05957183 -0.045574408 0.029180685 -0.04716343 0.041239593 -0.0110373255 -0.07045225 -0.03346388
-0.05849528 0.07882131 -0.02892125 0.062222824 -0.07088418 0.082210384 -0.06863002 -0.085157074
-0.080615304 0.06988436 0.032528073 -0.054385 0.0729168 -0.040885765 0.07245704 0.06806759
-0.026539246 0.031569727 -0.07388659 0.0032728221 -0.037945576 -0.0663741 -0.06354763 -0.06163738
0.010722259 0.07334324 -0.07013077 -0.07495707 0.08266087 0.011228128 -0.009040916 -0.019058077
-0.080613926 0.023328818 -0.0025972507 -0.0698525 0.027607186 -0.06626842 0.039222687 -0.06549996
0.057764277 -0.0812632 0.049824804 0.031873584 -0.028766083 -0.0793734 -0.07073553 0.07632261
-0.024473084 -0.07890604 0.042255506 0.08395637 -0.026813569 0.02598396 0.04132496 0.026346184
0.018936861 -0.04096786 -0.073567316 0.08543434 0.006461728 -0.07988763 0.042907313 0.023951454
0.06870376 -0.0063462607 -0.0168465 0.027634906 0.011291039 -0.019681675 -0.0069101746 0.06850457
-0.07916783 -0.026668213 -0.0079674125 -0.013024492 0.031852238 0.07790738 -0.035188705 -0.06778293
0.013716012 0.026753636 0.07690808 -0.07060982 -0.07583214 -0.06887955 0.04042774 0.07445776
0.051212344 -0.06893285 -0.036965445 0.080101855 0.047370568 0.07717928 -0.053783156 0.07187484
0.0317681 0.05614035 0.07564681 -0.07807008 -0.024371399 -0.05811974 -0.040111035 0.0785199
0.04680257 -0.0459637 0.038420945 -0.048733454 -0.07554606 -0.011335384 0.037860364 0.038857374
-0.041831125 0.08631256 0.069453984 0.047435984 0.08091405 -0.013237693 -0.06423459 -0.020706197
-0.011797772 0.053189196 0.00093929836 0.011316645 -0.026720706 -0.07756675 -0.050194416 0.07767299
0.035535574 0.006168867 0.05823431 0.058105536 0.0607647 -0.00826351 0.020978138 0.067895435
0.052134298 0.033142928 -0.021889498 0.03524362 0.053483207 -0.068142 0.023660442 0.037607677
0.08826863 -0.05981946 0.06319161 -0.018542953 -0.05261541 0.0023212484 -0.08222028 -0.07734519
-0.07073316 0.0520265 -0.07654487 -0.07005179 -0.026266618 -0.06391919 -0.015667107 -0.07122839
0.08420633 -0.01636735 -0.07190223 0.073509164 -0.08134954 -0.06879205 0.05532548 0.08251299
0.021354355 0.070183456 0.03075025 0.08461477 -0.0076764054 -0.017473048 -0.039756466 -0.022996519
0.07774168 0.07707471 -0.055441495 -0.069537014 -0.02915314 0.02639355 -0.016853543 0.020360509
00000000: dcbd f63c 418e 11bb aa26 39bd c843 34bd
00000010: b597 45bd 2c27 e33b 8b0a 5f3d 37a2 d2bc
00000020: 2bf4 b6bd 605e b13c 7b62 833d 9d02 8fbd
00000030: 7a50 5b3d 6fab 763b 75bc bb3c 2b34 b03d
00000040: ec62 8b3d d2a2 e0bc 8c08 acbc 89cf acbd
00000050: 06ba b0bd b4af 9bbc e1e6 64bd 0dcf 093c
00000060: 5135 60bd f5f2 a43d fc41 18bd 9d99 7abc
00000070: 968b 80bb ee3d f7bc ae7f f43c 6020 a43d
00000080: 6f14 08bd b013 b63d b3d2 11bd e29b 8c3d
00000090: 7438 1fbd 4ac8 423d a942 063b 6add ab3d
000000a0: 6ebf c43c 168a 7abd b30b a43d 996b 09bd
000000b0: c3a0 8cbd 1871 513d 3eea 4439 12e8 34bd
000000c0: 674b 47bd 821e ebbc b7b2 f7bb b6b3 403d
000000d0: bd43 d53c e409 ac3c 4941 9b3d 79f9 ad3c
000000e0: 2b03 24bc 5cea 80bd e4f9 413c 5bcb 6fbc
000000f0: 1464 fbbc b83d 193d ab58 8ebc f11d 68bc
00000100: 9701 743d 3bac 3abd 550c ef3c 712e 41bd
00000110: d9ea 283d e6d5 34bc 4549 90bd 6c11 09bd
00000120: bf98 6fbd 116d a13d 42ec ecbc 5cdd 7e3d
00000130: ba2b 91bd eb5d a83d e58d 8cbd d566 aebd
00000140: a319 a5bd 881f 8f3d 283c 053d cec2 5ebd
00000150: 6755 953d d577 27bd 5b64 943d 0567 8b3d
00000160: d568 d9bc 424f 013d da51 97bd d87c 563b
00000170: d26c 1bbd 25ef 87bd 4325 82bd 7a77 7cbd
00000180: 6aac 2f3c fb34 963d b9a0 8fbd 1883 99bd
00000190: 1a4a a93d 2ff6 373c 5a20 14bc af1f 9cbc
000001a0: ea18 a5bd 141c bf3c a336 2abb d40e 8fbd
000001b0: 7728 e23c bdb7 87bd f8a7 203d d824 86bd
000001c0: 3c9a 6c3d 526d a6bd 1815 4c3d e08d 023d
000001d0: d9a6 ebbc 858e a2bd cadd 90bd 074f 9c3d
000001e0: c77b c8bc 7d99 a1bd 1c14 2d3d 51f1 ab3d
000001f0: 21a8 dbbc 50dc d43c 5c44 293d f4d3 d73c
00000200: 7a21 9b3c eacd 27bd 76aa 96bd 33f8 ae3d
00000210: e7bc d33b 209c a3bd 94bf 2f3d d735 c43c
00000220: 8fb4 8c3d 4bf4 cfbb ac01 8abc 9962 e23c
00000230: 0dfe 383c 773b a1bc bf6e e2bb 204c 8c3d
00000240: be22 a2bd 4c77 dabc c089 02bc ae64 55bc
00000250: 7e77 023d e88d 9f3d 0822 10bd c7d1 8abd
00000260: 20b9 603c 712a db3c fc81 9d3d e29b 90bd
00000270: e24d 9bbd b910 8dbd 8f97 253d 4f7d 983d
00000280: 09c4 513d ab2c 8dbd 1469 17bd 710c a43d
00000290: a407 423d 2c10 9e3d ba4b 5cbd 1e33 933d
000002a0: 441f 023d 6cf3 653d b7ec 9a3d 35e3 9fbd
000002b0: 87a6 c7bc f70e 6ebd 784b 24bd 0bcf a03d
000002c0: 0db4 3f3d 6f44 3cbd 485f 1d3d bb9c 47bd
000002d0: e5b7 9abd 0cb8 39bc 7813 1b3d e928 1f3d
000002e0: 1d57 2bbd a4c4 b03d e43d 8e3d 3c4c 423d
000002f0: 44b6 a53d e9e2 58bc 6d8d 83bd 0ba0 a9bc
00000300: 714b 41bc eadc 593d 3f3b 763a 7369 393c
00000310: 62e5 dabc 51db 9ebd a998 4dbd 0413 9f3d
00000320: c08d 113d 3524 ca3b 1a87 6e3d 1200 6e3d
00000330: 68e4 783d ac63 07bc 58da ab3c c30c 8b3d
00000340: c68a 553d e1c0 073d 9b51 b3bc 9d5b 103d
00000350: 3511 5b3d 088e 8bbd 8bd3 c13c 820a 1a3d
00000360: 2fc6 b43d 4005 75bd 9a6a 813d 64e7 97bc
00000370: 4283 57bd 1620 183b 1b63 a8bd 2867 9ebd
00000380: 8cdc 90bd bd19 553d 8fc3 9cbd 5077 8fbd
00000390: 172d d7bc 10e8 82bd 4e58 80bc 31e0 91bd
000003a0: 5e74 ac3d d214 86bc 7a41 93bd f98b 963d
000003b0: 969a a6bd d9e2 8cbd f89c 623d 92fc a83d
000003c0: 54ef ae3c 58bc 8f3d f3e7 fb3c 824a ad3d
000003d0: 5b8a fbbb a323 8fbc add7 22bd 3263 bcbc
000003e0: 0837 9f3d 58d9 9d3d 9f16 63bd 6c69 8ebd
000003f0: 91d2 eebc 4937 d83c 7110 8abc 15cb a63c

attention.wq.bias f4 [128]
-0.06968974 0.04157493 0.08007229 -0.032358404 0.0118197575 0.01613563 -0.027437158 -0.06693495
-0.038116626 -0.017504977 -0.056716252 0.02238036 0.011718602 0.08538749 -0.061749622 -0.026173124
0.023099063 0.04403753 0.056805234 0.054845963 -0.0015413791 -0.082821764 0.06969626 -0.049087286
-0.04571783 0.0033139363 -0.08004393 0.005968157 0.07711009 -0.03911101 -0.088382185 -0.00076940155
0.011529714 -0.027329896 -0.034799773 -0.05368025 0.057483625 -0.077433065 -0.06558127 -0.042685036
-0.0786496 -0.0040196492 -0.0795099 0.021654356 -0.01326522 0.024982857 -0.034277044 0.008819975
-0.008514095 -0.02855516 -0.046899118 -0.012196226 -0.054527067 0.0045561763 -0.059040185 -0.0058417562
-0.070916556 0.059061974 -0.059590437 0.055386413 -0.019495884 -0.053847697 -0.04972813 -0.037580285
-0.015271227 0.0233645 0.011949403 -0.012529194 -0.045536816 0.05657677 -0.08463006 0.06625377
-0.07310788 -0.05526383 -0.017325442 0.037751593 0.0864666 0.08365988 0.08698722 -0.0057627317
0.053509247 0.07634551 -0.051283814 0.03281917 0.008297891 0.023223115 -0.08293454 -0.064760976
0.0044624964 -0.002710642 0.01428982 -0.048789196 -0.001815302 0.07456135 0.07143381 0.06392878
0.07891635 0.0006942761 -0.028719941 0.05982968 0.06962994 0.08321416 0.039759174 -0.037810344
0.074836046 -0.0753236 -0.043739446 -0.040240087 0.0036883112 0.015363626 0.07104165 -0.060644254
0.0059084794 -0.061262667 0.064711995 0.012123202 0.07258776 0.08009039 0.06890388 -0.066162296
-0.036448658 0.07301776 -0.06645124 -0.023041485 0.08688998 -0.08159274 0.071315266 -0.033440005
00000000: 7fb9 8ebd 794a 2a3d f1fc a33d 3f8a 04bd
00000010: a8a7 413c de2e 843c e4c3 e0bc 3115 89bd
00000020: 2e20 1cbd 9966 8fbc 4d4f 68bd 0457 b73c
00000030: 61ff 3f3c a3df ae3d 2ced 7cbd 0569 d6bc
00000040: 3f3a bd3c b260 343d 9bac 683d 29a6 603d
00000050: 1a08 caba 759e a9bd eabc 8e3d c00f 49bd
00000060: 9f42 3bbd a02e 593b 12ee a3bd 8890 c33b
00000070: e5eb 9d3d de32 20bd b801 b5bd aab1 49ba
00000080: 20e7 3c3c f2e2 dfbc 358a 0ebd d2df 5bbd
00000090: f373 6b3d 3a95 9ebd 794f 86bd 81d6 2ebd
000000a0: 0b13 a1bd 43b7 83bb 16d6 a2bd 7a64 b13c
000000b0: 5e56 59bc d9a8 cc3c 1666 0cbd a881 103c
000000c0: b47e 0bbc 83ec e9bc 4a19 40bd aed2 47bc
000000d0: c657 5fbd fa4b 953b 1fd4 71bd 346c bfbb
000000e0: b33c 91bd f8ea 713d 1a15 74bd dddc 623d
000000f0: d5b5 9fbc 678f 5cbd b9af 4bbd c9ed 19bd
00000100: 2b34 7abc e866 bf3c 6ec7 433c 4047 4dbc
00000110: d084 3abd 0bbd 673d 8652 adbd 0eb0 873d
00000120: 96b9 95bd 535c 62bd 16ee 8dbc 6aa1 1a3d
00000130: 6715 b13d df55 ab3d 5b26 b23d 4cd5 bcbb
00000140: 832c 5b3d 095b 9c3d fa0e 52bd 656d 063d
00000150: e1f3 073c 673e be3c 96d9 a9bd 67a1 84bd
00000160: 223a 923b 07a5 31bb d91f 6a3c 2ed7 47bd
00000170: 6def edba 9fb3 983d e44b 923d 18ed 823d
00000180: e59e a13d 1500 363a 1546 ebbc f70f 753d
00000190: 249a 8e3d 2f6c aa3d 84da 223d 05df 1abd
000001a0: a443 993d 4243 9abd 2228 33bd cad2 24bd
000001b0: 98b7 713b b8b7 7b3c 497e 913d 1c66 78bd
000001c0: eb9b c13b 90ee 7abd b987 843d 65a0 463c
000001d0: e4a8 943d 6e06 a43d 7a1d 8d3d 1980 87bd
000001e0: 304b 15bd 568a 953d 9617 88bd 7fc1 bcbc
000001f0: 60f3 b13d 181a a7bd bd0d 923d 63f8 08bd
