checkpoints/model_epoch_100_baseline.pt (torch, 49970 bytes, 5 tensors)

fc1.weight f4 [128, 26]
0.18633015 0.107816175 0.028333157 0.12209688 -0.11506858 0.09155111 0.19118632 0.13209812
-0.14661247 -0.045308337 -0.09436465 -0.08095477 0.01872617 0.047641873 -0.06526084 -0.19119364
-0.07091652 -0.0023172647 0.031641513 -0.03308806 0.11192812 0.12601192 0.077083305 0.18363501
-0.05340016 0.12492199 -0.102524854 -0.121822126 0.0040058047 0.057879373 0.09265424 0.1101806
-0.13747454 0.16741054 -0.18683016 -0.12387724 -0.14968826 -0.116659224 -0.11555187 -0.15498541
0.06424831 0.006340787 -0.17059144 -0.1719662 0.07116021 0.14437373 0.17056273 -0.017380416
-0.057063177 0.10197185 -0.17916393 0.19170241 0.19210674 0.10993774 0.059744045 -0.08143296
0.13399483 0.048460275 0.003682658 0.14345737 0.1128227 0.07703103 0.0071071535 0.016800165
0.06506769 0.15808822 -0.106719844 -0.11360109 0.023523867 0.18119581 0.09797041 0.03357151
-0.19447728 -0.0936183 -0.10587675 -0.18574248 0.114678696 0.04891555 -0.0884436 -0.06859687
-0.06106761 0.10663293 0.008975223 -0.07221956 -0.04845436 0.093587056 0.062293634 0.03334172
-0.05614455 0.038607836 -0.05996135 0.0351191 -0.19379455 0.050392717 -0.18214509 0.08074848
0.09568225 -0.054269284 0.07009815 0.12046696 0.12664811 -0.16007715 0.074952945 0.07073693
0.100977674 0.13492928 0.048471823 -0.10560631 -0.13728844 -0.06256656 0.094503656 0.14070265
0.006339833 0.12709384 -0.07572494 0.04703632 -0.112678856 -0.13463528 0.11693747 0.07807563
-0.15593432 -0.03837557 0.049707815 0.11230107 0.19155611 0.047659352 -0.015932575 0.06374343
-0.044343606 -0.10636245 0.039940998 0.14815815 -0.07294659 0.008754194 0.07122792 0.19309492
-0.145282 0.17779626 -0.10846594 0.09572311 -0.13977543 0.0809712 -0.13274066 0.048706025
0.12840836 0.05001551 -0.18556233 0.067644164 0.042203993 -0.10062371 -0.058300555 0.015311241
0.01137948 -0.14743224 -0.11355138 -0.05076559 0.16180004 0.003792286 -0.14694428 -0.15449645
-0.1323393 -0.0054834485 0.022589013 -0.05576074 0.09836061 -0.0803579 0.17880617 -0.13158743
0.03050068 0.061028525 -0.17818978 -0.025308073 0.10654952 -0.042611465 -0.116312586 -0.1064075
0.072883174 0.06077631 0.14917596 0.106198385 -0.050408125 0.10443692 0.18794446 -0.13845761
0.025626212 0.12640937 -0.109416716 0.04179527 0.17300569 -0.0792951 0.1908968 0.014606804
0.09220214 0.14363189 -0.050718233 0.029710218 0.17201395 -0.18632516 0.019924432 0.12924312
0.16024385 0.07454763 0.14685072 -0.018764108 -0.022128701 0.11233784 0.11960493 0.076754704
-0.012770027 0.18076076 0.048093736 -0.15535864 0.031961158 -0.0483225 -0.088741474 -0.1082487
-0.09148807 -0.13368529 -0.052866563 0.058649138 0.1410117 0.138709 0.12993057 -0.09595923
-0.056243613 -0.018002912 -0.16030487 -0.1854718 -0.018716961 0.08634548 0.10987951 -0.10110459
-0.08759577 -0.0648966 0.1710036 0.12828253 0.12715463 0.17666511 -0.05385153 -0.15102348
-0.1130547 -0.1673446 -0.044959262 0.1299981 -0.049134374 0.18140937 0.037263766 -0.09360283
0.007993162 -0.016080871 -0.17989938 0.07453202 0.06477831 -0.14652474 0.028991997 0.029867575
00000000: 55cd 3e3e bace dc3d f01a e83c ee0d fa3d
00000010: 13a9 ebbd 267f bb3d 59c6 433e bb44 073e
00000020: 9421 16be 3c95 39bd 4142 c1bd 9dcb a5bd
00000030: a067 993c 2024 433d 7aa7 85bd 44c8 43be
00000040: ae3c 91bd 40dd 17bb 889a 013d 5887 07bd
00000050: 923a e53d 4509 013e dadd 9d3d d10a 3c3e
00000060: 20ba 5abd 1ad7 ff3d 8df8 d1bd e17d f9bd
00000070: 2043 833b ec12 6d3d 82c1 bd3d 5ea6 e13d
00000080: 20c6 0cbe ab6d 2b3e 6850 3fbe 5ab3 fdbd
00000090: e147 19be 08eb eebd 75a6 ecbd 7fb4 1ebe
000000a0: 9e94 833d 60c6 cf3b 86af 2ebe e817 30be
000000b0: 72bc 913d b5d6 133e ffa7 2e3e 6061 8ebc
000000c0: 14bb 69bd 9ed6 d03d c076 37be a34d 443e
000000d0: a1b7 443e 0a27 e13d 2cb6 743d 53c6 a6bd
000000e0: f135 093e 487e 463d c058 713b 7de6 123e
000000f0: 960f e73d 72c2 9d3d 20e3 e83b 80a0 893c
00000100: 3642 853d e1e1 213e ef8f dabd b0a7 e8bd
00000110: 20b5 c03c 658b 393e b6a4 c83d 4882 093d
00000120: 0d25 47be f4ba bfbd e9d5 d8bd 4733 3ebe
00000130: aadc ea3d ac5b 483d eb21 b5bd 847c 8cbd
00000140: 0822 7abd 5e62 da3d d00c 133c d9e7 93bd
00000150: 1478 46bd 92aa bf3d 9c27 7f3d 5491 083d
00000160: d4f7 65bd 4023 1e3d 089a 75bd 0cd9 0f3d
00000170: 1472 46be 9868 4e3d 3e84 3abe 765f a53d
00000180: 0ef5 c33d 7849 5ebd 9e8f 8f3d 62b7 f63d
00000190: 0bb0 013e 44eb 23be ee80 993d 86de 903d
000001a0: 62cd ce3d e72a 0a3e 648a 463d 1f48 d8bd
000001b0: 5795 0cbe e622 80bd 228b c13d 5b14 103e
000001c0: 60be cf3b e324 023e ad15 9bbd 28a9 403d
000001d0: 2cc4 e6bd d5dd 09be ea7c ef3d 1ee6 9f3d
000001e0: 3fad 1fbe b42f 1dbd 6c9a 4b3d 1afe e53d
000001f0: 4927 443e 7436 433d 0885 82bc ea8b 823d
00000200: a4a1 35bd 8ed4 d9bd 2c99 233d c5b6 173e
00000210: 0665 95bd c06d 0f3c f2df 913d adba 453e
00000220: cec4 14be 3910 363e 6423 debd 7a0a c43d
00000230: 4a21 0fbe 3ad4 a53d 2bed 07be f87f 473d
00000240: 7b7d 033e 10dd 4c3d 0d04 3ebe 0689 8a3d
00000250: 18de 2c3d ce13 cebd 90cc 6ebd 00dc 7a3c
00000260: 0071 3a3c 7af8 16be a08d e8bd 94ef 4fbd
00000270: e9ae 253e 0088 783b 9078 16be 5134 1ebe
00000280: f483 07be 80ae b3bb 980c b93c 6065 64bd
00000290: 4a71 c93d af92 a4bd f718 373e dbbe 06be
000002a0: 90dc f93c 0cf9 793d 6277 36be e052 cfbc
000002b0: a236 da3d 5c89 2ebd 4b35 eebd 2dec d9bd
000002c0: c643 953d 94f0 783d 95c1 183e 8a7e d93d
000002d0: c078 4ebd 06e3 d53d 8374 403e d5c7 0dbe
000002e0: 10ee d13c 7571 013e df15 e0bd 8431 2b3d
000002f0: 6728 313e 7865 a2bd 737a 433e 6051 6f3c
00000300: 7ad4 bc3d 3d14 133e ecbd 4fbd d862 f33c
00000310: 6d24 303e 06cc 3ebe 9038 a33c 4f58 043e
00000320: f716 243e 6eac 983d 0960 163e 30b7 99bc
00000330: 4047 b5bc 6211 e63d 6ef3 f43d 9231 9d3d
00000340: 6039 51bc 5919 393e f0fd 443d 5616 1fbe
00000350: b4e9 023d d0ed 45bd 17be b5bd 7fb1 ddbd
00000360: 195e bbbd cce4 08be 9c8a 58bd 143a 703d
00000370: 5f65 103e bb09 0e3e 850c 053e 4686 c4bd
00000380: b45f 66bd d87a 93bc f626 24be 52ec 3dbe
00000390: 5054 99bc e6d5 b03d 8208 e13d ec0f cfbd
000003a0: 6965 b3bd 82e8 84bd 911b 2f3e 7f5c 033e
000003b0: d334 023e b3e7 343e 6c93 5cbd e6a5 1abe
000003c0: 3989 e7bd 625c 2bbe 3427 38bd 391e 053e
000003d0: 2041 49bd 61c3 393e e4a1 183d d7b2 bfbd
000003e0: c0f5 023c 08bc 83bc 8b37 38be 3ea4 983d
000003f0: 7eaa 843d 950a 16be a080 ed3c d8ac f43c

fc1.bias f4 [128]
0.16656427 0.17217137 -0.016932562 -0.031883612 -0.14969036 0.13340195 -0.050305396 -0.0018877685
0.07034083 0.14895634 0.007152885 0.048148394 0.089174435 -0.09698851 0.028837964 0.19024087
-0.1861231 -0.067460015 -0.0580886 0.18475418 -0.06463684 -0.17824419 -0.10361613 0.18654211
0.16550012 -0.017637834 0.08551003 0.13556458 -0.020831019 -0.14457941 0.0020164102 -0.016992629
-0.17998706 0.108845994 0.08047004 -0.17909527 0.008439109 -0.054265484 -0.15589018 -0.13063419
-0.124354966 0.07965575 -0.18843076 0.16303469 -0.19177938 0.028958559 0.14640607 -0.028766438
0.0360827 0.112708434 0.016170606 -0.11201927 -0.0014670193 0.120082274 0.18093441 0.033961803
-0.030070037 -0.116514325 -0.12196179 0.12391494 -0.01644577 -0.19608352 -0.00021265447 0.070727065
-0.04092054 -0.024489969 0.09564163 -0.073179305 -0.04973139 -0.144846 -0.1267408 0.105073676
-0.08255664 -0.13112447 0.111789 0.029247105 0.16638191 0.14904408 -0.10527073 0.060035363
-0.064478114 -0.14025828 0.020016238 0.09620248 -0.14599563 0.046667486 0.12010495 0.035563394
-0.17217603 -0.173572 0.18567915 0.031555712 -0.15695551 -0.16323006 0.024630025 0.17972763
-0.13863763 0.100980386 -0.18809825 0.12950341 0.1145315 0.16093458 -0.1824272 0.0962684
0.052349165 0.1899365 0.16189994 0.058040068 0.021062374 -0.09662331 0.03087008 0.09118222
-0.19407067 0.068987146 -0.057043537 0.18850906 -0.03509745 0.0030836016 -0.03249447 -0.1607604
0.08864097 0.010994285 0.16139264 0.15070216 -0.023050949 -0.09558063 -0.04357107 -0.17829134
00000000: d38f 2a3e b14d 303e 28b6 8abc 6498 02bd
00000010: 6e48 19be 859a 083e 080d 4ebd 006f f7ba
00000020: da0e 903d 0388 183e c062 ea3b 4037 453d
00000030: 16a1 b63d e9a1 c6bd 983d ec3c 81ce 423e
00000040: 0e97 3ebe 7a28 8abd 50ee 6dbd 3330 3d3e
00000050: 5260 84bd a585 36be b234 d4bd e504 3f3e
00000060: dd78 293e 387d 90bc e21f af3d 71d1 0a3e
00000070: d0a5 aabc a00c 14be c025 043b 2034 8bbc
00000080: 874e 38be a6ea de3d 7acd a43d c064 37be
00000090: 3044 0a3c 7c45 5ebd ada1 1fbe f8c4 05be
000000a0: d1ad febd 8e22 a33d fef3 40be 91f2 263e
000000b0: d061 44be 803a ed3c 79eb 153e 98a7 ebbc
000000c0: 74cb 133d aed3 e63d 3878 843c 5c6a e5bd
000000d0: 0049 c0ba b2ed f53d df46 393e 881b 0b3d
000000e0: 7055 f6bc 109f eebd 1ac7 f9bd 1ec7 fd3d
000000f0: 48b9 86bc 1eca 48be 00fc 5eb9 5ad9 903d
00000100: 4c9c 27bd 309f c8bc c2df c33d 08df 95bd
00000110: 24b3 4bbd 8352 14be 57c8 01be de30 d73d
00000120: 7513 a9bd 7e45 06be a2f1 e43d a097 ef3c
00000130: 0560 2a3e 039f 183e 2e98 d7bd a4e7 753d
00000140: 1a0d 84bd de9f 0fbe 18f9 a33c ce05 c53d
00000150: e17f 15be 6826 3f3d 96f9 f53d ecaa 113d
00000160: ea4e 30be dcbc 31be ad22 3e3e 9040 013d
00000170: f2b8 20be c825 27be e8c4 c93c 850a 383e
00000180: 06f7 0dbe cece ce3d d49c 40be 8b9c 043e
00000190: 7e8f ea3d 09cc 243e 32ce 3abe 5e28 c53d
000001a0: 146c 563d b77e 423e 19c9 253e 6cbb 6d3d
000001b0: 008b ac3c 71e2 c5bd 40e3 fc3c bebd ba3d
000001c0: 76ba 46be 2249 8d3d 7ca6 69bd 8508 413e
000001d0: 58c2 0fbd 4016 4a3b ec18 05bd 609e 24be
000001e0: 6689 b53d 6021 343c 1d44 253e ab51 1a3e
000001f0: 58d5 bcbc c7bf c3bd 9477 32bd 0192 36be

fc2.weight f4 [64, 128]
-0.046027564 0.06508446 -0.024520881 -0.041207794 -0.04292479 0.06341893 -0.051982366 0.04466642
0.09873032 0.12202182 0.09491518 -0.049412087 0.012277958 0.011690711 -0.034693528 -0.037416514
0.11706531 0.08139408 -0.05275949 0.08224611 -0.030115975 -0.02203601 0.057282444 -0.01840139
-0.031217003 0.10402877 -0.049483467 0.056873005 0.09297275 0.10864127 0.024510004 0.069728166
0.025139377 0.026283696 -0.028764984 -0.02156007 -0.059270084 0.071285084 0.05755885 0.04454501
0.10261358 0.07239319 0.034418125 0.0552816 0.070946656 0.037934054 0.08201216 0.03159624
0.085316084 0.055661988 0.0950972 -0.04992333 -0.008073605 -0.01008045 0.065066576 0.04767336
-0.016293548 0.06767711 0.02401447 0.056046262 0.032984342 -0.015766388 0.08544227 -0.015410924
-0.05170118 -0.05203821 -0.050931137 -0.03556138 0.07204688 -0.053277023 0.08567478 -0.014240816
0.076047845 0.011950983 -0.0018678542 0.045809947 -0.028564608 -0.013270931 0.10612972 0.03069566
0.0038668963 0.030581178 -0.025279643 0.10552525 -0.048364166 0.094901256 -0.06233462 0.11363618
-0.0394155 0.036175516 0.10959684 0.08013446 -0.030518366 0.039430663 0.07661007 -0.0022721172
0.036900967 -0.00631671 0.02444387 0.015153308 -0.043987516 0.06340356 -0.049193136 0.03793468
-0.036099084 0.071826234 0.115435466 0.114954226 0.018540042 0.022693017 -0.035332993 0.06285041
0.06660609 0.1076642 -0.02923813 0.03831595 0.095474675 -0.04179019 0.094822496 -0.0061014756
0.058334935 -0.04378336 0.020662462 0.058893625 0.07996855 0.112064466 0.104087405 -0.00699645
-0.02040131 -0.100823514 -0.036006637 -0.05835105 0.06785572 -0.06299843 0.042292703 0.05038312
0.057192832 0.01777681 -0.0673236 0.05302436 -0.03481961 -0.041773353 -0.04476946 -0.04330468
-0.08240116 -0.029964734 -0.030256309 0.049265016 -0.065140545 -0.04918087 -0.03210726 0.014674104
0.02990128 0.040757343 0.057991236 0.008023785 -0.07256239 -0.0022150502 0.04282075 -0.08396798
0.066169575 -0.037775807 0.016146153 -0.07896344 0.048428725 0.016946089 0.03551707 0.0223833
0.045914613 -0.04094411 -0.017285945 0.011296671 0.03427798 -0.083003074 -0.017702736 -0.044390693
-0.06464419 -0.059959017 -0.08901896 0.048132084 0.043731518 -0.014369451 -0.074613154 -0.08924394
0.0089225555 0.033019025 -0.07238509 0.012113005 -0.07664539 0.017915683 0.06980146 0.022884706
0.056903742 0.04295426 0.036844384 -0.043315418 -0.099928975 0.06437865 -0.0214061 0.015017141
0.01868626 -0.08032717 -0.051427703 -0.061614875 -0.053381357 -0.009887349 -0.0765046 0.025154764
-0.057105206 -0.043482684 -0.04637797 0.001878738 -0.019544646 0.033920553 -0.040372595 -0.038981088
0.04237273 0.021144308 -0.019997645 -0.029950649 -0.014217533 0.040198192 0.04957439 0.006465756
-0.05695023 0.004191259 0.056815475 -0.010208318 0.06071149 -0.09248819 0.050407417 -0.10206277
-0.046706308 0.03949711 -0.04791098 -0.094034135 -0.07421755 0.06504943 0.04166879 0.038988713
-0.074253574 0.06360632 0.028111972 0.03628866 -0.0029712156 -0.07595441 -0.052417584 -0.04176662
-0.0695104 -0.07007593 0.050600767 -0.028957797 -0.10539585 0.06196632 0.0062809126 0.0150324125
00000000: 6687 3cbd 004b 853d 04e0 c8bc 81c9 28bd
00000010: e8d1 2fbd c9e1 813d 76eb 54bd 23f4 363d
00000020: 1f33 ca3d 93e6 f93d e462 c23d 5464 4abd
00000030: 7d29 493c 658a 3f3c cd1a 0ebd 0f42 19bd
00000040: f0bf ef3d f0b1 a63d 561a 58bd a670 a83d
00000050: c7b5 f6bc dd84 b4bc ffa0 6a3d 83be 96bc
00000060: cdba ffbc 090d d53d 2daf 4abd abf3 683d
00000070: 7f68 be3d 507f de3d 34c9 c83c a4cd 8e3d
00000080: 18f1 cd3c e850 d73c 8ba4 ebbc be9e b0bc
00000090: 30c5 72bd eafd 913d d4c2 6b3d d474 363d
000000a0: 1227 d23d e142 943d 05fa 0c3d f66e 623d
000000b0: 7b4c 913d bd60 1b3d fef5 a73d 0f6b 013d
000000c0: 33ba ae3d d3fd 633d 52c2 c23d 687c 4cbd
000000d0: 2747 04bc 7928 25bc a041 853d 2445 433d
000000e0: 0c7a 85bc 4c9a 8a3d feb9 c43c c490 653d
000000f0: 971a 073d 8328 81bc 5bfc ae3d 1a7e 7cbc
00000100: 9ec4 53bd 0526 55bd 2b9d 50bd cfa8 11bd
00000110: 518d 933d 0239 5abd 4276 af3d 5052 69bc
00000120: f9be 9b3d 0ece 433c c9d2 f4ba 36a3 3b3d
00000130: 5300 eabc 526e 59bc 8a5a d93d 7775 fb3c
00000140: c16b 7d3b 6185 fa3c 4117 cfbc 9f1d d83d
00000150: 8119 46bd 975b c23d 9652 7fbd 16ba e83d
00000160: 2672 21bd c72c 143d 4f74 e03d 891d a43d
00000170: a701 fabc 0c82 213d bee5 9c3d cde7 14bb
00000180: 7825 173d 67fc cebb 833e c83c 9545 783c
00000190: 412c 34bd bad9 813d be7e 49bd 6561 1b3d
000001a0: a2dc 13bd a219 933d 6e69 ec3d 1f6d eb3d
000001b0: 49e1 973c b5e6 b93c 54b9 10bd b7b7 803d
000001c0: c668 883d 0c7f dc3d ce84 efbc 30f1 1c3d
000001d0: 3a88 c33d 312c 2bbd 4c32 c23d e3ee c7bb
000001e0: 9df0 6e3d 2e56 33bd 5344 a93c 713a 713d
000001f0: 8dc6 a33d 0e82 e53d c72b d53d 7a42 e5bb
00000200: a620 a7bc 8f7c cebd b27b 13bd 8301 6fbd
00000210: f1f7 8a3d 5205 81bd 1d3b 2d3d 885e 4e3d
00000220: 0843 6a3d aca0 913c f5e0 89bd 1230 593d
00000230: 029f 0ebd 891a 2bbd 2e60 37bd 4060 31bd
00000240: f0c1 a8bd 9a78 f5bc 14dc f7bc 1dca 493d
00000250: 6868 85bd e171 49bd e782 03bd a76b 703c
00000260: 87f3 f43c 2cf1 263d 3888 6d3d 3276 033c
00000270: 979b 94bd 602a 11bb d064 2f3d 68f7 abbd
00000280: ea83 873d ceba 1abd f044 843c 96b7 a1bd
00000290: 335d 463d 86d2 8a3c 597a 113d 2f5d b73c
000002a0: f610 3c3d 03b5 27bd 419b 8dbc ac15 393c
000002b0: 1167 0c3d 84fd a9bd 5405 91bc 04d3 35bd
000002c0: 2c64 84bd 9697 75bd 934f b6bd 2626 453d
000002d0: d21f 333d d96d 6bbc c8ce 98bd 87c5 b6bd
000002e0: e92f 123c f53e 073d a23e 94bd a075 463c
000002f0: 42f8 9cbd e9c3 923c 11f4 8e3d b578 bb3c
00000300: e613 693d cef0 2f3d 23ea 163d 826b 31bd
00000310: 90a7 ccbd f4d8 833d d85b afbc 740a 763c
00000320: ed13 993c 9282 a4bd dba5 52bd e15f 7cbd
00000330: 69a6 5abd 8cfe 21bc 72ae 9cbd 5d11 ce3c
00000340: 26e7 69bd e61a 32bd d4f6 3dbd fd3f f63a
00000350: 181c a0bc 47f0 0a3d bc5d 25bd a2aa 1fbd
00000360: 078f 2d3d d436 ad3c 1ad2 a3bc 105b f5bc
00000370: a8f0 68bc dca6 243d 840e 4b3d b1de d33b
00000380: a544 69bd d456 893b 58b7 683d ca40 27bc
00000390: 9dac 783d 736a bdbd 0278 4e3d 4906 d1bd
000003a0: 1d4f 3fbd b9c7 213d 4e3e 44bd f894 c0bd
000003b0: 5fff 97bd a338 853d e5ac 2a3d a1b2 1f3d
000003c0: 4212 98bd 0844 823d 144b e63c 6ba3 143d
000003d0: bab8 42bb fc8d 9bbd d2b3 56bd 7a13 2bbd
000003e0: 785b 8ebd f883 8fbd c042 4f3d e738 edbc
000003f0: c8d9 d7bd 65d0 7d3d 1dd0 cd3b 824a 763c

fc2.bias f4 [64]
0.020587541 -0.029136471 -0.03430158 0.046656646 -0.023861375 0.08680961 -0.060653888 0.06689262
0.04769152 0.07123732 0.011569156 -0.002126408 -0.00038064455 0.044789724 0.0032524131 0.0018230908
0.014103148 0.035203848 -0.07523393 0.019347334 0.0132290255 -0.08888159 0.037070446 -0.048673313
-0.07220619 0.028758844 -0.096681215 0.06653699 0.032996465 0.020641359 0.12777427 -0.055842824
0.041121796 -0.051065195 0.011326231 0.088543184 0.022925895 -0.06731616 0.0025203773 0.08785409
-0.033305593 -0.0039268965 -0.028158776 0.04452273 -0.046265073 0.0024252688 -0.041146446 0.07323876
0.12362041 -0.04916145 -0.097730875 0.054208558 -0.06324723 0.016547823 0.067067675 0.0056518815
0.016512884 0.006715225 0.0124192145 -0.032009207 -0.045755092 -0.026841968 0.06242669 0.070502035
00000000: 34a7 a83c 9caf eebc d07f 0cbd 0a1b 3f3d
00000010: ee78 c3bc 3dc9 b13d 3670 78bd fffe 883d
00000020: 2f58 433d dfe4 913d 8f8c 3d3c 355b 0bbb
00000030: 3f91 c7b9 6e75 373d 7026 553b c7f4 ee3a
00000040: e410 673c e931 103d 3f14 9abd 4d7e 9e3c
00000050: 8ebe 583c 8d07 b6bd 2ed7 173d ab5d 47bd
00000060: d7e0 93bd ab97 eb3c cd00 c6bd 8c44 883d
00000070: 4d27 073d 1118 a93c 42d7 023e 72bb 64bd
00000080: 546f 283d bd29 51bd a891 393c 2156 b53d
00000090: 16cf bb3c 0edd 89bd ea2c 253b d8ec b33d
000000a0: 726b 08bd 32ad 80bb 3cad e6bc 775d 363d
000000b0: 7280 3dbd 42f1 1e3b 2d89 28bd 34fe 953d
000000c0: b32c fd3d 845d 49bd 2027 c8bd cb09 5e3d
000000d0: c487 81bd 4d8f 873c c75a 893d 6b33 b93b
000000e0: 0746 873c 640b dc3b f679 4b3c 161c 03bd
000000f0: b169 3bbd b0e3 dbbc 21b3 7f3d 5f63 903d

fc3.weight f4 [1, 64]
0.049381245 -0.066534586 -0.020866396 0.14453663 0.068633705 0.030747881 -0.034800004 -0.020881122
0.06352133 -0.105818436 -0.0941401 0.14369881 0.0020264874 0.046145074 -0.1046044 0.116824284
0.05543244 -0.07240117 -0.00728085 -0.05058333 -0.09781415 -0.03776709 -0.010267713 -0.008018908
-0.075507306 0.08814775 -0.09050359 -0.041587625 0.13103047 0.09099219 0.07757272 -0.058993105
0.027422145 0.013282254 0.14942916 0.04513307 0.0015405761 -0.10077746 -0.08033335 0.04540518
-0.10426957 -0.01773889 0.05588817 0.15461075 -0.06595887 0.14845452 -0.009841385 0.06793897
0.061543643 -0.0148221245 -0.057187464 0.045791764 -0.03238679 -0.083704464 0.103875056 0.09652596
0.096796975 0.052885596 0.041705213 0.05815039 0.13437954 0.08328979 -0.04910225 0.07653611
00000000: fd43 4a3d 4943 88bd 01f0 aabc 6901 143e
00000010: d48f 8c3d fbe2 fb3c 738a 0ebd e30e abbc
00000020: 7917 823d 56b7 d8bd 86cc c0bd c825 133e
00000030: d1ce 043b 9e02 3d3d d53a d6bd 9241 ef3d
00000040: 200d 633d 1147 94bd 3294 eebb 7730 4fbd
00000050: c952 c8bd aab1 1abd e939 28bc bd61 03bc
00000060: 93a3 9abd cf86 b43d f259 b9bd c957 2abd
00000070: da2c 063e 1d5a ba3d 72de 9e3d c1a2 71bd
00000080: 68a4 e03c d09d 593c f503 193e 74dd 383d
00000090: 28ed c93a 6a64 cebd d085 a4bd c8fa 393d
000000a0: 498b d5bd 2651 91bc feea 643d 4852 1e3e
000000b0: 7215 87bd 7604 183e c33d 21bc 9623 8b3d
000000c0: 3015 7c3d 7fd8 72bc 673d 6abd 2590 3b3d
000000d0: 03a8 04bd 3f6d abbd 72bc d43d 67af c53d
000000e0: 7e3d c63d 919e 583d 16d3 2a3d 1a2f 6e3d
000000f0: ca9a 093e d693 aa3d 711f 49bd f7be 9c3d
