checkpoints/model_epoch_20_baseline.pt (torch, 44840 bytes, 5 tensors)

fc1.weight f4 [128, 16]
-0.23083565 -0.09931664 -0.08469038 -0.03385997 0.17512718 -0.03087224 0.10996479 -0.1616718
0.1093514 0.08201716 0.09722192 -0.09977833 -0.2001132 -0.13114572 0.19321837 -0.16985661
-0.12034038 0.10505173 -0.21310452 0.07653126 -0.18714619 0.07599071 -0.23164716 -0.12586771
-0.18185899 -0.20519662 -0.014836343 0.19490027 -0.085056245 0.2460787 -0.2301512 0.10191697
-0.23535576 0.05168301 0.11044714 -0.13981187 0.16414326 -0.03277248 -0.16614002 0.008448422
-0.09815201 -0.13472006 -0.22069779 0.01668188 0.20582873 -0.17906749 -0.17444515 0.114629656
-0.24329004 0.19412686 0.16047993 0.23585372 0.13071091 -0.11684066 -0.029093433 0.0058812615
-0.17231151 0.17335401 0.03415769 0.15037218 0.24697673 0.21743453 -0.10001817 0.11849296
-0.058066074 0.20410907 0.09741019 0.03627092 0.07538461 0.24669804 0.10218202 0.060353346
-0.035683997 -0.115863286 0.09137055 -0.047340762 -0.05068332 0.04735557 0.24597032 -0.07825272
-0.17488645 0.12317091 0.18697393 0.062545195 0.20562811 0.09600239 -0.17469276 0.22964929
-0.1533202 -0.1360218 -0.03779004 -0.22965692 0.25191873 -0.22053999 0.06560654 0.036977034
-0.21937847 -0.129492 -0.07873453 0.12531905 -0.19960923 0.13366044 0.08866591 -0.18274921
-0.06535069 0.0395446 -0.20333432 0.07963 -0.13004008 -0.13538961 0.12705481 -0.17475237
-0.12136958 0.12883623 -0.22995189 0.12192858 0.013801786 0.051686227 0.18158571 0.20274954
0.19632888 -0.22903508 0.18978252 -0.15076569 -0.0430998 0.20690554 -0.14398347 0.06475487
-0.16726887 -0.19677483 0.1142812 0.21115778 0.13290647 -0.20683153 -0.18051174 -0.159495
0.012032612 -0.07086914 0.014325655 -0.1342598 0.1100821 -0.0834135 -0.056906685 -0.06293257
-0.012068348 -0.049730115 -0.23615815 0.11499913 -0.05341693 -0.18101172 0.11593451 -0.063003644
-0.23025313 0.18578275 -0.022436157 0.088537924 0.01687964 -0.18097131 -0.17803729 -0.17128634
-0.12050924 0.16191606 -0.2075021 -0.1799579 -0.13136207 0.050590437 -0.09758818 -0.053928737
-0.20939803 0.24914986 -0.07731787 0.13567719 0.13043182 -0.16608003 0.13159326 0.1649161
0.028346607 -0.086385764 0.20064315 -0.050622784 0.24461542 0.11603989 -0.072602116 0.21027932
0.05761213 0.2592202 -0.0015604899 -0.16759406 -0.14114515 0.02298923 -0.19775048 -0.090766706
0.07074844 0.088836014 -0.033517238 -0.090327226 -0.083996154 0.078691244 -0.11007853 -0.0907783
-0.03941907 0.049141753 0.13841374 0.14220825 0.031405155 0.015811361 0.04525276 0.036032908
-0.2355757 0.23481616 -0.17071241 0.04835624 0.07094271 -0.19883199 -0.10536017 0.08549158
-0.15223119 -0.024417028 0.0919499 -0.19987546 0.17643589 -0.2251662 0.1475084 -0.13765122
-0.12978262 0.17564604 0.19673584 -0.09657295 0.21395229 -0.16322772 -0.23221816 0.2107867
0.22735038 -0.24087276 0.23817833 -0.22578456 0.14479457 -0.24415034 -0.19276524 -0.0014573629
0.11778347 -0.09797338 -0.2268931 0.21205206 -0.14939904 -0.11187049 -0.17368832 0.039530434
0.096596554 0.0012032898 0.0007000513 0.11285214 -0.098052986 0.0877148 0.16595836 0.26396155
00000000: 2e60 6cbe 8666 cbbd 2672 adbd c0b0 0abd
00000010: 8a54 333e c8e7 fcbc 3835 e13d 4b8d 25be
00000020: a0f3 df3d 9df8 a73d 491c c73d 9558 ccbd
00000030: 7aea 4cbe 104b 06be 09db 453e e4ee 2dbe
00000040: 0475 f6bd 5d25 d73d 1238 5abe 6cbc 9c3d
00000050: 40a3 3fbe 04a1 9b3d ea34 6dbe 77e3 00be
00000060: 3e39 3abe 101f 52be 2214 73bc f093 473e
00000070: f831 aebd 0efc 7b3e c2ac 6bbe d8b9 d03d
00000080: 1a01 71be 90b1 533d 1c32 e23d d82a 0fbe
00000090: 2c15 283e 703c 06bd 9c20 2abe 406b 0a3c
000000a0: ec03 c9bd 0ef4 09be 9afe 61be 70a8 883c
000000b0: c4c4 523e 785d 37be c0a1 32be f4c2 ea3d
000000c0: 0621 79be 31c9 463e da54 243e a383 713e
000000d0: 15d9 053e 284a efbd 5a55 eebc 99b7 c03b
000000e0: 6e72 30be b783 313e efe8 0b3d 2afb 193e
000000f0: 78e7 7c3e 28a7 5e3e 54d6 ccbd 70ac f23d
00000100: b1d6 6dbd f801 513e fe7e c73d d190 143d
00000110: 3f63 9a3d 699e 7c3e cf44 d13d 1235 773d
00000120: 6229 12bd bb49 edbd 7c20 bb3d 63e8 41bd
00000130: 5099 4fbd eaf7 413d a5df 7b3e f642 a0bd
00000140: 6f15 33be 0841 fc3d 1876 3f3e b217 803d
00000150: 2d90 523e e79c c43d a9e2 32be 2f29 6b3e
00000160: f8ff 1cbe 4c49 0bbe bbc9 1abd 2f2b 6bbe
00000170: 7efb 803e 3cd5 61be b95c 863d 3b75 173d
00000180: c0a4 60be 8d99 04be 923f a1bd a353 003e
00000190: 5d66 4cbe 48de 083e 7996 b53d 9c22 3bbe
000001a0: 95d6 85bd 85f9 213d df36 50be 0e15 a33d
000001b0: 3a29 05be 93a3 0abe a81a 023e 49f2 32be
000001c0: 9d90 f8bd a5ed 033e 8278 6bbe b1b5 f93d
000001d0: e320 623c f0b4 533d 9bf1 393e 939d 4f3e
000001e0: 700a 493e 2c88 6abe 5956 423e 5262 1abe
000001f0: 6a89 30bd 0cdf 533e 6770 13be 349e 843d
00000200: 8848 2bbe 577f 49be 430c ea3d bf39 583e
00000210: a218 083e a5cb 53be 12d8 38be a852 23be
00000220: 6f24 453c d723 91bd 27b6 6a3c 677b 09be
00000230: b972 e13d b2d4 aabd fc16 69bd cbe2 80bd
00000240: 52ba 45bc ceb1 4bbd 71d3 71be aa84 eb3d
00000250: b6cb 5abd 235b 39be 136f ed3d 0e08 81bd
00000260: 7ac7 6bbe d53d 3e3e 08cc b7bc 5f53 b53d
00000270: 2c47 8a3c 8b50 39be 684f 36be b065 2fbe
00000280: 8ccd f6bd 53cd 253e 6e7b 54be e246 38be
00000290: c783 06be eb37 4f3d 50dc c7bd 61e4 5cbd
000002a0: 706c 56be 2421 7f3e d558 9ebd f6ee 0a3e
000002b0: eb8f 053e e210 2abe 62c0 063e c4df 283e
000002c0: 2537 e83c 05eb b0bd 6675 4d3e d659 4fbd
000002d0: 777c 7a3e 52a6 ed3d 6bb0 94bd 7653 573e
000002e0: b2fa 6b3d 83b8 843e 5a89 ccba c79d 2bbe
000002f0: 5b88 10be e953 bc3c 1a7f 4abe e5e3 b9bd
00000300: 8fe4 903d a8ef b53d 5f49 09bd 7bfd b8bd
00000310: 2d06 acbd e028 a13d da70 e1bd f9e9 b9bd
00000320: e475 21bd dd48 493d 55bc 0d3e 0a9f 113e
00000330: b1a2 003d d486 813c f55a 393d 3e97 133d
00000340: c23a 71be a673 703e 3ccf 2ebe 3111 463d
00000350: 694a 913d 9d9a 4bbe 13c7 d7bd 3616 af3d
00000360: 7ee2 1bbe 3806 c8bc 3b50 bc3d 27ac 4cbe
00000370: 9cab 343e f891 66be 710c 173e 71f4 0cbe
00000380: bce5 04be 8edc 333e 1f75 493e 0ac8 c5bd
00000390: 4f16 5b3e 2b25 27be 99ca 6dbe 78d8 573e
000003a0: 8ace 683e 59a7 76be 05e5 733e 1134 67be
000003b0: 0745 143e 8c02 7abe 4064 45be fc04 bfba
000003c0: 7638 f13d 44a6 c8bd aa56 68be 2d24 593e
000003d0: 10fc 18be 5b1c e5bd 5adb 31be aaea 213d
000003e0: 6ad4 c53d b5b7 9d3a a683 373a 061f e73d
000003f0: 01d0 c8bd d1a3 b33d fdf0 293e f825 873e

fc1.bias f4 [128]
0.13919437 -0.2104691 0.0321742 -0.16773719 -0.025091376 -0.13939212 0.13228503 -0.16312267
0.10393972 0.19012718 0.14426455 0.19797249 -0.19724539 -0.1346395 -0.08192535 -0.21868378
-0.17682643 -0.09105837 0.08697583 0.10644463 -0.11618706 0.13804376 -0.079367384 -0.20744951
-0.07078587 0.11932072 0.22899492 0.0043178676 0.058370374 0.103779085 0.06925371 -0.17893344
0.08641067 -0.10331476 -0.2021386 -0.23562992 -0.23136464 -0.19210805 -0.1596779 0.012633852
-0.22701764 -0.17517056 0.10780874 0.14475921 -0.006911281 0.1837837 -0.04615233 0.1409626
0.18509695 -0.22093986 0.25121757 -0.09933741 -0.14980547 -0.116237395 0.17327932 0.007254293
-0.051074285 -0.083384044 0.23954244 0.123867184 -0.07492295 0.196041 0.079010405 -0.15890053
-0.16542044 -0.0028751437 -0.2021101 0.15901463 -0.20514962 -0.1415684 0.12267849 -0.04264259
-0.23729946 -0.120166674 -0.12639728 -0.047994245 0.19264978 -0.18178898 0.21213567 0.17388168
-0.12444752 0.18838839 0.15805224 -0.06744191 -0.010776728 -0.13088684 0.117787026 -0.17567082
0.22844136 -0.2308031 0.047065258 -0.09478238 0.04235018 0.011737017 0.04794149 0.049965203
0.06435278 -0.053906314 -0.018712504 -0.052184984 0.15514532 0.18132712 -0.008390934 -0.08592377
-0.15782803 -0.03196897 0.012948811 0.15773603 0.14735726 -0.038986944 0.2168561 0.0019643235
-0.22400475 0.06361079 -0.009582064 0.03920253 0.06797264 0.098397695 0.18403177 -0.18827066
0.058693625 0.14021048 0.100335725 -0.16746281 -0.012554601 -0.11515538 -0.22000898 0.12342141
00000000: f888 0e3e 3685 57be 18c9 033d 4cc3 2bbe
00000010: 6e8c cdbc cfbc 0ebe ba75 073e a109 27be
00000020: 59de d43d b3b0 423e 16ba 133e 4db9 4a3e
00000030: b2fa 49be f0de 09be 7ac8 a7bd a4ee 5fbe
00000040: fd11 35be d07c babd 6220 b23d a4ff d93d
00000050: 7bf3 edbd 585b 0d3e 5e8b a2bd a56d 54be
00000060: 2ff8 90bd 6c5e f43d a57d 6a3e e67c 8d3b
00000070: c615 6f3d 218a d43d e4d4 8d3d 543a 37be
00000080: 14f8 b03d b096 d3bd 6cfd 4ebe f848 71be
00000090: daea 6cbe f9b7 44be 9a82 23be 37fe 4e3c
000000a0: 5077 68be e95f 33be d4ca dc3d c23b 143e
000000b0: 0778 e2bb cb31 3c3e 3a0a 3dbd 8058 103e
000000c0: 0e8a 3d3e 0f3e 62be 979f 803e 6971 cbbd
000000d0: 9b66 19be df0d eebd 2270 313e 6cb5 ed3b
000000e0: 4533 51bd 41c5 aabd 9d4a 753e 14ae fd3d
000000f0: 3471 99bd f9be 483e 35d0 a13d d2b6 22be
00000100: fa63 29be e86c 3cbb f3f5 4ebe bbd4 223e
00000110: be12 52be 4ff7 10be dc3e fb3d ffa9 2ebd
00000120: a1fe 72be f219 f6bd 4a6e 01be 9d95 44bd
00000130: fc45 453e e426 3abe 183a 593e 0a0e 323e
00000140: 57de febd e3e8 403e 72d8 213e fc1e 8abd
00000150: e090 30bc 3307 06be 533a f13d 0de3 33be
00000160: 88ec 693e a657 6cbe 80c7 403d 441d c2bd
00000170: 6277 2d3d 9e4c 403c 4c5e 443d 50a8 4c3d
00000180: 64cb 833d decc 5cbd f74a 99bc ecbf 55bd
00000190: 6ade 1e3e d1ad 393e 217a 09bc cdf8 afbd
000001a0: ac9d 21be e5f1 02bd 4027 543c 8e85 213e
000001b0: d2e4 163e c6b0 1fbd 870f 5e3e e1bb 003b
000001c0: 8061 65be 6046 823d 17fe 1cbc d592 203d
000001d0: 3d35 8b3d bb84 c93d d372 3c3e 06ca 40be
000001e0: ba68 703d 5693 0f3e d17c cd3d 5f7b 2bbe
000001f0: d0b1 4dbc 95d6 ebbd 094a 61be 5dc4 fc3d

fc2.weight f4 [64, 128]
-0.06521283 0.00030304492 0.05342769 -0.06685914 -0.06951954 -0.07183425 -0.05199901 0.009886285
-0.047798835 0.039058737 -0.0020913556 -8.0927595e-05 0.031717144 0.07128281 0.082784764 0.0138036385
0.034683898 -0.005391374 0.024325442 -0.055893093 -0.0004392641 0.043451495 -0.05463508 -0.0022070706
-0.03150337 -0.08168831 0.07293857 0.028275007 -0.029856527 -0.01916894 -0.04786071 0.038462795
-0.08772045 -0.015763965 0.004482407 0.0031365976 0.03144727 -0.054203566 -0.06337788 -0.06026365
0.08146254 -0.023053475 0.04074221 -0.045749076 0.03429982 -0.012144573 0.010320482 0.014791086
0.059462763 0.085879855 0.0048308 -0.057407644 0.00066915154 0.06697794 0.05555383 0.02619688
-0.059134938 0.0097498875 0.08203787 -0.07950592 -0.083488345 0.018472781 0.074690975 0.08689717
0.08404469 0.0374654 0.074715145 0.026670903 0.019594386 0.07452916 -0.022199653 0.022297708
-0.045055892 -0.06453972 -0.08390601 0.0413737 0.0233895 -0.039528392 -0.07694026 0.012397232
0.086713456 -0.07844961 0.0490148 0.0012399405 -0.05898006 -0.034023326 -0.0698723 0.03300808
-0.009286255 0.027034886 0.08079567 -0.07783638 -0.07428123 -0.0024932846 0.018883383 -0.006899722
-0.056563683 -0.05596102 0.01105986 0.050608777 -0.04727023 0.08609759 0.014302718 0.044592015
0.022613715 0.07774141 0.006200585 -0.079596765 0.031947225 0.0040705283 -0.070860595 -0.05136835
-0.04767467 0.0320393 -0.065173805 -0.043436646 -0.04942482 0.07818688 -0.08625159 -0.06648216
-0.011428833 -0.030028608 0.03749346 -0.0067437827 0.040352114 0.008666225 -0.0103907585 -0.023251943
-0.044428457 -0.036734127 0.038470246 0.056478545 -0.08094205 -0.070330456 0.0780784 -0.022086719
-0.05630993 -0.07952507 0.03950245 -0.026773378 0.05863058 0.039230622 -0.011394549 0.07835427
0.025652673 0.026708521 -0.07031761 -0.0058695152 -0.02794302 0.038100354 0.06846963 0.017933937
-0.05688879 -0.031491254 -0.033865586 -0.033782005 0.030099664 0.04705838 -0.05087206 -0.051876575
-0.025063641 -0.010472288 0.03887546 -0.026786916 -0.07631494 0.035310596 -0.028561242 0.08197951
-0.073097534 -0.0018189136 -0.055435687 0.060557 0.047190707 0.061333634 0.03590432 -0.014397919
0.026108542 -0.055528566 0.07733806 -0.08971588 0.045280036 0.008464241 -0.011011439 0.03807209
0.05785881 0.023788653 0.071297355 0.035512924 -0.058567386 0.0067791827 -0.08251698 -0.025028935
-0.034652565 -0.090810426 -0.041442763 0.051502954 -0.059375994 -0.06864644 0.030733272 -0.0046209767
-0.047271166 0.0072272224 0.010435745 -0.06367307 -0.09326799 0.05415348 -0.0687108 -0.05140232
-0.073755644 0.056998573 0.051266838 -0.0320513 -0.079207696 -0.08321706 0.06706147 -0.063855916
0.07772767 -0.05767501 0.06784242 -0.0967516 0.012355394 -0.070389524 -0.0812787 0.05101148
0.06481569 -0.05002719 -0.09451123 -0.035517137 -0.04518649 -0.0016512722 -0.025769062 -0.01747736
0.0071551697 0.032877836 -0.023653042 -0.07733264 -0.082728885 0.05040128 -0.0729429 0.026599836
0.02791433 -0.0046274737 0.013335219 -0.08982178 0.053918883 -0.09682587 -0.033040326 0.0353344
-0.05871319 0.035272695 -0.028703053 -0.059655417 -0.030211898 -0.009576736 0.06523746 0.032637637
00000000: 4e8e 85bd 00e2 9e39 fed6 5a3d 72ed 88bd
00000010: 4360 8ebd d61d 93bd eafc 54bd 16fa 213c
00000020: b6c8 43bd 0efc 1f3d 200f 09bb acb7 a9b8
00000030: d6e9 013d b9fc 913d 0f8b a93d a828 623c
00000040: b410 0e3d 20aa b0bb 2646 c73c 28f0 64bd
00000050: 084d e6b9 32fa 313d 09c9 5fbd 80a4 10bb
00000060: ad09 01bd 334c a7bd d160 953d fda0 e73c
00000070: ad95 f4bc 2e08 9dbc 9809 44bd 2a8b 1d3d
00000080: c7a6 b3bd 6e23 81bc 28e1 923b 608f 4d3b
00000090: dace 003d 8f04 5ebd 43cc 81bd 04d7 76bd
000000a0: d5d5 a63d a4da bcbc 4ee1 263d 6263 3bbd
000000b0: f87d 0c3d 08fa 46bc 3d17 293c 5056 723c
000000c0: 3a8f 733d c7e1 af3d b04b 9e3b 4724 6bbd
000000d0: 006a 2f3a bb2b 893d 6a8c 633d d79a d63c
000000e0: 7a37 72bd febd 1f3c 7903 a83d 00d4 a2bd
000000f0: f0fb aabd 3b54 973c 95f7 983d 25f7 b13d
00000100: 9f1f ac3d 5275 193d 4104 993d f07c da3c
00000110: 6884 a03c bfa2 983d 0cdc b5bc afa9 b63c
00000120: 878c 38bd 672d 84bd ead6 abbd 7877 293d
00000130: 569b bf3c 86e8 21bd db92 9dbd c31d 4b3c
00000140: d396 b13d 30aa a0bd bec3 483d 8085 a23a
00000150: 1395 71bd 0b5c 0bbd 3519 8fbd 7b33 073d
00000160: 6025 18bc 4478 dd3c 3378 a53d ae68 9fbd
00000170: c220 98bd 6066 23bb 53b1 9a3c 1017 e2bb
00000180: 52af 67bd 6237 65bd 6a34 353c 264b 4f3d
00000190: 6e9e 41bd ef53 b03d f355 6a3c 1ea6 363d
000001a0: 6640 b93c e336 9f3d 472e cb3b a103 a3bd
000001b0: 18db 023d 1162 853b 5c1f 91bd 9e67 52bd
000001c0: 8446 43bd a43b 033d d879 85bd a0ea 31bd
000001d0: ae71 4abd 7120 a03d aca4 b0bd cc27 88bd
000001e0: 0040 3bbc 8efe f5bc be92 193d f3fa dcbb
000001f0: 4248 253d c8fc 0d3c 003e 2abc dc7a bebc
00000200: 9dfa 35bd 8676 16bd fa92 1d3d 0c56 673d
00000210: f2c4 a5bd 6a09 90bd 91e7 9f3d 35ef b4bc
00000220: 3ea5 66bd 0ade a2bd 52cd 213d d853 dbbc
00000230: 9e26 703d 4ab0 203d 34b0 3abc 3478 a03d
00000240: 8e25 d23c d4cb da3c ae02 90bd 1055 c0bb
00000250: c3e8 e4bc 1e0f 1c3d ce39 8c3d 31ea 923c
00000260: 3804 69bd f9fc 00bd a4b6 0abd 005f 0abd
00000270: 9293 f63c 4ac0 403d 395f 50bd 887c 54bd
00000280: 4452 cdbc f693 2bbc e03b 1f3d 3c70 dbbc
00000290: 024b 9cbd d8a1 103d 44f9 e9bc e0e4 a73d
000002a0: 29b4 95bd 9d68 eeba 8810 63bd 9e0a 783d
000002b0: 0b4b 413d fa38 7b3d 6910 133d 40e5 6bbc
000002c0: 95e1 d53c ec71 63bd 6b63 9e3d f6bc b7bd
000002d0: 8f77 393d 9aad 0a3c 5369 34bc 7bf1 1b3d
000002e0: 5cfd 6c3d 6ce0 c23c 5904 923d 0076 113d
000002f0: 5be4 6fbd e823 de3b aafe a8bd 7b09 cdbc
00000300: d9ef 0dbd d1fa b9bd e3bf 29bd c3f4 523d
00000310: 3e34 73bd 8196 8cbd 58c4 fb3c 906b 97bb
00000320: 699f 41bd 56d2 ec3b b0fa 2a3c 0767 82bd
00000330: 4a03 bfbd 0ad0 5d3d 3fb8 8cbd 3d8b 52bd
00000340: 330d 97bd 5677 693d 2dfd 513d 3948 03bd
00000350: a537 a2bd b56d aabd 8657 893d e4c6 82bd
00000360: af2f 9f3d a23c 6cbd f7f0 8a3d b425 c6bd
00000370: 476e 4a3c 6228 90bd 7275 a6bd 6af1 503d
00000380: 17be 843d 50e9 4cbd 1b8f c1bd 6b7a 11bd
00000390: 7815 39bd 806f d8ba a419 d3bc ae2c 8fbc
000003a0: ea75 ea3b e9aa 063d 06c4 c1bc 9360 9ebd
000003b0: c36d a9bd 9371 4e3d 1663 95bd e6e7 d93c
000003c0: 98ac e43c 10a2 97bb f67b 5a3c 7bf4 b7bd
000003d0: 0cda 5c3d a44c c6bd 4b55 07bd ceba 103d
000003e0: 3e7d 70bd 1a7a 103d aa22 ebbc 3d59 74bd
000003f0: f17e f7bc bee7 1cbc 389b 853d 0baf 053d

fc2.bias f4 [64]
0.005039117 -0.039210644 0.011075369 -0.06472591 0.029504674 0.011567751 0.0025954223 -0.10030044
-0.03480848 -0.020644302 -0.05282158 0.05561298 0.0710885 -0.0637445 0.043599155 0.059547797
0.039675765 -0.021310883 -0.08878121 0.050718404 0.066192046 -0.06435878 -0.078274265 0.07498343
-0.049629 -0.013337397 -0.012415312 0.070948735 -0.043028843 0.0015974605 -0.059936017 0.09058357
0.10012678 -0.015187492 -0.06448698 0.03478831 0.013641533 -0.003241199 -0.0538279 -0.012934363
-0.07470399 0.008510446 0.06928266 0.043985195 0.044722993 -0.050162043 0.055343337 -0.05458423
0.07769035 0.10668873 -0.06535 -0.065685555 0.027505314 -0.046369404 0.013372199 0.030778423
-0.05650492 0.0964105 -0.09578063 -0.06971579 0.0217611 -0.07716297 0.07115016 -0.06722708
00000000: 2d1f a53b 579b 20bd 7775 353c 058f 84bd
00000010: c9b3 f13c aa86 3d3c f617 2a3b 516a cdbd
00000020: 5693 0ebd 3d1e a9bc 715b 58bd 70ca 633d
00000030: d996 913d 7a8c 82bd 0795 323d 64e8 733d
00000040: 0e83 223d 2994 aebc ecd2 b5bd 1abe 4f3d
00000050: b28f 873d 89ce 83bd 424e a0bd ea90 993d
00000060: c747 4bbd 1985 5abc 9869 4bbc 924d 913d
00000070: 033f 30bd e161 d13a 787f 75bd e183 b93d
00000080: 450f cd3d f5d4 78bc c011 84bd 307e 0e3d
00000090: bd80 5f3c 4c6a 54bb a57a 5cbd a7ea 53bc
000000a0: 68fe 98bd 666f 0b3c 11e4 8d3d d229 343d
000000b0: 752f 373d b776 4dbd b2af 623d b793 5fbd
000000c0: 1e1c 9f3d 9f7f da3d 39d6 85bd 2686 86bd
000000d0: d352 e13c d8ed 3dbd 1117 5b3c 0823 fc3c
000000e0: b471 67bd de72 c53d a328 c4bd 27c7 8ebd
000000f0: 5644 b23c 9f07 9ebd 2db7 913d 5aae 89bd

fc3.weight f4 [1, 64]
0.11791667 0.07575585 -0.07003064 -0.024832845 -0.13056575 0.0049879984 -0.0319399 0.0172174
0.023275867 0.10979545 -0.04231552 -0.054009136 0.09334177 0.022059109 0.002843362 -0.03616968
-0.020543108 0.075493135 0.07475136 0.04358335 -0.049053624 0.029129812 0.07144681 0.005724746
0.054798312 0.0064731347 -0.10440214 0.10973466 0.0868973 0.059984583 -0.11387764 -0.068796225
-0.13692906 -0.06253118 -0.111009255 0.046385366 -0.10166541 0.05024366 0.04227166 -0.1014925
0.06920297 -0.1220138 -0.008460104 -0.073918365 -0.11393752 -0.03309971 0.051574416 0.07456564
-0.03995406 -0.051242035 0.09985116 0.006019374 0.03470194 0.020277448 -0.016482474 0.072422326
0.02122981 -0.13059482 0.047090724 0.09211671 0.02928212 0.11273828 -0.044874176 0.11387829
00000000: 4c7e f13d e225 9b3d 396c 8fbd 406e cbbc
00000010: 07b3 05be 5d72 a33b 6ad3 02bd 810b 8d3c
00000020: 08ad be3c 70dc e03d 0a53 2dbd af38 5dbd
00000030: f829 bf3d 4eb5 b43c b357 3a3b a926 14bd
00000040: 054a a8bc 259c 9a3d 3e17 993d 7484 323d
00000050: 74ec 48bd a5a1 ee3c b552 923d a696 bb3b
00000060: 3274 603d 971c d43b cad0 d5bd 91bc e03d
00000070: 36f7 b13d 65b2 753d ae38 e9bd 09e5 8cbd
00000080: 2237 0cbe 5910 80bd d258 e3bd 95fe 3d3d
00000090: f435 d0bd 4ccc 4d3d 0c25 2d3d 4ddb cfbd
000000a0: 49ba 8d3d 5fe2 f9bd 409c 0abc 8362 97bd
000000b0: 1358 e9bd 9093 07bd b23f 533d dfb5 983d
000000c0: dea6 23bd 2be3 51bd c47e cc3d 2b3e c53b
000000d0: 9f23 0e3d e41c a63c 4106 87bc 2852 943d
000000e0: 23ea ad3c a6ba 05be 34e2 403d b0a7 bc3d
000000f0: 0ee1 ef3c 54e3 e63d fccd 37bd 0539 e93d
