checkpoints/model_epoch_60_baseline.pt (torch, 42280 bytes, 5 tensors)

fc1.weight f4 [128, 11]
0	0x3e9459ec	0.28974855
1	0xbd76fb14	-0.06029804
2	0x3e6c87ac	0.2309863
3	0x3d73c5e8	0.05951491
4	0xbe5a18ac	-0.21298474
5	0xbd2cdbd0	-0.042201817
6	0xbe114a71	-0.14188553
7	0x3e2cc34c	0.16871375
8	0xbe99f1f8	-0.3006742
9	0x3da12ccc	0.078698725
10	0xbe3ab6a6	-0.18233737
11	0x3e740694	0.23830634
12	0x3e37025e	0.17871997
13	0xbe82df03	-0.2556077
14	0xbc80f680	-0.01574254
15	0xbda20998	-0.07911986
16	0xbd4de038	-0.05026266
17	0xbd06da68	-0.032923132
18	0x3daa2ac0	0.08308935
19	0x3dadfb24	0.08495167
20	0x3e874dbe	0.264265
21	0xbe89e97b	-0.26935944
22	0x3dddbb78	0.108267725
23	0x3db61ea4	0.08892563
24	0x3e19bb48	0.15012848
25	0x3e8525f8	0.2600553
26	0xbe684c5e	-0.22685382
27	0xbdb800aa	-0.08984502
28	0x3e817cae	0.25290436
29	0x3e8414a2	0.25796992
30	0xbda05dfa	-0.078304246
31	0x3e803442	0.2503987
32	0x3e1754e4	0.14778477
33	0xbe8fc761	-0.28081802
34	0x3c9b3da0	0.018950284
35	0x3e34ec76	0.17668328
36	0xbbfef1c0	-0.0077802837
37	0xbe6b5b10	-0.22983956
38	0xbe8e07c4	-0.277403
39	0xbdd5e1a6	-0.1044343
40	0xbe896fee	-0.26843208
41	0x3d625230	0.05525416
42	0x3e25d74c	0.1619541
43	0xbdf28c28	-0.11843139
44	0xbe6a360e	-0.22872183
45	0xbe136382	-0.14393428
46	0xbe72bd9c	-0.23705143
47	0xbc445960	-0.011984199
48	0xbe78db08	-0.24302304
49	0x3e8cb44e	0.27481312
50	0xbd796280	-0.060884953
51	0x3dad04f0	0.084482074
52	0x3da9141c	0.08255789
53	0xbe444b40	-0.1916933
54	0xbe87ff5b	-0.26562008
55	0x3e506294	0.20350105
56	0x3e866a12	0.262528
57	0x3e6a33e8	0.22871363
58	0x3e98c5a2	0.29838282
59	0xbe76246f	-0.24037336
60	0x3e7623a0	0.24037027
61	0x3e3220ae	0.17395279
62	0xbca00b80	-0.019536734
63	0xbe5e5d28	-0.21715224
64	0x3e41d4f2	0.18928888
65	0x3db1b078	0.08676237
66	0xbcc14240	-0.02359116
67	0xbe370ae3	-0.17875247
68	0x3de6153c	0.11234519
69	0xbe90fcfa	-0.28318006
70	0xbd9323d0	-0.07184565
71	0x3e8c7820	0.27435398
72	0x3c69b720	0.014264852
73	0xbe1920a1	-0.14953853
74	0x3e84f330	0.25966787
75	0xbe5fc8cc	-0.21853942
76	0xbdbcd93c	-0.09221122
77	0x3e46d8d0	0.19418645
78	0xbd15ad98	-0.036542505
79	0xbc80c740	-0.01572001
80	0xbd2ca250	-0.04214698
81	0xbe5293f8	-0.20564258
82	0xbe46cc28	-0.19413817
83	0xbdd30c2e	-0.103050575
84	0xbe5dfff6	-0.21679673
85	0xbe87a0f0	-0.26489973
86	0xbe8fb6d7	-0.28069183
87	0x3dbba398	0.091620624
88	0x3e32748a	0.17427269
89	0x3d8d54ac	0.069009155
90	0x3e96510a	0.29358703
91	0x3db3aa98	0.087727726
92	0xbdf832c4	-0.12119058
93	0x3e29e25a	0.16590253
94	0x3d1db328	0.038500935
95	0xbe33d1d2	-0.17560509
96	0xbe6d8499	-0.23195113
97	0x3dd2e938	0.10298389
98	0xbbd25500	-0.006418824
99	0xbdc390ec	-0.09549126
100	0xbe457ff5	-0.19287093
101	0xbe091299	-0.13386
102	0xbe61d958	-0.22055566
103	0x3e2e33ae	0.17011902
104	0xbd207430	-0.039173305
105	0x3d2a7c10	0.04162222
106	0xbdf8f9d2	-0.121570244
107	0xbdc08dd4	-0.094020516
108	0xbe166137	-0.14685522
109	0xbe78f688	-0.24312794
110	0xbd40dab8	-0.047083586
111	0xbe277501	-0.16353227
112	0x3d970334	0.07373658
113	0x3e68983c	0.22714323
114	0x3e3065ea	0.17226377
115	0x3e938422	0.28811747
116	0x3dbff20c	0.09372339
117	0xbe949a4e	-0.29023975
118	0x3e260928	0.1621443
119	0xbdfce53c	-0.123484105
120	0xbe6c8ec8	-0.23101342
121	0x3e070a1a	0.13187447
122	0x3e942902	0.28937536
123	0x3dfad6e4	0.122480184
124	0xbe944a73	-0.2896305
125	0xbe96d64a	-0.29460365
126	0x3dbb61b0	0.09149492
127	0xbd3dd790	-0.046348155
128	0xbdffd4ca	-0.12491758
129	0xbe4536d5	-0.19259198
130	0x3e2cd726	0.16878948
131	0xbe63c4b2	-0.22243002
132	0xbdce1032	-0.10061683
133	0x3e46fe54	0.19432956
134	0x3e91135a	0.28335077
135	0xbe91edea	-0.28501827
136	0xbe8ffaff	-0.28121182
137	0x3c28fb40	0.010313809
138	0xbdab5b78	-0.08367056
139	0x3df1e700	0.11811638
140	0x3d8a3b10	0.067495465
141	0xbd414ee0	-0.04719436
142	0xbc92d5c0	-0.01792419
143	0x3e15f5c4	0.14644533
144	0x3e3754cc	0.17903441
145	0x3e69a944	0.22818476
146	0x3cb8cd70	0.022558898
147	0x3e3ede6c	0.18639535
148	0x3e8214f0	0.254066
149	0xbd3f49e0	-0.046701312
150	0xbd8109e8	-0.063007176
151	0xbd58a3a8	-0.05289045
152	0xbc9b8fa0	-0.018989384
153	0xbe983e15	-0.29734865
154	0x3cd3ac50	0.025839001
155	0x3ceef7c0	0.02917087
156	0xbe60ee64	-0.21965939
157	0x3e591c90	0.21202302
158	0xbcc913a0	-0.02454549
159	0x3e829c00	0.25509644
160	0xbdac04d8	-0.08399361
161	0x3e86ebe0	0.26351833
162	0x3da6bb14	0.08141151
163	0xbdd00ffe	-0.101593
164	0xbe92b5c0	-0.2865429
165	0x3e45362c	0.19258946
166	0x3df216c4	0.118207484
167	0xbe1a2b58	-0.15055597
168	0x3dface48	0.12246376
169	0x3e979e8c	0.2961315
170	0xbe1b0c24	-0.1514135
171	0x3e7cc198	0.24683225
172	0x3e95eb58	0.29281116
173	0xbc00c320	-0.007859021
174	0x3e05cac8	0.13065636
175	0xbe565dcc	-0.20934218
176	0x3c492da0	0.012278944
177	0xbe440c2f	-0.19145273
178	0x3db46758	0.08808774
179	0xbdb88220	-0.090091944
180	0xbdb74594	-0.08948818
181	0x3e0b602c	0.13610905
182	0x3dfd6820	0.12373376
183	0xbe317bca	-0.17332378
184	0xbd611d54	-0.05495961
185	0x3e617a2c	0.22019261
186	0x3dc36e88	0.095425665
187	0xbe87df7c	-0.26537693
188	0x3e933000	0.2874756
189	0x3e4be6a4	0.19912201
190	0xbd14b258	-0.036302894
191	0xbdec2700	-0.11530876
192	0xbe1dc580	-0.15407372
193	0x3d388ae0	0.045054317
194	0xbe88e701	-0.26738742
195	0xbd882cba	-0.06649156
196	0xbe0abf37	-0.13549505
197	0xbdb72b58	-0.08943814
198	0xbe25dd56	-0.16197714
199	0x3cd95240	0.026528478
200	0xbd7e5d2c	-0.062100574
201	0xbdd11ebc	-0.1021094
202	0x3e27af60	0.16375494
203	0xbd1afb20	-0.037837148
204	0x3e817df2	0.252914
205	0x3e050496	0.1299003
206	0xbe873582	-0.2640801
207	0x3c4f4f60	0.012653202
208	0xbe07265c	-0.13198227
209	0xbdd92ff0	-0.106048465
210	0x3dc281dc	0.09497425
211	0x3e49c2d0	0.19703221
212	0x3e64dd90	0.22350144
213	0xbe078756	-0.1323522
214	0x3d1ace70	0.03779453
215	0x3e77f7e4	0.24215657
216	0xbdd21ebc	-0.10259768
217	0xbe0d6f48	-0.13811982
218	0x3d80c360	0.06287265
219	0xbe459c1f	-0.19297837
220	0xbe96f6b3	-0.29485092
221	0xbe1b60a6	-0.15173587
222	0x3d7db170	0.061936796
223	0xbe04c6eb	-0.12966506
224	0xbe4010c6	-0.18756399
225	0x3e7b6c80	0.24553108
226	0xbb528580	-0.003212303
227	0x3e905130	0.2818694
228	0x3d4db108	0.05021766
229	0x3e8b6efa	0.27233106
230	0x3d416f70	0.047225416
231	0x3e2ab99c	0.16672367
232	0xbd90fd16	-0.07079522
233	0x3d8b92c0	0.068151
234	0x3e15fe16	0.14647707
235	0xbda841d6	-0.08215682
236	0x3e8ed0b6	0.2789361
237	0xbda7b39e	-0.08188556
238	0x3db4817c	0.0881376
239	0x3dcb762c	0.09934649
240	0x3e8fd0e8	0.2808907
241	0xbccb6c10	-0.024831802
242	0xbb9c5000	-0.004770279
243	0x3e861a2e	0.2619185
244	0x3e748764	0.23879772
245	0xbe10eecd	-0.14153595
246	0x3e872242	0.26393324
247	0x3e79bf20	0.24389315
248	0x3e81934c	0.2530769
249	0xbc701220	-0.014652759
250	0x3e3e8e24	0.1860891
251	0xbe021fde	-0.12707469
252	0x3d5cd7e8	0.05391684
253	0x3e88f004	0.26745617
254	0xbe93ff1d	-0.28905573
255	0x3b8bfdc0	0.0042721927

fc1.bias f4 [128]
0	0xbe8b1d32	-0.27170712
1	0xbd9a827c	-0.07544419
2	0xbdb43e82	-0.08800985
3	0x3d84fd60	0.0649364
4	0x3e82a7a2	0.2551852
5	0x3e8eaa20	0.2786417
6	0xbe62cbe0	-0.22148085
7	0xbdae8bec	-0.08522782
8	0x3c9e9140	0.01935637
9	0x3e5f3a90	0.21799684
10	0x3e72ff18	0.23730123
11	0xbdf1cfa2	-0.11807181
12	0x3e233f00	0.15942001
13	0xbe50c068	-0.20385897
14	0x3e32406c	0.17407387
15	0x3e380fe2	0.17974809
16	0xbe6023fe	-0.2188873
17	0xbd29d240	-0.041460276
18	0xbd528aa0	-0.051401734
19	0x3d2db188	0.042405635
20	0xbdff76ca	-0.12473829
21	0xbe8c0614	-0.27348387
22	0x3e97b324	0.2962886
23	0xbbcbda80	-0.0062211156
24	0x3c89e850	0.016834408
25	0x3d5311e0	0.05153072
26	0xbe321d7c	-0.1739406
27	0x3e45b0ea	0.19305769
28	0x3de230fc	0.11044499
29	0xbe6b4952	-0.22977188
30	0x3e0bba72	0.13645342
31	0xbe2ee5c2	-0.17079833
32	0xbe7f9532	-0.24959257
33	0xbd5cd5e0	-0.053914905
34	0x3e6a542c	0.22883672
35	0xbe35616d	-0.17712946
36	0xbcf077e0	-0.029354036
37	0x3df72db4	0.12069264
38	0x3da05344	0.07828382
39	0x3d1318e8	0.035912424
40	0xbe7cc806	-0.24685678
41	0xbe8830f2	-0.26599842
42	0x3daf08bc	0.08546588
43	0x3d8f9d64	0.07012442
44	0x3d8d3bc4	0.06896165
45	0x3e5ab2c4	0.21357256
46	0xbe757d24	-0.23973519
47	0xbe468160	-0.1938529
48	0x3cf368d0	0.029713064
49	0xbe3ff478	-0.18745601
50	0x3dab9644	0.0837827
51	0x3e13d12a	0.14435259
52	0x3e8e9b38	0.27852798
53	0x3dcf358c	0.10117635
54	0x3e8fa88c	0.2805828
55	0x3cf86800	0.030323029
56	0xbd81b164	-0.06332663
57	0x3debe0a0	0.11517453
58	0x3c444ca0	0.011981159
59	0xbe2f2819	-0.1710514
60	0xbe83e62b	-0.25761542
61	0xbe6be67b	-0.2303714
62	0xbdfacae2	-0.12245728
63	0xbdb2f1f4	-0.08737555
64	0xbe31df24	-0.17370278
65	0x3e2efcea	0.17088667
66	0xbd942fee	-0.07235704
67	0xbd0c56d8	-0.03426251
68	0x3c7d57e0	0.015462846
69	0x3df48864	0.11940077
70	0xbe4fcf24	-0.20293862
71	0xbe1ca5c1	-0.15297605
72	0xbe8bc4ed	-0.2729868
73	0xbe99c19e	-0.3003053
74	0xbb7c8500	-0.0038531423
75	0x3e22ca20	0.15897417
76	0xbdc6c95a	-0.097063735
77	0xbd0c3058	-0.03422579
78	0x3e8c42bc	0.27394664
79	0x3c820310	0.015870601
80	0xbe125f7b	-0.14294235
81	0x3e6a208c	0.22863978
82	0xbe7c62b2	-0.24647024
83	0xbe895efd	-0.26830283
84	0x3e43b9e6	0.19113883
85	0x3d6a73b0	0.057239234
86	0xbe82f19a	-0.25574952
87	0x3cd35710	0.02579835
88	0x3e012c08	0.12614453
89	0xbe96a746	-0.29424495
90	0xbdc6e44c	-0.09711513
91	0xbe6344d4	-0.22194225
92	0xbd3db1e8	-0.046312243
93	0x3e920a46	0.28523463
94	0x3d15cd00	0.036572456
95	0x3caf4de0	0.021399438
96	0x3d71b338	0.059008807
97	0x3e00da48	0.12583268
98	0xbe645266	-0.22297058
99	0x3db621ac	0.08893141
100	0x3dcea064	0.10089186
101	0xbd3d07a0	-0.04614985
102	0x3c9a42e0	0.018830717
103	0xbbd39ac0	-0.0064576566
104	0xbccb2090	-0.0247958
105	0xbe85593a	-0.26044637
106	0xbe7ed17f	-0.24884604
107	0xbe0eb89e	-0.13937613
108	0x3e121c3c	0.14268583
109	0xbd47b490	-0.048756182
110	0x3e39a472	0.18129137
111	0xbe25bc35	-0.16185077
112	0x3de54dd4	0.11196485
113	0xbdc78fb0	-0.09744203
114	0xbe422366	-0.18958816
115	0x3d2e0ed0	0.042494595
116	0xbe753a28	-0.23947966
117	0x3d8f61fc	0.07001111
118	0x3db090e4	0.08621386
119	0xbe089f73	-0.13342075
120	0x3d124630	0.035711467
121	0xbd592ea8	-0.05302301
122	0x3e2e9330	0.17048335
123	0xbe892f88	-0.26794076
124	0xbdcbb766	-0.0994709
125	0x3e60d034	0.21954423
126	0xbcb7b290	-0.022424012
127	0xbc3c83a0	-0.011505991

fc2.weight f4 [64, 128]
0	0x3d7c091d	0.06153213
1	0x3e0101d5	0.12598355
2	0x3c933a19	0.017972039
3	0x3c1f6ff1	0.009731279
4	0x3dc2c341	0.09509898
5	0x3bbee716	0.0058258874
6	0x3d9d450a	0.07679184
7	0x3dc54f0e	0.09634219
8	0xbd2fe7f2	-0.04294581
9	0xbcf8aba3	-0.03035528
10	0xbcc7eba3	-0.024404353
11	0x3e01ed7c	0.1268825
12	0x3d0b6bd3	0.034038376
13	0x3d5564e1	0.05209816
14	0x3d612096	0.054962717
15	0x3dfdf949	0.12401063
16	0x3c71d0bc	0.014759239
17	0xbd265fa0	-0.04061854
18	0xbcd19935	-0.02558575
19	0x3dc91401	0.098182686
20	0x3b2b25f2	0.0026115146
21	0x3da88b30	0.08229673
22	0xbc390a5c	-0.011293974
23	0x3ca508eb	0.020145854
24	0x3d931e2b	0.071834885
25	0xbd274b66	-0.04084339
26	0x3d912fc4	0.07089189
27	0x3de9baac	0.11412558
28	0x3c9f010a	0.019409675
29	0x3df15ad2	0.11784901
30	0x3dbd74f8	0.09250826
31	0xbcea67f6	-0.028614026
32	0xbd11afb1	-0.035567943
33	0x3b8959b5	0.004191602
34	0xbd43e3dd	-0.04782473
35	0x3de63d80	0.11242199
36	0x3dd8fae5	0.10594729
37	0x3d7aad79	0.061200593
38	0x3d2e2060	0.042511344
39	0x3b9be6d6	0.0047577424
40	0x3db755ff	0.08951949
41	0xba28ecb7	-0.00064439647
42	0xbd05e3ea	-0.03268806
43	0x3d9451d8	0.07242173
44	0x3d486b60	0.048930526
45	0x3d451f85	0.048125762
46	0x3b6a4160	0.0035744533
47	0x3db2fc19	0.0873949
48	0x3e08cf28	0.13360274
49	0x3d617401	0.05504227
50	0x3dffea03	0.12495806
51	0x3dae30c2	0.085053936
52	0x3c9acb2b	0.018895706
53	0x3db4b51f	0.088236086
54	0x3dfc0174	0.12304965
55	0x3d45a029	0.048248444
56	0xbccdf074	-0.025139071
57	0x3d4a99cc	0.04946308
58	0x3def86e8	0.11695653
59	0x3d8991e3	0.06717279
60	0xbd3b99ee	-0.045801096
61	0x3dd2957f	0.1028242
62	0x3c59230d	0.013252986
63	0x3d8c718a	0.06857593
64	0xbb8a7b54	-0.0042261276
65	0x3b9890e2	0.0046559433
66	0x3dd7a6f4	0.10529891
67	0xbd23c4a5	-0.039982457
68	0x3d1e5da6	0.03866353
69	0x3ceca56e	0.028887477
70	0x3d0dc005	0.034606952
71	0xbd32a69c	-0.043615922
72	0x3de301e5	0.11084346
73	0x3cc111b8	0.02356802
74	0x3ae4ff8b	0.0017471177
75	0xbd181975	-0.037133653
76	0x3d3a8c03	0.04554368
77	0x3d93930b	0.072057806
78	0x3dff05b9	0.124522634
79	0xbcceaa5a	-0.025227714
80	0x3dc73872	0.09727563
81	0x3e0057c0	0.12533474
82	0x3b4c168a	0.0031141364
83	0xbc875449	-0.016519682
84	0x3def3885	0.11680702
85	0x3d4f34a0	0.050587296
86	0xbc954d56	-0.018225353
87	0x3d74c48f	0.059757765
88	0xbc066a03	-0.008203986
89	0x3b970fc3	0.0046100332
90	0x3cb0f05d	0.02159899
91	0x39d0e090	0.00039840164
92	0xbce3774c	-0.027766846
93	0x3ddb36aa	0.10703786
94	0x3da5cb24	0.080953866
95	0x3dc6d93e	0.097094044
96	0x3da090d2	0.07840122
97	0xbc94b813	-0.01815418
98	0x3cd20c3b	0.025640598
99	0x3c154f61	0.009113164
100	0x3d3dc31c	0.04632865
101	0xbcdb4830	-0.02676782
102	0x3dadc52c	0.08484873
103	0x3ccf60fd	0.025314802
104	0x3d7f0297	0.06225833
105	0x3cadef08	0.021232143
106	0x3d19d65c	0.037557945
107	0xbc85b871	-0.0163233
108	0xbd3fb037	-0.04679891
109	0x3c686f64	0.014186714
110	0x3ccf9d30	0.025343508
111	0xbd0ac6dd	-0.033881057
112	0xbd2c3fe6	-0.042053126
113	0x3d75fb5e	0.060054176
114	0x3daa714c	0.08322391
115	0x3d46ba56	0.048517548
116	0x3de77f8c	0.113036245
117	0xbd0e0cb6	-0.03468009
118	0x3e03fb45	0.1288882
119	0x3d9dc0ed	0.07702813
120	0xbc9b4320	-0.018952906
121	0x3df99902	0.12187387
122	0x3d93f707	0.07224851
123	0xbd01fdfd	-0.031736363
124	0x3c2a7883	0.010404709
125	0xbcb9a13d	-0.022659892
126	0x3db87c25	0.09008054
127	0x3d80bfa1	0.0628655
128	0xbcd34348	-0.025788918
129	0xbd422169	-0.047395144
130	0x3d8e2990	0.06941521
131	0x3d9783e6	0.073982045
132	0xbcc744a9	-0.024324732
133	0x3dff5e23	0.12469127
134	0x3dea3db3	0.114375494
135	0x3cc7d3f8	0.024393067
136	0x3d8062f1	0.062688716
137	0x3db1174b	0.08647021
138	0x3ddb5e8f	0.10711395
139	0x3db2a3f1	0.087226756
140	0x3deebac6	0.11656718
141	0x3dc68c77	0.0969476
142	0x3da1d8d0	0.07902682
143	0xbb588b03	-0.0033041842
144	0x3ce5aa83	0.028035408
145	0x3dd4c526	0.103891656
146	0xbd2bf2fe	-0.041979782
147	0xbc92870f	-0.017886667
148	0xbceb8026	-0.02874763
149	0x3d7d16bf	0.06178927
150	0x3da36ee0	0.07980132
151	0x3d936c16	0.0719835
152	0x3c41a1d5	0.011818369
153	0x3d6a22dc	0.05716215
154	0xbd04ecc2	-0.032452352
155	0x3d01cdc0	0.03169036
156	0xbd045b13	-0.032313418
157	0x3ddc49f8	0.10756296
158	0x3d62c5ec	0.055364534
159	0x3bacc76f	0.005272798
160	0x3d844e69	0.06460268
161	0xbcfea5b8	-0.03108488
162	0x3d2a1d32	0.04153175
163	0xbd19e2da	-0.037569858
164	0x3d419fc9	0.047271524
165	0x3db26fef	0.08712756
166	0x3bbd02ac	0.005768141
167	0x3d20b06a	0.03923074
168	0x3d824d03	0.06362345
169	0x3c974a96	0.018468183
170	0xbcdf7e7a	-0.027281988
171	0x3dc3b6ef	0.09556376
172	0xbc276277	-0.010216347
173	0x3d71af95	0.05900534
174	0x3dbd6183	0.092471145
175	0x3d62d3a4	0.055377617
176	0x3dde3b87	0.10851198
177	0x3dcdcc9a	0.1004879
178	0x3de87664	0.11350706
179	0x3d8d2d25	0.06893376
180	0x3de24ed6	0.11050193
181	0xbc654dc6	-0.013995593
182	0xbcbf1cdf	-0.023329196
183	0x3c001d90	0.007819548
184	0x3ce054f8	0.027384266
185	0xbcb4d9a6	-0.02207644
186	0x3d9ee096	0.0775768
187	0x3db6b122	0.08920504
188	0x3d05b056	0.03263887
189	0x3d426090	0.04745537
190	0x3cc567ea	0.024097402
191	0x3d7c59f3	0.06160922
192	0x3c88b3c0	0.016687274
193	0x3c29fd00	0.010375261
194	0x3de078fb	0.10960575
195	0x3d9e2e4b	0.077236734
196	0x3d8ef849	0.069809504
197	0x3cbea4fb	0.023272028
198	0xbc788ae3	-0.015169832
199	0x3ddfb07e	0.10922335
200	0x3dfa6de9	0.12227995
201	0x3dc3686e	0.09541403
202	0x3db74e4e	0.08950482
203	0xbd115940	-0.035485506
204	0x3d1a9025	0.037735123
205	0x3da3ed86	0.080042884
206	0x3ab0a336	0.0013476375
207	0x3d43bc39	0.047786925
208	0x3dd4363e	0.103619084
209	0x3de5bbca	0.112174585
210	0x3dce5089	0.100739546
211	0x3bdee48f	0.0068021487
212	0x3cc4d167	0.024025632
213	0x3df4003e	0.11914109
214	0xbba2ec90	-0.004972048
215	0x3d5ef47b	0.054432373
216	0x3d630c07	0.055431392
217	0x3df68ca5	0.120385446
218	0x3c9ae7b2	0.018909309
219	0x3dd10b20	0.102072
220	0x3d6e8186	0.058228992
221	0x3d3961c8	0.045259267
222	0x3d90dbbe	0.070731625
223	0xbd1490b4	-0.036270812
224	0x3df2f95b	0.11863967
225	0xbd2ed6ec	-0.042685434
226	0x3d0cdb55	0.03438886
227	0x3c0e61bc	0.008690294
228	0x3b798025	0.0038070765
229	0x3da47e30	0.08031881
230	0xbca3667c	-0.01994633
231	0xbccd717e	-0.025078531
232	0x3d7371d0	0.059434712
233	0x3ddc0daa	0.10744794
234	0x3d9ebacf	0.07750475
235	0x3dcfb95f	0.101427786
236	0x3d53dafc	0.05172251
237	0x3c5ddddd	0.013541666
238	0x3ca41082	0.020027403
239	0xbc9df739	-0.019282924
240	0x3da0beb6	0.07848875
241	0x3d247e25	0.040159363
242	0x3dabb58e	0.08384238
243	0xbc98a600	-0.018633842
244	0x3dae1eab	0.08501943
245	0x3d2e08a8	0.042488724
246	0x3c7c3729	0.015394011
247	0xbd1238b6	-0.035698615
248	0xbcbe0904	-0.023197658
249	0x3d99d63f	0.07511567
250	0x3de9bf42	0.11413433
251	0xbd2765bb	-0.040868502
252	0x3d5a6058	0.053314537
253	0x3d989850	0.07450926
254	0x3d0c5f50	0.034270585
255	0x3d903b1f	0.070425265

fc2.bias f4 [64]
0	0x3c29686c	0.0103398375
1	0x3ce41699	0.027842807
2	0x3d6d1eb1	0.057890598
3	0x3dd99705	0.10624508
4	0x3d78ac12	0.060710974
5	0x3da42ef1	0.08016766
6	0xbbd29356	-0.006426255
7	0x3c0e03d6	0.008667907
8	0x3e03d5e0	0.12874556
9	0x3d39001f	0.04516613
10	0xbd92ad45	-0.07161955
11	0x3d5c0de7	0.053724196
12	0x3d50d5eb	0.050985258
13	0x3b9d3aac	0.004798254
14	0xbdc9f1f8	-0.09860605
15	0x3d3294c3	0.0435989
16	0xbc9b7a2c	-0.018979155
17	0xbdd7b9af	-0.10533463
18	0x3c65d269	0.0140272165
19	0x3dc3d8b7	0.095628195
20	0xbc7b52e6	-0.015339589
21	0x3c3eb5b2	0.011639999
22	0x3dee8a49	0.116474696
23	0x3d400f74	0.046889737
24	0x3d9b0600	0.07569504
25	0x3e069e29	0.13146271
26	0x3da168f7	0.078813486
27	0x3bf1fbf1	0.00738477
28	0x3c230ff2	0.009952532
29	0x3e015f77	0.12634073
30	0xbc3c3a6d	-0.011488539
31	0xbc1e9cf7	-0.009680978
32	0x3d3ad91d	0.04561721
33	0x3c42f778	0.011899821
34	0x3cc582d8	0.024110243
35	0x3c1b97bf	0.009496628
36	0x3d232020	0.03982556
37	0x3b807dee	0.003921262
38	0xbd481acf	-0.04885369
39	0xbce4f6dd	-0.027949745
40	0xbd0c2fca	-0.034225263
41	0xbd3751e5	-0.044755835
42	0xbdb15009	-0.086578436
43	0xbc8e9022	-0.017402712
44	0x3d53a7c3	0.051673662
45	0x3cdc9725	0.02692754
46	0x3d6950f4	0.05696197
47	0xbd024914	-0.031807974
48	0xbd1145da	-0.035467006
49	0x3d7f80eb	0.062378805
50	0x3d5f9704	0.05458738
51	0xbdc382da	-0.09546442
52	0x3da080b9	0.07837052
53	0x3df19157	0.117952995
54	0xbdc7380a	-0.097274855
55	0x3de3c936	0.11122362
56	0xbcefedaa	-0.029288132
57	0xbd71d330	-0.059039295
58	0x3d024def	0.031812605
59	0x39fac008	0.0004782679
60	0xbd895513	-0.0670568
61	0xbdca4801	-0.09877015
62	0xbd74ddd8	-0.05978188
63	0xbdb73c82	-0.08947088

fc3.weight f4 [1, 64]
0	0xbe168e66	-0.14702758
1	0xbe2f246d	-0.17103739
2	0xbe2a3cd5	-0.16624768
3	0xbe10f034	-0.1415413
4	0xbe2deb32	-0.16984251
5	0xbd983201	-0.074314125
6	0x3d31b0e7	0.043381598
7	0xbd904539	-0.07044453
8	0xbdc6ab5b	-0.09700652
9	0x3d95eecc	0.073209375
10	0x3dd06c0e	0.1017686
11	0x3d941170	0.072298884
12	0xbd9c0892	-0.07618822
13	0x3d10a7ad	0.035316158
14	0x3db8df6b	0.090269886
15	0x3d0bea84	0.0341592
16	0xbdc2156a	-0.09476741
17	0x3c4e8ad0	0.012606338
18	0x3c2db7dd	0.010602918
19	0xbdb0b767	-0.08628731
20	0xbda86260	-0.082218885
21	0x3d10d604	0.03536035
22	0xbd6bcdd7	-0.05756935
23	0xbe0d93f7	-0.13825975
24	0xbe00fdca	-0.12596813
25	0xbe2393f2	-0.15974405
26	0xbe34737b	-0.17622177
27	0xbde2614c	-0.11053714
28	0xbe2caf11	-0.16863658
29	0xbe05bcfc	-0.13060373
30	0xbe35790a	-0.17721954
31	0xbdc9a1d5	-0.0984532
32	0x3d058ac1	0.03260303
33	0xbe2037ea	-0.1564633
34	0x3d829b0e	0.063772306
35	0x3ce00b36	0.027349096
36	0x3cf8467d	0.030307049
37	0x3d5abb16	0.053401075
38	0x3d8bb3d0	0.06821406
39	0x3d86cb89	0.0658179
40	0x3d55ef9a	0.052230455
41	0x3d75deee	0.060027055
42	0x3dd89a60	0.1057632
43	0xbdf92ec8	-0.12167126
44	0xbe17b379	-0.14814557
45	0x3db3fd76	0.08788578
46	0x3c67992d	0.014135641
47	0x3dc66fd2	0.09689297
48	0x3d987ba4	0.074454576
49	0xbe30f6f1	-0.172817
50	0xbe00b1a0	-0.12567759
51	0x3c36a29c	0.0111471675
52	0xbe1209bb	-0.14261524
53	0xbde9ce8c	-0.11416349
54	0x3d08134e	0.033221535
55	0xbdafa032	-0.08575477
56	0xbe1fdce2	-0.15611604
57	0xbb77e095	-0.003782307
58	0x3d29b5ee	0.041433267
59	0x3d697e63	0.057005297
60	0x3d25c99e	0.04047548
61	0x3d24353b	0.040089827
62	0x3dc51aa3	0.09624221
63	0x3d9e74db	0.07737132
