checkpoints/model_epoch_80_baseline.pt (torch, 44840 bytes, 5 tensors)

fc1.weight f4 [128, 16]
000000 40 01 42 be 50 b1 14 3d 58 66 5d 3d 18 e3 a2 3d
       -0.1894579 0.03630191 0.05405268 0.07953471
000010 60 d1 b2 3d c0 4b 4a 3d 40 81 b9 3c 00 13 45 3e
       0.08731341 0.049388647 0.022644639 0.19245529
000020 68 f9 f1 bd 84 3a 77 be 16 77 02 be b8 19 0e 3e
       -0.118151486 -0.24143416 -0.1274074 0.13876998
000030 00 8e f1 ba ec a3 ac 3d 20 60 f1 3d 5c 3c 8d 3d
       -0.001842916 0.08429703 0.117859125 0.06896278
000040 0c a3 0c 3e 6a ce 7a 3e d4 7d 9f 3d 40 f1 82 3b
       0.13734072 0.24492803 0.07787672 0.0039960444
000050 c8 c2 63 3e b4 40 63 3e c0 3a 9b 3b 84 4a 77 3e
       0.22242272 0.22192651 0.004737228 0.24149519
000060 de bc 1e 3e ac 00 80 3d 68 21 32 be c0 a6 1c bc
       0.15501735 0.06250128 -0.17395556 -0.009561241
000070 44 0f fa 3d b0 fe 26 bd fa 57 54 be 8c 54 bc bd
       0.12209943 -0.040770233 -0.20736685 -0.091958135
000080 78 32 be bd 0c 84 95 bd 20 2b 05 3c 08 09 51 3d
       -0.0928697 -0.073005766 0.008127958 0.051034003
000090 94 87 9d bd ce ec 7a 3e 6c e7 22 3e f8 af 58 3d
       -0.07691875 0.24504396 0.15908593 0.052902192
0000a0 78 e0 76 3e ca e5 5b be 5e 4f 15 3e 98 e1 8c 3d
       0.24109066 -0.21474376 0.14581057 0.06878966
0000b0 c0 0d 26 bc 64 e1 88 3d 78 76 7f be 20 2a af 3d
       -0.010135114 0.06683615 -0.24947536 0.085529566
0000c0 d0 6b 67 bd a0 ac bd 3c ee e9 54 3e c0 5f eb 3d
       -0.056499302 0.023153603 0.20792362 0.11492872
0000d0 e0 bb d1 bc a2 9f 3b be 00 ea c4 3d 90 99 54 be
       -0.025602281 -0.18322614 0.096149445 -0.20761704
0000e0 68 f6 2b be 20 7c 03 be 20 e9 33 3d 2c 73 9c bd
       -0.16793215 -0.12840319 0.043923497 -0.07639155
0000f0 3c 71 b9 bd 20 5d a5 bd d4 c1 96 bd e0 4b 08 3c
       -0.09054801 -0.08074403 -0.073611885 0.008318871
000100 c0 02 b2 3d 54 2e 92 bd a4 62 e1 3d 7c 37 88 3d
       0.08691931 -0.07137743 0.11005142 0.06651208
000110 08 73 86 3d 50 a3 15 3d 58 4a 7f be 66 3c 04 3e
       0.06564909 0.0365327 -0.24930704 0.12913665
000120 40 dd 24 be c0 bc 41 bc b0 52 d9 bc 98 e0 37 bd
       -0.16100025 -0.011824787 -0.026528686 -0.044891924
000130 6c fd 5d 3e 30 28 92 3d 08 16 d7 3d e8 d5 76 3e
       0.21678704 0.071365714 0.10502249 0.24105036
000140 f2 9a 5d be 14 0e 1b 3e 08 ed ab 3d 58 e5 c9 3d
       -0.21641138 0.15142089 0.083948195 0.09858197
000150 9e da 24 be 18 32 2f be 26 51 10 3e 1c a9 56 3e
       -0.16099021 -0.17108953 0.14093456 0.20962948
000160 d0 01 77 3e d6 15 71 3e 44 48 0f be 32 d1 03 3e
       0.24121785 0.23543486 -0.13992411 0.1287277
000170 e0 dd 8b 3c 8c f1 88 3d 8a 6e 2a 3e ec b9 bb 3d
       0.017073572 0.066866964 0.1664373 0.09166321
000180 18 19 6c 3e b0 60 4a be 80 8b 46 3c 1c 7c dd 3d
       0.23056448 -0.19763446 0.01211822 0.108146876
000190 48 90 e2 3d 86 ea 5f be 0c 78 cd bd a2 f2 76 3e
       0.11062676 -0.21866807 -0.10032663 0.24115995
0001a0 58 81 52 be 2e c9 70 be 60 38 fb bc ac 8e 7a be
       -0.20557153 -0.23514244 -0.03066653 -0.24468488
0001b0 30 1e aa bd 90 9b 5b 3d a4 8a 9d bd 84 2b 71 be
       -0.08306539 0.053615153 -0.07692459 -0.23551756
0001c0 48 32 39 3e 88 ee 7c 3e 54 1e 28 be d8 e8 a2 bd
       0.18085587 0.24700367 -0.1641782 -0.07954568
0001d0 00 7c 07 ba ae 14 0e 3e b8 c6 62 3d 54 f5 fa bd
       -0.0005168319 0.13875076 0.055365294 -0.12253824
0001e0 f8 c0 77 3d 08 35 f1 bd 00 f8 30 bb f8 6a 16 be
       0.060486764 -0.11777693 -0.0027003288 -0.14689243
0001f0 64 b5 cb bd 78 bb 6e 3d e0 27 a7 3d d0 ce 56 3e
       -0.09946707 0.058284253 0.081619024 0.2097733
000200 b8 a3 0d 3e a4 00 8b bd f8 37 81 3d 54 15 81 3d
       0.13831985 -0.067872316 0.06309503 0.06302896
000210 4c d5 4e 3e b0 7d 6d bd 40 32 86 bb ae ab 0d 3e
       0.20198554 -0.057981193 -0.0040953457 0.13835022
000220 00 a4 b1 bb 60 c0 62 3d f2 b2 6f be d0 76 8d 3d
       -0.0054211617 0.055359244 -0.23408106 0.06907427
000230 8e cd 22 3e 0c b9 b7 3d ae 61 67 3e ec c1 4e 3e
       0.15898725 0.08970842 0.22595856 0.20191163
000240 2c fd 20 be b6 3d 74 3e 90 6e 0d bd 18 b9 99 3d
       -0.15721577 0.23851666 -0.03452927 0.07506007
000250 9c 94 e9 3d 80 83 7b 3c 00 fa 00 be ec be 40 be
       0.11405298 0.015351176 -0.12595367 -0.18822831
000260 e4 8f 90 bd 98 ed 50 3e 1a cc 1e be 30 51 45 3e
       -0.07058695 0.20403135 -0.15507546 0.19269252
000270 00 82 57 ba c8 49 a2 bd f8 61 16 3d 12 60 4c be
       -0.00082209706 -0.07924229 0.036714524 -0.19958523
000280 14 1a 40 3e 80 88 9e 3d 28 a9 25 bd ac e2 e4 3d
       0.18759948 0.07740879 -0.040444523 0.11176047
000290 c0 07 c6 bb 26 9c 45 3e 7c 4a fe 3d 30 64 0d 3d
       -0.0060434043 0.19297847 0.124165505 0.034519374
0002a0 cc 1a b8 bd 8e 5f 01 be 54 0a 66 3e 70 8e 31 bd
       -0.08989486 -0.12634107 0.22464877 -0.04334873
0002b0 40 6c 7e be 20 c9 7e 3c 54 f1 da bd c8 ce b3 3d
       -0.24845982 0.015550882 -0.10690561 0.08779675
0002c0 5a a7 63 be 02 d1 73 be c8 6c 18 3d 00 10 11 b9
       -0.22231808 -0.23810199 0.037213117 -0.00013834238
0002d0 5a f2 06 3e cc 05 9d 3d 66 bf 5b 3e 5c f7 65 3e
       0.13178387 0.07667121 0.21459731 0.22457641
0002e0 0c 6c 69 3e 84 6a c1 bd 9c 9f 29 be 4a b3 7b 3e
       0.22795123 -0.09444144 -0.16564792 0.24580112
0002f0 94 18 01 be 28 df 06 3d 3c 77 74 be ba 71 4b be
       -0.12607032 0.032927662 -0.2387361 -0.19867602
000300 cc 1e c5 bd 74 f6 6f be 1c 6b 21 be 10 66 20 3d
       -0.09625015 -0.23433858 -0.15763515 0.039159834
000310 40 f0 e9 3b 18 18 b2 bd d8 e1 e0 bd 5a ec 6f 3e
       0.0071392357 -0.08696002 -0.10980576 0.23430005
000320 40 bf 9d 3b 88 08 26 be f0 5e 74 3d fe ed 03 be
       0.0048140585 -0.16214192 0.059660852 -0.12883756
000330 32 a7 61 3e cc 70 e0 bd d0 b1 c4 bd 3a a4 15 be
       0.22036436 -0.10959014 -0.096042275 -0.14613429
000340 00 40 f0 39 b0 a5 d9 3d 20 83 63 bd d0 73 0c 3e
       0.0004582405 0.106273055 -0.055544972 0.13716054
000350 50 f4 1d bd 70 14 81 bd 44 be 3c 3e 80 b5 e0 bb
       -0.038563073 -0.06302726 0.18431956 -0.006857574
000360 1a 5e 1d be d0 55 da bc 38 6b 1c bd 8a 36 51 3e
       -0.15367928 -0.026652247 -0.03818819 0.20430961
000370 20 4c 43 bc 2a 0a 62 be 08 e4 e2 bd d2 d6 13 be
       -0.011920005 -0.2207419 -0.1107865 -0.14437416
000380 44 37 fe 3d 80 33 64 bb b0 26 55 3e 10 04 b7 3d
       0.12412885 -0.0034820735 0.2081554 0.08936322
000390 f0 43 ca bd 18 fe b6 bd 96 85 2f be bc 09 73 be
       -0.09876239 -0.08935183 -0.17140803 -0.23734182
0003a0 d8 60 0e 3e b0 9f 51 bd 78 44 2b 3e 0a 5e 36 be
       0.1390413 -0.05117768 0.16725338 -0.1780931
0003b0 10 7b 26 3d 68 88 fa bd 68 62 4c bd 8e 17 0d be
       0.040644705 -0.12233049 -0.049898535 -0.13778517
0003c0 3c 0f 02 3e 08 93 13 3d 18 c6 53 bd a0 2d ce 3c
       0.12701124 0.03602889 -0.05170259 0.02516824
0003d0 10 03 b0 3c 00 04 80 3a f0 b5 cd bc 54 66 fd 3d
       0.021485835 0.0009766817 -0.025111169 0.12373033
0003e0 24 77 8c 3d e0 2f ab bd fa 6a 01 be 78 7d d8 3d
       0.06858662 -0.08358741 -0.12638465 0.10570806
0003f0 d0 1c d6 3c ac 70 15 be b8 bc c1 bd c4 8e 99 bd
       0.026136786 -0.14593762 -0.09459823 -0.074979335

fc1.bias f4 [128]
000000 16 43 21 be 90 00 db 3d d0 13 93 bd 50 7c 7a bd
       -0.15748248 0.10693467 -0.07181513 -0.06115371
000010 c0 56 60 3c 60 8d 38 3c cc 46 6f 3e 74 01 e4 bd
       0.013692558 0.011264175 0.2336685 -0.1113309
000020 96 5e 0b 3e 68 22 62 3d ee bb 52 3e b8 9d 66 bd
       0.136103 0.055208594 0.20579502 -0.056302756
000030 20 27 2f bd 3a b9 0c be 04 50 dd bd 86 51 21 be
       -0.042761922 -0.13742533 -0.108062774 -0.15753755
000040 e2 61 0c be 84 1c 4a be 20 79 c9 bd 22 cd 1d 3e
       -0.13709214 -0.1973744 -0.09837556 0.15410283
000050 f0 b2 a6 3d 76 41 34 3e 7c d9 79 be d4 fe 07 be
       0.08139598 0.17603096 -0.2439937 -0.13280803
000060 b8 10 9c bd 06 1c 46 be dc 41 d3 bd 84 26 2b be
       -0.07620376 -0.19346628 -0.10315296 -0.16713911
000070 84 ca 6f 3e cc ef 81 bd 30 0c b2 3d d2 cf 56 be
       0.23417097 -0.06344566 0.08693731 -0.20977715
000080 38 12 d0 3d e4 4f 31 3e 78 bf c0 bd e0 d0 6d 3c
       0.10159725 0.17315632 -0.0941152 0.014515132
000090 c0 7d cc bd 84 a8 22 3e 90 7d 9b bc f8 e1 6f be
       -0.099849224 0.15884596 -0.018980771 -0.23426044
0000a0 a8 00 35 3d b0 46 f5 bc 48 6a 27 3e a8 19 77 be
       0.04419008 -0.029940933 0.16349137 -0.24130881
0000b0 b8 62 4c bd b0 04 9a bd 02 76 6b 3e a4 ac 40 3e
       -0.049898833 -0.07520425 0.22994235 0.18815857
0000c0 14 b2 4b 3e 8a 8c 6d 3e 70 3d 2d 3e 40 f8 26 bd
       0.1989215 0.23198143 0.16917968 -0.040764093
0000d0 30 a1 c4 bc b4 c7 2f be f8 67 c5 bd 38 49 f0 3d
       -0.024002641 -0.17166024 -0.09638971 0.11732715
0000e0 e4 97 8e bd c0 15 cf bd b8 dd 77 3e d8 3c da bd
       -0.069625646 -0.1011157 0.24205673 -0.10656136
0000f0 8e c1 69 be 30 2b b1 bc 2e 74 26 3e 5c 4a d7 bd
       -0.22827742 -0.021627039 0.16255257 -0.1051223
000100 20 62 51 bd 7a e1 6c 3e 98 b4 36 bd a0 94 66 3c
       -0.05111897 0.23132887 -0.04460582 0.014073521
000110 80 64 30 bc 16 f8 7e 3e c0 6d de bb 2a 11 78 be
       -0.010766149 0.24899325 -0.0067879856 -0.24225298
000120 30 d7 8c 3c 08 50 93 3d 22 62 2f be 38 33 26 be
       0.017192453 0.07192999 -0.17127278 -0.16230476
000130 b8 cb ee bd 94 53 46 be 18 6b 1a be 8c e1 00 be
       -0.1165995 -0.1936782 -0.15079916 -0.1258604
000140 58 3f 13 3d b2 67 10 3e bc 24 0a 3e c0 32 58 bd
       0.03594908 0.14102057 0.13490576 -0.052782774
000150 c8 39 e4 3d 2e b8 19 3e a0 b9 4e bd 98 e8 6d be
       0.111438334 0.15011665 -0.050469995 -0.23233259
000160 30 63 5c 3e ca f9 0a 3e e8 8f 4f be 9e 16 77 be
       0.21522212 0.1357185 -0.2026974 -0.24129722
000170 e8 10 a7 3d b2 6e 72 be 70 02 59 bd d8 1d 7c be
       0.081575215 -0.2367504 -0.05298084 -0.2462076
000180 14 bd 77 3e 4c ae 79 be b0 47 50 bd e0 84 c4 bc
       0.24193221 -0.24382895 -0.050849617 -0.023989141
000190 60 57 4e bc 68 8b 60 bd e4 5c 32 3e 54 62 e6 bd
       -0.012594074 -0.05482045 0.17418247 -0.11249223
0001a0 3c d6 45 3e a0 43 c2 3d f0 4a 96 3c d0 c1 24 3d
       0.19320005 0.09485555 0.01834628 0.040223897
0001b0 a0 ce 09 3e f2 d7 7b be f8 10 e8 3d dc 97 e2 3d
       0.13457727 -0.24594095 0.113313615 0.11064121
0001c0 ce 74 5e be 00 bc 25 bd 1c 16 c7 3d 4c 3c 1b be
       -0.21724245 -0.040462494 0.09721014 -0.1515972
0001d0 24 77 56 3e 7c 47 83 3d 52 91 38 be 84 d4 9b bd
       0.20943886 0.06410119 -0.18024185 -0.076088935
0001e0 c0 45 81 3b 40 b2 24 3e 9c 1c 3e 3e 5c 9e e4 3d
       0.0039450824 0.16083622 0.18565601 0.11163017
0001f0 ec b1 ae bd 0e 1f 65 3e 68 59 08 3e ce e4 31 3e
       -0.0853003 0.22375128 0.13315356 0.17372438

fc2.weight f4 [64, 128]
000000 c7 51 39 bd d3 93 d9 3c d1 84 7f 3d 1d 48 40 bd
       -0.045244005 0.026559746 0.062382523 -0.046943773
000010 fd b8 55 bd c5 1b 45 bd f3 c7 e3 bc 41 86 05 3d
       -0.05217837 -0.048122186 -0.027805304 0.032598738
000020 0c 95 04 bd bf c2 60 3d 67 bd 33 3c ed 0a cd 3c
       -0.032368705 0.054873224 0.01097045 0.025029624
000030 b4 af 4e 3d 52 70 a7 3d 19 aa cb 3d 08 25 07 3d
       0.050460532 0.0817572 0.09944553 0.0329943
000040 83 91 2a 3d 33 76 12 3c f4 a8 4a 3d 5a 4b 29 bd
       0.041642677 0.008939314 0.049477533 -0.041331626
000050 95 8b a9 3c 41 50 52 3d e6 c3 29 bd 3c c8 96 3c
       0.02069644 0.051346067 -0.04144659 0.018406026
000060 09 75 91 bc 61 61 8d bd 59 dc c8 3d a9 5f 50 3d
       -0.017756002 -0.06903339 0.09807653 0.05087248
000070 20 36 2a bc 50 45 10 3b 61 3b d1 bc 19 52 65 3d
       -0.010388881 0.002201397 -0.02554101 0.055986498
000080 bc 24 88 bd d4 a2 3c 3b 79 38 e2 3c 3b 16 cb 3c
       -0.066476315 0.0028783577 0.027614819 0.024790874
000090 7d bc 51 3d 60 cb 2a bd 29 bc 48 bd c7 eb 1a bd
       0.051205147 -0.04169786 -0.04900757 -0.03782251
0000a0 92 95 da 3d a8 93 3a bb 0b b1 7c 3d 0d 6a a4 bc
       0.106730595 -0.0028469358 0.06169228 -0.0200701
0000b0 36 b6 53 3d 61 e7 58 3b 7d fa 06 3d 53 4b f2 3c
       0.05168744 0.0033096897 0.032953728 0.029576933
0000c0 e1 c2 b6 3d 7e 49 ce 3d 21 f2 f2 3c 26 e6 1d bd
       0.08923889 0.10072611 0.029656472 -0.038549565
0000d0 80 d2 56 3c 09 16 ac 3d 8a f3 9f 3d 0a 2a 35 3d
       0.013111711 0.0840264 0.07810123 0.044229545
0000e0 d8 2e 1e bd 07 e0 db 3c d1 98 d1 3d f6 49 87 bd
       -0.038618892 0.026840223 0.102342255 -0.06605904
0000f0 d9 1f 7d bd 9d 4d 07 3d f3 f6 c2 3d 14 3a d8 3d
       -0.06179795 0.033033002 0.09519758 0.105579525
000100 68 3a d9 3d ee 02 3e 3d 95 f4 b6 3d e9 04 41 3d
       0.10606843 0.046389513 0.08933369 0.047123823
000110 cd bf 06 3d 84 4d c1 3d d0 a0 c4 bb 8b 26 1c 3d
       0.03289776 0.09438613 -0.0060006157 0.038122695
000120 ae 96 b2 bc 83 8c 34 bd 05 64 8b bd 62 87 69 3d
       -0.021800365 -0.044079315 -0.068061866 0.057013877
000130 61 88 33 3d af 07 8d bc 5a 59 82 bd dc fe ef 3c
       0.043831233 -0.017215578 -0.06364699 0.029296331
000140 b3 9a c5 3d 25 40 8c bd b5 1c 92 3d 2d 86 9c 3c
       0.09648647 -0.06848172 0.07134382 0.019106949
000150 6d b1 29 bd 05 7b 3a bc 3e 5c 2a bd 73 1c 6c 3d
       -0.041428972 -0.011381869 -0.041591875 0.05764432
000160 3e 43 7f 3c 40 b3 45 3d 71 1c b8 3d 17 24 80 bd
       0.015579997 0.04826665 0.089898 -0.062568836
000170 79 5c 57 bd e3 7b 88 3c 2a 36 41 3d cf ea a2 3c
       -0.052578423 0.016660636 0.047170796 0.019887356
000180 eb 49 08 bd 27 27 05 bd 84 ee dd 3c 07 de 8d 3d
       -0.03327362 -0.03250804 0.027091272 0.06927114
000190 42 c9 e8 bc 4c 4a ce 3d 55 d6 d4 3c 82 3d 85 3d
       -0.02841628 0.10072765 0.025981108 0.06505872
0001a0 fb 63 33 3d d0 5d ca 3d c7 76 00 3d 81 67 80 bd
       0.04379652 0.098811746 0.031363275 -0.06269742
0001b0 52 26 58 3d ec 18 e5 3c cd 81 34 bd 1e c1 04 bd
       0.05277092 0.027965985 -0.0440691 -0.032410733
0001c0 94 e4 ce bc c3 67 74 3d 58 33 27 bd 68 61 b1 bc
       -0.025255479 0.059669267 -0.04082045 -0.021652892
0001d0 c1 d6 ff bc dd 8b d9 3d bb cb 83 bd 7c db 50 bd
       -0.031230332 0.1062238 -0.06435343 -0.050990567
0001e0 bc b8 13 3b 0d 77 2b bc 51 4c 53 3d 93 4f 75 3c
       0.002254053 -0.010465396 0.051586453 0.014972585
0001f0 24 73 6c 3d d1 3c 9b 3c 60 18 d2 3b a4 54 23 bc
       0.057726994 0.018949898 0.006411597 -0.00996891
000200 c7 b2 85 bc 3e 44 4d bc 70 4f 2d 3d 1b 6b a4 3d
       -0.0163206 -0.012528477 0.042312086 0.08028241
000210 2e 37 76 bd 68 a3 2f bd e4 a4 d8 3d 0e 28 be 3b
       -0.060111217 -0.042880446 0.105783254 0.0058031147
000220 9e 77 1e bd 67 b3 6d bd 71 59 47 3d 9a 10 83 3b
       -0.038688295 -0.05803242 0.048669282 0.003999782
000230 59 0b 9b 3d ed c5 46 3d e6 61 31 3c 2f 48 d4 3d
       0.07570524 0.0485286 0.010826563 0.103653304
000240 16 a5 23 3d 3f 68 1a 3d a2 46 28 bd 63 9a 3f 3c
       0.03995236 0.037697073 -0.041082986 0.0116945235
000250 fd a0 0a bb 68 f0 2e 3d 00 88 b0 3d c8 c8 3e 3d
       -0.0021153085 0.042709738 0.0861969 0.0465782
000260 ea 84 20 bd 2d cf 7c bc 5a 34 61 bb c6 e8 11 bc
       -0.039189257 -0.015430254 -0.003436348 -0.008905595
000270 2a d7 5c 3d 8b 72 97 3d 81 bd bd bc fb f5 11 bd
       0.053916134 0.07394894 -0.023161652 -0.035634976
000280 73 ec 51 3b bf 8e 2c 3c 54 eb 88 3d 32 bf 23 bb
       0.0032031804 0.01053208 0.0668551 -0.0024985787
000290 82 f0 5d bd 55 a4 38 3d bb 05 86 bc be 3e e3 3d
       -0.054184444 0.045078594 -0.016360154 0.110959515
0002a0 e7 eb 2e bd db 5e b4 3c 86 f7 f9 bc 29 06 b2 3d
       -0.042705443 0.022017887 -0.030513536 0.08692581
0002b0 9f b6 90 3d f9 dd a9 3d e4 a2 82 3d e9 45 02 bb
       0.07066082 0.08294291 0.06378725 -0.0019878095
0002c0 68 49 6e 3d 96 7a 2d bd 5f 34 da 3d de 5f 8d bd
       0.058175474 -0.042353235 0.1065452 -0.06903051
0002d0 67 bd 86 3d fe 82 03 3d 22 41 92 3c 4d 88 74 3d
       0.065790944 0.032107346 0.017853323 0.0597003
0002e0 d2 03 a9 3d d9 dd 3b 3d 43 0e c3 3d 0f d4 3d 3d
       0.08252682 0.045865867 0.095242046 0.046344813
0002f0 58 cc 1b bd bf 73 bf 3c 4b 0e 87 bd 29 81 93 ba
       -0.038036674 0.023370622 -0.06594523 -0.0011253703
000300 2e e3 aa bb c0 2d 9b bd d0 66 f1 bc b6 34 99 3d
       -0.00521507 -0.075770855 -0.02946797 0.07480757
000310 a0 94 4c bd 51 d9 42 bd 66 81 33 3d 27 b8 83 3c
       -0.049946427 -0.04757053 0.043824576 0.016079022
000320 a1 6b ad bc d3 d7 12 3d 26 1e f6 3c 95 1f 4f bd
       -0.021169486 0.035850357 0.030043673 -0.05056723
000330 34 e0 91 bd bc f0 a7 3d 22 78 6c bd c5 45 0c bd
       -0.071228415 0.08200213 -0.057731755 -0.034246225
000340 4c eb 7b bd 45 4b 94 3d 9e 92 a3 3d 2d 0f 62 bc
       -0.061503693 0.07240919 0.079869494 -0.0137975635
000350 7b b8 7b bd 52 7c 6f bd e6 13 cb 3d 6e 2b 17 bd
       -0.06145523 -0.05846817 0.09915905 -0.036906652
000360 e8 77 d1 3d 7b b2 13 bd 89 e0 98 3d ec 40 9a bd
       0.102279484 -0.036058884 0.07464702 -0.07531914
000370 e6 e6 0f 3d d5 1b 3d bd e7 4e 35 bd 34 dc 9b 3d
       0.03513231 -0.04616912 -0.0442647 0.0761036
000380 c9 5a be 3d f9 9f ac bc e7 fb 9b bd b2 d0 73 bc
       0.0929466 -0.021072375 -0.07616406 -0.0148813
000390 af 18 c8 bc 1f c0 14 3c a4 d7 57 bc ee e4 d8 3b
       -0.024425833 0.009079008 -0.013173971 0.0066190874
0003a0 ec e5 08 3d 95 cb 6a 3d 7c 02 aa 3b 73 5d 71 bd
       0.033422396 0.057323057 0.0051882844 -0.05892701
0003b0 4d bb 82 bd 56 8f a4 3d 9f 75 32 bd c1 e3 50 3d
       -0.06383381 0.08035152 -0.043569203 0.050998453
0003c0 1f d8 41 3d c6 d5 a7 3c 56 fe 27 3d bc 63 83 bd
       0.04732525 0.020487677 0.041014038 -0.06415507
0003d0 a2 7d 9c 3d a3 7b 81 bd 8a 23 e8 bb 48 79 52 3d
       0.0764115 -0.0632241 -0.0070843147 0.051385194
0003e0 fe 1a 2a bd 45 cb 7b 3d 3b da 2d bc bf 28 0c bd
       -0.041529648 0.06147315 -0.010611112 -0.034218546
0003f0 58 cf d7 bb 27 26 13 3a b6 38 b4 3d 6a 5b 40 3d
       -0.0065859966 0.000561329 0.08799879 0.04696218

fc2.bias f4 [64]
000000 53 53 09 3d ee 9b b0 bb 2e fa ca bc 4c ac a6 bd
       0.03352673 -0.005389682 -0.024777498 -0.08138332
000010 2d bf 04 bc 60 82 56 3d b4 44 0a bd fd 68 7f bd
       -0.0081022205 0.05237043 -0.033756927 -0.062355984
000020 4a 96 9b bc fc 11 a7 3c b7 f0 b2 bd ee 84 8a 3c
       -0.018992562 0.020394318 -0.08737319 0.016909089
000030 c2 35 db 3d 61 a5 cf bc bd f3 98 3d 69 88 ba 3c
       0.10703613 -0.025347413 0.074683644 0.022770124
000040 3e 02 46 3d c7 b8 84 3c 75 12 51 bd 78 75 9e 3d
       0.048341982 0.01620139 -0.051042993 0.07737249
000050 74 d9 f9 3c d8 0f 09 bd 9b 50 2f bd 18 c9 d0 3d
       0.030499198 -0.033462375 -0.04280148 0.101946056
000060 28 b7 7f bc 79 bc c5 3c 49 4d de bc 40 6c e4 3d
       -0.015607633 0.024137722 -0.027136462 0.111534595
000070 a6 fe 8e bc 11 63 02 3d d2 63 ce bd e9 c6 55 3d
       -0.01745541 0.03183276 -0.10077633 0.05219165
000080 46 41 72 3d 40 1b 47 bd d8 fa d1 bd 4f 19 91 3d
       0.05914428 -0.048609972 -0.10252923 0.07084905
000090 b8 ea 1e bc d3 4c 09 3d e6 58 ec bc 1d 08 48 bd
       -0.009699516 0.03352053 -0.028850984 -0.048835862
0000a0 c3 99 35 bd 47 a6 f8 bc 9d ea 69 3d e4 29 28 3c
       -0.04433609 -0.030352725 0.05710851 0.010263894
0000b0 33 c9 e8 3b e5 d8 ad bd d4 0b bc 3d 3f cc 92 bc
       0.007104063 -0.08488635 0.091819435 -0.017919658
0000c0 dd f0 2b 3d f4 28 89 3d 13 85 cd bc f8 6b 0c bd
       0.041977752 0.06697264 -0.025087869 -0.034282655
0000d0 00 e2 92 3d 91 84 35 bc 37 9c e0 3c 51 27 23 3d
       0.07172012 -0.01107897 0.027418239 0.039832417
0000e0 1c eb a1 bc 13 cf 73 3d 13 c4 7d bd 6e 9f ee bc
       -0.01976543 0.059523653 -0.06195457 -0.029128756
0000f0 98 1f 83 3d dc 53 55 bd f0 23 69 3d b6 6b f2 bc
       0.064025104 -0.052081928 0.05691904 -0.029592376

fc3.weight f4 [1, 64]
000000 2e 41 0d 3e ea 79 c6 3d f9 b4 1e bd b3 80 06 bc
       0.13794395 0.09691222 -0.038746808 -0.008209395
000010 5b e0 c3 bd f8 f6 1f 3d af ad 83 3b 08 f2 3c 3d
       -0.09564277 0.039053887 0.0040185074 0.046129256
000020 63 80 02 3d fe 75 0f 3e 81 0a 35 bb 5a 40 81 bc
       0.03186072 0.14009854 -0.002762467 -0.015777756
000030 63 82 f3 3d c3 8e 4e 3d 52 5b c9 3c 5d dc 2e 3b
       0.11890104 0.050429117 0.024579678 0.002668164
000040 66 2e ac 3c e2 53 d5 3d 78 bb c6 3d 51 14 81 3d
       0.021018218 0.1041639 0.097037256 0.06302703
000050 7d 4d 81 bc 1c e6 60 3d 07 27 c9 3d 3c 00 bc 3c
       -0.01578402 0.05490695 0.09821897 0.02294933
000060 4c 7f 96 3d 5e 91 1e 3d 15 8c c0 bd ea 24 11 3e
       0.07348499 0.03871285 -0.094017185 0.14174238
000070 bb af d5 3d 48 e6 9b 3d 8b 12 9c bd 19 cc f6 bc
       0.104339086 0.07612282 -0.07620724 -0.030126618
000080 19 7f c4 bd 87 e2 f3 bc bf c6 98 bd ce a0 90 3d
       -0.095945545 -0.029771103 -0.07459783 0.07061921
000090 75 2c a5 bd 69 59 a1 3d 41 42 66 3d c7 15 89 bd
       -0.0806512 0.07878382 0.05621553 -0.06693607
0000a0 5b 18 be 3d 0a 49 ab bd d5 15 f7 3b be 75 2a bd
       0.09281989 -0.083635405 0.0075404444 -0.041616194
0000b0 80 f0 9d bd 64 bf 11 3b 78 c8 a2 3d b6 58 c9 3d
       -0.07711887 0.0022239322 0.07948393 0.098313734
0000c0 7d 51 74 bb 3d 7f 40 bc 11 fa 05 3e c8 a5 c6 3c
       -0.0037280016 -0.011749086 0.13083674 0.024248973
0000d0 a4 98 8b 3d 13 a7 2d 3d 95 7f 9c 3c 7e cf 84 3d
       0.06816223 0.042395663 0.019103805 0.064848885
0000e0 1a ee 43 3d 6d e6 c6 bd df 27 87 3d 57 86 f9 3d
       0.047834493 -0.09711919 0.06599402 0.121838264
0000f0 c3 83 82 3d e0 fd 00 3e ec 2e f8 bc 09 ac 0e 3e
       0.06372788 0.12596846 -0.030295812 0.13932814
