checkpoints/model_epoch_20_baseline.pt (torch, 44840 bytes, 5 tensors)

fc1.weight f4 [128, 16]
0	0xbe56ad28	-0.20964491
1	0xbce2a0b0	-0.027664512
2	0xbe42967c	-0.19002718
3	0xbd8e90bc	-0.069612
4	0x3e54325a	0.20722333
5	0x3bb4ee40	0.0055215657
6	0xbe3e9eb2	-0.18615225
7	0x3de0c4a8	0.10975009
8	0x3c945610	0.018107444
9	0x3dee0180	0.1162138
10	0x3d8d8420	0.069099665
11	0xbe432722	-0.19057897
12	0x3dfe89d0	0.124286294
13	0x3dc8d3e0	0.09806037
14	0x3c0fdbc0	0.00878042
15	0xbd5cd990	-0.05391842
16	0xbd7d4c40	-0.061840296
17	0x3e3ca7fe	0.18423459
18	0x3da1e2ac	0.07904562
19	0x3e7fe3ce	0.24989244
20	0xbe1a30f4	-0.15057737
21	0xbd8238cc	-0.063584894
22	0xbe162486	-0.1466237
23	0x3ddde1a8	0.10834056
24	0x3e568b32	0.20951536
25	0xbde1ad90	-0.110194325
26	0xbe0cd02c	-0.13751286
27	0xbe0789a8	-0.13236105
28	0x3e5592c2	0.20856765
29	0x3e017a7c	0.1264438
30	0x3c98c6e0	0.018649518
31	0x3e3281d0	0.17432332
32	0x3e124ea6	0.14287814
33	0xbe5c1a7a	-0.21494475
34	0xbe0db5f8	-0.13838947
35	0xbd813e54	-0.06310716
36	0x3d606598	0.054784387
37	0x3d11e780	0.035621166
38	0xbda863ac	-0.08222136
39	0xbe444b2a	-0.19169298
40	0x3e089d5c	0.13341278
41	0xbda0d6c8	-0.07853466
42	0xbe06ed14	-0.13176376
43	0xbe3734ba	-0.17891207
44	0x3d675ef8	0.056487054
45	0x3da5dddc	0.08098957
46	0x3e029c4a	0.12754932
47	0xbd06fda0	-0.03295672
48	0x3b06d780	0.0020575225
49	0xbe7cee3e	-0.24700257
50	0xbda304f4	-0.07959929
51	0xbd4a4298	-0.049379915
52	0xbd1b7fa8	-0.03796354
53	0x3d496c28	0.04917541
54	0xbce13be0	-0.027494371
55	0xbdf1fd44	-0.11815885
56	0xbe61cc1a	-0.22050515
57	0xbe1b3c72	-0.15159777
58	0xbd3ae6b0	-0.045630157
59	0xbe35a890	-0.17740083
60	0xbda55788	-0.08073336
61	0xbd7e71b0	-0.06212014
62	0xbd9f71e4	-0.07785395
63	0xbe271596	-0.16316828
64	0xb9e65800	-0.00043934584
65	0x3e147bc0	0.14500332
66	0x3e6a8ac8	0.22904503
67	0xbe2e9c9e	-0.17051932
68	0xbb0d1880	-0.0021529496
69	0xbd0326f8	-0.032019585
70	0x3df593a4	0.11991051
71	0x3c5311a0	0.01288262
72	0x3d4ec6d8	0.0504826
73	0x3e712afa	0.2355155
74	0xbe536af0	-0.20646262
75	0xbd9fa60c	-0.07795343
76	0x3e15f9fc	0.14646143
77	0xbe6ee51a	-0.23329583
78	0xbdab95dc	-0.08378193
79	0x3e78fb1c	0.2431454
80	0x3e2c74fa	0.16841498
81	0xbe048278	-0.12940395
82	0x3d9a93c0	0.07547712
83	0xbe386a8c	-0.18009394
84	0xbd614f90	-0.055007517
85	0x3e00863a	0.12551203
86	0xbd7e7a38	-0.062128276
87	0x3e35f56a	0.177694
88	0x3e4c9d42	0.19981864
89	0xbca48480	-0.020082712
90	0x3e5a02f0	0.21290183
91	0xbe396fd8	-0.18109071
92	0x3e2e6eca	0.1703445
93	0x3b4f3380	0.003161639
94	0xbe4b9046	-0.19879255
95	0xbd8be43c	-0.068306416
96	0xbe5e8578	-0.21730602
97	0x3d142d90	0.036176264
98	0xbde0d484	-0.10978034
99	0xbce9d790	-0.028545171
100	0xbe1bf36c	-0.15229577
101	0x3cd37360	0.025811851
102	0xbe3537dc	-0.1769709
103	0x3dc4aea8	0.096036255
104	0x3d6cdb68	0.05782643
105	0x3d0fa188	0.035066158
106	0x3e6c10be	0.23053262
107	0xbe075fd2	-0.13220146
108	0x3dcca460	0.099922895
109	0xbbc80600	-0.006104231
110	0x3ccf1be0	0.025281847
111	0x3e444834	0.19168168
112	0x3e2fac58	0.17155588
113	0x3e59b71c	0.21261257
114	0xbd5575c0	-0.05211425
115	0x3c035da0	0.008017927
116	0x3e209946	0.15683469
117	0xbdc564a8	-0.09638339
118	0x3d190958	0.037362427
119	0xbd2da770	-0.04239601
120	0x3e3e4cbe	0.18583962
121	0x3d919230	0.07107961
122	0x3cb4c830	0.022068113
123	0x3cbc9ed0	0.023024946
124	0xbe795f82	-0.2435284
125	0x3de56a3c	0.11201903
126	0x3d836d10	0.064172864
127	0x3e4e3f4e	0.20141336
128	0x3e58b7d0	0.21163869
129	0xbe7547fc	-0.23953241
130	0x3e6d4182	0.2316952
131	0x3e26afa8	0.16277945
132	0xbdddfcd8	-0.10839242
133	0x3e0a5916	0.13510546
134	0xbe33aaac	-0.17545575
135	0xbe018b8e	-0.12650892
136	0xbd9a3c28	-0.07531005
137	0xbe086a2e	-0.13321754
138	0x3e6faea4	0.23406464
139	0xbe580946	-0.21097288
140	0x3e135f80	0.14391899
141	0xbc970b90	-0.01843813
142	0xbe275f52	-0.16344956
143	0xbe38644e	-0.18007013
144	0xbe4aee7e	-0.1981754
145	0xbe243194	-0.16034538
146	0x3d609c78	0.05483672
147	0x3d468460	0.048466086
148	0xbd89fb10	-0.067373395
149	0xbddeeb84	-0.10884765
150	0x3d9505ec	0.0727652
151	0xbd8c1b44	-0.06841138
152	0x3e2c65b0	0.16835666
153	0xbe558ea0	-0.20855188
154	0x3e03f88c	0.12887782
155	0xbe2a73c8	-0.1664573
156	0xbe7fdb08	-0.24985898
157	0x3d95ff54	0.073240906
158	0xbe4d221a	-0.2003254
159	0xbd971148	-0.07376343
160	0x3e106656	0.14101538
161	0xbe793f54	-0.24340564
162	0xbdcbbb78	-0.09947866
163	0xbb22da80	-0.0024849474
164	0xbd8b2110	-0.067934155
165	0x3d1c0630	0.03809184
166	0xbe20535a	-0.15656796
167	0xbe6d9414	-0.23201019
168	0xbdff85e8	-0.124767125
169	0xbd524c00	-0.05134201
170	0xbdf0e4ec	-0.117624134
171	0xbdd88548	-0.105722964
172	0xbda7855c	-0.08179733
173	0x3e49f000	0.19720459
174	0x3d4a2650	0.049352944
175	0x3e016de0	0.1263957
176	0x3d5e1240	0.054216623
177	0xbd34b300	-0.04411602
178	0xbd48d150	-0.04902774
179	0xbd319298	-0.043352693
180	0x3e7c3d1c	0.24632686
181	0x3dbd66a0	0.0924809
182	0xbe0eb60c	-0.13936633
183	0x3e30b028	0.17254698
184	0xbdbe425c	-0.09290001
185	0xbd3d5830	-0.04622668
186	0xbe727438	-0.23677146
187	0xbcef9a10	-0.029248267
188	0xbe0f8b26	-0.14017925
189	0xbe793292	-0.24335697
190	0x3e7e28dc	0.24820274
191	0x3d982b88	0.07430178
192	0xbd9634f8	-0.07334322
193	0xbe1e9508	-0.15486538
194	0x3e322468	0.173967
195	0xbe6e1c3a	-0.23252955
196	0x3e775998	0.24155271
197	0x3e1c70a8	0.1527735
198	0x3ce9da20	0.028546393
199	0x3d3115b0	0.043233573
200	0x3e1a08f8	0.15042484
201	0xbe03ffb4	-0.12890512
202	0x3d8b2ff4	0.06796256
203	0xbcc531d0	-0.024071604
204	0xbe185542	-0.14876273
205	0xbe3738cc	-0.1789276
206	0x3d500670	0.05078739
207	0x3e351756	0.17684683
208	0x3c7f1380	0.015568614
209	0x3e3a18a2	0.18173459
210	0x3d8606dc	0.06544277
211	0x3dc2f6d0	0.09519732
212	0x3d7c85b8	0.06165096
213	0xbc5f1c00	-0.013617516
214	0x3e22bf4e	0.1589329
215	0x3c9c2340	0.019059777
216	0x3e2d08e6	0.16897926
217	0xbe427af8	-0.18992221
218	0x3e67e826	0.22647151
219	0x3e3dc0b0	0.18530536
220	0x3d9793ec	0.07401261
221	0x3e121fe0	0.14269972
222	0x3dcd5978	0.100268304
223	0x3e47da1a	0.19516793
224	0x3e5dbe44	0.21654612
225	0x3dd2cac8	0.10292584
226	0x3e17251a	0.14760247
227	0x3e72b5de	0.2370219
228	0xbe67e9da	-0.22647801
229	0xbe6c3e88	-0.23070729
230	0xbe3711b4	-0.17877847
231	0xbdcf0554	-0.10108438
232	0xbe1b1f98	-0.15148771
233	0xbc9faa70	-0.01949045
234	0xbd98b580	-0.074564934
235	0x3c712ca0	0.014720112
236	0xbe27fa96	-0.16404185
237	0xbd80822c	-0.06274828
238	0xbd8877c0	-0.066634655
239	0x3da567f0	0.08076465
240	0xbe3bf004	-0.18353277
241	0xbd517628	-0.051138073
242	0x3e33711a	0.17523614
243	0x3dbb2880	0.09138584
244	0xbdb20b78	-0.08693594
245	0x3e1b9070	0.15191817
246	0xbe1540d4	-0.14575511
247	0x3e1faddc	0.15593666
248	0xbe1a8e22	-0.15093282
249	0x3e5fddb8	0.21861923
250	0xbc0613e0	-0.0081834495
251	0x3e09284e	0.13394281
252	0x3e15da16	0.14633974
253	0xbe4d167c	-0.20028108
254	0xbdce15bc	-0.10062739
255	0x3e5f4896	0.21805033

fc1.bias f4 [128]
0	0xbd9d8168	-0.07690698
1	0x3d9ad428	0.07559997
2	0x3c849480	0.016184092
3	0xbc43cb20	-0.011950284
4	0xbe410e76	-0.18853173
5	0xbe5fecd2	-0.21867684
6	0xbc863dc0	-0.016386867
7	0xbdcda628	-0.100414574
8	0xba5c2200	-0.00083974004
9	0xbe466dd6	-0.19377837
10	0xbbe1c4c0	-0.0068899095
11	0x3e56141e	0.20906112
12	0xbe03fc92	-0.12889317
13	0x3e20859a	0.15675965
14	0xbd8b0574	-0.067881495
15	0x3dd5431c	0.10413191
16	0xbd9fc538	-0.07801288
17	0x3c7325e0	0.014840573
18	0xbd50cdb8	-0.05097744
19	0x3e389080	0.18023872
20	0x3d975bfc	0.073905915
21	0x3d6abea8	0.05731073
22	0xbe3948fe	-0.1809425
23	0x3dff7650	0.12473738
24	0xbd7d1378	-0.061786145
25	0x3e1a6868	0.1507889
26	0xbe71e414	-0.23622161
27	0xbce7c870	-0.028293818
28	0x3c760f20	0.0150182545
29	0xbc577280	-0.0131498575
30	0xbe38b06c	-0.1803605
31	0xbe44cc64	-0.19218594
32	0x3e39d45a	0.18147412
33	0x3dcc1f34	0.09966889
34	0x3d922630	0.0713619
35	0x3e691388	0.22761357
36	0xbc59ba60	-0.013289064
37	0x3e6a66c2	0.22890761
38	0xbe12f214	-0.14350158
39	0xbd4b9e20	-0.049711347
40	0x3e010288	0.12598622
41	0xbe3141de	-0.17310283
42	0x3e285a60	0.16440725
43	0x3e6f236a	0.23353353
44	0xbe0f909a	-0.14020005
45	0x3e1ccf26	0.15313396
46	0x3d00f360	0.0314821
47	0x3e45a35a	0.19300595
48	0xbe3fc6f8	-0.18728244
49	0xbe30bf5a	-0.17260495
50	0x3e27e67e	0.1639652
51	0x3c8aafe0	0.016929567
52	0x3e6e27d2	0.23257378
53	0x3e2df058	0.16986215
54	0x3e1b0a4c	0.15140647
55	0x3cc57680	0.024104357
56	0xbe463c0a	-0.1935884
57	0xbe5517b8	-0.20809829
58	0xbd781948	-0.060570985
59	0xbe2733f2	-0.1632841
60	0x3cc7db10	0.02439645
61	0x3d7148b0	0.05890721
62	0x3e34ea1c	0.1766743
63	0x3e4b002e	0.19824287
64	0x3e6aff3c	0.22948927
65	0x3dd01730	0.10160673
66	0xbd11df50	-0.035613358
67	0xbe754126	-0.23950633
68	0xbcbdc5b0	-0.023165554
69	0x3c62c580	0.013841033
70	0xbe4963b0	-0.19666934
71	0xbe3bf330	-0.18354487
72	0x3e245adc	0.16050285
73	0xbe004f9e	-0.12530372
74	0xbc4e3740	-0.012586415
75	0xbdcfc034	-0.10144082
76	0x3da72600	0.08161545
77	0x3d86df28	0.065855324
78	0xbd4522b0	-0.048128784
79	0xbcf77ce0	-0.030210912
80	0xbe06e40e	-0.13172933
81	0xbd1c26d0	-0.038122952
82	0xbc867800	-0.016414642
83	0x3e70acbc	0.23503393
84	0xbcf5da70	-0.030011386
85	0x3e431442	0.19050696
86	0x3e2e9492	0.17048863
87	0x3bdb8c00	0.006700039
88	0x3e518402	0.20460513
89	0xbe232c56	-0.15934882
90	0xbe1b22ca	-0.1514999
91	0x3c2b74a0	0.010464817
92	0x3dfddfdc	0.123962134
93	0xbc50a7c0	-0.012735307
94	0x3d91e040	0.071228504
95	0xbda0f4c8	-0.07859188
96	0xbe799352	-0.24372604
97	0xbe4e29d4	-0.20133144
98	0xbe4c9a3a	-0.19980708
99	0xbdb640d8	-0.08899087
100	0x3dc3ec98	0.09566611
101	0x3e40073c	0.1875276
102	0xbdf6fd30	-0.120600104
103	0xbe24d4c6	-0.16096792
104	0xbde86a18	-0.11348361
105	0xbd24a590	-0.040196955
106	0x3c3a0f40	0.011356175
107	0x3e1453e6	0.1448513
108	0xbe630716	-0.22170672
109	0xbdef3844	-0.11680654
110	0xbd7e3718	-0.06206426
111	0x3bc97c00	0.006148815
112	0x3cb7f400	0.022455215
113	0x3dca58e0	0.09880233
114	0xbda72930	-0.08162153
115	0xbe7f36bc	-0.24923223
116	0x3db09f90	0.08624184
117	0xbe64776c	-0.22311181
118	0x3d487920	0.04894364
119	0xbe1c9e24	-0.15294701
120	0xbd7b0a80	-0.06128931
121	0x3e2cb660	0.16866446
122	0xbdc3f8dc	-0.095689505
123	0x3cb53f30	0.022124857
124	0x3e6a541c	0.22883648
125	0xbe243f44	-0.16039759
126	0xbcfeea30	-0.031117529
127	0xbe5058be	-0.20346352

fc2.weight f4 [64, 128]
0	0xbd459b44	-0.048243776
1	0x3c8e3b3e	0.017362233
2	0x3d94190d	0.072313406
3	0xbd3a9bbb	-0.045558672
4	0xbd47edd0	-0.04881078
5	0xbd60bb2a	-0.054865994
6	0xbd0e0fe4	-0.034683123
7	0x3cffa74d	0.031207705
8	0xbcf58125	-0.029968807
9	0x3d626744	0.055274263
10	0x3c8050c9	0.015663521
11	0x3ca61305	0.020272741
12	0x3d49b13d	0.049241293
13	0x3db7a23d	0.08966491
14	0x3dce0b47	0.10060745
15	0x3cf77e51	0.0302116
16	0x3d5a7bf5	0.05334087
17	0x3c4f1055	0.012638171
18	0x3d3bb7bc	0.04582952
19	0xbd1636e6	-0.03667345
20	0x3c9e8589	0.019350784
21	0x3d77edd5	0.06052955
22	0xbd078246	-0.033083223
23	0x3c82bb57	0.015958471
24	0xbc637a0b	-0.013884078
25	0xbd76c3bd	-0.060245264
26	0x3dbca75a	0.09211607
27	0x3d4d30a8	0.05009523
28	0xbc071123	-0.008243832
29	0x3af47b35	0.0018652441
30	0xbcde1137	-0.027107818
31	0x3d633a4e	0.055475526
32	0xbd923367	-0.071387105
33	0x3bcddbdd	0.0062823133
34	0x3cd0199c	0.025402837
35	0x3cc5da3d	0.024151916
36	0x3d472300	0.048617363
37	0xbd1602c0	-0.036623716
38	0xbd3accb6	-0.045605384
39	0xbd2c3915	-0.042046625
40	0x3dcf5949	0.10124452
41	0xbbbab750	-0.005698122
42	0x3d7b2563	0.06131495
43	0xbcdb1cfa	-0.026747216
44	0x3d4f43ba	0.0506017
45	0x3ba64d63	0.005075143
46	0x3d04c277	0.03241202
47	0x3d09582b	0.03353135
48	0x3da1a190	0.07892144
49	0x3dd12154	0.10211435
50	0x3cceac64	0.025228687
51	0xbd169a8c	-0.03676848
52	0x3c942330	0.018083185
53	0x3daa48c3	0.083146594
54	0x3d936896	0.071976826
55	0x3d44de86	0.048063777
56	0xbd1e4781	-0.03864241
57	0x3cfb5f80	0.030685186
58	0x3dd1ba57	0.1024062
59	0xbd7b073f	-0.061286207
60	0xbd87f89a	-0.06639214
61	0x3d20c27c	0.039247975
62	0x3dbc0342	0.09180309
63	0x3dd6378f	0.10459816
64	0x3dd0861e	0.10181831
65	0x3d5e2110	0.05423075
66	0x3dbc984a	0.09208734
67	0x3d441df4	0.047880128
68	0x3d1862a1	0.037203435
69	0x3dc1d30f	0.09464084
70	0xbbdac34c	-0.0066761132
71	0x3d2e6b89	0.042583022
72	0xbcc5605b	-0.024093797
73	0xbd3ddf23	-0.046355378
74	0xbd83dde0	-0.06438804
75	0x3d7e2d67	0.062055018
76	0x3d38e1bc	0.045137152
77	0xbc9b23eb	-0.018938025
78	0xbd6d4020	-0.057922482
79	0x3d02a1a5	0.031892437
80	0x3dd257e4	0.1027067
81	0xbd7bc394	-0.061465815
82	0x3d9258b2	0.071458235
83	0x3c9b2adc	0.018941335
84	0xbd190ce2	-0.0373658
85	0xbc846b8d	-0.016164565
86	0xbd41d15a	-0.047318794
87	0x3d62d7ca	0.055381574
88	0x3c1068e3	0.008814069
89	0x3d315d12	0.04330165
90	0x3dca2323	0.09869983
91	0xbd754687	-0.059881713
92	0xbd5b2598	-0.05350265
93	0x3c85873f	0.016299842
94	0x3d27d2bd	0.04097246
95	0x3c376b2e	0.011194987
96	0xbd120e2c	-0.035658047
97	0xbd1108e9	-0.035408888
98	0x3d02a397	0.031894293
99	0x3d8c445a	0.068489745
100	0xbce774c0	-0.028253913
101	0x3dd51beb	0.104057156
102	0x3d10697e	0.035256855
103	0x3d8357f3	0.06413259
104	0x3d2e3833	0.042534065
105	0x3dcc668f	0.09980499
106	0x3cdfe02f	0.027328579
107	0xbd6ea48b	-0.05826239
108	0x3d47f904	0.048821464
109	0x3cce9cbb	0.02522122
110	0xbd4e2a63	-0.050333392
111	0xbcf57e4b	-0.029967448
112	0xbcf70237	-0.030152423
113	0x3d4b9cca	0.049710073
114	0xbd301d63	-0.042996775
115	0xbcc930f0	-0.024559468
116	0xbd0c5dbd	-0.034269083
117	0x3dc9d6f3	0.098554514
118	0xbd867aa0	-0.065663576
119	0xbd50e325	-0.050997872
120	0x3bdfbf87	0.0068282518
121	0xbc441a6a	-0.011969188
122	0x3d5afc0f	0.053463038
123	0x3c5f2a73	0.0136209605
124	0x3d71a651	0.058996502
125	0x3cd57427	0.026056362
126	0x3c01f662	0.007932277
127	0xbbcd4dc0	-0.006265372
128	0xbca005eb	-0.019534072
129	0xbcaa04a8	-0.020754173
130	0x3d64f418	0.05589685
131	0x3da64afe	0.081197724
132	0xbd639af8	-0.05556771
133	0xbd4a5c3f	-0.04940438
134	0x3dcd98ad	0.10038886
135	0x3b58e5ed	0.003309603
136	0xbd0bba08	-0.03411296
137	0xbd698271	-0.057009164
138	0x3d6abbc1	0.057307962
139	0xbafe9888	-0.001942412
140	0x3d9b9fa3	0.07598808
141	0x3d69128f	0.056902464
142	0x3c3459b4	0.011007715
143	0x3dd63891	0.10460008
144	0x3d5b2c76	0.053509198
145	0x3d3497c6	0.044090055
146	0xbd35e8b7	-0.044411387
147	0x3ca6e382	0.020372156
148	0xba0f47f3	-0.00054657384
149	0x3d652c5d	0.05595051
150	0x3dbca427	0.09210997
151	0x3d2d6806	0.042335533
152	0xbd0729c0	-0.0329988
153	0xbbc0a68d	-0.0058792294
154	0xbc17a6bf	-0.009256064
155	0xbbd429d3	-0.0064747124
156	0x3d66cfb2	0.056350417
157	0x3d950cdf	0.072778456
158	0xbccac724	-0.02475316
159	0xbd1044a0	-0.035221696
160	0xba79d0ce	-0.00095297105
161	0x3c6cc7a2	0.014451893
162	0x3d86d226	0.065830514
163	0xba5211eb	-0.0008013534
164	0xbd5f7f7b	-0.054564934
165	0x3d56ee5c	0.05247341
166	0xbc595705	-0.013265376
167	0x3dd43e82	0.10363485
168	0xbd4231b6	-0.04741069
169	0x3ca61f0b	0.020278474
170	0xbcf34bda	-0.029699255
171	0x3dab4b3c	0.08363959
172	0x3d96f61b	0.0737116
173	0x3db10751	0.086439736
174	0x3d809286	0.06277947
175	0x3b283702	0.0025667553
176	0x3d45019e	0.048097245
177	0xbd206203	-0.03915597
178	0x3dd49df1	0.103816874
179	0xbd858d63	-0.06521108
180	0x3d8cdfb6	0.06878607
181	0x3d116374	0.035495237
182	0x3c60650e	0.013695968
183	0x3d839d17	0.06426447
184	0x3dab1217	0.0835306
185	0x3d494433	0.049137305
186	0x3dc4a947	0.096025996
187	0x3d57937a	0.05263088
188	0xbd306a0e	-0.04306989
189	0x3d043c29	0.032283936
190	0xbd87d6b1	-0.06632746
191	0xba92271e	-0.0011150574
192	0xbc459914	-0.012060422
193	0xbd85c633	-0.06531944
194	0xbcd07cb5	-0.02545009
195	0x3d9eb8a3	0.077500604
196	0xbd2e489f	-0.042549726
197	0xbd351ee6	-0.04421892
198	0x3d417e8e	0.047239833
199	0x3cb07bc6	0.021543395
200	0xbcbac791	-0.022800239
201	0x3d094edf	0.033522483
202	0x3d09ce90	0.03364426
203	0xbd234123	-0.03985704
204	0xbd8a48c3	-0.067521594
205	0x3da60073	0.081055544
206	0xbd52bce8	-0.051449686
207	0xbcddc4d7	-0.0270714
208	0xbd581a69	-0.05275956
209	0x3da1a6b0	0.07893121
210	0x3d9d1f22	0.07671954
211	0xbc6cb132	-0.0144465435
212	0xbd5e656c	-0.054295942
213	0xbd7cec62	-0.06174887
214	0x3dc16cab	0.09444555
215	0xbd196aa0	-0.0374552
216	0x3dc49f7b	0.09600731
217	0xbd2a5d0b	-0.04159264
218	0x3dadc1e8	0.0848425
219	0xbd8f95d6	-0.07011001
220	0x3d1a44d4	0.037663296
221	0xbd3616e1	-0.044455413
222	0xbd5ad5c7	-0.05342653
223	0x3d8c6a02	0.06856157
224	0x3db484ac	0.08814368
225	0xbcc44d79	-0.023962723
226	0xbd8c6d40	-0.06856775
227	0xbc40d1bb	-0.011768754
228	0xbc9fe1da	-0.019516874
229	0x3c739eb1	0.014869378
230	0x398d0776	0.00026899175
231	0x3bf6ce56	0.0075319214
232	0x3cf5da61	0.030011358
233	0x3d743739	0.059622977
234	0x3ac98432	0.001537448
235	0xbd518bb8	-0.051158637
236	0xbd89105e	-0.06692575
237	0x3d9c9832	0.076462165
238	0xbd41552e	-0.047200374
239	0x3d5407cc	0.05176525
240	0x3d378169	0.04480115
241	0x3c51b2e2	0.012798997
242	0x3d2b6dd2	0.04185278
243	0xbd882e34	-0.066494375
244	0x3d9d2b7d	0.0767431
245	0xbd8ee762	-0.069777265
246	0xbbde26a4	-0.0067795087
247	0x3d5a16a4	0.053244248
248	0xbd13a83a	-0.036049105
249	0x3d7a76d5	0.061148483
250	0xbbc8efef	-0.006132118
251	0xbd0c6ec5	-0.034285326
252	0xbb935aba	-0.0044968994
253	0x3c4a4cb1	0.012347386
254	0x3dba3233	0.09091606
255	0x3d65950a	0.056050338

fc2.bias f4 [64]
0	0x3ce639bb	0.0281037
1	0xbc314f51	-0.010822133
2	0xbca4c023	-0.02011115
3	0xbd9d7ab8	-0.07689422
4	0xbba1e814	-0.004940996
5	0x3d3df519	0.04637632
6	0xbcfa979a	-0.030589867
7	0xbd873581	-0.06602002
8	0xbc81d7cb	-0.015849968
9	0x3c766795	0.015039344
10	0xbdae96d4	-0.08524862
11	0x3ca123eb	0.019670447
12	0x3dcf80bb	0.10131975
13	0xbcfc9be4	-0.030836053
14	0x3d8cf756	0.06883113
15	0x3cceeef2	0.025260422
16	0x3d334aff	0.043772694
17	0x3c3035c0	0.0107550025
18	0xbd6c9db1	-0.057767574
19	0x3d8fe36e	0.07025801
20	0x3cfe727f	0.031060455
21	0xbd20dba8	-0.03927198
22	0xbd451d5e	-0.04812371
23	0x3dcbc04e	0.099487886
24	0xbcb54bde	-0.022130903
25	0x3ca1993c	0.019726388
26	0xbcbeac97	-0.023275657
27	0x3dd8c044	0.10583547
28	0xbcc2ecad	-0.023794496
29	0x3cd5e497	0.026109977
30	0xbdc3f496	-0.095681354
31	0x3d64ebae	0.055888824
32	0x3d84f4b9	0.0649199
33	0xbd412502	-0.047154434
34	0xbdcc75ba	-0.09983392
35	0x3d875e6e	0.06609808
36	0xbbcec28a	-0.006309812
37	0x3ce3fdb4	0.027830936
38	0xbd0b8602	-0.034063347
39	0xbd4330e8	-0.047654063
40	0xbd4d5f2f	-0.050139602
41	0xbcdf5c91	-0.027265819
42	0x3d720cd3	0.05909426
43	0x3c495b28	0.0122898
44	0x3c498e18	0.012301944
45	0xbdaa37d8	-0.083114326
46	0x3db0749d	0.08615992
47	0xbcc61396	-0.024179261
48	0x3d34694c	0.04404573
49	0x3d914196	0.07092588
50	0xbcfabd04	-0.030607708
51	0xbd237286	-0.03990414
52	0x3d872ba2	0.06600119
53	0xbc87f71d	-0.016597325
54	0x3cb80490	0.022463113
55	0x3d4bb471	0.04973263
56	0xbcd45aac	-0.025922142
57	0x3d7f49a3	0.062326085
58	0xbd86d1e3	-0.065830015
59	0xbd0db4d1	-0.034596268
60	0x3d6f135b	0.05836807
61	0xbd6b264a	-0.057409562
62	0x3d7ec14c	0.06219606
63	0xbd12f878	-0.03588149

fc3.weight f4 [1, 64]
0	0x3e1087ff	0.14114378
1	0x3dd33a56	0.10313861
2	0xbd21b4a8	-0.039478928
3	0xbc5aac02	-0.013346674
4	0xbdc5bb08	-0.09654814
5	0x3d1c05c7	0.038091447
6	0x3a9ed212	0.0012117049
7	0x3d4d0bd8	0.050060123
8	0x3d2a7895	0.041618902
9	0x3e136d31	0.14397122
10	0xbc3a494d	-0.011370015
11	0xbc951055	-0.018196264
12	0x3dfba765	0.12287787
13	0x3d5d5754	0.05403836
14	0x3ce33022	0.027732912
15	0xbadac185	-0.0016689753
16	0x3ca85f99	0.020553397
17	0x3dd9f3f6	0.10642235
18	0x3dd48a3d	0.10377929
19	0x3d81e764	0.063429624
20	0xbc8a7652	-0.016902123
21	0x3d5c32be	0.05375933
22	0x3dcf7542	0.10129787
23	0x3cefc6e2	0.02926964
24	0x3da55340	0.08072519
25	0x3d1a96d9	0.037741516
26	0xbdc6bec8	-0.097043574
27	0x3e11e4ce	0.14247438
28	0x3dd9f622	0.10642649
29	0x3dad2759	0.084547706
30	0xbda028a5	-0.07820252
31	0xbd0afee5	-0.033934493
32	0xbdcf68de	-0.10127424
33	0xbd079ab4	-0.03310652
34	0xbd9e26d4	-0.077222496
35	0x3d9c9210	0.07645047
36	0xbdaab8b6	-0.08336012
37	0x3da248cd	0.07924042
38	0x3d7e013c	0.062012896
39	0xbd8983ad	-0.06714568
40	0x3dc0dd6b	0.09417232
41	0xbdb36901	-0.08760262
42	0x3b40a29d	0.00293938
43	0xbd3657d4	-0.044517353
44	0xbda78bff	-0.08180999
45	0x393c38e0	0.00017950265
46	0x3da6e344	0.08148816
47	0x3dd45e77	0.1036958
48	0xbbde4ae8	-0.006783832
49	0xbc759bc1	-0.014990748
50	0x3e085c72	0.13316515
51	0x3cfe1650	0.031016499
52	0x3d91bea5	0.07116441
53	0x3d4a0fc1	0.04933143
54	0x3cb11a0c	0.021618865
55	0x3db881fa	0.09009166
56	0x3d4e2c81	0.05033541
57	0xbdc9003e	-0.09814499
58	0x3d97c847	0.07411247
59	0x3e0051a4	0.12531143
60	0x3d8375a8	0.064189255
61	0x3e07eeb3	0.1327465
62	0xbd109856	-0.03530153
63	0x3e137184	0.14398772
