checkpoints/model_epoch_100_policy.pt (torch, 482106 bytes, 13 tensors)

customer_encoder.conv1d.weight f4 [128, 1, 14]
00000000: ff5c 513e 2832 633e 0327 80bd 13e4 753e
00000010: 2995 80bd 961f 5d3d a922 0abe f944 233e
00000020: e109 6e3e 6b87 4cbe 43d4 6a3e a63a 403d
00000030: 184e 453e b2cd 0e3d c4fb 033e f685 1abd
00000040: c5f6 523e 6af4 333d 4940 f8bd e639 8d3d
00000050: 01ce f6bd 729b 00bd bcb2 dbbd bbe7 373e
00000060: f274 57be 6e7e f9bd aa87 94bd 9104 22be
00000070: 900f ce3c c127 87be 5129 773e 9bc5 6ebe
00000080: f93c 4e3e b4a6 373d 3a54 bdbd ce4e 2c3e
00000090: 5ce4 1a3d 5ea0 583e 7549 cf3c 997d b4bd
000000a0: efc4 873d 8b9d 96bd 5d6c e63d ae50 743e
000000b0: c92a 1e3e bead ebbd a3f1 1e3e 7b98 363d
000000c0: f3ca 113e 8b3d 2cbe 5e41 84be 1bd5 c8bd
000000d0: 74d4 4bbe ca2a 663e 0809 a93d 15d2 db3d
000000e0: a41a ad3d 3be6 96bb da29 563e 098e 47be
000000f0: 2f17 523c 9c0c 3abe e163 9d3d e5f8 b5bd
00000100: a166 9f3d f178 74bd f7fd 5e3e adfe 25be
00000110: 0296 28be 129a 23be 1f23 763e 0666 b63d
00000120: 03aa 833e ecc4 61be e699 87be 0e6e 53be
00000130: e2ea 3abe 104c e33d 00bf bd3d 9989 613e
00000140: a06c 11be 6584 3dbe 4cdc 0e3e fd47 d8bd
00000150: 221e 263e 51e4 81bd 3f8e 1c3e 6680 5bbe
00000160: 14d0 0fbe ab3c a53d f3b6 533d 0d26 87bd
00000170: e23c 203e 1a2d 363e 1e75 49be ee2a 15be
00000180: bca5 753e 4206 bdbd c505 c2bd ba65 84be
00000190: 4aaa 1cbe 556f 7d3d c186 1fbd bd7f 44be
000001a0: fa23 4aba f5f0 35be df1c 6ebe 9803 1cbe
000001b0: b5df 74be 0f9f 33be 5573 853e daa6 513d
000001c0: 6db0 a83d a33a 7fbe 39c2 33be 53c3 b6bd
000001d0: 0ae8 293d 9319 6dbe d99b f5bd 7c3f 1fbe
000001e0: 104b 79bb 6f38 d2bd 8b0a c4bc c4f9 3dbe
000001f0: 6ae8 3fbe 1543 1cbe 3067 bbbd b0fe 57be
00000200: f48c 653e 24fb 72bd 1e79 663e 2827 ae3d
00000210: b4fd 6ebe e52a 423e 9b1e a2bd 1d90 ddbd
00000220: bfb7 68be aec8 8abe 325e 8e3d 3f13 6fbd
00000230: c906 d53d 9597 60be 762c 4b3e 3d37 4dbe
00000240: e776 52bd 6d45 5c3d 22b7 0d3e 7158 5b3e
00000250: d33d 7a3e 3a2f 58be 78ec 8b3d 4e26 eabd
00000260: 36c0 f6bc b1de 4fbe c64a 793e afe0 48be
00000270: 7736 123e 1a85 cf3d 403e be3d 64c9 14be
00000280: 54d3 7f3e 9def 603d a3f6 213d d3e7 6abe
00000290: 7e30 f03d 85b5 0fbd 977e ecbd 26a5 6c3e
000002a0: 1ae5 733d e960 17be a979 0abe f4c7 ebbb
000002b0: c080 1d3e 016c 88bd cf65 19be 200a bcbd
000002c0: c6a6 4bbe 4db0 c73d 2d51 543e a646 80be
000002d0: 3ee8 843d 6402 103e d280 463d 5de1 c2bd
000002e0: e8d0 0e3e 1d53 123e 4113 d03d 5e11 50bd
000002f0: 5911 82bd be9e b83c f251 24bd d6d9 96bd
00000300: cf62 363e 8bf1 713e dfa5 a4bc 3389 83bd
00000310: de32 7f3b 934d 82bc 4793 833d c5f0 9e3d
00000320: 0334 76be 7fcf c6bd bde5 663e 59f5 d63d
00000330: 9c6c 67bc d846 24be 7cc6 28be fcd2 75be
00000340: 0e55 b1bd e86b bd3d 907c 2e3e 45b5 fc3d
00000350: 37eb 71be ea3a 2abe 6e24 40bd 142e 833e
00000360: 778e 143d fcf9 8dbd 4045 e03d a378 d4bd
00000370: f4e1 31be 0f7b 463e dfb1 ffbd b3c9 67bd
00000380: 3920 88be 6826 373e 9d58 4f3e 89db cc3d
00000390: 63f9 3bbe 7e6d 86be 3766 5fbe fbb1 4c3e
000003a0: 30f9 013e 9061 653e cf4e 0e3e 7a62 893d
000003b0: 4ffe 3fbb 681b 4ebe 0389 6abe eefe 7fbe
000003c0: e5fd df3d 3605 03be 7d92 52bd ccc8 20be
000003d0: f633 28bd b899 46be 4199 2bbe f084 c13d
000003e0: f49d 95bd e541 2f3e 95db a1bd 2e73 4bbe
000003f0: ff57 41bd b49f 04be f970 a7bd 5ff6 84be
0.20445631 0.22187102 -0.06257441 0.24012785 -0.0627845 0.0539852 -0.13489784 0.1594428
0.23245956 -0.19973533 0.22932534 0.04693093 0.19268072 0.034864135 0.1288901 -0.03772541
0.20601948 0.043934263 -0.121216364 0.06895809 -0.12051011 -0.031398244 -0.1072745 0.17959492
-0.21040705 -0.12182318 -0.07252438 -0.15822054 0.025153905 -0.26397517 0.24136855 -0.23317568
0.20140447 0.044836715 -0.092445806 0.16826937 0.037815437 0.21154925 0.025303582 -0.08813018
0.06629359 -0.07354268 0.112511374 0.23858902 0.15446009 -0.11507748 0.15521865 0.04457901
0.14237575 -0.16820352 -0.2583112 -0.09806272 -0.19905263 0.2247726 0.08253676 0.10733429
0.08452347 -0.0046050823 0.20914403 -0.19487776 0.01282291 -0.18168873 0.07685066 -0.088853635
0.07783247 -0.05968565 0.21776567 -0.16210432 -0.16463473 -0.15976742 0.24036835 0.08906178
0.25715646 -0.22047776 -0.26484603 -0.20647451 -0.18253663 0.11098492 0.09264946 0.22025146
-0.14201593 -0.18507536 0.13951224 -0.10560606 0.16222432 -0.06342376 0.15288638 -0.21435699
-0.1404422 0.08068212 0.051688146 -0.065990545 0.15648225 0.17790642 -0.19673583 -0.14567158
0.23989004 -0.09229709 -0.09473757 -0.2585886 -0.15299335 0.061873753 -0.03894687 -0.19189353
-0.00077110494 -0.17767699 -0.23253201 -0.15235746 -0.23913462 -0.17541145 0.26064554 0.051184513
0.082367755 -0.24924712 -0.17554559 -0.08923974 0.041481055 -0.23154287 -0.11992616 -0.15551561
-0.0038039126 -0.1026467 -0.023930809 -0.1855231 -0.18741003 -0.15259965 -0.09150541 -0.2109325
0.2241705 -0.059321538 0.2250714 0.08503562 -0.23338968 0.18961675 -0.07915994 -0.10818503
-0.22726344 -0.2710623 0.0695156 -0.058367964 0.10401685 -0.21932824 0.19841179 -0.20040603
-0.051382925 0.053777147 0.13839391 0.21420456 0.24437647 -0.21111766 0.06832212 -0.11433087
-0.03012095 -0.20299794 0.2434493 -0.1961696 0.14278589 0.10132809 0.09289217 -0.1452995
0.24982959 0.054916013 0.03954185 -0.22939996 0.11727999 -0.03508522 -0.115475826 0.23109874
0.05954466 -0.14783062 -0.13522972 -0.007195467 0.15381145 -0.06661225 -0.14980243 -0.09181619
-0.19887838 0.097504236 0.20734091 -0.250539 0.06489609 0.14063412 0.048462696 -0.09515641
0.13946879 0.14289518 0.101599224 -0.050797813 -0.06350965 0.022536632 -0.04011721 -0.07365768
0.1781113 0.23627298 -0.020098625 -0.06422653 0.0038940231 -0.01590613 0.06424575 0.07760767
-0.24043278 -0.097075455 0.22548576 0.10496015 -0.014125016 -0.1604265 -0.16481966 -0.24006265
-0.08658801 0.09249097 0.17039704 0.12339262 -0.23624884 -0.16624036 -0.046909742 0.25621092
0.036268678 -0.06932446 0.109507084 -0.10374572 -0.1737135 0.1938288 -0.12485098 -0.05658884
-0.26587084 0.17885745 0.20248647 0.100028105 -0.18356852 -0.2625541 -0.21816336 0.19989769
0.12692714 0.22400498 0.1389725 0.06708236 -0.0029295867 -0.20127642 -0.22903828 -0.24999592
0.109370984 -0.12794957 -0.051409233 -0.15701598 -0.04106518 -0.19394577 -0.1675768 0.09449184
-0.07305518 0.1711498 -0.0790321 -0.19868156 -0.04720306 -0.12951547 -0.08175845 -0.25969216

customer_encoder.conv1d.bias f4 [128]
00000000: 9589 78be c5a0 713e e3e2 a6bc 1f52 07be
00000010: 88b3 bbbd 3dbe 55be 8284 553e be95 6dbd
00000020: d5d3 19be df90 4fbe 62ed 1f3e 226c 17bd
00000030: 7c21 e6bc 67ad 8ebd 021b 04be ab8c 423d
00000040: 8186 523e 86a8 1ebe c96f 513c b321 50be
00000050: b550 00be 8e36 703e 865a 393b e6ca 833e
00000060: cdcc 3fbd 2831 15be eb7b 23be cb7a 723e
00000070: 866d 52be 229b 0f3e 1ae4 873d 3f87 a13d
00000080: 716b 1a3e 9c2a 8fbd 055a 293e 6f10 5abe
00000090: b2a4 c0bd df57 483e 0c53 a23d 1daf 11bd
000000a0: e385 7fbd 0d1b 27be 1c6e 263e 620d 0bbc
000000b0: 8592 14bc 425c 813d 4ffa 493e 999c 0bbe
000000c0: 7087 bcbd 9973 393e f393 1a3e a0a7 06be
000000d0: ac5f 87be 4238 4b3d 05ce 0f3e d59b 823d
000000e0: 5727 423e 5228 59be 8f01 0a3e 5220 2abe
000000f0: 10fc 193e 818e 4b3e 3f61 ad3d e86c 5d3e
00000100: d872 34be 27cf 74be df8e 83be 7cc7 2b3e
00000110: 57d9 bf3d 785c 48be 5075 043e 78b3 793e
00000120: d6ef 86be c588 463e b2d4 273d 8d55 cb3c
00000130: cd3f 763e 04d5 773e ac8d e63d 7e42 583e
00000140: 46b0 e33d a866 323d 528b 70be 3f85 4c3d
00000150: ebb2 42be 50a1 a83d 7f88 403d f5b1 c33b
00000160: 9413 3bbe b0d8 25be e556 4a3e 6a3d 053e
00000170: 8f4b 103e 3604 a3bd da9b 3cbd 0515 8cbd
00000180: 3a29 3c3e 6b47 ecbd bd6b 2c3e ada8 3c3e
00000190: 9c43 7abe 84a3 bf3a 4b3d 50bd 9d62 17be
000001a0: f039 ec3d 8904 05bd 5fa0 6f3e cf4b 2bbe
000001b0: 8f75 fe3d ec9e 69be 1a1a 09be 2155 953c
000001c0: d030 583e c727 103e adb7 60be 28e6 f23c
000001d0: e749 21be 0004 3e3c 2e01 64be 2d89 a0bd
000001e0: acb6 3b3e d313 7bbe 276b 82be 2d37 473d
000001f0: 612c 163d c352 48bd a606 6f3e e7cc 24be
-0.24271233 0.23596485 -0.02037186 -0.1321492 -0.09165102 -0.20873351 0.20851329 -0.058004133
-0.15022214 -0.20270108 0.15617898 -0.036968358 -0.028092138 -0.069666676 -0.12900928 0.047497433
0.20559122 -0.15493974 0.012782999 -0.20325355 -0.12530787 0.23458311 0.0028282716 0.25740737
-0.046826173 -0.14569533 -0.1596524 0.23679654 -0.20549592 0.14024022 0.06635304 0.07887124
0.15080048 -0.06990549 0.16538246 -0.21295331 -0.09406413 0.1956477 0.07925996 -0.03556739
-0.062383544 -0.16318913 0.16252941 -0.008487077 -0.009068136 0.06316425 0.19724391 -0.13633956
-0.0920552 0.18110503 0.150955 -0.13149881 -0.2644018 0.0496142 0.14043434 0.06377379
0.1896032 -0.21206787 0.13477157 -0.16613892 0.1503756 0.1987858 0.08465814 0.21623576
-0.17621934 -0.23907147 -0.2569494 0.16775316 0.09367626 -0.19566524 0.12935376 0.24384868
-0.26354855 0.19388111 0.040974326 0.024821067 0.24047776 0.24202353 0.112574905 0.21119115
0.11117606 0.043554932 -0.23490646 0.04993176 -0.19013564 0.08233893 0.047005173 0.005972142
-0.18269187 -0.16195941 0.1975971 0.13011709 0.14091323 -0.079597875 -0.04604707 -0.06839947
0.18375102 -0.115370594 0.16837974 0.1842372 -0.24439853 0.0014620875 -0.050839704 -0.14783712
0.11534488 -0.03247503 0.2340102 -0.16728137 0.12424766 -0.2281453 -0.13388863 0.01822907
0.2111237 0.14077674 -0.21945067 0.029650763 -0.15750848 0.011597633 -0.22266075 -0.07838664
0.18331403 -0.24519281 -0.25472376 0.048636604 0.036663417 -0.048907053 0.2334238 -0.16093789

vehicle_encoder.lstm.weight_ih_l0 f4 [512, 2]
00000000: 035c 41bd 85c1 70bd 4943 11bc 7bdb 85bc
00000010: d6cf 543d 5e5f 0bbc f46c 0e3d e109 f4bc
00000020: d8ac a13d aea2 a63d 9c55 9bbd 5a4e bebc
00000030: 3343 88bd 95a8 413d e300 98bd db3e 17bd
00000040: 130b b33d aaf7 aebd 167b 7f3d 8fca a83b
00000050: 54bc 9d3d 33ec 18bd 52bd 7d3d 5704 6e3c
00000060: cc57 5a3c dbbe 893d 98c8 adbd 5bed 91bd
00000070: cba5 aa3d 4276 62bd a19c 6abd 20d1 403b
00000080: 2ad6 e2bc b61c 02bc bb25 54bd 5010 263d
00000090: 8460 98bd 7321 203c d8f7 453d 254e 513c
000000a0: d4ba 753c d888 133c 1f05 c3bc 5d54 67bc
000000b0: e6ce 02bd 704c 5bbd 4122 33bd b5a9 c13d
000000c0: 7a0c 1ebc a22b 133d 8f40 823d 0de6 c7bb
000000d0: e5fa 4cbd 0a11 7dbd 5b84 e1bc 586c 0a3d
000000e0: 1741 8dbd 08e0 8cbb 29d2 273d 7ea1 a43d
000000f0: 6d31 0b3d a133 bf3c 5b0a 7e3d 35a4 3a3d
00000100: 1004 d73c e79c febc 5980 8bbd 7b9a 87bc
00000110: 24ce 69bc 4f5a e03b 491d 2bbb 339d 2c3d
00000120: c3b2 883d 7af5 d8bc eab6 9bbd 69da 1cbd
00000130: 89fc 0bbd 204b 703d aa84 70bd 7e87 72bb
00000140: a430 82bc 8d30 49bd 822c 483d 7b89 e0bc
00000150: c44c b6bb d684 80bd 6123 27bc 4d75 4b3c
00000160: 916d babb 673a 0bbd 0c18 cf3c 0bb2 b2bc
00000170: d41f 2ebd 7503 70bd 7a21 7abc ba62 acbd
00000180: 0806 a63d 6ac6 0cbd 2dcd e4bc 826c 633c
00000190: 21d4 c93c d756 12bc d1d4 8c3d dfc5 30bd
000001a0: 4dd8 263d a05a 023c e6f6 91bd acd7 01bd
000001b0: e9c6 f43c 5644 c63c 80a1 943d 584b 8b3d
000001c0: ebf6 36bd a418 07bd b206 b8bc 9616 8abd
000001d0: e68b e0bc 90b2 96bd 8a80 223d e883 8e3d
000001e0: a231 7d3c 3b77 65bd a047 8fbd 1521 08bd
000001f0: 76e4 d93c 57d5 fe3b 2f81 7a3c e329 a73d
00000200: 0789 433d 2c9d cb3c d234 0ebc da6b 513d
00000210: 1d2e 0c3d 6258 9cbd 0707 44bd 8e67 253c
00000220: 8068 f53c 0696 293d f1f9 5fbd fc93 b7bd
00000230: 55f3 143a cf0d 33bb a30b f63c bb8a a8bc
00000240: 2b9c 893d 0c35 ac3b e57a 803d d0fe 82bd
00000250: 8d17 363d 776b ac3c be66 1dbd 8dd3 423d
00000260: 1569 afbd 5132 a33d df31 f13b 68df 003c
00000270: 49f1 213d 8a05 e63b 5803 133d 7fd5 603d
00000280: ba89 8dbd 300b 7b3d 37f9 1abc 4e8a 89bc
00000290: 7031 d83c 5274 a03d 5655 4bbd 5d24 7dbd
000002a0: 4cdf 623d 2529 2fbd 0ab1 d93c 9a82 74bc
000002b0: acfe aa3c df0c 933d 5669 3fbd 26a8 2cbd
000002c0: 66a7 263d e1cd ed3b f2c6 35bc 3059 9fbd
000002d0: e362 a83d 8e6f 093b cb70 4dbc 2693 00bd
000002e0: 1dd8 8ebc 6a0d 293d f833 5bba 2f5f a73d
000002f0: 08b5 863a f442 94bb 3fd4 6e3d 6762 ca3b
00000300: fd6d b0bc c334 d83c 4b9e 9e3d f2d0 f23c
00000310: 89e3 833d 16a4 733d f93e 0a3d 19cc 213d
00000320: 6272 ea3c fbb1 313c be64 a53d 6191 b53d
00000330: 962a 1b3d efa9 1e3b 901c aa3d 5238 85bd
00000340: cf97 973d 5fd9 663d 489e 863d 05c3 583b
00000350: b792 76bd 1899 833d f785 05bd bdfd f43c
00000360: a1a0 683d 3a92 98bd e703 513b 0dd2 ddbc
00000370: 076f 903d 7e3e 3fbd 1a57 6d3d 58e5 793d
00000380: ef87 663d 5008 bf3d 9a2c a63c 3ff0 93bd
00000390: 6746 7b3d c151 e03b f0b0 8f3b 8fc1 a5bd
000003a0: c915 aebc 5f0a 3abd 8307 b33d d3db 823d
000003b0: a023 973d 2216 8d3d 63d8 58bd 36e6 fabc
000003c0: 9eca d7bc 81cd ddbc 5d35 833d c126 ce3c
000003d0: 28d5 8f3d b8fb 1ebb 96ba 95bd 7263 9ebc
000003e0: c9a5 8a3d 2cf5 693d 7249 c33c d742 edbc
000003f0: a046 a6bd 5b21 3cbd af68 5e3d 92d5 dabc
-0.04720689 -0.058778305 -0.00886614 -0.016340008 0.05195602 -0.008506624 0.034771875 -0.029789867
0.078942955 0.081364974 -0.07584688 -0.02323072 -0.06653442 0.047279913 -0.07422044 -0.036925178
0.087423466 -0.08543332 0.062373243 0.0051511 0.07701936 -0.037334632 0.061948128 0.014527402
0.0133265965 0.06725856 -0.08485526 -0.0712535 0.08332404 -0.05528856 -0.05727828 0.0029421523
-0.027690012 -0.0079414155 -0.051793795 0.0405429 -0.07440284 0.0097736 0.048332065 0.012774979
0.014998157 0.009004794 -0.023806153 -0.014119235 -0.031935595 -0.053539693 -0.04373384 0.09456197
-0.009646529 0.035930283 0.0635997 -0.0061004222 -0.05004396 -0.061783828 -0.027528932 0.03379473
-0.068971805 -0.0042991675 0.04097191 0.08038615 0.033982683 0.023340048 0.062021594 0.045566756
0.026247054 -0.031080676 -0.0681159 -0.016553154 -0.014270339 0.006846703 -0.0026109985 0.042142104
0.06674721 -0.02648424 -0.076032475 -0.03829423 -0.034176383 0.058665395 -0.05872027 -0.003700703
-0.015892334 -0.049118567 0.04887057 -0.027409306 -0.0055633504 -0.062753364 -0.010201306 0.012418103
-0.005689331 -0.033991244 0.025280021 -0.021813413 -0.042510822 -0.058597047 -0.0152667705 -0.08417268
0.08106619 -0.03436891 -0.027929867 0.013880851 0.024637284 -0.008931837 0.06876529 -0.043157455
0.040733624 0.007956177 -0.0712717 -0.03169982 0.029880004 0.024202507 0.07257366 0.0680148
-0.044669073 -0.032982484 -0.02246413 -0.06742589 -0.027410459 -0.07358277 0.039673366 0.06958753
0.015453728 -0.05602191 -0.06996083 -0.033234674 0.026598196 0.007776897 0.015289589 0.08162286
0.0477381 0.024855219 -0.0086795855 0.051128246 0.034223665 -0.07634045 -0.047858264 0.01009549
0.029957056 0.04140284 -0.054681722 -0.08963773 0.0005682011 -0.0027321463 0.030034846 -0.020573964
0.0671924 0.005255347 0.0627344 -0.06396258 0.044456054 0.021047337 -0.03842806 0.04756503
-0.08564965 0.079685815 0.0073606814 0.007865764 0.039536748 0.0070197033 0.03589186 0.054891106
-0.06911035 0.061289966 -0.0094588315 -0.016789582 0.026390761 0.07834686 -0.04964193 -0.061802257
0.055388734 -0.042763848 0.026573677 -0.014923716 0.02087339 0.07180189 -0.046731316 -0.042152546
0.040686987 0.0072572087 -0.011094796 -0.07780683 0.08221986 0.0020971033 -0.012539099 -0.03139033
-0.017437035 0.04127256 -0.0008361931 0.08172452 0.001027734 -0.004524583 0.058307882 0.0061762813
-0.021536821 0.026392346 0.07745036 0.029640649 0.06439883 0.059482656 0.03375146 0.039501283
0.028618995 0.0108456565 0.08075856 0.088656195 0.03788241 0.0024210175 0.08306229 -0.06504883
0.07402002 0.056359645 0.065731585 0.0033075225 -0.060198512 0.06425685 -0.032598462 0.029906148
0.056793813 -0.074497655 0.0031893195 -0.0270777 0.07052427 -0.046690457 0.057944395 0.061009735
0.05628198 0.09327757 0.02028494 -0.07223558 0.061346438 0.0068456833 0.0043851063 -0.08093559
-0.021250622 -0.045420047 0.08741667 0.063895844 0.07379842 0.06888987 -0.052940737 -0.030627351
-0.026341733 -0.027075531 0.064066626 0.025164964 0.07023078 -0.0024258923 -0.07310979 -0.019334529
0.06769902 0.05711858 0.023838732 -0.028962536 -0.081189394 -0.045930248 0.054299053 -0.026713166

vehicle_encoder.lstm.weight_hh_l0 f4 [512, 128]
00000000: 9215 843d b455 88ba 8fcf 9eba 13f0 9a3d
00000010: a50d 003d aec9 b83d cddb a13d 3e51 4ebd
00000020: baab 4b3d d1a2 213d bbe7 61bd 95f4 103d
00000030: d4c2 1dbd fa6e 3dbd 4ead 083c ef49 4cbb
00000040: 8e49 01bd d4fa 50bd 9d00 4d3d 31d0 a83d
00000050: 2528 92bc 4f14 89bd 5758 273b f108 b0bd
00000060: ee49 a2bd 9fa2 b9bc 5ff5 563d d70f 8cbd
00000070: b9bb ecbb 490a 5bbd b393 b8bd 2326 cebc
00000080: 9a1e 8e3a d6bc 0dbc c263 923d 8e57 e33c
00000090: 76bb 433d d662 dd3c 029c 903c 29d9 613d
000000a0: 1b3f 7dbd d0c8 563d ff1a 173d 8031 febc
000000b0: e373 2dba a286 95bd d763 aebd c1df 3abb
000000c0: 8c88 bf3c b472 8cbc 9f95 b93c 1a45 78bd
000000d0: 0862 25bd fcfe 5e3d 15fa a0bd c9de d93b
000000e0: 8a72 9a3d d563 743d 7f18 cb3c 162c 98bd
000000f0: 6b7d 933c 3868 02bd 0c3f 9abc a600 983d
00000100: 7c9b 17bd 763a 63bd bd72 a0bd d476 843d
00000110: ad64 353c 4b54 bd3d a2ac d73c 3d6e 9cbd
00000120: 05c8 e63c acc6 973d 4a78 813d 4967 083d
00000130: 550e 79bd 54f1 41bd 5354 873d d3eb 83bd
00000140: 74e0 ca3c 7f79 7dbb 3be2 183d 6419 363c
00000150: a638 97bd 536d ecbc ebab a23d 8225 e33b
00000160: aa31 1c3d 5111 1abd 29f6 9c3d 2c11 d7bc
00000170: 4445 bebc 7ecc 2c3c 27be d3bc 9fbe 2fbd
00000180: 006f 67bc 094c 44bc 9c15 35bd 45f1 1a3d
00000190: 3fb2 a0bd 9584 3e3d 2ae4 b63d dbce e23b
000001a0: 5281 e6bc b873 96bd a870 103d c792 843d
000001b0: 265a aa3d c383 353c 3a90 183d 210d 9e3d
000001c0: 57d7 a73c 1d40 0dbd 60f4 b9bd 7dc0 013d
000001d0: a028 eb3c 00c9 943d 2ac7 19bd 6757 403d
000001e0: 0321 17bd 0bfe ebbc cf4b 363d 409d 99bd
000001f0: 5d2d 933d 0f61 113d 3a10 74bd bee8 193d
00000200: c2f3 fbbc f3c8 33ba ad8e 91bc a2ac a0bd
00000210: 4f27 92bc 2f4e 533d 53a7 9aba 1b31 12bd
00000220: 72c2 3dbb 9c4f 273c 933b 83bc 1abb 9cbd
00000230: 6677 1fbd a82a debb 67b7 213d 5ac6 b23d
00000240: f745 b9bb e398 243d 5836 6c3d f076 37bd
00000250: 129f 0cbd 0d02 4e3d 3aa4 923d 4203 763c
00000260: 1bbe 9cbd 720b 6f3d a305 97bd b3bc 183d
00000270: 1b75 983c 1b77 a13c dc33 c3bd 1965 1abd
00000280: 4fbc 363d c6d3 9b3d 8202 8bbc f120 8f3d
00000290: 5f94 e6bc 723c 7dbd 609f efbc 36f6 2f3c
000002a0: 76da c3bc 8d34 533d 2233 5dbd b6d1 8fbc
000002b0: 3e02 a5bd afc5 843d f912 d2bc ddae 8cbd
000002c0: f033 8d3b f90d f03b 30dd b63c 3804 8fba
000002d0: 9fdd 833d 16f0 16bd 24fd 92bc 36e5 f2bc
000002e0: 8f8a c53c 095f 813d bcbd 36bc 33a6 9b3d
000002f0: 0a8c 9f3d 8f07 35bd 8cf1 a1ba 210d 0bbd
00000300: cc37 e93c 3cd1 b6bc 8a2e 973c 150f 663c
00000310: c899 4ebd d890 63bd cde0 9dbd 5627 2bbd
00000320: 94f8 043d 9403 26bb 0d56 9c3d 6e81 8dbd
00000330: 63e3 863a a594 98bd f04b fc3b 19d0 cf3c
00000340: e40d 96bd 59a3 b03d d84e 99bc d942 af3d
00000350: c01e b7bc 3869 683d 521d a53d 67de e7bc
00000360: bd5f e1bc 46b6 5e3d 7616 8abd 53df 333d
00000370: 2191 43bd afd0 9a3d 0ddc 45bd 7196 38bd
00000380: 4993 743d 1e37 41bd c757 ab3d bb38 8e3d
00000390: 1f1b b53d bf1d c1bd 29eb 193c 844f 1abd
000003a0: 92fb 483c f226 6ebd 4b37 e23c 575d 50bc
000003b0: ad52 08bd 4acf a4bd 7c65 633d 4496 24bd
000003c0: a930 973d cd81 c93c d41c 9c3c 49db aebc
000003d0: 646a 8abc 4455 1abd 634c 89bd c2af 813d
000003e0: 78ef 83bd a944 333d 6a45 15bd eec5 823d
000003f0: 2647 ac3d ca6c 77bd 0eb9 843d c31f d9bb
0.06449427 -0.0010401518 -0.0012116301 0.07565322 0.031263012 0.09022842 0.07903252 -0.050370447
0.049724318 0.039461914 -0.055152636 0.0353895 -0.03851588 -0.046248414 0.0083421 -0.0031171998
-0.031564288 -0.05102046 0.050049413 0.08242834 -0.017841408 -0.06693327 0.0025534832 -0.085954554
-0.07924257 -0.022660552 0.052480098 -0.06838959 -0.0072245267 -0.053476606 -0.090125464 -0.02516467
0.001084286 -0.008650979 0.071479335 0.02775171 0.0477862 0.027024668 0.017652515 0.05513874
-0.06182776 0.052437603 0.03689098 -0.031029463 -0.0006616695 -0.0730107 -0.08515137 -0.0028514715
0.02338054 -0.017144538 0.022654353 -0.060612775 -0.040376693 0.05444239 -0.07860199 0.0066488725
0.07541378 0.05966552 0.024791954 -0.07430284 0.01800414 -0.031837672 -0.018828891 0.07421999
-0.037013516 -0.055475675 -0.078343846 0.06467977 0.011071366 0.09244593 0.026327435 -0.07638214
0.028171549 0.074109405 0.063217714 0.033301625 -0.060804684 -0.04734929 0.066078804 -0.06441464
0.02476523 -0.0038677154 0.037325125 0.011114452 -0.07383852 -0.028860724 0.07942947 0.0069319615
0.0381333 -0.03761417 0.07664139 -0.026253305 -0.023226388 0.010546802 -0.025847508 -0.0429064
-0.014125586 -0.011981019 -0.04421006 0.03782775 -0.07846498 0.04651316 0.089302376 0.0069216317
-0.028137837 -0.0734629 0.035263687 0.06473308 0.08317976 0.011078778 0.03724692 0.07717348
0.020488424 -0.03448497 -0.09079814 0.03167771 0.028705895 0.072649 -0.037543453 0.046958353
-0.036896717 -0.02880766 0.04450589 -0.07500696 0.07186387 0.035492953 -0.059585787 0.037575476
-0.030755881 -0.0006858252 -0.017768228 -0.07845427 -0.01784101 0.051588234 -0.0011799134 -0.035691362
-0.002895501 0.010211851 -0.016019618 -0.07652874 -0.038932227 -0.0067799874 0.039481547 0.08729239
-0.0056540924 0.040184867 0.057669014 -0.044791162 -0.03433139 0.050294925 0.0716023 0.015015425
-0.07653447 0.058360524 -0.07374122 0.037289333 0.018610528 0.019710114 -0.09531376 -0.03769407
0.04461318 0.07608752 -0.01696897 0.06988705 -0.02814692 -0.061825223 -0.0292508 0.010739854
-0.023907881 0.05156379 -0.054003842 -0.017556053 -0.08057068 0.06483018 -0.025643812 -0.0686929
0.00430917 0.0073258844 0.022322267 -0.0010911291 0.06438755 -0.036850058 -0.017942972 -0.029650312
0.024113921 0.06316955 -0.011153635 0.07600059 0.07790382 -0.04419666 -0.0012355312 -0.033948068
0.028468989 -0.022316568 0.018454809 0.014041682 -0.050439626 -0.055558056 -0.07708893 -0.04178556
0.032463625 -0.0025331723 0.076336004 -0.069094524 0.0010291155 -0.07450227 0.007699482 0.025367783
-0.07326868 0.08624906 -0.018714353 0.08557672 -0.02235353 0.05674097 0.08062233 -0.028304292
-0.027511472 0.05437305 -0.06742565 0.04391415 -0.047745828 0.075593345 -0.04830556 -0.045065347
0.059710775 -0.047171704 0.083663516 0.06944414 0.088430636 -0.09429502 0.009394445 -0.03767349
0.01226701 -0.05814261 0.027614256 -0.012717566 -0.03328197 -0.0804735 0.055516705 -0.040182367
0.07382328 0.024598027 0.019056715 -0.021344798 -0.016896434 -0.037678972 -0.06704023 0.06332351
-0.064421594 0.04376665 -0.03644315 0.06385408 0.08412008 -0.060406484 0.06480609 -0.0066261007

vehicle_encoder.lstm.bias_ih_l0 f4 [512]
00000000: c4d2 66bc e17b 9bbd e28f 1d3d 94aa 8d3b
00000010: d127 233d 7bc1 d5bc 858e 24bd fe54 ac3d
00000020: dfe2 9d3c 34de 9a3c 6ec6 8e3d ee7c 363d
00000030: f0b0 c33c 52b4 2cbd 3df4 cd3c d9e0 953d
00000040: f418 9f3d 4dc8 073c f947 a4bd 7525 61bd
00000050: 50ac 3c3d 6a2a ab3d 952e 783d 2f05 5f3d
00000060: e5e8 b63d 840f bcbc f1a3 7a3d d48c 15bc
00000070: f370 903d f90e 463d 4123 2e3a a5df dcbb
00000080: 7e35 123d cd64 94bc 6915 1fbb 864e 1d3d
00000090: 5fbb 0cbd 80dc 29bc 3862 673d 1005 cb3c
000000a0: df49 8c3d fa25 103d 942d 343d 138c 0c3b
000000b0: 4635 d5bc 90e9 cebc d76d 573d 7f9f f73b
000000c0: 9eb5 60bc 3057 83bd 8884 33bd 28b4 933d
000000d0: c9b0 7f3c d5bc 3f3d e1ab 82bd 7aa8 b93d
000000e0: 3b0c 083d fc35 8a3d 8d5f dcbc d17f 9a3d
000000f0: 2af7 59bd 47c3 833c 9d0c 9a3c 3f2d 2abd
00000100: cee1 f9b9 776f 233d 36b0 15bd e09f 853c
00000110: 93d2 af3c 980d a5bd 8ccd c8bc ad7c 7c3d
00000120: 129f 82bd a250 2539 73d7 963d e307 98bc
00000130: be54 863d c8e0 313d 998a 39bd 7e44 973d
00000140: 9616 933d 9af9 953d d403 083d 282a 623d
00000150: 913c 1fbd 0bf3 9fbb d5c8 903d 6444 9abd
00000160: 56e6 8b3c 0719 9f3d 27f2 0a3c a0b9 0dbd
00000170: ddf1 86bd 3038 1ebd 4f43 60bc c05a 913c
00000180: a2ad 033d 7a35 2fbd 7d86 95bd 803e 483b
00000190: a11a cebc 2391 f8bc 6b0a 5ebd 5c4f 063c
000001a0: 30d5 333c 28a0 053d 6cab 993b 1869 12bd
000001b0: 317d 0abd 359f 063c 4f02 7ebc 7f88 10bc
000001c0: 858b 83bc ad0e 89bc ee66 9f3d f6e3 763c
000001d0: bad0 843d 0ed8 533d 8d4e a23d 5521 93bb
000001e0: c0dc 84bd 7fea 5ebd f0e3 07bc a190 e63c
000001f0: 481c 85bc 32ac adbd b9cf 41bd 12b7 a73d
00000200: d840 40bd 395b 47bd 3255 623d 11c4 0dbd
00000210: 4034 193b b904 b23d 2430 b43d 312b a33d
00000220: 3d0d 6fbd 8b78 c33b 9f7d c43b 6d15 4b3b
00000230: e3b3 bc3d a391 3f3d ff43 a4bd 6351 c43d
00000240: 704c b43d 101a 71bd bd6b 99bd cbb5 8a3d
00000250: 68eb e8bc 112b 85bd b716 273d 695f 323c
00000260: ebaf 6f3d 0f43 6bbd b3cb a23d 493a debc
00000270: 8417 49bd d16e 1d3d 3364 82bd d858 90bd
00000280: 7bcb 9fbc 0b5e 1d3c b855 d9bc 1be1 e83a
00000290: 31fc 96bd 49f4 923d 7593 bf3a c885 a73c
000002a0: 14af 583d efc4 673d 8d92 923d d2a9 3e3d
000002b0: 2819 cb3c c138 66bd c468 8c3d be7c 8ebc
000002c0: a0f6 403d 5f20 be3d ff9d 4bbd d6bb 8cba
000002d0: 811e 59bd 6aa9 8dba 078b 58bc d23f 56bd
000002e0: dcbe d2bc 96bd fd3c 332f 8cbd 29bc ddbb
000002f0: 8b07 963d d05c 9b3d b0d7 9fbd f712 653d
00000300: cfc9 ae3c ac50 163d 1ba9 7a3d 87b1 a03d
00000310: dfe2 34bd 840e 8c3d 8864 8f3b c71c 9a3c
00000320: 6bdf e73c b9a6 9ebd 9c68 e9bc 41a7 a0bd
00000330: 6d8c b53c dc6a 3c3d dacc 17bd 63ce a43c
00000340: 2c4f 77bc 34e4 bcbc cd1e 53bd 42e8 f03c
00000350: 1a03 e3bb d6d8 1c3d 006b b23d 5864 90bd
00000360: 582e 68bb bdbe c1bc 207f 7d3d 7eff a53d
00000370: ddad 973d 4c75 853a a5c1 f73c 92b1 c4bc
00000380: 3de8 b4bd d839 a6bd 4d8b 0c3d a009 65bd
00000390: 13fc 44bd 6966 0f3d 2ec7 98bd 108e 7f3d
000003a0: e085 943d 9907 8f3b c93a 053d b264 893d
000003b0: ecf4 313d afd2 a1bd 01ae 2f3d 274e a5bd
000003c0: b5c2 3ebd 76ac a1bd 2b6f 4ebd b86a 18ba
000003d0: 5b92 3c3b 194e c23b e959 5e3c a0ad 8abd
000003e0: 2d56 dc3c 9c57 01bd d0df 6b3d e90c a03d
000003f0: 0e19 393b cb13 623b 1b6f 48bd ccab 3a3d
-0.014088336 -0.075919874 0.038467295 0.004323313 0.039832894 -0.026093235 -0.04017498 0.084146485
0.01927322 0.018904783 0.06971441 0.044552736 0.023888081 -0.042164154 0.025140876 0.07318277
0.07768431 0.0082875015 -0.0802154 -0.054967362 0.046062768 0.08357699 0.0605913 0.054448303
0.0893114 -0.022956617 0.061191503 -0.009127814 0.07052793 0.048354123 0.00066428265 -0.0067405277
0.035695545 -0.018114472 -0.0024274236 0.038404964 -0.03435838 -0.010367513 0.056490153 0.024782687
0.06850027 0.035192467 0.04398878 0.0021445795 -0.02602638 -0.025257856 0.052594986 0.007556855
-0.013715176 -0.06413114 -0.043827564 0.072120965 0.015606114 0.046810944 -0.063804395 0.090653375
0.03321479 0.06748578 -0.02690103 0.0754391 -0.05321423 0.016084326 0.018804843 -0.041547056
-0.0004766122 0.039901223 -0.036545 0.016311586 0.021462714 -0.080592334 -0.024512075 0.061642338
-0.063779965 0.00015765664 0.073653124 -0.018558448 0.06559132 0.04342726 -0.045298193 0.07386111
0.07182042 0.07322998 0.033206776 0.055215985 -0.03887612 -0.004881268 0.07069556 -0.07532576
0.017077606 0.077684455 0.008480585 -0.034600854 -0.065891005 -0.038627803 -0.013687923 0.017743468
0.03214801 -0.04277561 -0.07301042 0.003055483 -0.025159182 -0.030342644 -0.054209154 0.008197632
0.010976121 0.03262344 0.0046896245 -0.035744756 -0.033810798 0.008216669 -0.01550348 -0.008821606
-0.016057739 -0.01673063 0.07783304 0.015068999 0.06485124 0.051719718 0.079251386 -0.0044900575
-0.06487417 -0.05442285 -0.008294091 0.028145136 -0.016248837 -0.08480109 -0.04731724 0.08189215
-0.04693684 -0.04867098 0.05525703 -0.03461081 0.002337709 0.08692307 0.087982446 0.079672225
-0.058362234 0.0059652976 0.0059964205 0.0030988113 0.09213998 0.04676975 -0.08020782 0.09585836
0.08803642 -0.058862746 -0.074912526 0.067729555 -0.028432563 -0.06502355 0.040793147 0.010887005
0.058517378 -0.057437 0.07949009 -0.027127402 -0.049094692 0.03843576 -0.06366768 -0.070481956
-0.019506207 0.009604941 -0.026530132 0.0017767282 -0.073723204 0.071755 0.0014616089 0.020449534
0.052901343 0.056584295 0.071568586 0.046548672 0.024792269 -0.05620647 0.0685592 -0.017393466
0.0471102 0.09283518 -0.049711224 -0.0010737132 -0.053007606 -0.0010807936 -0.01321674 -0.052306958
-0.025725774 0.03097419 -0.0684494 -0.006766815 0.073256575 0.07586062 -0.07804811 0.05592629
0.021336464 0.03669803 0.061196428 0.07846361 -0.044161674 0.06838706 0.004375998 0.01881255
0.028304776 -0.077466436 -0.028492264 -0.07844401 0.022161687 0.046000347 -0.037060596 0.020117944
-0.01509456 -0.023058034 -0.051543046 0.029407624 -0.00692786 0.03829273 0.08711815 -0.07050389
-0.0035428014 -0.023650521 0.061888814 0.08105372 0.07406209 0.0010182052 0.030243704 -0.024010453
-0.088333584 -0.081165016 0.034312535 -0.055917382 -0.04809196 0.035009775 -0.074598655 0.06239134
0.07252097 0.0043649194 0.032526765 0.06708659 0.043446466 -0.07901513 0.042890552 -0.08071547
-0.046572406 -0.078942224 -0.050398987 -0.0005814242 0.0028773758 0.00592972 0.013571241 -0.067713976
0.02689656 -0.03157769 0.05758649 0.078149624 0.0028243694 0.003449666 -0.048934083 0.045573995

vehicle_encoder.lstm.bias_hh_l0 f4 [512]
00000000: e5b8 82bd e412 693c 07c0 a63d bc59 be3d
00000010: 2d8c 983d 5335 9ebd 5a1f b03d d7e1 893b
00000020: 1ca3 a03d 9832 b5bc 4301 e7bc c6ef 593d
00000030: 88ae 273c 4a11 90bd 61db e7bb 62f1 113d
00000040: b421 2fbc 4d19 36bd dde5 2cbd 3a76 63bc
00000050: 1da5 eebc d25e b73d 98c8 62bd 0fa9 473d
00000060: 0ea4 79bd 241b abbc a3b8 54bd cb0f 133c
00000070: bbfa 98bd 313d 693d 63bc 85bc 1e7d 533d
00000080: e4a2 b63a 9c34 50bd 1439 aa3d 5fd7 9dbd
00000090: d36a 45bd 4da4 1abd 991c a53d 002f 16bd
000000a0: 4fd8 4d3d 8e97 b13d a8f4 893d efd5 d53c
000000b0: 4425 463d fb50 913d b57d 36bd 56a6 833d
000000c0: 6a96 9abd 64e1 21bd ce6c 13bb 6c22 93bc
000000d0: 5b0a 17bc c9e8 483d fdf2 553c 3d53 fd3c
000000e0: 1145 473c eeec 10bd 4fe9 a53d 6e92 583d
000000f0: d821 08bd 506b 98bd e7a4 68bc 9a24 5dbd
00000100: 2394 44bd 74c3 78bd bcb9 a03d 885e 0cbd
00000110: 27f2 0fbb dad4 8fbd 680d b43d b2e5 6dbd
00000120: bff5 51bc 3613 b6bd 6a4b 783d 92e2 443d
00000130: fc14 d73c 0d90 843d 558b aebd 5ae5 dc3c
00000140: d2d4 d83c 4809 4cbd d420 8e3d 4a98 9bbd
00000150: 9c88 ad3d 7f34 d03c b53b 963d a936 2bbd
00000160: bb68 b63d 9e41 55bd bdb8 1dbc ed13 58bd
00000170: f386 843d 1ea9 ebbc 5263 b33d 64fb 6a3c
00000180: 18da 8d3d 840b ef3c 6922 e4bc 4fae a93d
00000190: af2f 8e3d c99b 573b 921b 6fbc 9299 783d
000001a0: 75e0 25bd 7217 2c3d cd8b d3ba b72e 3f3d
000001b0: 3779 16bd c795 6ebd 8ad9 9d3d 730a 90bd
000001c0: 28d1 5b3d 4161 a1bc 16b0 b23c e93c a8bd
000001d0: 7aae 87bb 4241 333d 601c 6fbc 68b0 1f3c
000001e0: ee1c 09bd 6a1d c73c c86c 413d cf97 593c
000001f0: b45c 843c da78 94bd a51b 4a3d 9a0f 2fbd
00000200: 439f 5ebd 4cd0 393c d093 a9bb 073f 8cbd
00000210: 20dd 8dbd aff5 5cbd 9fdc 8abd cc51 8ebd
00000220: 997c 583d 8be3 4bbd f71e c03d d87f 8ebd
00000230: e2fb 43bc 639c 82bc e882 8f3d 46ff 4b3d
00000240: 1bd7 a53c 5377 f1bc 2fa8 2e3d 64c3 8fbd
00000250: a284 983c 36cc 773d cd36 ee3c 1586 563d
00000260: 2625 7abc 9b44 9c3d a1e4 2e3b efbe 363d
00000270: 0dff 1b3c 0da9 8f3c e071 71bd 8212 683d
00000280: c446 b4bd fee4 12bd 4671 9b3c fa64 1c3d
00000290: de7d 23bd 700e c5bc e5fa dbbc 4303 a4bd
000002a0: 4b37 a0bd ff4b 103d 971a 5c3b 8ceb d4bc
000002b0: 94df 283d 6d25 db3c 36af 8fbd 395b 2bbc
000002c0: 186a 833c 5f92 35bc 63ed 8f3d 6617 47bd
000002d0: 2492 4a3d 288f 583d e156 73bd f9c5 81bd
000002e0: 7e3b 503d 3922 3abd 1b29 783d 16cc 133c
000002f0: a64f ab39 44ad 993d fdec 7ebc f27e 133c
00000300: feaf 53bd 02aa 413b 89fc af3d 8f1c b43d
00000310: e16a 1ebd e180 22bd 4ecd b13d f11e a63d
00000320: 10c1 8cbc 7e23 14bc 3f0b 4ebd a900 8cbd
00000330: 045d 443c 22e3 8cbd 36fe 0e3d 0a5b 863d
00000340: e94a 13bd 7481 53bd f333 94bd 12dd 27bc
00000350: 53d9 14bd 90e0 b33d 644a 463d 69a9 8b3d
00000360: 6510 a03d fe8b fd3b 1892 38bd 03e2 4bbc
00000370: a68a 8fbd 8dc2 33bd f434 9abd 4938 1f3d
00000380: 8c12 8fbd 8ceb ff3b 2969 8a3d fc1e 14bb
00000390: 227b 903d f05a c03c f545 a2bc 500d 033d
000003a0: 9164 b73d ac52 583d 7d49 8bbd 93b3 52bc
000003b0: 8335 46bc ce16 11bd c289 8f3b 84df 96bd
000003c0: e31d 983d ef93 47bd dfa5 243d 1f08 c73c
000003d0: 5aa5 be3c a419 8bbd dbec 57bd f5de 81bd
000003e0: 4522 773d 1868 5b3d 21de ad3c 71e3 113d
000003f0: 3ad7 3f3d cd97 e33c 7522 45bd f05a fd3c
-0.06382922 0.014225695 0.08142095 0.09294459 0.074486114 -0.077250145 0.0859973 0.0042078304
0.07843611 -0.022118852 -0.028198844 0.05320718 0.010234483 -0.070345476 -0.0070757126 0.03563059
-0.010689188 -0.044457722 -0.042211402 -0.013883168 -0.029131467 0.089536324 -0.055367082 0.04874521
-0.06094747 -0.020886965 -0.051933896 0.008975933 -0.07469698 0.056943122 -0.016325181 0.051632993
0.0013934043 -0.050831422 0.08311668 -0.077070944 -0.04819758 -0.037754346 0.08062095 -0.036665916
0.050255116 0.08671485 0.067361176 0.026102988 0.048375383 0.07095524 -0.044553477 0.064282104
-0.075482205 -0.03952159 -0.0022495273 -0.01796075 -0.0092187775 0.049050126 0.013058421 0.03092348
0.012162463 -0.035382204 0.08101141 0.05287402 -0.0332354 -0.07442343 -0.014199472 -0.053989984
-0.047992837 -0.060733274 0.07847926 -0.03426984 -0.0021964402 -0.0702302 0.087916195 -0.058080383
-0.012814938 -0.08890383 0.060618795 0.048067637 0.026255123 0.06472788 -0.08522669 0.026964832
0.026468668 -0.04981354 0.06939855 -0.07597406 0.08473322 0.025415657 0.07335607 -0.041800175
0.089066945 -0.05206453 -0.009626565 -0.052753378 0.06471052 -0.028767165 0.08759178 0.014342163
0.06926364 0.029180296 -0.02784844 0.082852 0.06942689 0.0032899252 -0.014593976 0.06069333
-0.040497262 0.042014547 -0.0016139686 0.04667541 -0.036736693 -0.058248308 0.07707508 -0.07033243
0.053666264 -0.019699695 0.02181248 -0.08214743 -0.0041406723 0.043763407 -0.0145941675 0.009746648
-0.033474855 0.024306018 0.047222883 0.013280823 0.016157486 -0.07249613 0.04934277 -0.04273949
-0.054351103 0.011341166 -0.0051750913 -0.06847959 -0.06926942 -0.05394524 -0.067803614 -0.06949195
0.0528532 -0.04977755 0.09380906 -0.06957978 -0.011961909 -0.015943712 0.0700739 0.049803995
0.020244172 -0.029475844 0.04264086 -0.0701969 0.018617932 0.060497485 0.029078865 0.052373964
-0.015267646 0.07630273 0.0026686566 0.044615682 0.009521258 0.017536664 -0.05894649 0.056658275
-0.0880256 -0.035862915 0.018974911 0.038182236 -0.03991496 -0.024054736 -0.026853034 -0.080084346
-0.07823046 0.035228726 0.0033585185 -0.025991224 0.041228846 0.026751244 -0.07015841 -0.010458761
0.0160418 -0.011082261 0.070277 -0.0486063 0.049455777 0.0528709 -0.059409026 -0.063365884
0.050837986 -0.045442794 0.060586076 0.009020826 0.00032675004 0.07503751 -0.015559432 0.009002434
-0.05168151 0.0029550795 0.08593089 0.087945096 -0.038676146 -0.03967369 0.08681737 0.0811137
-0.017181903 -0.009041665 -0.050303694 -0.068360634 0.011985067 -0.0687926 0.034910403 0.06560333
-0.03596011 -0.051637128 -0.07236471 -0.010245578 -0.03634007 0.08783066 0.04841079 0.06819422
0.07815627 0.0077376356 -0.0450612 -0.012444022 -0.07008867 -0.04388671 -0.07529631 0.038872037
-0.069859594 0.007810062 0.06758339 -0.0022601476 0.07054736 0.023480862 -0.019808749 0.031995118
0.089547284 0.052813217 -0.06801126 -0.012860197 -0.012097719 -0.03542214 0.0043804357 -0.07366851
0.074275754 -0.048725065 0.04019725 0.024295865 0.023272205 -0.06792 -0.052716117 -0.06341354
0.060335416 0.05356607 0.021224083 0.035617296 0.046836115 0.027782345 -0.048128564 0.030927151

attention.wq.weight f4 [128, 128]
00000000: dba0 10bd 042d a13d e4b1 b1bd fed1 193d
00000010: 2405 5dbd 8b77 2dbd e119 39bd f203 8cbd
00000020: 0e93 b03c 137f 193c 32e0 473d 52e9 20bd
00000030: 6159 6cbc bf34 91bd 79d0 283d 70eb f83b
00000040: fe34 2cbd d207 d23c 16e2 9dbd 4349 a13d
00000050: 8c68 22bd ae19 6e3d 8ab7 82bd ce89 a4bd
00000060: 4173 863a 753f 053c 5e90 303d 2b96 803c
00000070: 4548 ac3d 6de3 eb3c 405b 74bc 03e3 d23c
00000080: 8eb3 a4bd 90bd db3c d4fd 993b 7dbd 90bd
00000090: 355d 2f3d 1519 e0bc b836 acbb d419 e1ba
000000a0: 2775 3abc c8b8 7d3c ce22 a53d e36f dc3b
000000b0: dd27 113c 9adb 56bd 80bc fab9 6114 013d
000000c0: becd 673d 9c71 a93d 66a1 793c 9b2a 353c
000000d0: cafd f0bc 2122 61bd 4b8c 2f3d ee11 403c
000000e0: 6b89 25bd 4948 383d a4bf a93c eb5b 3d3d
000000f0: 9b2b a03b 6387 013d 5fbe 55bd 8b90 7dbd
00000100: e525 e8bc 2b73 483d 5b71 e8bc b2c5 753d
00000110: bcc9 fd3c 0876 76bd 76d0 7ebd 8f6b 1a3d
00000120: cc7d 403c 1351 863c 819b 5abc aa24 3c3d
00000130: 932a 11bd 7bf7 153d 4dd8 573d 02ad 2f3d
00000140: 2e03 f7bc 2938 1e3d 3aab 8a3c dfcc 86bd
00000150: c0a4 953d e141 aebd 2e82 483d 9882 1bbd
00000160: e309 8c3d 6dda 963d 6d08 9f3d 4550 23bd
00000170: 75de 0fbd 1359 863c 3367 5ebc d665 b8bd
00000180: bd9a 02bd 9017 97bd faff e1bc dd1a b73d
00000190: 6783 a93d c793 973d d8d8 993c ac83 99bd
000001a0: a867 eebc f6be 633d d711 a53c 81ad 263d
000001b0: ffc2 1f3c fe42 a83c cd3f b0bd 9f0a 72bc
000001c0: 8546 a23c f3a7 9f3c ab56 813c a897 e7bc
000001d0: a582 533d 039b cd3c 6ad7 e63c ccdb 6d3d
000001e0: 77b7 8abb 88fa 813d d089 323b 88ea a7bd
000001f0: c9e3 5a3d a42a 993d 81fd 0f3b 23fa a43d
00000200: adc0 56bd d9d5 9e3d ad87 b1bc 10ab 6dbd
00000210: 53a7 84bc df7b 62bd 4260 41bd c372 89bc
00000220: 97ed 47bd 6486 abbd 0ece e7bc 1fe1 913b
00000230: b2a7 8a3d 5e6f 9d3d 3400 953c 65f7 49bd
00000240: 884a cb3c b022 97bd c7a8 bd3c 74fd dabc
00000250: e30b 003b c3e3 163d d2a5 853c b945 ee3c
00000260: a185 56bd e90a 943d 492c 61bb c27a 453d
00000270: ce1c 8dbd c175 943d e1e2 313d e31f 813c
00000280: 1ff2 643d 1bb5 ba3c 7dc1 a7bc 612a a8bd
00000290: 2df3 4ebc 9931 dabc 91be a33d 6e29 a0bb
000002a0: 2426 86bd 79e8 a7bb b3ef 2bbc 8f5d ad3d
000002b0: 09fc 3d3d 75ad 9ebc 2dba a8bd 9c63 a6bd
000002c0: ae3d ad3d c1a2 e93c 5a88 06bd 8ee2 49bc
000002d0: 548e bd3d c64f 9ebc 3af7 be3d 1a5a dc3c
000002e0: 7b48 643b 18e7 623c 4d24 e6bc 20e1 75bb
000002f0: f9cd 033d b915 7cbd 9bc5 febc 7cbc 42bd
00000300: 8060 6abd 8798 ab3d 8d62 913d d703 a43d
00000310: 96fe 693d 641d b93c 5631 c53c c76b 883c
00000320: 8fc8 ba3d ee2b 913d d935 c239 420c 81bd
00000330: dd15 1c3d 5cad 323d b5f6 3dba 84a2 723d
00000340: f269 2c3d d732 51bd 29c8 bb3d 023e 8cbd
00000350: 531c 0f3b 70d8 6abd 3f49 4f3d 8a55 f0bc
00000360: e8a6 a33c 3b0b b3bb e968 24bd 85b3 733d
00000370: f6c3 48bd 69b2 873d eba8 85bd db9b b3bd
00000380: 1176 a4bd 0687 b63c ffe6 45ba 2d00 9ebc
00000390: a957 913c a30d 95bd 2115 85bd 2ec8 203c
000003a0: b024 7abd 848d 61bd f9a9 37bc 75b5 35bd
000003b0: 9d70 52bc cb92 243d c592 813d 9303 7c3c
000003c0: d6e0 33bd 9745 ab3c f7f0 363d 63a5 3abd
000003d0: 557b 423d d3bf d33c f40c 9abd b2d2 bd3c
000003e0: c8b2 213c c264 79bd 3c6d 10bd 08d0 353d
000003f0: db7f 0f3d 5e56 933d 5ebc 1bbd 4071 a13d
-0.035309654 0.07869914 -0.08676508 0.03755378 -0.05395998 -0.042350333 -0.045190696 -0.0683669
0.021554496 0.009368676 0.048797794 -0.03928501 -0.0144256065 -0.07090139 0.04121444 0.0075964257
-0.042042725 0.025638495 -0.07709138 0.07875302 -0.039650485 0.05812996 -0.063826635 -0.08034097
0.0010257737 0.008132805 0.04310643 0.015696606 0.08412222 0.028794969 -0.014914334 0.025743013
-0.0804206 0.026823789 0.004699448 -0.07067392 0.0428135 -0.02735571 -0.0052555464 -0.0017173835
-0.01138047 0.01548595 0.08063279 0.006727205 0.008859602 -0.052455522 -0.0004782416 0.031513575
0.056592695 0.082736224 0.015236234 0.011057521 -0.029417891 -0.05496419 0.042858403 0.011723025
-0.040414255 0.04499081 0.020721264 0.046230238 0.0048880107 0.031623255 -0.052183505 -0.061905425
-0.028338382 0.048937958 -0.028374365 0.06000299 0.030979984 -0.060171157 -0.062210523 0.037700232
0.011748742 0.016396081 -0.013342739 0.045933403 -0.035440993 0.03661297 0.052696515 0.042889602
-0.030152883 0.038627777 0.01692735 -0.06582045 0.07306814 -0.08508659 0.048952274 -0.03796634
0.06837823 0.0736588 0.07765279 -0.039871473 -0.03512426 0.016399896 -0.013574409 -0.09003799
-0.03188585 -0.07377541 -0.02758788 0.08940671 0.08277016 0.07401233 0.018780157 -0.074958175
-0.029102162 0.055602036 0.020150108 0.04069281 0.009751081 0.020539757 -0.08605919 -0.01477304
0.019809017 0.019489264 0.015788397 -0.028270558 0.051638264 0.02509833 0.02817889 0.058070943
-0.0042332965 0.06346613 0.0027242787 -0.0819903 0.05343989 0.07478836 0.0021971168 0.08055522
-0.052429844 0.07755632 -0.02167114 -0.058024466 -0.016193068 -0.055293914 -0.04721094 -0.016778355
-0.048810568 -0.08375242 -0.028296497 0.0044518854 0.067702666 0.07687257 0.018188573 -0.0493082
0.024815813 -0.07379663 0.023151768 -0.026732184 0.0019538335 0.036838304 0.01631442 0.02908598
-0.052373532 0.072286434 -0.0034358671 0.048212774 -0.0689026 0.07249022 0.04342926 0.015762275
0.055894967 0.022791436 -0.020478005 -0.08211208 -0.01263122 -0.026634978 0.07995332 -0.0048877513
-0.065502435 -0.0051241484 -0.0104941605 0.084651105 0.046382938 -0.01936982 -0.08238635 -0.08124468
0.0845903 0.02851999 -0.03284488 -0.012322081 0.092556626 -0.019325148 0.093244985 0.026898433
0.003483324 0.013849042 -0.028093481 -0.0037518218 0.032178853 -0.061544154 -0.031100085 -0.047543034
-0.057220936 0.08378702 0.07098875 0.08008545 0.057127558 0.022597022 0.024071377 0.016652955
0.09120285 0.07088457 0.00037042683 -0.06301166 0.038106788 0.04362236 -0.000724654 0.05923702
0.042093225 -0.051073875 0.09169037 -0.068477646 0.002183695 -0.057335317 0.050606962 -0.029337663
0.019977048 -0.0054639853 -0.040139113 0.059497375 -0.049015008 0.06625826 -0.06526359 -0.087699614
-0.08030332 0.022281181 -0.0007549375 -0.019287193 0.017741995 -0.072779916 -0.06498171 0.009813352
-0.061070144 -0.0550666 -0.011209958 -0.044362504 -0.012844232 0.040179055 0.06326822 0.015381712
-0.043915592 0.020907206 0.044663396 -0.04556788 0.0474809 0.025848305 -0.07522002 0.023171756
0.009869285 -0.060887106 -0.035260424 0.044387847 0.03503404 0.071942076 -0.038021438 0.07882929

attention.wq.bias f4 [128]
00000000: 8f85 383d fdca 8fbd c9f5 10bd 098c 353d
00000010: b8ca 0ebc 0ef4 cfbb e63d 4cbd fefb 34bd
00000020: c163 0bbd 9820 f33c 64cf 013d c7b6 123d
00000030: 1667 243d 28a1 4cbd 17dc 94bd 3470 97bd
00000040: ea91 56bc 2efc eabc b0ea 383d 044a a73d
00000050: e9fb 5fbd a705 863d 383a 103d 29eb 8a3d
00000060: 1dcc 083d a1fb a3bd fa9f 02bd 96ff 5c3d
00000070: bd77 613c 7cf0 b939 6332 773d 7d6a 6eba
00000080: 3a63 6e3d fabe f5bc 8c15 7fba 6858 61bd
00000090: 6d27 febb 11ad 053c efc4 6cbd 882d b83d
000000a0: ab28 f3bc 0987 a63b 92a7 003d 07a3 243c
000000b0: c81e ba3c 55e7 3cbd 17ca 993d 5ac5 96bc
000000c0: e927 4cbd 40da 84bd d9ed 293c 1055 0cbd
000000d0: 5b7f 923d 3fba 8abc 7123 273d c003 25bd
000000e0: db48 97bd 03f5 94bd 4660 483d 5642 3bbd
000000f0: 41d8 433d 292e e7bc de5c 233d d895 5bbd
00000100: ec07 4cbd 3782 e1bc 8b6e 163d 9c9c 3ebd
00000110: 27a9 a6bc b8ab 5fbd 7505 e53c 175a 663d
00000120: e7c5 8d3d 5e0f 40bc 8f0d 543d 91e8 26bd
00000130: 1468 fbbc 7e6c 323d 9f80 f3bc fd34 6e3c
00000140: 6c8a 7ebd 3616 043d 633c a6bd c1ef 843d
00000150: 7ea5 053b 7460 213d d260 233d 1fdb de3c
00000160: e60b cc3c b8d8 463c 2253 73bd c51e 3ebd
00000170: 84c0 79bc 9929 30bc 0b15 c5bb f4d4 b23d
00000180: 86f7 57bd d05e ae3c c01a 623d 5d97 febc
00000190: d1ec e3bc cd8c 783d 4e5e 51bd b7ed 123c
000001a0: 9bbd 383c 665b ee3c 1598 90bd 3c9f 97bc
000001b0: e907 ed3c 07da 53bd ba89 923d 4f9d 9cbd
000001c0: a2e0 fc3b 7626 153d e1b5 773c 991c 8f3d
000001d0: 52b7 82bc 4203 d539 fb5d af3d 4ce8 963d
000001e0: 457b bcbb 7736 42bd 9813 12bd 391f 97bd
000001f0: 9dd3 a93d c6e0 6a3d af27 8a3d 7e5b 90bd
0.045049246 -0.07021139 -0.03539065 0.044323 -0.008715324 -0.0063462323 -0.04986372 -0.04418563
-0.03403068 0.029678628 0.031691924 0.03581884 0.040137373 -0.049958378 -0.07268541 -0.07394448
-0.013096312 -0.028684702 0.04514569 0.08168414 -0.0546836 0.06544047 0.03521177 0.067831345
0.033397783 -0.08006979 -0.031890847 0.053954683 0.013761458 0.00035465125 0.060350787 -0.00090948475
0.0582001 -0.029998291 -0.0009730689 -0.05501595 -0.0077561648 0.008158938 -0.057804998 0.089930594
-0.029682478 0.0050820154 0.031409808 0.010048634 0.022719756 -0.046119053 0.07509249 -0.018404651
-0.04984275 -0.064869404 0.010371649 -0.03426081 0.071531974 -0.016934512 0.040805284 -0.04028678
-0.07386943 -0.07273295 0.04891994 -0.04571756 0.047813658 -0.028220253 0.039883487 -0.0536097
-0.049812242 -0.027527912 0.036726516 -0.046536073 -0.02034433 -0.054607123 0.027956704 0.05623826
0.069225125 -0.011722414 0.051770743 -0.040749136 -0.030689277 0.043560497 -0.029724417 0.014539001
-0.062143728 0.032247745 -0.081169866 0.06491042 0.002039283 0.039398625 0.039887257 0.027204094
0.024908017 0.012136631 -0.059405454 -0.046416063 -0.015243653 -0.010752105 -0.0060144714 0.08732024
-0.05272629 0.021285444 0.055201292 -0.031078035 -0.027822884 0.060681153 -0.051115327 0.008967808
0.011275674 0.029096317 -0.07060257 -0.018508546 0.028934436 -0.0517216 0.071551755 -0.07647192
0.007717208 0.036413632 0.015119047 0.069878764 -0.015956555 0.00040628953 0.08562847 0.07368526
-0.0057519996 -0.047415223 -0.035663217 -0.07379002 0.08292315 0.057343267 0.0674585 -0.07048701
