checkpoints/model_final_policy.pt (torch, 487090 bytes, 13 tensors)

customer_encoder.conv1d.weight f4 [128, 1, 24]
00000000: 84ca 1f3e d886 2d3e 68d7 43bd df55 403e
00000010: 5fe3 31bd 9364 213d 7aae cdbd 9ab8 f53d
00000020: eea6 373e 09ae 1bbe e00c 363e 7958 243d
00000030: d9b8 173e 2174 d83c 8d2b c43d f14b e4bc
00000040: 0d40 213e 0e77 e43c 3fbf c2bd 90c6 543d
00000050: 0ba5 c6bd 5fc3 ccbc f99c aebd cbff 073e
00000060: befc 24be ecbe c0bd 321e 6cbd fe09 f8bd
00000070: c59f ac3c a594 4fbe c74f 3c3e fd60 31be
00000080: 949a 213e 3eb9 053d 2299 87bd c5c8 013e
00000090: 8edb f93c f2d3 283e 4246 ac3c 2b9e 82bd
000000a0: 3517 5f3d ce00 6cbd 9b3c b13d 8628 3a3e
000000b0: be34 ee3d 6507 b6bd 4a93 ef3d d661 0e3d
000000c0: 691b d43d c1cb febd 10f5 4ebe 21e4 a3bd
000000d0: 9ed0 21be 4be9 2c3e 9845 723d 16df ac3d
000000e0: 436b 833d 1681 e3ba 8f3c 233e 17a4 15be
000000f0: b601 733c bbfa 0dbe 2468 853d 8a2a 92bd
00000100: 6cef 7f3d eeb3 25bd 7664 2c3e a4aa f6bd
00000110: fdf6 f4bd 16a9 f8bd 22db 3d3e 49b9 8f3d
00000120: f80e 493e db9e 2cbe 305f 4fbe 8279 22be
00000130: 0414 0bbe 59cc a53d 7402 943d 33e3 2d3e
00000140: 619e d7bd a34a 10be 36c2 de3d 155c a6bd
00000150: f95f fa3d c725 49bd fd2c eb3d 62c8 21be
00000160: 1721 d3bd 1213 763d 5b0b 333d c5b5 55bd
00000170: e6da f43d 84be 0d3e 9e13 19be 3d7c e3bd
00000180: 975e 3f3e ce10 8dbd 7342 94bd 70d2 4bbe
00000190: f036 f2bd fc0e 563d cc7d dabc 112b 18be
000001a0: 98de 873b 9ddd 0cbe 48c7 31be ecf7 e7bd
000001b0: 3866 35be 799d 04be f5b6 523e 2181 1a3d
000001c0: 574c 813d f819 41be ea23 0abe 147a 89bd
000001d0: 188a 0a3d d7f4 37be afa5 b1bd 1c44 f6bd
000001e0: 85f7 0f3a bd8c 9bbd 5260 67bc 1acd 0ebe
000001f0: c508 11be 333d f1bd 3cdd 8dbd 9c55 25be
00000200: b324 2f3e 0619 1ebd 8a74 333e 968c 7f3d
00000210: 3814 2fbe ab49 113e f57c 5dbd 4828 a2bd
00000220: fb4b 2dbe b6a3 4dbe 02cb 6b3d 5160 35bd
00000230: 535b a73d 601a 2bbe 41ec 1c3e 4f51 17be
00000240: d136 10bd 3f90 2e3d 7cd7 d73d fb94 273e
00000250: bddc 3c3e 9667 24be 9734 543d 18c8 b3bd
00000260: 350b b9bc fabc 1abe f518 3e3e 07a1 1abe
00000270: 176a e33d 161b 943d 9f52 8c3d 5119 e4bd
00000280: 06fb 3d3e 86d3 3f3d bace cf3c a0f7 37be
00000290: b3ca b33d 37e9 f7bc 011a bcbd 3c90 353e
000002a0: 457d 3a3d 774c e7bd d799 d3bd 0588 12bc
000002b0: 7ff0 eb3d 3b05 5bbd 8ac2 eebd c81a 8fbd
000002c0: 738d 1bbe 1bc9 923d d2c5 213e d6a5 43be
000002d0: d4dd 393d 54a8 d73d 6925 0e3d 581f 92bd
000002e0: d5d9 da3d 6b6f d83d 9fe9 9d3d 0cfe 14bd
000002f0: 88a9 63bd bb8a b13c 3b7b 1abd 9624 80bd
00000300: c38d 053e 17ab 333e ba46 a5bc 7752 42bd
00000310: 8223 aa3a 8107 30bc ebfa 493d dc43 6a3d
00000320: 8011 3ebe 9dce 96bd 440c 303e 232f a13d
00000330: 8c12 0bbc 944b fbbd d56a fcbd 1d50 3cbe
00000340: 5957 87bd 56de 913d 6762 043e 5936 c23d
00000350: 3bbd 36be 0eb2 fbbd 9dd4 febc 0d38 4c3e
00000360: 37cc f13c 44a5 58bd a4e5 ac3d 1b84 9dbd
00000370: 1f8c 05be f4fa 163e 8018 c0bd af8c 26bd
00000380: 2e41 50be 481e 0a3e 58a0 1e3e a93c 9b3d
00000390: 889e 13be b0f2 4ebe 15bb 2bbe c30b 1c3e
000003a0: 572c c83d 8570 2d3e fad4 db3d 6e92 543d
000003b0: 79df 88bb 2f38 1fbe 6493 34be acb8 45be
000003c0: 182c ab3d ee4a cdbd 4050 28bd 8269 eebd
000003d0: ff67 13bd 5cfe 13be 26c0 08be a6a4 8b3d
000003e0: c303 78bd dce0 fe3d 74aa 85bd 5547 18be
000003f0: 5532 1bbd 1f75 cbbd 2085 84bd 2a1a 46be
0.15604597 0.1694597 -0.04781285 0.18782757 -0.04342973 0.039402556 -0.100430444 0.119981006
0.17934772 -0.15203108 0.17778349 0.040123437 0.14816608 0.026422562 0.09578619 -0.027868243
0.1574709 0.027888801 -0.095091335 0.051947176 -0.09699448 -0.024995504 -0.08526034 0.13281171
-0.16112038 -0.094114155 -0.057645984 -0.12111281 0.021072278 -0.20271547 0.18389808 -0.17322154
0.15781623 0.032647364 -0.06621005 0.12674244 0.0305002 0.164871 0.021029595 -0.063778244
0.05446549 -0.057617955 0.08654138 0.18179521 0.116311535 -0.08888129 0.11698015 0.034761272
0.103567906 -0.12441207 -0.20210671 -0.080024965 -0.15802237 0.16885869 0.0591484 0.08440988
0.06416943 -0.0017357196 0.1594107 -0.14613377 0.014831951 -0.13865177 0.06514004 -0.0713702
0.06248419 -0.040454797 0.16835198 -0.12044266 -0.11961172 -0.121416256 0.18540624 0.07017762
0.19634616 -0.16857474 -0.20251155 -0.15866664 -0.13581854 0.08095617 0.072270304 0.16981201
-0.10528255 -0.14090972 0.108768865 -0.08123032 0.122253366 -0.049108293 0.1148319 -0.15799096
-0.10309046 0.06007678 0.043712 -0.052175302 0.11955814 0.13842207 -0.1494889 -0.11107681
0.18688427 -0.06887971 -0.07239237 -0.19904494 -0.11826885 0.052260384 -0.026671313 -0.14860179
0.0041464083 -0.13756414 -0.17361176 -0.11326584 -0.17714775 -0.12950696 0.20577605 0.037720803
0.06313389 -0.18857563 -0.13490263 -0.06712738 0.033823103 -0.17964493 -0.0867418 -0.120247096
0.00054919004 -0.07595203 -0.014122086 -0.13945428 -0.14163502 -0.11779251 -0.06926963 -0.16145939
0.17103843 -0.038598083 0.17524925 0.062389933 -0.17097557 0.14188258 -0.054074246 -0.07917839
-0.16923515 -0.20081982 0.05756665 -0.044281308 0.081717156 -0.1670928 0.15324499 -0.1477711
-0.035208527 0.042618033 0.10539147 0.16365425 0.1844358 -0.1605514 0.051807966 -0.08778399
-0.022588352 -0.15111151 0.18564208 -0.1510049 0.111042194 0.07231729 0.06851696 -0.11137641
0.18552789 0.046832584 0.02536713 -0.17965555 0.08778896 -0.030262573 -0.09184647 0.17730802
0.045529623 -0.112938814 -0.10332077 -0.008943562 0.1152048 -0.053471785 -0.11658199 -0.0698753
-0.15190677 0.07167264 0.15798119 -0.1910623 0.045377567 0.10530153 0.034703646 -0.071348846
0.106860794 0.10568126 0.07710575 -0.03637509 -0.0555816 0.021672597 -0.037715178 -0.06256978
0.13042359 0.17545734 -0.020175327 -0.047441926 0.0012980553 -0.010743977 0.04931156 0.057193622
-0.18561363 -0.07363627 0.17192179 0.07870319 -0.008488309 -0.12270275 -0.12325064 -0.18389936
-0.06608457 0.07122485 0.12928163 0.09483022 -0.17845623 -0.122898206 -0.031107241 0.19943257
0.029516323 -0.052891985 0.08442238 -0.07691213 -0.13041733 0.14744169 -0.09379673 -0.04066151
-0.20337364 0.13488114 0.15490854 0.075799294 -0.14415944 -0.20209765 -0.16770585 0.15238862
0.09774082 0.16937454 0.107339814 0.05189746 -0.0041770306 -0.15548776 -0.1763435 -0.19308728
0.083580196 -0.10024057 -0.041092157 -0.11641218 -0.03598785 -0.14452499 -0.13354549 0.068185136
-0.060550462 0.12445232 -0.06526652 -0.14870961 -0.037889797 -0.099344485 -0.06470704 -0.19345918

customer_encoder.conv1d.bias f4 [128]
00000000: d75d 52bd 039c 963c 7868 5fbd 62a4 4cbe
00000010: b39c adbc cbcd cb3d d5d5 c2bc 1acd cdbd
00000020: ea84 d23b 2594 183d 7371 69bd a016 22be
00000030: 0c3e e0bd 0c52 08bd d483 963d ebd5 393e
00000040: 51ae 793b d25b 953d 47c2 f03d 894d b6bd
00000050: 68c1 8abd 19a4 0a3e 3eaf 153e 4936 463d
00000060: 3f62 21be 402a ed3d 8dc3 2cbe 4ff3 d03d
00000070: dbf8 c43c 02f5 863d 84b3 4bbe d9b5 92bd
00000080: ffb3 b13d cce4 203e 6246 6fbd cf68 3a3e
00000090: 146e 3abd ba5b fcbd 79fd b4bd 9b08 4f3c
000000a0: 7f8f 15bd c162 ca3d 8572 e7bd 24eb 6dbd
000000b0: b127 4fbe f089 2a3e a68b 1dbd 2abc 24be
000000c0: 1f5f 21bc ef93 b3b9 da3d 683d 9f82 b7bc
000000d0: 8d7d 033e 9f36 90bd d082 7abd ca92 46bd
000000e0: 662a 163d 8f7a 273e 9c49 1abc 26dc 203e
000000f0: c630 243e aca2 d9bd 83e1 8fbc 2e68 c5bd
00000100: d5f6 ad3d bf1b 93bd aa1e 7f3d 87ac 473c
00000110: f444 09be e98a 0cbe 762d 4cbe 32c5 e9bd
00000120: d876 693d 5d84 4b3c 6f1d 1d3e 5af1 37be
00000130: 13ff c4bb 7a6b 3bbe fdba 9e3a 7d59 983d
00000140: 5682 3bbe 3b84 383e 76a6 81bd be26 393e
00000150: cd4e 0cbd da16 ed3d 9f04 3e3e 1550 98bd
00000160: ce4e 4bbd 345e db3d d3ec 32be 5f77 f73d
00000170: 4344 03be 383e 423e 00f4 08be 541d acbd
00000180: 08ed 1b3e ff03 b6bd 1a31 333e 9ae8 0f3e
00000190: b006 3f3e 8f96 4abe 8fff 163b 2099 89bd
000001a0: 4c43 473d 77d4 1dbe 7e71 ab3d 7667 1ebc
000001b0: 3991 c5bd 5406 3cbe cdb6 da3d 804b 97bd
000001c0: 013e 1a3e 8fd2 143d c235 7e3d 93cb fdbc
000001d0: 113c e8bc 1803 8ebd b2f2 34be d669 033e
000001e0: 86a9 03be 0198 f33d 52e8 8cbd a7e4 023e
000001f0: f720 333e c0ef ffbd f299 2c3e 0bde a13b
-0.051359024 0.018384939 -0.05454299 -0.19984582 -0.021192884 0.09951361 -0.023783604 -0.10048886
0.006424536 0.037250657 -0.05699296 -0.15828943 -0.109493345 -0.03328137 0.07349363 0.1814801
0.0038098285 0.07292904 0.117558055 -0.089015074 -0.067751706 0.13539161 0.14617631 0.048391614
-0.15760134 0.11580324 -0.16871472 0.102026574 0.024044445 0.065897 -0.19892699 -0.07163591
0.0867691 0.15712279 -0.05841673 0.18204044 -0.045515135 -0.12322183 -0.088374086 0.012636329
-0.0365138 0.09882117 -0.1130114 -0.058085576 -0.20229985 0.16654181 -0.038463257 -0.16087404
-0.009849339 -0.0003425176 0.05669961 -0.022401152 0.12840863 -0.07041668 -0.06115991 -0.048479833
0.036661528 0.16355346 -0.009416964 0.1570898 0.1603423 -0.1062673 -0.017563587 -0.09639011
0.08494345 -0.071830265 0.062285103 0.01218713 -0.1340521 -0.13724865 -0.19939217 -0.11414565
0.056998104 0.012421695 0.1534326 -0.17963162 -0.0060118525 -0.18302718 0.001211017 0.074389435
-0.18311438 0.18019192 -0.06330578 0.18081185 -0.034254838 0.11576624 0.1855645 -0.074371494
-0.0496357 0.10711327 -0.17473154 0.12083315 -0.12819009 0.18969047 -0.13374329 -0.084040314
0.15227139 -0.08887481 0.174992 0.14053574 0.18654895 -0.19783996 0.0023040508 -0.067186594
0.048648164 -0.1541308 0.08371256 -0.009668222 -0.0964684 -0.18361789 0.10679398 -0.07387447
0.15062715 0.036333617 0.062062986 -0.03098086 -0.028348954 -0.06934184 -0.17670706 0.12833342
-0.12857637 0.11894227 -0.06880249 0.12782536 0.17493044 -0.124969006 0.168556 0.0049397997

vehicle_encoder.lstm.weight_ih_l0 f4 [512, 2]
00000000: 8781 87bd db7e 163d e3d3 4e3d 30c3 9f3d
00000010: 774e b0bd 10fa a03d 2855 8f3d be82 b83d
00000020: cf05 453d 70f1 2fbd aeff 893d df9b a53d
00000030: 8548 09bd 8146 64bc 8f8d 8e3d 8a82 933d
00000040: 4d69 6d3d 1acc 893d 7852 3dbd 2d1b 83bc
00000050: ce4b 13bd c47d 3a3d 802c b83c c52b 8bbd
00000060: 9c10 21bc f712 90bd 448a aebd 751c a13d
00000070: d33c 35bd 951e 213d 633a 92bc 8baf 85bc
00000080: 6a28 eeba bf56 893d 7588 45bc 88e0 963d
00000090: 5abf 533d 3ea2 783d d374 a4bd c6a8 29bd
000000a0: 1c7f 93bd 1cce 9bbc 4178 8dbc 7622 9a3c
000000b0: 9c0e a73d df84 293d 81bd 77bd 62f4 5ebd
000000c0: ba60 873d ff11 0a3c 1012 cb3c 9ac3 3abd
000000d0: fe43 1ebc a25d d63c a18b 77bd c033 623d
000000e0: a84b 3f3d 352f 4bbd 093c 0dbd 66d5 9bbc
000000f0: 07c9 563c 851d 0bbd 9371 ad3d 2654 acbd
00000100: 681a 45bd 17e1 50bd 030b bb3c 1553 2e3c
00000110: 7706 c1bc 6526 9f3d 4728 9bbd d74b 033d
00000120: 0cd0 42bd 7a03 a1bc 4fab b0bd fae0 88bd
00000130: 1cff 97bd 284d 213d cf27 0abd d379 3c3d
00000140: 120f 42bd d3b2 acbc 9509 1c3c 783e 953d
00000150: b380 bdbc ee5f 553d fc72 b53c 5e87 543d
00000160: d272 683d aa62 173d d98a d8bc c10a cbbc
00000170: f7e9 0c3d 7743 453d 79ae c6bb a3ba 303d
00000180: 8044 54bd 222d 533d 850a 0dbc 1687 71bd
00000190: 88ea 29bd 5d6a 87bd e230 923c b846 58bd
000001a0: 1b0f b8bc 9020 35bb a65d 56bd 2795 873b
000001b0: bd01 1abc 6703 f63c ae30 863d 5366 52bd
000001c0: 12c7 413d 06b6 1abb 9072 51bd 2ecc 26bd
000001d0: e470 a43c 1d5b 843c bcb8 87bb 904d 3bbd
000001e0: 6319 3a3d 11d6 5f3c 5b88 aebd 68b3 77bc
000001f0: 3557 c9bc 3ac2 1ebd 0f30 42bd 2e61 90bd
00000200: 932b b13d 4a85 a6bd e41e a73d d6c5 8ebd
00000210: a402 c2bc 41b9 1cbd b3c6 3bbd 9266 073d
00000220: ef19 4c3d 9823 74bd 21b4 1bbd 5ecf 453d
00000230: b6f5 19bc 8cf4 b83c 4cb8 303d 41cb 0fbd
00000240: 5bc1 54bd a625 f63c d204 ffbc 4c95 6cbd
00000250: 3e9f 36bd 3b7a 27bd dabe b63d 59c6 933c
00000260: d747 163d 6790 193c 8c35 72bd 2334 823d
00000270: 196b 69bc 7d50 b8bc c251 963d 2de4 33bd
00000280: b2a8 a13c 6679 97bd 252b 393d 6d37 0d3d
00000290: c4ee 92bd c584 4c3d 7796 343c 259a 35bd
000002a0: 8850 9d3d 9edc 213d cb0c fd3c e39b 08bd
000002b0: 6ee6 41bd b761 3dbd 76a0 113d 1b8c d63c
000002c0: 5b29 56bd 0653 a53d 39ce 5c3d 974f 05bd
000002d0: f466 3e3d fdaa 16bd 8aed d43c c5bb 923d
000002e0: dc3e 9dbd e51b 2dbd 0c91 adbb e840 5a3c
000002f0: 9bfd 98bd 0e0c 75bd 4da5 07bc 36a7 5fbc
00000300: 7888 863c 63e0 093c 5cca 993c 1e4e cc3b
00000310: c410 0e3c b813 ebbb 313d 063d 713d 7b3d
00000320: 03df 39bd 25e5 3fbd 0d99 193d 88d4 84bd
00000330: 44f0 713d 8896 2d3d 8502 543c bb89 1dbd
00000340: b0aa 8e3b 27c0 8abd 12f0 a0bd 907f ac3d
00000350: 71ce a7bd d3cb 9bbd 40d7 0bbd 5c0c b63b
00000360: cb82 a93c 6f5c 2abd 31cc 0cbc 267a a3bc
00000370: 6648 983d 46d5 9d3d 2abb 143d d803 25ba
00000380: cf6c 853d b6a3 93bd 8b8c 1b3d 3d3a 4ebd
00000390: 914c 8e3d b525 9fbd d2f1 023d 1742 97bd
000003a0: 92e0 443d 4d6a 553c b69d 9c3d 9be2 85bd
000003b0: f5bd 6a3d 8645 70bd 81f4 41bd b92d 0b3d
000003c0: b021 47bc 7357 89bd d2f3 9bbd d661 c5bc
000003d0: 55c8 cb3c 05e1 9f3d 3cf9 823d c4b7 6838
000003e0: 7c8d 60bd b2ee a2bd c72d a23d bd33 49bd
000003f0: 9c44 59bc 74f1 8dbd 6293 72bd 912b 9e3c
-0.06616502 0.036742073 0.05049504 0.07800901 -0.08608716 0.07860196 0.06998664 0.09009312
0.048101243 -0.042954862 0.0673822 0.08086371 -0.033516426 -0.013932825 0.06960594 0.07202633
0.05796175 0.067283824 -0.046221226 -0.01600417 -0.035960965 0.045530096 0.022482157 -0.06795458
-0.00983062 -0.07034867 -0.08522466 0.07866756 -0.04424746 0.039335806 -0.017850107 -0.016319057
-0.0018170003 0.06705999 -0.01205646 0.07367045 0.05169616 0.0607016 -0.08030095 -0.04142072
-0.072019786 -0.019019179 -0.017269256 0.01881526 0.081570834 0.04138648 -0.06048346 -0.05443228
0.06610246 0.008427142 0.024788886 -0.045596696 -0.009659765 0.026167694 -0.060435895 0.055225134
0.04670301 -0.049605567 -0.034481082 -0.019022655 0.013109452 -0.0339637 0.08468928 -0.084144875
-0.048120886 -0.050995912 0.0228324 0.0106399255 -0.023562653 0.07770995 -0.07576042 0.03205475
-0.04756169 -0.019654978 -0.086264245 -0.06683536 -0.07421705 0.039380223 -0.03372937 0.046014618
-0.047377653 -0.021081364 0.009523769 0.072873056 -0.023132658 0.05209344 0.022149555 0.05188691
0.056750126 0.036959328 -0.026433395 -0.024785401 0.034402814 0.048160043 -0.006063279 0.04314674
-0.05182314 0.051556714 -0.008608465 -0.05896672 -0.041483432 -0.06612084 0.017845575 -0.052801818
-0.02246814 -0.0027637817 -0.052335404 0.0041376534 -0.0093998285 0.03003092 0.06552254 -0.051367115
0.04730899 -0.002360703 -0.051134646 -0.040722065 0.020073362 0.016156727 -0.004141895 -0.045728266
0.045434367 0.013661877 -0.085221015 -0.015118457 -0.024577716 -0.038759448 -0.047409113 -0.070497856
0.08650889 -0.081308916 0.08160189 -0.06971328 -0.0236829 -0.03826261 -0.04584379 0.033056803
0.04982942 -0.059604257 -0.03801358 0.048293464 -0.009396961 0.022577547 0.04314451 -0.035105947
-0.05194221 0.030047249 -0.031130228 -0.057759568 -0.04458546 -0.040888052 0.08923121 0.018038915
0.036689606 0.009372807 -0.059133098 0.063576005 -0.0142467255 -0.022499317 0.07339813 -0.043918777
0.01973376 -0.07396202 0.04520716 0.034476686 -0.07174447 0.049931306 0.011022202 -0.044336457
0.07681376 0.039517038 0.03088989 -0.03335179 -0.047338895 -0.046235766 0.035553418 0.026189854
-0.052285533 0.08072476 0.053907607 -0.032546606 0.046484903 -0.03678416 0.025992174 0.071647204
-0.07678005 -0.04226293 -0.005296832 0.013321139 -0.074702464 -0.05982595 -0.008279157 -0.013650706
0.016422495 0.008415314 0.01877325 0.006234898 0.008670989 -0.0071739815 0.0327732 0.061337892
-0.045378696 -0.04684939 0.037499476 -0.064858496 0.059067026 0.042379886 0.012940054 -0.038461428
0.0043538436 -0.067749314 -0.0785829 0.08422768 -0.081936724 -0.07607236 -0.034140825 0.0055556726
0.02069225 -0.041592058 -0.008593605 -0.019955706 0.07435684 0.07706694 0.036311306 -0.0006294823
0.06514894 -0.0720896 0.03797583 -0.05034851 0.06948198 -0.07770864 0.0319689 -0.073856525
0.04806573 0.013025832 0.076472685 -0.06537362 0.057310063 -0.058660053 -0.047352318 0.03397915
-0.012154028 -0.06706133 -0.076148644 -0.024094503 0.0248758 0.07806591 0.06395194 5.5484255e-05
-0.05482243 -0.07955684 0.079188876 -0.049121607 -0.013260987 -0.06930819 -0.059222586 0.019307883

vehicle_encoder.lstm.weight_hh_l0 f4 [512, 128]
00000000: f419 7cbd 30ee 8bbd f1c5 843d 0fe3 3a3c
00000010: 56c6 8c3a 2e60 acbd 4698 9b3d c45c 69bd
00000020: ec52 1c3d 01b1 12bc 1299 bb3a 7809 2c3d
00000030: 71c4 b3bc 2633 bebc 1506 8d3d 1843 87bd
00000040: e093 253d c085 c7bc 715d e5bc 40ed 783d
00000050: f759 583c 8d9d abbd b4ca 9e3d 5346 2dbd
00000060: d61a 9c3d 9699 d7bc 51b5 b33d f5f1 e13c
00000070: 6497 2ebb 7f76 033d 0d55 b7ba 132d 39bd
00000080: 1955 4c3d b5a5 703d c870 4dbc 6aa6 ad3d
00000090: e9df eb3b 7fb9 45bd 4619 4cbd 6f25 7a3d
000000a0: b92c 0cbd f47e 5e3d 4960 acbd d0ea 963b
000000b0: 5385 74bd a057 fb3c 2bdd 953d 8d3e 083d
000000c0: 17b8 ecbc c235 a7bd fd8c 31bd 727c 5bbd
000000d0: d952 b03d 09d0 49bd 273b 063d aca3 8e3d
000000e0: 4370 f93c 54da a1bd a9a4 0dbc 4219 cbbc
000000f0: 8818 6f3d a87f d0bb fa60 cbbb 488f a43d
00000100: 37ed a03c 5785 2c3d b202 e3bc 70f2 653d
00000110: 0882 3c3c bdee 83bc c7be 963c 27f4 90bd
00000120: 3363 e83a a098 2c3d 7651 a6bd 6b50 3abd
00000130: ef10 5f3d 5150 d139 3649 95bb 5b04 f83b
00000140: 6720 29bd b6e2 923d e8b0 f6bb 1537 fabc
00000150: 1903 453d 0323 94bd 7d98 74bc a326 f33b
00000160: 0517 d3bc d6e3 433d 9b70 97bd 110b c6bc
00000170: aa0f 1fbd 85f2 a43d 7efb 163d 2691 84bd
00000180: d087 063d 43c1 5bbb e1c4 a33d da01 4e3d
00000190: 21d0 4fbd 7442 a43d 2a3f 68bc c69a afbc
000001a0: 6d71 cd3c 8001 b73d 1ad5 e83c 88f8 b0bd
000001b0: ade2 efbc 6c83 a63d 8a8d 05bd ccac 28bd
000001c0: 3bcc 8dbd 00a7 41bd 6ebf 4bbd 59c7 b93c
000001d0: 5cd7 153d bac7 af3d 8810 6f3d 8be1 3b3b
000001e0: 56e3 3c3d 8f5d 553d b831 9fbd 873b 303d
000001f0: 4b84 73bd 9fa9 8f3d 28e0 24bd feda 9d3c
00000200: 6142 a6ba 6097 2a3d e2df 633c 438e 83bd
00000210: 3848 173d 7174 583d 15f5 3fbd 9a32 68bd
00000220: f424 77bd 9383 2ebd 902a 37bc 4beb d03b
00000230: 5eb5 d338 81b1 bcbc 334a 5e3d 9144 ac3b
00000240: 0648 4fbd 37d1 c0bc 1a69 55bd 9168 fdbc
00000250: 497d abbd 02a2 793c 4843 8cbd f87a 0e3d
00000260: a39e 723d eb0b 85bd 90e8 3cbd 467c 8fbd
00000270: e589 c13c 725b 883c d13e 3ebd 6509 593d
00000280: f882 173d ca0e a3bd 66e0 a6bb f639 1abd
00000290: 36f6 75bc 5556 4a3d 598e 21bc 15b5 7abd
000002a0: df29 7f3d cd6b a6bd 50d4 fabc 9e46 0c3d
000002b0: 2eaf a13d 536a ad3d 2f40 a4bc 6a10 ed3c
000002c0: fb19 9ebd db8b 87bc c5c6 e4bc c463 c93c
000002d0: 5801 6cbd 8430 983c c06d 393d 9e7b 8c3d
000002e0: 2107 81bc 22f0 a43d 3868 a9bd 84e4 cabc
000002f0: 9403 0a3d 9759 bb3c 8491 293d f581 6fbd
00000300: c7db 5e3d 65f8 a7bd 4f98 77bd 22e2 babb
00000310: 8f3d b1bd 8392 acbd 3fac 9fbd 13c5 903d
00000320: 6dcb 9d3c 6eb5 e4bc 7465 71bb 83ac 9cbd
00000330: 0fe4 aabd 7981 7bbd 87d3 afbd e98c 6c3d
00000340: 17a9 febc 65a4 c5bc d9f1 9bbd 318a 743c
00000350: 810a 58bc 8adb 73bd 8fbc 693d 77fb 963d
00000360: d878 80bd 1b1c 453d 08a7 66bc bcdc 4e39
00000370: 7589 1b3d 7dbf 87bc 1c4a 993d 97ae 5a3d
00000380: 552b 6ebd 623f 5fbd 85f5 b0bd 8e55 ed3c
00000390: 40e5 88bd 74c6 96bd 2770 68bd fc3e b3bd
000003a0: 0e14 95bd 9d5c a13d edc1 4a3d b687 9e3d
000003b0: ac1d 35bd 3455 18bd f55b 01bd b633 1c3b
000003c0: 9921 80bd 6b22 5f3c 0c32 6abd 59b1 683c
000003d0: 8687 a63d eaa2 7a3c bed6 823d 33c8 80bd
000003e0: a1f8 48bc c067 61bd 731a 26bc 47f7 11bd
000003f0: a750 4abd bcf8 adbd 976f 06bd 8996 573c
-0.06154819 -0.0683254 0.06483067 0.011406674 0.0010740261 -0.08416782 0.07597403 -0.056973234
0.038165018 -0.008953334 0.0014312586 0.042001218 -0.021944256 -0.023217749 0.06885926 -0.06604594
0.040424228 -0.02435577 -0.027998658 0.060773134 0.013205043 -0.0837966 0.07753506 -0.042303395
0.07622306 -0.026318353 0.08774818 0.027581194 -0.0026640529 0.03209543 -0.0013987139 -0.045209
0.049885843 0.05875178 -0.012539096 0.084790066 0.007198323 -0.048272606 -0.04982879 0.061070856
-0.03422234 0.05432029 -0.084168024 0.0046056286 -0.05969746 0.030681431 0.07317575 0.033262778
-0.028896375 -0.0816455 -0.043347348 -0.053585477 0.08609552 -0.049270663 0.032771256 0.06964812
0.030449038 -0.07902971 -0.008645215 -0.024792317 0.058373004 -0.006362874 -0.006206629 0.08035141
0.019644363 0.04211935 -0.027711246 0.05613941 0.011505611 -0.01610505 0.018401517 -0.07077818
0.0017729759 0.042137742 -0.08121006 -0.04548685 0.05445951 0.00039923427 -0.0045558466 0.0075688786
-0.041290667 0.07172148 -0.007528413 -0.030543843 0.048098657 -0.072332405 -0.014928934 0.0074203773
-0.025767813 0.047824703 -0.07394525 -0.024175199 -0.038833298 0.080540694 0.036860935 -0.06472997
0.032844365 -0.003353194 0.07996536 0.050294735 -0.050735597 0.080204874 -0.014175216 -0.021436106
0.0250785 0.08935833 0.028421927 -0.086411536 -0.029282892 0.081305355 -0.032605685 -0.041180417
-0.069237195 -0.047278404 -0.04974311 0.022678064 0.036582336 0.08583017 0.058365375 0.002866837
0.046115242 0.052091178 -0.07773155 0.04302552 -0.059452336 0.070147745 -0.040252835 0.019269463
-0.0012684577 0.04164827 0.013908358 -0.06423619 0.036934108 0.052845422 -0.046864588 -0.056688882
-0.060337976 -0.042605948 -0.011179581 0.0063757054 0.00010095046 -0.02303386 0.05426998 0.005257197
-0.050605796 -0.023537261 -0.052102186 -0.03093365 -0.083735056 0.01523638 -0.068487704 0.03478524
0.05923332 -0.06496414 -0.046120226 -0.07006125 0.023625324 0.016645167 -0.046446625 0.052987475
0.036990136 -0.07961805 -0.0050926683 -0.037652932 -0.015012315 0.04939874 -0.0098605985 -0.06120785
0.06229579 -0.0812603 -0.030618817 0.034247033 0.07894741 0.08467545 -0.020050136 0.02893849
-0.07719799 -0.01654618 -0.027926812 0.024583705 -0.05761847 0.018577822 0.04527068 0.068595156
-0.01575047 0.08053614 -0.08271831 -0.024767168 0.03369482 0.022869868 0.04139854 -0.058473546
0.054408815 -0.08201674 -0.060447987 -0.0057032267 -0.086543195 -0.084263824 -0.07796525 0.07068839
0.01926204 -0.027918544 -0.0036834152 -0.076500915 -0.0834428 -0.06140277 -0.085852675 0.05775157
-0.031086488 -0.024126241 -0.07614488 0.0149255255 -0.013186098 -0.05953554 0.05706459 0.07372182
-0.06273049 0.048122507 -0.014077909 0.00019727921 0.037972886 -0.0165708 0.07484838 0.053389158
-0.058146793 -0.054503806 -0.08640579 0.02897146 -0.06684351 -0.07362071 -0.05674758 -0.08752248
-0.07279216 0.07878993 0.04950135 0.077407286 -0.04421775 -0.03719063 -0.031581838 0.0023834533
-0.06256408 0.013619046 -0.057176635 0.014202439 0.08131318 0.015297631 0.06388615 -0.06288185
-0.012266309 -0.055030584 -0.010138142 -0.035636213 -0.049393322 -0.08494708 -0.032821264 0.013158449

vehicle_encoder.lstm.bias_ih_l0 f4 [512]
00000000: c7b8 303d 1f26 173d c2a2 1d39 ea3d f7bc
00000010: 4936 9cbd 4982 3a3d 2c40 793d e735 c93c
00000020: ba30 063d 8668 b03d 46e9 92bd 98f6 6bbd
00000030: f6ef 0fbc 30f8 103d a598 a03d 53c2 b73d
00000040: 7bd4 4b3c c1a5 363d 2d3b a23d 97fc 453d
00000050: 355f bcbb 7977 09bd 253d b1bc 3b65 aa3d
00000060: 8555 adbd 3c1f 663c 006b 793c 7a71 a9bc
00000070: 143a 5ebd eb26 89bd daac 57bb 6a7a 61bd
00000080: 0f79 1f3d 5ecf 8abd 87cb 9dbc 9c91 2ebc
00000090: 550f 153d 3a0d 833d de95 a63d 10fa cb3b
000000a0: d92e b2bd bb77 cebc 968c 5e3c 5923 f43c
000000b0: 7133 a13d e68b abbd a06a d7bc a354 643d
000000c0: 5060 4c3d 3225 fbbc ae18 d93c 92c5 683d
000000d0: 3e18 0d3b 742c e0bb 4f20 3d3c 0d6b 0fbd
000000e0: 64e3 b4bd 135f 323d 2724 c33c 9215 80bd
000000f0: 4749 793c 1b77 e9bc 3a65 9d3d 43fe 2cbd
00000100: 19a1 a03d 95e5 153d 1336 063c 3a28 d53c
00000110: 85f6 3e3c ee10 543d cd2d 21bd 70e2 dbbc
00000120: c4d9 36bd bd46 913c bc6e 41bd 1b8a 443d
00000130: c889 a2bc 94f5 af3d 35f5 093d d7c8 a6bd
00000140: e41d 763c 81ce 093d 4d53 68bd d400 6a3c
00000150: 9828 053d 2484 acbd 355e 9dbd 0710 0abb
00000160: 446f 073d 3e6e 40bd 4306 3fbd 2acc 3fbd
00000170: ad42 ad3c 49f5 01bd 3078 24bd 9865 dc3b
00000180: d3c3 57bc b5dc 49bc fb73 5d3d c29f 8ebd
00000190: ed80 29bc f5a0 2cbc 8c0c 103d 7870 4cbd
000001a0: ff91 733c 6eae a6bd 196a 8a3d 6d0a 8d3c
000001b0: 2d25 17bc 89b3 9cbd 04bc 863d 9869 773d
000001c0: 1e52 793d d6e4 69bd 1102 8ab9 e484 61bd
000001d0: f6ce 62bd 16b4 87bd f04a 673d b764 92bc
000001e0: cc37 453d 8ee3 91bc 46b5 dabb 0fa2 11bb
000001f0: 72bd 8bbd 773c a3bd b321 183d dc05 1eba
00000200: 716f 04b8 731a 973b fca4 c23b 8634 643d
00000210: 9848 98bc 6fee bebc 5be0 94bd 7b6d 653c
00000220: fb33 603d 8364 42bd 9959 0abd f3d7 35bd
00000230: b255 b33d e94b a9bd bbdd 483d db7a 41bd
00000240: d21e 94bd f47c a03d 3b6d 953c cddb 273d
00000250: 4b18 ddbc c765 a0bd d1b0 7b3c 6481 0f3d
00000260: 4f2e 9a3d c3e0 42bd 41a6 b23d 9ae8 ab3d
00000270: a4f7 4abd 68ad eabc 18eb 9d3d 0731 0a3d
00000280: 2042 92bd 3733 a5bd e223 a7bd e5e1 3cbd
00000290: aefd 103d 5dc6 35bd 6511 b43d 202d 38bc
000002a0: 058f 623d 8399 5ebd 5c76 a43d ee8c be3c
000002b0: 484e 863d cde1 263d 1619 92bd 4ab9 6f3d
000002c0: c66d c5bc 6f16 5fbd e0cf 733d e707 96bd
000002d0: a2d4 fa3c 6eef 98bd 3ffd 8bbd 5c4b 2e3d
000002e0: 96a6 b03c c363 a23d 2026 843d 7048 97bd
000002f0: 9d9e 983d cbf8 a73d 34a9 d73a 13c9 453d
00000300: f114 803d 2896 8dbd 3339 4a3d a20f 6c3d
00000310: 7aa0 b0bd 4171 e53c 13c0 313d f355 d23c
00000320: 9d6b dabc adbf 833c 98d0 703d e93c 1f3d
00000330: 6d6b 85bd ca1e d9bc b888 b73d fad9 5f3d
00000340: a747 31bd 5633 93bd a70b 7c3d 0547 aa3d
00000350: e1b7 56bd 5cf7 8ebd c58c 83bc 1de4 09bc
00000360: d3d8 b53c bee9 483d a92d ecbc 2374 633d
00000370: 9407 78bd 6314 4b3d 607e 363c d044 20bd
00000380: 3fa8 123c aa10 a13c 2c02 283d 292d f1bc
00000390: 68b3 033c ae21 52bd 4628 4fbd b646 87bd
000003a0: 1782 063d afcb 16bc 2128 6b3c 2fa2 26bd
000003b0: 21ef 073d 7742 9cbd 0ddd 8d3c fda4 89bd
000003c0: b9db b0bd d612 8fbd d85c a43d 28a0 a13d
000003d0: 1a31 233d 5b10 c43c 99a1 a73d 1405 3cbd
000003e0: 5e71 833d b9f5 183d f917 843d e230 1d3d
000003f0: bf10 20bc f569 95bd 4613 13bd 57fc 3db9
0.043144967 0.03690159 0.00015033319 -0.03018089 -0.076275416 0.045534406 0.060852215 0.024561835
0.032761313 0.08613686 -0.071733996 -0.057608217 -0.0087852385 0.03539294 0.07841615 0.08972611
0.012440796 0.04459167 0.07921443 0.04833659 -0.0057486543 -0.033561204 -0.021635601 0.083200894
-0.08463577 0.014045533 0.015223265 -0.020683993 -0.054254606 -0.06696876 -0.0032909424 -0.055048384
0.03893381 -0.067778334 -0.019262088 -0.010654833 0.036391575 0.06399007 0.08134054 0.006224878
-0.08700342 -0.025203576 0.013583323 0.029802011 0.0787114 -0.08376293 -0.02629596 0.05574478
0.04989654 -0.030657385 0.026501026 0.056829043 0.0021529342 -0.0068412367 0.0115433475 -0.0350142
-0.08832434 0.0435477 0.02382095 -0.06254114 0.015215225 -0.028499177 0.07685323 -0.04223467
0.07843227 0.0365959 0.008191603 0.026020158 0.0116554545 0.051773958 -0.03935032 -0.026841372
-0.04464127 0.017733926 -0.047224745 0.04798327 -0.01984109 0.08591762 0.033681113 -0.08143776
0.015021775 0.033644203 -0.056720067 0.014282424 0.032509416 -0.08423641 -0.07683984 -0.0021066682
0.033065096 -0.046980135 -0.04663683 -0.046825565 0.021149958 -0.031728063 -0.040153682 0.006725978
-0.013169247 -0.012320687 0.054065686 -0.06964065 -0.01034568 -0.010536422 0.035168216 -0.049911946
0.014866351 -0.081387386 0.06758518 0.017216885 -0.009225172 -0.07651431 0.0657883 0.060403436
0.06086933 -0.057103 -0.0002632295 -0.055058375 -0.055373155 -0.066261455 0.05646795 -0.01787029
0.048148915 -0.017808702 -0.0066744415 -0.0022221839 -0.06823243 -0.07970517 0.037141513 -0.0006028095
-3.157504e-05 0.0046113073 0.005940078 0.055714153 -0.018589303 -0.023307053 -0.07269355 0.014003153
0.054737072 -0.047459137 -0.033776853 -0.0443954 0.087565795 -0.08266432 0.049039584 -0.047236305
-0.07232441 0.07836333 0.018240562 0.040981103 -0.026989123 -0.078319125 0.015361981 0.035035506
0.07528364 -0.04757763 0.08723117 0.083939746 -0.049552575 -0.02864714 0.07710856 0.033738162
-0.071415186 -0.08066409 -0.08161141 -0.046113867 0.035398178 -0.044378627 0.0879238 -0.011241227
0.055312175 -0.05434562 0.08030388 0.02326056 0.065579 0.040742684 -0.07133691 0.058526315
-0.024100196 -0.054464754 0.059524417 -0.07325726 0.03061897 -0.074675426 -0.06835412 0.042552337
0.02156381 0.07929184 0.06452584 -0.07386863 0.07452128 0.0820175 0.0016453625 0.048287462
0.06253994 -0.06913406 0.049370956 0.057632096 -0.086243585 0.028008105 0.043396067 0.02567575
-0.026662642 0.01608261 0.05879268 0.038876448 -0.065146305 -0.02650394 0.08961624 0.054651238
-0.043281224 -0.07187526 0.06153455 0.08314327 -0.052421454 -0.06980774 -0.016058335 -0.008416203
0.022198116 0.04905104 -0.028830366 0.05553068 -0.060554102 0.04957999 0.011138529 -0.039128125
0.008951246 0.019661266 0.041017696 -0.02944048 0.008038379 -0.05130165 -0.050575517 -0.06605284
0.032838907 -0.009203835 0.014352829 -0.040682014 0.033187035 -0.07629865 0.01731732 -0.06720922
-0.08635659 -0.069860145 0.08025521 0.078918755 0.03984175 0.02393358 0.08185119 -0.04590328
0.064181075 0.037343714 0.06449885 0.038376696 -0.009769618 -0.072956 -0.035907052 -0.00018118448

vehicle_encoder.lstm.bias_hh_l0 f4 [512]
00000000: 42dd 9c3b 080f 1fbd f453 d1bc a744 b5bc
00000010: 6735 963d 0bce 8ebc 8d52 86bd 3549 4bbd
00000020: e201 4e3d fe6e a9bd 659e c1bc 7e9a 69bd
00000030: 0651 5fbc 70c7 9fbd 733c 8ebd 7347 2abd
00000040: cb8b 0c3c 1f70 9f3d 94e5 a0bd 1807 1cbd
00000050: 21ea a33d 3bb7 763d 5c6c a3bd 54bd 6dbc
00000060: 87ee 7cbd 9b90 e63b 6e33 343d e361 aebd
00000070: d15f 4abc 8873 aebd 9ef7 7abd e922 83bb
00000080: 688f 24bd 0789 5c3d 7a81 7d3d bc47 513c
00000090: 9333 d7bc d8b3 99bd 6e8e 00bd 37d7 403c
000000a0: ca5d 973d dcaa 9fbd 424f 53bc 020b 813d
000000b0: 851c ab3d b74d 3a3d 92c2 163d 6ed6 5c3c
000000c0: af6e a3bd 530d aebc ff82 abbd 6edb 54bd
000000d0: 8dc9 4ebd c020 913d 2517 883d cb63 583d
000000e0: 827e 933d 0323 033d ef92 3a3d bf3b 983c
000000f0: 6c08 85bb fb8c 07bd 809d ec3c 1b56 853c
00000100: 19ec 8a3d 0cfe 87bd c78e 29bd 2583 19bd
00000110: be9e a4bd f41f d1bc 132b 5abc ecc7 883d
00000120: ca1d b3bd df3b 9b3d d623 a53c 0308 a0bb
00000130: 3867 88bd 647a 30bd 39e1 98bd cf76 293d
00000140: ae73 233d ca8d 61bd fbc7 9bbd 836b b8bb
00000150: 08e7 753d 2975 853c 7499 86bd da05 a8bd
00000160: 7021 5d3d b619 193d 63f5 9fbd 8bf5 99bd
00000170: 9b43 8b3c 01d7 dd39 86a5 49bd 2a57 8939
00000180: c119 7dbd 6f10 813d 5435 873c 4183 683d
00000190: 384b a1bd 8686 dabc 6465 da3c af31 ea3b
000001a0: 19ed 2f3d cac1 8cbd f8cb 1d3b deef 0ebd
000001b0: 3d9a 503d 6a64 983a 5ea3 bb3c d68f 863d
000001c0: d83d c7bc 1905 a0bd 5fc0 313b 9c12 923d
000001d0: aa3c 983d 95da 12bd 9b03 88bc 7e47 42bd
000001e0: 3ff8 ad3d 4e37 ba3c 7765 17bd 0ab5 46bd
000001f0: 84d2 a0bd bfe0 553d faae eebc 4f2e 9ebd
00000200: ab8f 8c3c 32e9 01bd 5837 853d 69ec 35bd
00000210: eabf a73d 3211 083d a56b 91bb fc34 813c
00000220: d531 a4bd 0448 523d 84a5 393d 5a0a 543d
00000230: 6907 963b 73b6 3abd dcab 4e3c f21e e23c
00000240: 263a 88bd 65b9 103d 1f3d ab3d c992 af3d
00000250: 0100 e63c 866a a33d 4673 32bd 8ec6 f8ba
00000260: d786 51bd a98a 1cbd 7659 a6bc f9b1 0cbd
00000270: fdb0 993d d6c2 22bc c38d 4e3d 613a 1f3b
00000280: 679d 2a3d b57d c0bc e288 ffbb 8f80 42bd
00000290: ab0b a7bd 9b6d 77bd e94e 9d3d d0d3 363c
000002a0: 18e2 80bc 3510 513b 0a17 c03b e245 263b
000002b0: ac00 893d 13cc 92bb 68f7 b13d eafd 8fba
000002c0: d7f1 383d bada 70bc b533 a73c 84dd 41bb
000002d0: faa9 a83d 1587 b83d 6f99 48bd 9f3d 573c
000002e0: 9841 97bd c843 babc d45d b8bd 0ae6 a7bb
000002f0: ecfa 6c3c 1bfe 783d 2736 2f3d c08e 8fbd
00000300: fea4 1a3d 66ed a4bd ab08 6a3d aacd 653d
00000310: 554f ca3c 332a 523d 6acb a93d 6be6 753c
00000320: a134 a5bb 25e5 153d a55c a5bd 43f4 00bd
00000330: 6231 253b 810b 103d 3936 a7bd d4fa 51bc
00000340: e3ac aabd fda3 563d 1d4b 58bd 5b2a aabd
00000350: f687 51bc c326 d13c d2df 2abb bbef 723c
00000360: 6c72 ee3b 5219 723d 4ab3 08bd 367d a63c
00000370: 8b77 993d ff17 4b3d 70c0 633d f0e5 58bc
00000380: af05 18bd 7153 a4bd afc3 863c 61b1 9cbb
00000390: b966 70bd 7080 41bc d093 9fbd 4e22 8c3b
000003a0: 0c72 81bd 6160 93bd 063d d8bc 75d6 99bb
000003b0: 3749 023d ede4 7c3d efb2 2fbb 1695 903d
000003c0: 1135 1fbd b056 593d b688 a63d 6566 8bbd
000003d0: 9f09 40bd c91d 5f3d 7e8a 0ebd 6897 843d
000003e0: 63d2 a4bd 5dbc 74bd 6f1d f43b 1509 2f3c
000003f0: fbdb 833d 6908 80bd 5940 3f3c c30c eabc
0.004787118 -0.038832694 -0.025552727 -0.022127463 0.073344044 -0.017432233 -0.06558714 -0.049630363
0.050294764 -0.08273123 -0.023635099 -0.0570321 -0.013630157 -0.078017116 -0.069451235 -0.041572046
0.008578251 0.07785057 -0.078562886 -0.038092703 0.08003641 0.060233336 -0.07979652 -0.014510471
-0.061750915 0.0070362813 0.04399436 -0.08514764 -0.012351946 -0.085181296 -0.061271302 -0.0040019643
-0.040175825 0.053841617 0.061891057 0.01277345 -0.02626971 -0.075050056 -0.03138583 0.011770061
0.07390936 -0.07796261 -0.0128973145 0.06300928 0.08355049 0.04548427 0.03680665 0.013478858
-0.079800956 -0.021246588 -0.08374595 -0.051967077 -0.050485183 0.07086325 0.066450395 0.052829545
0.07201864 0.03201581 0.045550283 0.018583177 -0.004059842 -0.033093434 0.028883696 0.01627641
0.06783313 -0.066402525 -0.04139593 -0.037478585 -0.0803809 -0.025527932 -0.013315934 0.06678757
-0.08745916 0.07579779 0.02015869 -0.0048837676 -0.066603124 -0.04308547 -0.07464833 0.04137307
0.039905243 -0.05506686 -0.076065026 -0.005628051 0.06003478 0.016291218 -0.065722376 -0.08204241
0.053986967 0.037378035 -0.07810476 -0.07517537 0.01700001 0.00042312595 -0.04923012 0.0002619562
-0.06179214 0.063019626 0.016504921 0.0567658 -0.07875675 -0.026675474 0.026659675 0.007147036
0.042950723 -0.068729 0.0024077874 -0.034896724 0.050928343 0.0011626605 0.022905048 0.06570403
-0.024321482 -0.07813472 0.0027122719 0.07132456 0.07433446 -0.035852987 -0.016603282 -0.04743146
0.08494615 0.02273145 -0.036962 -0.048512496 -0.07852653 0.052216288 -0.02913617 -0.077236764
0.01715835 -0.031716533 0.065046966 -0.04441491 0.081909016 0.033219524 -0.004437881 0.015772335
-0.08017317 0.05133821 0.045323864 0.051767685 0.00457852 -0.045584153 0.012614217 0.027602646
-0.06651716 0.035333056 0.08361267 0.08572919 0.028076174 0.07979302 -0.043566965 -0.0018980072
-0.051153984 -0.038218174 -0.02030633 -0.034349415 0.07504461 -0.009934148 0.050428163 0.002429627
0.041654017 -0.023497442 -0.0077983 -0.047485884 -0.08156522 -0.060407262 0.076810665 0.0111588985
-0.01573281 0.003190053 0.0058621215 0.0025371243 0.06689581 -0.004479894 0.08689767 -0.0010985706
0.04515251 -0.014700586 0.020410398 -0.0029581496 0.082355455 0.0901014 -0.04897445 0.01313725
-0.07385558 -0.022737399 -0.09002271 -0.0051238583 0.014464121 0.06078921 0.042776253 -0.07009649
0.037755005 -0.08053093 0.057137173 0.05610434 0.024696032 0.051309776 0.08290751 0.015008549
-0.0050416742 0.036595482 -0.08074311 -0.031482946 0.0025206436 0.03516722 -0.08164639 -0.01281615
-0.08333757 0.052402485 -0.05280601 -0.0830886 -0.012788763 0.025531178 -0.0026073349 0.014827664
0.0072768237 0.05910618 -0.03337411 0.020323377 0.07493504 0.04958343 0.055603445 -0.013238415
-0.037114795 -0.08023728 0.016450731 -0.0047818874 -0.058691714 -0.011810407 -0.07791865 0.0042765504
-0.06320581 -0.07196117 -0.026396286 -0.0046947547 0.031808104 0.06174176 -0.0026809534 0.07059686
-0.038868967 0.053061187 0.08131544 -0.068066396 -0.046884175 0.054471765 -0.034800045 0.06474191
-0.080479406 -0.05974995 0.007449798 0.010683318 0.06438442 -0.06251604 0.0116730565 -0.028570538

attention.wq.weight f4 [128, 128]
00000000: 3379 fb3c 8b8a b2bb ec9d 46bd 065c 3ebd
00000010: 8ee1 51bd cf31 7d3b c1e4 673d 00b9 efbc
00000020: 4e35 afbd 437a 963c 24b7 893d d3c0 88bd
00000030: 57bb 4e3d 4879 2e3a e2db d83c adc9 ab3d
00000040: c337 833d 168d c9bc 9772 c3bc 28dc b2bd
00000050: b555 abbd f89a 85bc 0a16 58bd 45f9 a73b
00000060: c6da 51bd df27 9e3d bf37 25bd 35b9 8fbc
00000070: dae7 d9bb 7c01 debc a603 eb3c 3e3b aa3d
00000080: 277a 15bd 77df ae3d 3ee8 03bd 62fe 853d
00000090: 6310 29bd 5034 4f3d 6b12 b03b 8de9 a43d
000000a0: 74c5 b33c 5762 6cbd 6e93 9e3d 1388 14bd
000000b0: 5cec 92bd 699b 623d bddb 5bbb 6003 28bd
000000c0: 92cd 54bd 988d 03bd a634 8bbb 206a 4e3d
000000d0: a9b0 ba3c 6b83 bf3c 4574 a23d 3d14 ca3c
000000e0: 9da5 e0bb 5b86 73bd 01ed 0a3c 1282 93bc
000000f0: f990 0cbd 629e 183d 0e56 66bc 4e00 87bc
00000100: 8aa5 803d 92db 49bd f3d1 c73c 5ba5 36bd
00000110: 9988 363d e4d4 5ebc 2558 97bd 05ff f6bc
00000120: f3c0 61bd 797e 9b3d 91a9 e3bc 0073 703d
00000130: 9698 89bd 82df a73d dc90 85bd 9009 a8bd
00000140: c729 9fbd f919 963d 05e9 f33c 00cb 68bd
00000150: c738 8f3d 15bb 32bd cb02 8e3d 1ada 913d
00000160: 0f2b f3bc f1ae f43c 500f 9ebd 8a6b cab9
00000170: 9cf4 0ebd cb83 80bd 1104 87bd 257a 74bd
00000180: 4bac 663c 54ca 9c3d 15db 90bd 0328 a0bd
00000190: 887d a43d 2c15 003c 70cf 41bc 91b8 88bc
000001a0: c71e a0bd a2f7 a43c 5d8e b5bb 68a5 88bd
000001b0: 8e7b d53c 2c2d 89bd 68ef 2c3d b839 8dbd
000001c0: 0b38 5d3d b68a acbd 26da 573d f586 ea3c
000001d0: 4341 04bd d3ba a9bd 13e3 88bd 350b 963d
000001e0: 154e b2bc 1976 a6bd f6a6 3b3d 27ab b23d
000001f0: 3115 fdbc 8b6e c03c 19ca 2f3d 3973 d33c
00000200: 9f39 8e3c 166b 2dbd 88c9 9bbd edbd ab3d
00000210: efab be3b adcb a5bd 7b5e 333d 4323 b43c
00000220: dc92 8e3d 94dc 07bc 5441 83bc 153e e73c
00000230: 0233 1e3c 763e aabc 0d4c 9abb 8f92 8b3d
00000240: c0cc a4bd 8dde d4bc a634 17bc ae5d 6fbc
00000250: 1ae0 073d 2405 a13d d498 0cbd b534 8ebd
00000260: c383 813c 84e0 ca3c 957c 9a3d 5d69 90bd
00000270: e6ce 9bbd 4180 89bd 9602 1d3d 3d00 993d
00000280: 6a36 4b3d 45f0 8fbd 2795 0fbd 6c58 9f3d
00000290: 6b25 3e3d 422b a03d 0f78 54bd f7a8 8f3d
000002a0: e8a9 003d a67f 6d3d 942a 983d 64da a2bd
000002b0: 1d96 d0bc 614c 64bd 8705 2bbd d693 a33d
000002c0: 2649 3a3d b158 42bd aadc 233d bf6c 42bd
000002d0: e083 9dbd 604f 23bc 7a79 213d 8757 233d
000002e0: 1e02 26bd 3038 b43d c461 8b3d 7735 3d3d
000002f0: fac3 a33d 80d7 41bc 89e0 80bd e15b b1bc
00000300: 639f 34bc 9b07 533d 99e0 96ba 6453 4d3c
00000310: 944c d1bc 6b9c a1bd 89a5 54bd fb47 a03d
00000320: 028a 183d 98be 9d3b e0ac 6d3d 3e18 663d
00000330: a38c 823d ec5d 17bc 2629 b63c 4f99 8d3d
00000340: 2903 5a3d 9a69 0c3d 3a46 bebc 4eff 0d3d
00000350: b1ff 573d f8af 8dbd 5ebf b93c bb10 203d
00000360: 9290 b13d b756 79bd 0bf7 7d3d 622b a5bc
00000370: d9f1 50bd 4792 783b 4af8 aabd 29ce 9abd
00000380: a980 8dbd 2ec3 5b3d 55fe 98bd 44f9 92bd
00000390: 88ac dabc ae5b 85bd 5af6 87bc cf55 92bd
000003a0: 5bd2 ad3d 59c9 92bc 9030 96bd 1451 983d
000003b0: 06f8 adbd ff8d 8fbd 8f1d 673d 8237 a53d
000003c0: affd 9e3c 1a34 8d3d 9cb7 ff3c 7332 aa3d
000003d0: d0c9 0bbc e3fc 9dbc 5b25 1abd 9680 c2bc
000003e0: a33f a13d 4c91 9b3d 0ad5 5abd 2e65 8abd
000003f0: 96ac fdbc 3ef3 cc3c 7753 89bc 1d98 b03c
0.03069744 -0.0054486445 -0.04849045 -0.04647448 -0.051240496 0.0038634425 0.05661464 -0.02926302
-0.08555089 0.018368846 0.067243844 -0.06677403 0.05047163 0.00066556456 0.026472036 0.08388076
0.0640712 -0.024603408 -0.023858352 -0.08733398 -0.08365957 -0.016309246 -0.052755393 0.005126151
-0.05123403 0.077224486 -0.040336367 -0.017544368 -0.0066499533 -0.027100317 0.028688263 0.08312081
-0.036493447 0.08538716 -0.032203905 0.0654266 -0.041275393 0.050587 0.0053732893 0.08052359
0.021944739 -0.05771097 0.07742964 -0.036262583 -0.07173988 0.055323992 -0.0033547722 -0.041018844
-0.05195386 -0.032117456 -0.0042482195 0.050394177 0.022789316 0.023378095 0.07932333 0.024667853
-0.00685568 -0.059454303 0.008479358 -0.018006358 -0.034317944 0.03726042 -0.014058603 -0.016479637
0.06281574 -0.049281664 0.024392104 -0.04459129 0.044563863 -0.013600562 -0.07389859 -0.0301509
-0.05511565 0.07592482 -0.027790817 0.058703423 -0.067185566 0.081969276 -0.0652177 -0.08204949
-0.0777164 0.07329173 0.029774198 -0.05683422 0.06993251 -0.043635447 0.069341265 0.07121678
-0.029683618 0.029868575 -0.077177644 -0.00038608565 -0.034901246 -0.062751375 -0.065925725 -0.0596868
0.014079164 0.076557785 -0.070730366 -0.07820132 0.08031756 0.007817548 -0.011829242 -0.01668957
-0.0781837 0.020137612 -0.0055406527 -0.06672174 0.026059892 -0.06698069 0.042220503 -0.068957746
0.054008525 -0.084248945 0.052698277 0.028628806 -0.0322888 -0.08287587 -0.06683936 0.07326356
-0.021765748 -0.08127994 0.045813523 0.08724051 -0.030893894 0.023490211 0.042917345 0.025811778
0.01736146 -0.042338453 -0.076067984 0.08385835 0.005818836 -0.08095489 0.043791275 0.02198947
0.06961605 -0.008292336 -0.016022362 0.028227845 0.009655716 -0.020781737 -0.004708773 0.06815063
-0.080468655 -0.025985027 -0.009228861 -0.014609737 0.033172704 0.078623086 -0.034325436 -0.06943647
0.0158099 0.02476526 0.075432934 -0.070513465 -0.07607822 -0.067139156 0.038332544 0.074707486
0.04961244 -0.0702825 -0.035054352 0.07780537 0.046422403 0.07820751 -0.05187231 0.07014649
0.031412035 0.057983063 0.07429996 -0.07951811 -0.025462205 -0.055736903 -0.04175332 0.07987182
0.045479916 -0.047447864 0.040005364 -0.04746699 -0.07691169 -0.009967655 0.03942249 0.039878394
-0.040529363 0.087997794 0.06805757 0.046193566 0.07996364 -0.011831164 -0.06292827 -0.021650257
-0.011024329 0.051520925 -0.0011511027 0.012532089 -0.02554921 -0.078911625 -0.05191568 0.07826229
0.03724099 0.0048139803 0.058026195 0.056175463 0.063744806 -0.009238701 0.022236418 0.06914007
0.05322567 0.034280397 -0.023226846 0.034667306 0.05273408 -0.06918329 0.022674259 0.039078455
0.08670153 -0.060873713 0.062003177 -0.020162288 -0.051011894 0.0037928985 -0.08348139 -0.07558853
-0.069093056 0.053652935 -0.07470385 -0.0717645 -0.026693597 -0.06511627 -0.016596962 -0.07145273
0.08487388 -0.017918276 -0.07333481 0.074373394 -0.08494572 -0.070095055 0.056424674 0.08067228
0.019408075 0.06894703 0.031215481 0.08310404 -0.008532003 -0.019285625 -0.03763328 -0.023742955
0.07873466 0.075960726 -0.053425826 -0.0675758 -0.030966084 0.02501833 -0.016763432 0.021556908

attention.wq.bias f4 [128]
00000000: df07 96bd 84d4 223d 64ba a43d 79c9 eebc
00000010: 4291 253c c584 a83c 0d0c b7bc b6a1 7bbd
00000020: 194a 13bd fd1e 52bc 9d91 58bd 6d05 e03c
00000030: 12d1 f83b 5e2d ac3d f574 83bd e2db bbbc
00000040: 5937 983c 1b2c 2b3d 4784 693d 35b7 473d
00000050: 21d6 543b c730 a3bd 166d 9a3d 963d 38bd
00000060: c60e 45bd 9b97 4eba 37f4 a6bd d8f3 853b
00000070: 9541 9e3d cc6b 0fbd f235 afbd 849a 18bb
00000080: c3d5 263c 9880 b8bc c378 09bd a43e 66bd
00000090: 72ca 593d c634 a7bd 3581 7bbd a62d 31bd
000000a0: 1f32 adbd 7635 dabb da54 a1bd 14c5 c53c
000000b0: eab8 60bc 2754 a73c f079 00bd db48 be3b
000000c0: a2c7 91bb 5713 e9bc 8201 32bd 423e 6cbc
000000d0: 2bcf 57bd ef81 3c3b ebc6 70bd d0e2 4abc
000000e0: 59ef 97bd 7429 6b3d 41e0 6dbd 00eb 533d
000000f0: 1b27 aabc 65e2 58bd b556 46bd 74aa 0dbd
00000100: bffc 89bc 269a c73c b1de 843c 0418 34bc
00000110: 584d 33bd 16c0 5b3d 713d b4bd f536 8e3d
00000120: 9e10 a0bd c523 52bd 322a 89bc 3d68 163d
00000130: 76c2 a93d ae40 a53d 1346 b23d 64c1 a6bb
00000140: 6502 713d 949d a83d 5e7e 44bd ff49 0f3d
00000150: fc21 a23b 96ce ac3c 40b7 b6bd 308e 86bd
00000160: 66d5 083b d241 0fbb e693 6c3c cdc7 33bd
00000170: 9389 d8bb e2af 9d3d 8c29 963d 8bad 8b3d
00000180: 9f29 a53d c5c6 e93a 45cf c8bc 2413 743d
00000190: 160b 833d 6677 a43d c25d 273d 9956 1fbd
000001a0: 699d 9d3d a608 8fbd 8503 27bd f40b 16bd
000001b0: 70c2 1f3c d218 863c 7f71 873d dfb3 77bd
000001c0: 5d2d bc3b 55f4 80bd 993f 793d f8a8 443c
000001d0: 8f8f 853d 9cc3 9c3d e189 893d de5f 8bbd
000001e0: 3901 23bd 7eb0 933d ea93 8cbd 8801 e2bc
000001f0: 4d8e ac3d 8ecb 9ebd 32b4 903d fd10 e4bc
-0.0732572 0.039753452 0.08043364 -0.029148804 0.010105433 0.020571122 -0.022344613 -0.061433516
-0.035959337 -0.012824771 -0.052873243 0.027346337 0.0075932825 0.084070906 -0.06418792 -0.022931997
0.01858108 0.04179011 0.057010915 0.048758704 0.0032476264 -0.07968288 0.07540338 -0.044980608
-0.048109792 -0.00078808673 -0.08152049 0.0040879063 0.077273525 -0.035014912 -0.08555211 -0.0023285458
0.010182801 -0.022522256 -0.033562433 -0.056212083 0.053171583 -0.081643626 -0.06140252 -0.043256424
-0.084568255 -0.006659205 -0.07877512 0.024141826 -0.013715962 0.02042587 -0.03136629 0.005807025
-0.004448847 -0.028451605 -0.04345847 -0.01441914 -0.052687805 0.002876397 -0.058783453 -0.012383178
-0.07418699 0.05741258 -0.058075193 0.051737785 -0.0207706 -0.05295028 -0.048422534 -0.034586385
-0.016844152 0.024365496 0.016219469 -0.010992054 -0.043774933 0.053649984 -0.088007815 0.06944076
-0.078156695 -0.051303644 -0.016743753 0.036720503 0.082890436 0.08068977 0.08704772 -0.005088972
0.058840174 0.08233181 -0.047972076 0.034982678 0.004947899 0.021094602 -0.08921671 -0.06570089
0.0020879149 -0.00218593 0.014439559 -0.043891717 -0.006608197 0.076995626 0.07332143 0.0682021
0.08064579 0.0017835727 -0.024512896 0.059588566 0.06398599 0.08030586 0.0408609 -0.038900945
0.07696039 -0.069840714 -0.04077484 -0.036632493 0.009750947 0.016369257 0.066134445 -0.060474273
0.0057427124 -0.06296603 0.060851667 0.012003176 0.06521522 0.07654497 0.067157514 -0.068053946
-0.039796088 0.072113976 -0.0686415 -0.02758862 0.08425579 -0.07753669 0.070656195 -0.027840132
