checkpoints/model_epoch_20_policy.pt (torch, 502504 bytes, 13 tensors)

customer_encoder.conv1d.weight f4 [128, 1, 54]
0.104053624 0.11297375 -0.03186278 0.1250536 -0.029410902 0.027286839 -0.06588727 0.07969428
0.11968141 -0.099319704 0.11830459 0.02624793 0.10058264 0.019151224 0.06557864 -0.01919951
0.10411159 0.020379972 -0.063494734 0.034908023 -0.062017743 -0.01635183 -0.054523416 0.08948092
-0.10802198 -0.06272988 -0.038419798 -0.08087263 0.011988554 -0.13422799 0.122601405 -0.116003074
0.10571567 0.022937398 -0.044849895 0.08481742 0.02149411 0.11065123 0.014595034 -0.04287839
0.036789477 -0.03675355 0.056579586 0.12145839 0.07879163 -0.059848033 0.07790561 0.02514761
0.068368755 -0.08339346 -0.1340682 -0.053387668 -0.104707144 0.11163407 0.039230432 0.05636848
0.04300442 -0.002317752 0.10610294 -0.09636604 0.008182625 -0.09266306 0.042160433 -0.04729123
0.04168188 -0.029097164 0.112834096 -0.08131602 -0.08118324 -0.08112003 0.12314985 0.045144413
0.13092831 -0.11247232 -0.1356408 -0.106158726 -0.092283055 0.05586401 0.049204312 0.11310188
-0.07027598 -0.09369152 0.072968535 -0.055087026 0.082908176 -0.03189409 0.07723072 -0.105921686
-0.0680789 0.040812913 0.028524783 -0.035333008 0.08137019 0.09251147 -0.09892892 -0.0727293
0.12523806 -0.04586253 -0.04832687 -0.13127579 -0.07725684 0.03329497 -0.017269459 -0.09839227
0.0025887184 -0.092077404 -0.11515902 -0.07468869 -0.119084165 -0.086634934 0.13605738 0.02576108
0.041576367 -0.12681463 -0.089781724 -0.04511046 0.021670423 -0.1202359 -0.05871087 -0.08210975
0.00037106106 -0.05135533 -0.009369862 -0.09217116 -0.09264319 -0.07962242 -0.04668003 -0.107574664
0.11336814 -0.026532639 0.116405 0.043189727 -0.11459832 0.09409576 -0.037357412 -0.053117186
-0.11210765 -0.13533625 0.039364144 -0.0292402 0.05242384 -0.11192207 0.10172447 -0.10060402
-0.02374286 0.027787652 0.07057026 0.10984566 0.12379209 -0.108029895 0.034965605 -0.058507886
-0.014996217 -0.10151929 0.12469412 -0.10065635 0.07353897 0.04829494 0.043560043 -0.07272267
0.124096446 0.029849138 0.017469872 -0.11994353 0.05715865 -0.020376433 -0.06266638 0.11709315
0.02999436 -0.07507775 -0.068646304 -0.0069833817 0.075937174 -0.035480507 -0.07763112 -0.047278024
-0.101654954 0.048573274 0.106073216 -0.12832937 0.03158839 0.070117824 0.023993965 -0.048073977
0.070305586 0.072294615 0.051449366 -0.02393609 -0.03604227 0.0136082405 -0.02324072 -0.040651973
0.08734186 0.117350355 -0.014013117 -0.030736757 0.0026094296 -0.008831703 0.03246502 0.037517622
-0.123291865 -0.05016394 0.11438347 0.052917413 -0.006074091 -0.081978135 -0.083368115 -0.12150403
-0.043618064 0.04521011 0.08752298 0.063295245 -0.12089843 -0.080985755 -0.02116663 0.13180025
0.019671706 -0.035226293 0.056290153 -0.05190715 -0.08892635 0.09895115 -0.06262144 -0.02693804
-0.13452698 0.0910532 0.10275116 0.049104508 -0.09505932 -0.13400573 -0.11065311 0.10178332
0.0657138 0.11471839 0.07083807 0.034780372 -0.0010596224 -0.10361484 -0.116336316 -0.12745309
0.055515997 -0.066788636 -0.027273204 -0.07793064 -0.02480903 -0.09582723 -0.08888352 0.045626443
-0.04147136 0.08483503 -0.043920767 -0.09929586 -0.024060173 -0.06603294 -0.04163682 -0.13029455
00000000: 111a d53d c85e e73d 8c82 02bd 0d0e 003e
00000010: 22ef f0bc a688 df3c e8ef 86bd c136 a33d
00000020: 871b f53d 2168 cbbd ad49 f23d e605 d73c
00000030: 45fe cd3d 07e3 9c3c 184e 863d 4a48 9dbc
00000040: 7538 d53d e6f3 a63c 8709 82bd b7fb 0e3d
00000050: 5106 7ebd 46f4 85bc f253 5fbd c641 b73d
00000060: a13a ddbd 8678 80bd 145e 1dbd 8da0 a5bd
00000070: a46b 443c 1073 09be 7216 fb3d 0593 edbd
00000080: 7581 d83d 36e7 bb3c 86b4 37bd c1b4 ad3d
00000090: 6a14 b03c 1d9d e23d 0220 6f3c 40a1 2fbd
000000a0: 90b0 163d e48a 16bd ffbf 673d 2dbf f83d
000000b0: 825d a13d 3623 75bd fa8c 9f3d 5c02 ce3c
000000c0: eb04 8c3d 31ca aabd 2d49 09be 07ad 5abd
000000d0: b370 d6bd 67a0 e43d 17b0 203d a3e2 663d
000000e0: 6725 303d 6de5 17bb 804c d93d 8f5b c5bd
000000f0: 6b10 063c 21c6 bdbd 6bb0 2c3d 73b4 41bd
00000100: 9eba 2a3d 2d5d eebc 9015 e73d 0389 a6bd
00000110: 6643 a6bd 4222 a6bd fd35 fc3d 59e9 383d
00000120: 1212 063e e357 e6bd 6ce5 0abe bf69 d9bd
00000130: e6fe bcbd a9d1 643d 768a 493d f5a1 e73d
00000140: daec 8fbd 57e1 bfbd 8770 953d efa2 61bd
00000150: c3cb a93d 61a3 02bd 242b 9e3d 78ed d8bd
00000160: f36c 8bbd 712b 273d ceac e93c 58b9 10bd
00000170: 6aa5 a63d a776 bd3d 3f9b cabd 19f3 94bd
00000180: 683e 003e 59da 3bbd 65f2 45bd 296d 06be
00000190: d638 9ebd 4e60 083d ae78 8dbc e381 c9bd
000001a0: 7da7 293b 1493 bcbd 7ed8 ebbd 62f6 98bd
000001b0: 66e2 f3bd a86d b1bd a052 0b3e e708 d33c
000001c0: fb4b 2a3d b2db 01be 7bdf b7bd bfc5 38bd
000001d0: 2c86 b13c 3d3e f6bd cf7a 70bd 2829 a8bd
000001e0: f98a c239 f759 52bd 0d84 19bc 3cc4 bcbd
000001f0: b6bb bdbd 1411 a3bd 8f33 3fbd 1b50 dcbd
00000200: 8e2d e83d fa5a d9bc bf65 ee3d b6e7 303d
00000210: 86b2 eabd 47b5 c03d 1604 19bd 6891 59bd
00000220: b298 e5bd 9695 0abe 4c3c 213d 2589 efbc
00000230: 61ba 563d 6637 e5bd eb54 d03d 7b09 cebd
00000240: 6380 c2bc eea2 e33c 2487 903d c3f6 e03d
00000250: b586 fd3d c73e ddbd 1838 0f3d f7a5 6fbd
00000260: b1b2 75bc 58e9 cfbd a15f ff3d eb24 cebd
00000270: 999b 963d ead0 453d 046c 323d a0ef 94bd
00000280: 4726 fe3d 2e86 f43c fa1c 8f3c f4a4 f5bd
00000290: 301f 6a3d 7aec a6bc 3b57 80bd 89ce ef3d
000002a0: bbb6 f53c 5dc2 99bd 6f96 8cbd dad4 e4bb
000002b0: f384 9b3d 0254 11bd 11fd 9ebd 9aa6 41bd
000002c0: 7930 d0bd c5f4 463d ea3c d93d c668 03be
000002d0: d462 013d ef99 8f3d fe8e c43c 38e9 44bd
000002e0: 60fc 8f3d 330f 943d 92bc 523d 9e15 c4bc
000002f0: 0fa1 13bd 19f5 5e3c 5363 bebc af82 26bd
00000300: 4ae0 b23d 6255 f03d 4697 65bc a7cb fbbc
00000310: f702 2b3b d9b2 10bc 0afa 043d 14ac 193d
00000320: 7280 fcbd b478 4dbd e141 ea3d eebf 583d
00000330: 2b09 c7bb 27e4 a7bd e7bc aabd 1bd7 f8bd
00000340: dba8 32bd 3c2e 393d 403f b33d f0a0 813d
00000350: 9999 f7bd dcdb a5bd a465 adbc a5f6 063e
00000360: 8f26 a13c 7249 10bd 8190 663d 979c 54bd
00000370: 051f b6bd e7a6 ca3d ab3f 80bd 2aad dcbc
00000380: 71c1 09be 1a7a ba3d 336f d23d cf21 493d
00000390: 76ae c2bd cc38 09be 199e e2bd c673 d03d
000003a0: f594 863d 7af1 ea3d 8d13 913d dd75 0e3d
000003b0: 07e3 8aba 0434 d4bd bc41 eebd 1083 02be
000003c0: be64 633d 7bc8 88bd 0e6c dfbc 199a 9fbd
000003d0: 4f3c cbbc 1141 c4bd 9008 b6bd cbe2 3a3d
000003e0: dfdd 29bd fdbd ad3d 43e6 33bd a15b cbbd
000003f0: d719 c5bc 473c 87bd 5f8b 2abd ef6b 05be

customer_encoder.conv1d.bias f4 [128]
-0.11101973 0.115365 0.09971784 0.11704117 -0.0090222005 -0.025219657 -0.12207226 0.100453876
-0.0071490146 -0.13605234 0.13300727 -0.017611584 0.08181328 -0.02009866 -0.021401163 0.119698085
0.11295041 -0.063520566 0.0042608012 0.09242534 0.006580858 -0.024534801 0.12157495 0.1211778
-0.03652055 0.10300218 -0.0135042 0.0039627147 0.10916946 -0.010572436 -0.01353514 -0.029587485
-0.11363113 0.10539966 -0.10677984 -0.104430445 0.018382775 -0.014317758 0.005341784 0.010719307
0.13486573 -0.13212319 -0.08183522 0.025100479 -0.12115813 -0.10751126 0.10425426 0.052685846
-0.042195324 0.03592447 0.023801975 -0.013425523 0.11300516 -1.24188955e-05 0.09656289 -0.10594502
-0.055280365 0.022991989 0.07266458 -0.055384178 0.09814749 -0.11287005 -0.05191176 0.102287
-0.101706654 -0.12762965 -0.03435797 -0.11335405 0.040481888 -0.023908038 -0.04004649 0.075262
0.007944719 -0.122678034 -0.12896135 0.08546207 0.058684226 0.07490371 -0.11557222 -0.026313886
0.11626563 0.109911874 0.09251794 0.12633386 -0.04262825 -0.1053724 0.0764625 0.08679068
-0.04106792 -0.012710626 -0.00655029 -0.12076905 -0.05633795 -0.04309354 0.05073833 -0.039697733
0.061428074 0.122509204 -0.029003214 -0.033157073 -0.08548624 -0.010512315 -0.1245631 0.09198194
0.11738894 0.03629647 0.12868413 0.068536684 0.09022372 0.12568462 -0.09357495 -0.010743722
0.051119212 -0.036430273 -0.09653254 -0.04272782 -0.06743757 -0.04771834 -0.10366388 -0.041025896
0.077996865 -0.05969534 0.057958096 -0.1118815 -0.08576018 0.01410888 0.12598921 -0.12573056
00000000: 505e e3bd 7c44 ec3d de38 cc3d 48b3 ef3d
00000010: dad1 13bc 7499 cebc 0501 fabd c3ba cd3d
00000020: 4842 eabb 4e51 0bbe 0f33 083e 2b46 90bc
00000030: b98d a73d f2a5 a4bc 7e51 afbc 4524 f53d
00000040: 8b52 e73d 1217 82bd 319e 8b3b 7f49 bd3d
00000050: 3da4 d73b 35fd c8bc 4afc f83d 112c f83d
00000060: 9296 15bd cff2 d23d b840 5dbc a9d9 813b
00000070: 3d94 df3d 0338 2dbc 7ec2 5dbc 7461 f2bc
00000080: 70b7 e8bd c7db d73d 64af dabd a1df d5bd
00000090: 7997 963c 0895 6abc 220a af3b 08a0 2f3c
000000a0: 3e1a 0a3e 4d4b 07be 3999 a7bd 859f cd3c
000000b0: c121 f8bd dd2e dcbd 4283 d53d 1dcd 573d
000000c0: 01d5 2cbd 8925 133d 5cfc c23c baf6 5bbc
000000d0: 406f e73d c05a 50b7 c4c2 c53d b4f9 d8bd
000000e0: aa6d 62bd b259 bc3c 2bd1 943d 85da 62bd
000000f0: 8d01 c93d 6a28 e7bd 6da1 54bd d97b d13d
00000100: 944b d0bd 59b1 02be f1ba 0cbd 2b26 e8bd
00000110: 56d0 253d cada c3bc ca07 24bd f722 9a3d
00000120: 912a 023c 9f3e fbbd 720e 04be bd06 af3d
00000130: df5e 703d 1e67 993d 21b1 ecbd 3890 d7bc
00000140: ad1c ee3d 7a19 e13d 0c7a bd3d aa5d 013e
00000150: f69a 2ebd 7ccd d7bd 5f98 9c3d 50bf b13d
00000160: d636 28bd 3b40 50bc d1a3 d6bb c455 f7bd
00000170: 9fc2 66bd da82 30bd ffd2 4f3d 179a 22bd
00000180: 019c 7b3d 1be6 fa3d 2698 edbc b6cf 07bd
00000190: 6913 afbd d83b 2cbc f01a ffbd 0761 bc3d
000001a0: 9d69 f03d 9bab 143d c6c5 033e f65c 8c3d
000001b0: 37c7 b83d 78b3 003e 39a4 bfbd 7006 30bc
000001c0: 6162 513d e937 15bd dab2 c5bd 5e03 2fbd
000001d0: b51c 8abd 4e74 43bd ba4d d4bd c50a 28bd
000001e0: d2bc 9f3d 1a83 74bd 7865 6d3d 2122 e5bd
000001f0: 09a3 afbd ef28 673c 5103 013e 83bf 00be

vehicle_encoder.lstm.weight_ih_l0 f4 [512, 2]
0.038444757 0.015902886 -0.0723896 -0.06403788 0.045393515 -0.04329825 0.0627372 -0.060058743
0.06693494 -0.045137685 0.036076296 0.02688395 -0.070015 -0.046731677 -0.020836007 0.0008836049
0.04358605 -0.036494065 0.013161141 -0.047691137 -0.042084407 0.057822928 -0.022904795 -0.07609019
0.0033998047 -0.013518506 0.024934046 -0.04522334 0.003172916 -0.04444871 -0.0530892 0.020726696
0.026506446 0.015596789 0.08197017 0.008040188 0.007357997 -0.012075597 -0.084633544 0.03471864
0.068076365 0.008394239 -0.06882908 0.07954197 0.019188678 0.063162066 0.039055753 0.014324283
-0.025957078 0.018048251 0.028885055 -0.0050793695 -0.05637176 -0.046298668 -0.081636004 -0.03527343
-0.013906979 0.07324571 -0.04706939 -0.0865931 0.04748918 0.07558176 -0.06868602 -0.00077746826
0.028523006 0.05742745 -0.01500277 0.041098334 0.06823348 0.05214231 0.04400704 0.054829724
-0.07891874 0.018208414 0.06849446 -0.06915298 -0.07833781 -0.07380809 0.026476707 0.08133021
-0.007777057 -0.035218414 0.006283417 -0.07214879 0.01647595 -0.05699075 -0.059857365 -0.06446969
-0.02435292 0.05812353 0.017705977 0.06124885 -0.085453995 -0.07200266 0.054235872 0.06958808
0.0758827 -0.08182907 0.039513107 -0.087167166 -0.025952708 0.002126443 0.040969774 -0.026662042
-0.07528012 -0.084906474 -0.034966446 0.067532 0.03766276 0.043522447 -0.072027214 -0.079962194
0.08092367 0.05695239 -0.03860297 0.0069928593 0.0635941 0.079194374 -0.070701815 -0.044057265
0.03386422 0.066747524 0.015742812 -0.0049962034 0.0035625899 0.08065605 -0.06951787 0.039332453
-0.063250355 0.008467273 -0.082399346 0.058083966 -0.04880068 0.0065085692 -0.055263385 0.008362553
-0.042890172 -0.044864822 -0.038661018 0.054271244 0.011963042 -0.023172084 0.074139796 0.016403383
-0.028124621 -0.0034264321 -0.034598693 -0.035407145 -0.028350074 0.020464305 -0.078684516 -0.06857342
0.059271246 -0.02145302 -0.0035226075 0.030597601 -0.04040709 0.061778005 -0.019142495 0.0062916777
-0.06039729 0.03689304 -0.06261716 0.053856656 -0.013647319 -0.03351348 -0.029871266 0.034284595
0.086771116 0.024446366 0.054950364 -0.07353612 -0.020490432 -0.050211944 -0.062929235 0.015878605
-0.028304627 0.018958287 -0.035162378 -0.08043949 -0.045353267 -0.08513094 0.019763527 -0.065479584
0.06765907 0.038265347 -0.049706236 -0.025202565 -0.07914196 0.06362254 -0.040678456 -0.01813634
0.00719374 0.043164104 -0.026816072 0.043157656 0.044268027 -0.01217872 0.05758505 -0.07871855
-0.048537236 -0.007332601 -0.008714904 0.03146817 0.06397102 -0.06345866 0.047329314 0.022191318
0.07350187 0.047881335 -0.019486109 -0.012706052 -0.058353815 0.020340765 0.06913365 0.030785842
0.07124509 0.035512347 0.017275423 -0.019000214 -0.07626852 -0.01621696 0.07573615 0.077646464
-0.029913789 0.07272032 0.07266107 -0.075183235 -0.08783134 -0.04463633 -0.008592798 0.03478927
0.037663992 0.056597948 -0.043445557 0.058901083 0.019110553 -0.06389127 -0.06548332 0.03056779
0.08230995 -0.058664825 0.011040669 -0.08311616 0.05797348 0.026437348 -0.02388292 0.0459653
0.036868863 0.059313606 0.009279743 0.0016171307 0.043276943 0.03088233 -0.075291455 -0.034153674
00000000: 4078 1d3d c546 823c 0041 94bd 4b26 83bd
00000010: 8dee 393d 8159 31bd 5c7c 803d 2800 76bd
00000020: 3015 893d 4be2 38bd bdc4 133d bb3b dc3c
00000030: 0664 8fbd b769 3fbd 46b0 aabc b9a1 673a
00000040: 4987 323d cd7a 15bd d4a1 573c c857 43bd
00000050: b360 2cbd bcd7 6c3d d6a2 bbbc 2cd5 9bbd
00000060: 42cf 5e3b b97c 5dbc 7c42 cc3c 1c3c 39bd
00000070: b2f0 4f3b da0f 36bd 1074 59bd 08cb a93c
00000080: 0c24 d93c ad89 7f3c fadf a73d feba 033c
00000090: 5a1b f13b bad8 45bc 5a54 adbd 2235 0e3d
000000a0: 9f6b 8b3d fd87 093c 43f6 8cbd e6e6 a23d
000000b0: 9331 9d3c 1d5b 813d edf8 1f3d 66b0 6a3c
000000c0: f0a3 d4bc edd9 933c 5aa0 ec3c d770 a6bb
000000d0: 13e6 66bd aca3 3dbd c730 a7bd df7a 10bd
000000e0: 19da 63bc d901 963d d5cb 40bd b957 b1bd
000000f0: 0484 423d 9cca 9a3d 42ab 8cbd 03cf 4bba
00000100: 14a9 e93c 0c39 6b3d 2ece 75bc ba56 283d
00000110: ffbd 8b3d 2d93 553d ba40 343d 2295 603d
00000120: 26a0 a1bd d029 953c d346 8c3d 14a0 8dbd
00000130: 936f a0bd b228 97bd aee5 d83c 7490 a63d
00000140: afd6 febb 2f41 10bd 1fe5 cd3b bfc2 93bd
00000150: 92f8 863c 226f 69bd ff2c 75bd af08 84bd
00000160: c67f c7bc f012 6e3d 200c 913c 13e0 7a3d
00000170: 8102 afbd 2176 93bd 6f26 5e3d 3284 8e3d
00000180: 6468 9b3d 0096 a7bd 7fd8 213d b384 b2bd
00000190: c69a d4bc cb5b 0b3b eccf 273d 5b6a dabc
000001a0: 772c 9abd 72e3 adbd fa38 0fbd 384e 8a3d
000001b0: 4444 1a3d 9844 323d 0183 93bd 38c3 a3bd
000001c0: 4fbb a53d e946 693d 261e 1ebd 5b24 e53b
000001d0: a03d 823d a930 a23d 1dcc 90bd 6475 34bd
000001e0: 35b5 0a3d edb2 883d 12f7 803c 31b7 a3bb
000001f0: 577a 693b 002f a53d 635f 8ebd 111b 213d
00000200: 6789 81bd 51ba 0a3c fdc0 a8bd 74e9 6d3d
00000210: 39e3 47bd d645 d53b dc5b 62bd 1703 093c
00000220: 9bad 2fbd 2dc4 37bd 045b 1ebd 864b 5e3d
00000230: a300 443c 62d3 bdbc 9bd6 973d 6360 863c
00000240: 9b65 e6bc fe8d 60bb 5cb7 0dbd 1507 11bd
00000250: 6a3e e8bc c2a4 a73c 5925 a1bd 3970 8cbd
00000260: 68c6 723d 3ebe afbc 8cdb 66bb d2a7 fa3c
00000270: e881 25bd ef0a 7d3d b9d0 9cbc 6b2a ce3b
00000280: 2663 77bd 281d 173d 6d3d 80bd cc98 5c3d
00000290: 0199 5fbc 6e45 09bd 96b4 f4bc 016e 0c3d
000002a0: 0eb5 b13d bf43 c83c a213 613d 1b9a 96bd
000002b0: 8ddb a7bc 0aab 4dbd 0be1 80bd d913 823c
000002c0: 1bdf e7bc 694e 9b3c 6d06 10bd 76bd a4bd
000002d0: 59c4 39bd 2159 aebd 1fe7 a13c 291a 86bd
000002e0: d790 8a3d 20bc 1c3d c498 4bbd 9c75 cebc
000002f0: 2e15 a2bd 894c 823d 749e 26bd a992 94bc
00000300: 77b9 eb3b d8cc 303d 61ad dbbc 15c6 303d
00000310: 6452 353d 4189 47bc 4dde 6b3d 3137 a1bd
00000320: fbce 46bd 5146 f0bb f5c8 0ebc c5e4 003d
00000330: 3d03 833d 9df6 81bd 62dc 413d 91ca b53c
00000340: 2688 963d 381f 443d 55a1 9fbc 0b2d 50bc
00000350: 6904 6fbd ada1 a63c f195 8d3d 9732 fc3c
00000360: f2e8 913d 6575 113d 3085 8d3c 56a6 9bbc
00000370: ab32 9cbd 6ed9 84bc 8e1b 9b3d 1c05 9f3d
00000380: c30d f5bc 64ee 943d 54cf 943d abf9 99bd
00000390: ebe0 b3bd 96d4 36bd cfc8 0cbc 327f 0e3d
000003a0: 8f45 1a3d 40d3 673d f8f3 31bd 4342 713d
000003b0: bc8d 9c3c 6dd9 82bd 1e1c 86bd 4d69 fa3c
000003c0: 1e92 a83d 874a 70bd ece3 343c ce38 aabd
000003d0: 9a75 6d3d 2393 d83c 1da6 c3bc 1c46 3c3d
000003e0: ce03 173d d3f2 723d 100a 183c e7f5 d33a
000003f0: 2a43 313d f1fc fc3c 6832 9abd b9e4 0bbd

vehicle_encoder.lstm.weight_hh_l0 f4 [512, 128]
0.052148424 0.03327064 -0.07021764 0.052454837 0.0865287 -0.056068935 -0.08199033 -0.084727645
-0.055535637 -0.039199293 -0.050329335 -0.07733113 0.05626905 0.086806975 0.07353158 0.055628624
0.039376564 -0.03452997 -0.07096501 -0.053500943 0.040488295 0.019680897 0.011619164 -0.05316529
-0.041698944 -0.036479082 -0.011922257 -0.016868923 0.009316175 -0.029604739 -0.009139876 -0.056584325
0.042779952 -0.07249595 0.016557747 -0.08444283 -0.050722007 0.08582258 -0.016926115 -0.016661415
0.045250572 -0.07609356 -0.0201085 -0.0027179043 0.009307631 -0.015133909 -0.06126488 -0.080652684
0.0003596303 0.073408164 -0.039748408 0.011548159 0.056612447 -0.08727602 0.07773049 0.074661605
-0.039466843 0.07711626 0.060230017 0.07346605 0.07575638 0.020704163 0.04873786 -0.04729556
0.015205722 0.08611668 -0.031224782 0.020925334 -0.044473417 0.032893524 0.027489448 0.06651253
6.702683e-05 0.042324055 0.053131856 0.0143862255 -0.08351381 0.0626222 -0.056164023 0.040407304
-0.06648496 0.02550175 -0.016296325 -0.07806549 0.040199943 -0.021459661 -0.037233483 -0.027726931
0.06057283 0.05184315 0.024448542 0.036825877 0.04511599 0.036657285 0.07560798 0.052757535
-0.045275416 -0.013351643 0.04088137 0.070699744 -0.07351743 -0.04294299 -0.044579275 0.083779275
0.08718155 -0.03920964 -0.026795814 0.0015887582 0.004718183 -0.024881916 -0.06520137 -0.047291797
-0.0069383984 0.009649424 0.0024120114 -0.08058218 0.078890644 -0.051782936 -0.021755561 0.08210729
0.00070992537 -0.07111939 0.051249642 -0.033222713 0.086654365 -0.025682783 -0.06564588 -0.06580267
0.00057880767 -0.014040961 0.06893666 0.005224296 -0.053055584 0.009761755 -0.06556554 0.0130243935
0.02337259 -0.08344756 -0.060603306 -0.044386994 -0.030741809 -0.016064767 0.036970258 -0.06939771
0.045714073 -0.061276343 0.07777162 -0.050425168 -0.067658775 0.0635155 0.07199253 -0.029811442
0.077371284 0.010002079 0.03164372 -0.0053934758 -0.023956241 -0.03196142 -0.075824186 0.06437945
0.04683743 0.080276504 -0.08683754 0.08741153 0.058858648 0.024168218 -0.03812984 0.062373023
0.056550924 0.0759369 -0.07286199 0.013584722 0.031715993 -0.08692175 0.08300056 0.05523569
-0.0710043 -0.07601209 0.003876264 0.07053625 0.026050664 0.012253337 -0.0056732376 -0.08795328
0.053182844 0.05640573 -0.062207963 -0.016458364 0.08595231 -0.033754494 -0.060596537 0.050732188
0.040987656 0.076505855 -0.03811341 0.021770928 0.021357907 0.071944155 0.04942824 0.020715943
-0.012570498 -0.015646068 -0.04779157 0.037018243 0.075256184 -0.044772442 -0.060547177 0.06565861
0.011592823 -0.0417869 0.05735486 -0.07192745 -0.04354559 -0.028421285 -0.0029642985 0.018971702
0.042379785 -0.030998925 -0.008778376 -0.045945264 -0.058956075 0.019200526 0.065368615 0.076492645
-0.068864405 0.04169566 -0.027369747 -0.004411804 -0.0036573885 0.07642873 0.07413095 -0.071462005
0.01915089 0.05180402 0.023855241 -0.0018189101 -0.0417129 -0.06225569 -0.087063186 -0.001833506
-0.033955038 0.020904392 -0.037413567 0.07352582 -0.062772475 0.07828308 -0.034879453 0.013660266
-0.032153044 0.037391793 0.06988713 0.082706325 -0.06122101 0.060758766 0.05853502 -0.072417
00000000: 9699 553d cb46 083d 44ce 8fbd e2da 563d
00000010: f635 b13d 8aa8 65bd 8cea a7bd b085 adbd
00000020: 5679 63bd 708f 20bd 2226 4ebd c95f 9ebd
00000030: 607a 663d dbc7 b13d ba97 963d d7da 633d
00000040: 5249 213d 4c6f 0dbd 1a56 91bd ce23 5bbd
00000050: 0ed7 253d d539 a13c 4e5e 3e3c d9c3 59bd
00000060: 83cc 2abd 176b 15bd 9255 43bc b230 8abc
00000070: dfa2 183c a385 f2bc 6bbf 15bc f7c4 67bd
00000080: 083a 2f3d c278 94bd 1da4 873c 5df0 acbd
00000090: e1c1 4fbd c0c3 af3d a3a8 8abc 857d 88bc
000000a0: aa58 393d f1d6 9bbd 95ba a4bc de1e 32bb
000000b0: 097f 183c 37f4 77bc e2f0 7abd 3c2d a5bd
000000c0: c38c bc39 0557 963d 3acf 22bd 7d34 3d3c
000000d0: 74e2 673d c5bd b2bd 2a31 9f3d 2fe8 983d
000000e0: fca7 21bd 21ef 9d3d c0b3 763d 5e75 963d
000000f0: 2926 9b3d c79b a93c 5aa1 473d fdb8 41bd
00000100: 6c21 793c f15d b03d 1dcb ffbc 9b6b ab3c
00000110: c229 36bd 5cbb 063d 8d31 e13c b937 883d
00000120: c190 8c38 fd5b 2d3d caa0 593d 34b4 6b3c
00000130: 4a09 abbd 1140 803d 3f0c 66bd 2182 253d
00000140: 4429 88bd 0ce9 d03c df7f 85bc cde0 9fbd
00000150: b2a8 243d 2ccc afbc 2382 18bd 9723 e3bc
00000160: 371b 783d 7c59 543d 4f48 c83c bbd6 163d
00000170: 8bcb 383d f325 163d 5bd8 9a3d 4918 583d
00000180: b772 39bd dac0 5abc 3973 273d 07cb 903d
00000190: 4e90 96bd fde4 2fbd c298 36bd 7894 ab3d
000001a0: 3e8c b23d 4a9a 20bd e582 dbbc e13d d03a
000001b0: fd9a 9a3b 29d5 cbbc 4c88 85bd 0bb5 41bd
000001c0: 815b e3bb 9e18 1e3c d612 1e3b 4508 a5bd
000001d0: 6b91 a13d 581a 54bd b838 b2bc de27 a83d
000001e0: 491a 3a3a 0ba7 91bd 25eb 513d 8a14 08bd
000001f0: d877 b13d b364 d2bc 5971 86bd 8dc3 86bd
00000200: 20bb 173a 0f0c 66bc aa2e 8d3d 9230 ab3b
00000210: d050 59bd c5ef 1f3c 3a47 86bd 4464 553c
00000220: e077 bf3c 8ee6 aabd 2c3b 78bd 23cf 35bd
00000230: 3fd6 fbbc 429a 83bc 206e 173d 6320 8ebd
00000240: ae3e 3b3d e7fc 7abd ba46 9f3d 9f8a 4ebd
00000250: af90 8abd 6a14 823d d270 933d 2037 f4bc
00000260: d674 9e3d c3df 233c d89c 013d c1bb b0bb
00000270: e13f c4bc fae9 02bd b649 9bbd 60d9 833d
00000280: 9bd8 3f3d 0268 a43d e1d7 b1bd d104 b33d
00000290: c415 713d 6dfc c53c 092e 1cbd db7a 7f3d
000002a0: f1a1 673d ce84 9b3d ab38 95bd 7492 5e3c
000002b0: a1e8 013d 0804 b2bd 33fc a93d d23e 623d
000002c0: b46a 91bd 3aac 9bbd eb08 7e3b 4f75 903d
000002d0: 3468 d53c 38c2 483c 91e6 b9bb d920 b4bd
000002e0: 41d6 593d b209 673d c7cd 7ebd b1d3 86bc
000002f0: c407 b03d 2742 0abd 1334 78bd 8ecc 4f3d
00000300: ace2 273d 1aaf 9c3d cf1c 1cbd f258 b23c
00000310: c7f6 ae3c 7557 933d 4475 4a3d 7bb4 a93c
00000320: 7df4 4dbc 2f2c 80bc 18c1 43bd 71a0 173d
00000330: ea1f 9a3d 4f63 37bd 5100 78bd 0578 863d
00000340: d3ef 3d3c be28 2bbd eeec 6a3d b34e 93bd
00000350: dc5c 32bd c1d3 e8bc ad44 42bb 8b6a 9b3c
00000360: 6d96 2d3d 75f1 fdbc 2dd3 0fbc 1a31 3cbd
00000370: ed7b 71bd 6c4a 9d3c fbdf 853d 2da8 9c3d
00000380: c808 8dbd 12c9 2a3d 8536 e0bc e590 90bb
00000390: ccb0 6fbb aa86 9c3d f8d1 973d ac5a 92bd
000003a0: 54e2 9c3c 7430 543d 116c c33c 7f68 eeba
000003b0: 25db 2abd d3ff 7ebd 2f4e b2bd 4152 f0ba
000003c0: 7014 0bbd b03f ab3c f83e 19bd b594 963d
000003d0: db8e 80bd e152 a03d c2dd 0ebd 4fcf 5f3c
000003e0: e9b2 03bd 2328 193d fc20 8f3d ef61 a93d
000003f0: e2c2 7abd 2fde 783d 6bc2 6f3d 5d4f 94bd

vehicle_encoder.lstm.bias_ih_l0 f4 [512]
-0.009698612 0.054330368 0.07896921 0.06094936 -0.006316976 0.050420243 -0.01844599 0.04124281
0.03615252 -0.01647238 -0.013973318 0.0075659715 0.0405092 -0.00856859 0.07800095 -0.07248483
-0.01998591 -0.03150813 -0.025344681 -0.07332405 0.087492906 -0.08153528 -0.06633819 -0.016088054
0.03944595 0.029234562 -0.015198231 0.04483172 -0.06703346 -0.0447629 0.021177439 -0.019547978
-0.054532968 -0.06746193 -0.084659085 -0.055414397 -0.03265054 -0.07516206 0.0021727914 -0.029501894
0.06843552 -0.00076915306 0.06482261 0.07273619 0.07974096 0.03470215 -0.013303601 -0.056551218
0.04830454 0.037942003 0.08396967 -0.081666745 -0.04716906 0.027601603 -0.07582645 -0.047322527
-0.01564086 0.022092102 0.041145682 -0.07514592 0.07678317 -0.0016436673 0.08621355 0.06087308
0.043524075 -0.05761503 0.047901735 0.041638035 0.052901376 0.053118635 0.00012243656 -0.023346914
0.014558885 -0.053460773 0.06623016 -0.05555292 0.061522365 -0.021244956 0.044051364 -0.00077461667
0.031739164 0.013371926 -0.024652619 0.016121289 0.050550096 -0.08706084 -0.023138886 0.047067594
-0.08561019 0.0058805537 0.00036171143 0.0221735 -0.005043343 -0.043189187 -0.06292608 0.060200766
0.08142914 -0.07007543 0.019126374 -0.057810422 0.06387526 0.046988845 0.04719985 0.01589399
-0.027211664 0.08417235 -0.0502814 0.07890405 -0.07541651 0.03171875 0.06863125 -0.03874581
-0.060671177 0.06157078 0.077299766 -0.057628453 -0.06349854 0.013596415 -0.07577391 0.082445376
-0.067766756 0.0034166104 0.057141703 0.03550628 -0.00851321 -0.052283004 -0.08642037 0.06188919
-0.009811467 0.071622275 0.0243885 -0.07963306 -0.018954549 0.0870163 -0.07821563 0.0052218
0.08030307 0.03449661 -0.07708435 0.0635227 0.011609589 -0.085057184 0.019768262 -0.073782556
0.071689405 0.021505699 -0.047115915 0.086727016 0.043988634 0.035384566 0.044583943 -0.050821826
0.06459163 -0.0831904 0.011181559 -0.085933276 -0.024987742 -0.048077747 -0.02625074 -0.0072684824
-0.06894188 0.020977896 0.022030331 0.063578 0.004088343 0.08102049 -0.063016236 -0.04807708
-0.0048566535 0.016634244 -0.03021693 0.06009836 -0.06730913 0.022655165 0.06886036 0.08557708
0.004688161 -0.04242666 0.06712581 -0.045437098 -0.07254616 -0.0880879 -0.0011725333 0.03679438
0.063076325 -0.07462794 0.022657149 0.0313782 -0.027180647 0.084337406 0.007737236 -0.064661436
0.0068414877 0.0013822721 -0.0696545 0.06852046 0.06932469 -0.0033531059 -0.029231176 -0.089274816
0.026502918 -0.064591184 0.024624748 -0.000897804 0.08378943 0.017272485 0.015367486 0.01993407
0.088615954 0.044854943 -0.0665878 0.018922398 -0.06342605 0.07625808 -0.036699872 -0.05305766
0.032402888 0.053485602 -0.08140592 -0.08024997 -0.005546493 0.053448018 0.07945105 0.07346541
-0.055140182 0.041118003 0.048717983 -0.01706288 0.021717114 -0.074177004 -0.08403924 -0.033979468
0.041252032 -0.06542934 -0.03565089 -0.011173572 -0.07608599 0.06707395 -0.07103083 0.0770318
-0.039453 -0.01220382 -0.08560218 0.039095897 -0.08603545 0.0015330532 -0.06584994 0.041620824
-0.053372245 -0.030482631 0.014773661 -0.023338513 -0.0023534885 0.08479206 -0.013016675 0.044311594
00000000: ede6 1ebc 8589 5e3d 9cba a13d 09a6 793d
00000010: a3fe cebb 7585 4e3d 0b1c 97bc 39ee 283d
00000020: aa14 143d 16f1 86bc 58f0 64bc f8eb f73b
00000030: faec 253d 4563 0cbc f6be 9f3d ed72 94bd
00000040: 7eb9 a3bc ab0e 01bd a69f cfbc eb2a 96bd
00000050: 7b2f b33d f8fb a6bd 51dc 87bd 18cb 83bc
00000060: 1492 213d 527d ef3c 0002 79bc 77a1 373d
00000070: d748 89bd 4d59 37bd 4f7c ad3c 1523 a0bc
00000080: f65d 5fbd 7b29 8abd be61 adbd 35fa 62bd
00000090: 93bc 05bd 91ee 99bd 6465 0e3b f5ad f1bc
000000a0: ec27 8c3d fda0 49ba b7c1 843d b6f6 943d
000000b0: 3a4f a33d d723 0e3d 59f7 59bc 40a2 67bd
000000c0: fbda 453d 1369 1b3d 4af8 ab3d e540 a7bd
000000d0: 5834 41bd c21c e23c e64a 9bbd 44d5 41bd
000000e0: 4321 80bc 7ffa b43c 6088 283d 1be6 99bd
000000f0: 7f40 9d3d 5370 d7ba bb90 b03d 0d56 793d
00000100: 4d46 323d bdfd 6bbd 9c34 443d a58c 2a3d
00000110: 1daf 583d ed92 593d 5062 0039 0742 bfbc
00000120: 6488 6e3c aff9 5abd aea3 873d 758b 63bd
00000130: e0fe 7b3d e709 aebc 346f 343d a50f 4bba
00000140: ed00 023d ec15 5b3c 4af4 c9bc cb10 843c
00000150: 9e0d 4f3d f44c b2bd c38d bdbc f3c9 403d
00000160: 6554 afbd a9b1 c03b 16a4 bd39 33a5 b53c
00000170: a142 a5bb 25e7 30bd 63df 80bd 1495 763d
00000180: 52c4 a63d b583 8fbd eaae 9c3c 9fca 6cbd
00000190: 08d1 823d 6077 403d a154 413d 1d34 823c
000001a0: ffea debc 8e62 ac3d dff3 4dbd 7298 a13d
000001b0: f973 9abd 85eb 013d 8a8e 8c3d edb3 1ebd
000001c0: 5782 78bd a431 7c3d 574f 9e3d d00b 6cbd
000001d0: 860b 82bd 7fc3 5e3c 5a2f 9bbd 1fd9 a83d
000001e0: 4cc9 8abd 36e9 5f3b 6b0d 6a3d 086f 113d
000001f0: fe7a 0bbc b426 56bd 2afd b0bd 857f 7d3d
00000200: 46c0 20bc b3ae 923d 64ca c73c a816 a3bd
00000210: 9246 9bbc 9a35 b23d 842f a0bd a21b ab3b
00000220: f075 a43d 514c 0d3d 66de 9dbd 3018 823d
00000230: 2536 3e3c 7632 aebd 0df1 a13c 4f1b 97bd
00000240: e5d1 923d b82c b03c 9efc 40bd ef9d b13d
00000250: 6d2d 343d 68ef 103d a79d 363d 8c2a 50bd
00000260: 9e48 843d ba5f aabd dc32 373c c9fd afbd
00000270: 18b3 ccbc 2ced 44bd cb0b d7bc 732c eebb
00000280: 6631 8dbd d6d9 ab3c f478 b43c 2f35 823d
00000290: 82f7 853b 12ee a53d a80e 81bd 79ec 44bd
000002a0: 9024 9fbb 8a44 883c 7f89 f7bc b329 763d
000002b0: 5fd9 89bd 5397 b93c a906 8d3d 0943 af3d
000002c0: 259f 993b 94c7 2dbd 4279 893d 401c 3abd
000002d0: 1593 94bd 6e67 b4bd b0af 99ba b4b5 163d
000002e0: 292e 813d 89d6 98bd 7c9b b93c 6d86 003d
000002f0: f3a9 debc 17b9 ac3d a488 fd3b 376d 84bd
00000300: 8f2e e03b 5b2d b53a 05a7 8ebd 7454 8c3d
00000310: 1afa 8d3d c8bf 5bbb 3876 efbc b7d5 b6bd
00000320: a61c d93c 6248 84bd d7b9 c93c 9b5a 6bba
00000330: cb99 ab3d 077f 8d3c e8c7 7b3c c64c a33c
00000340: 487c b53d d1b9 373d 2f5f 88bd 2503 9b3c
00000350: 84e5 81bd 322d 9c3d 9b52 16bd fd52 59bd
00000360: e4b8 043d b813 5b3d 26b8 a6bd 195a a4bd
00000370: 5bbf b5bb 4fec 5a3d 3bb7 a23d 0875 963d
00000380: acda 61bd 5a6b 283d 828c 473d 74c7 8bbc
00000390: 17e8 b13c 1dea 97bd c41c acbd 0e2e 0bbd
000003a0: e4f7 283d d1ff 85bd ab06 12bd 5c11 37bc
000003b0: f9d2 9bbd 115e 893d 9d78 91bd d9c2 9d3d
000003c0: 7899 21bd 88f2 47bc 3250 afbd 0523 203d
000003d0: 5b33 b0bd bbf0 c83a 55dc 86bd 997a 2a3d
000003e0: db9c 5abd b6b6 f9bc 3a0d 723c 6930 bfbc
000003f0: fc3c 1abb 76a7 ad3d e443 55bc 1380 353d

vehicle_encoder.lstm.bias_hh_l0 f4 [512]
-0.041845717 0.07091472 -0.060047176 -0.03600353 -0.08664418 -0.01620874 -0.0049781892 0.0666002
-0.061993413 0.034271527 -0.053751584 -0.060288817 0.025089532 -0.0022713374 0.05357503 -0.065285526
-0.06895599 -0.07146625 0.07018408 0.010463473 0.06988189 -0.0029123176 -0.0110068545 -0.015645303
-0.06378281 -0.0505953 0.04446078 0.0058211796 0.010029605 -0.049397588 0.0144452965 0.050414927
0.05281389 -0.030813962 -0.0840457 0.0626562 0.009050619 0.04366851 -0.048022352 0.07253984
-0.011781264 0.050782014 0.05402 0.08288781 -0.073470704 -0.05060187 0.041526366 -0.054384522
-0.06769859 0.03190018 -0.046060212 0.08814347 -0.026700845 -0.07038463 -0.04734644 0.0036537712
0.07727912 -0.005653847 -0.06432236 -0.08264827 0.086923726 -0.038978845 0.0653762 -0.014447953
0.0313824 -0.001427377 0.07258282 -0.08611415 0.04188742 -0.07150895 -0.024238188 -0.08015744
0.030596852 -0.05658864 0.071054235 -0.045539916 -0.07426173 -0.07616691 0.040251985 -0.045285054
0.07861037 0.0626276 0.048269223 0.041401442 -0.04140541 -0.08105839 0.077049166 -0.051017907
0.06612938 -0.08692095 -0.023203244 -0.025512854 -0.056128714 0.04154889 -0.012642324 -0.02106478
-0.08043337 -0.022629729 -0.042115334 -0.004630255 0.0878655 -0.085775755 -0.057190966 0.0148589825
-0.06441406 -0.030538136 -0.0019023651 -0.0022077446 -0.008033167 0.0011359183 0.012952273 -0.04978741
0.039447088 0.047489583 -0.06752082 0.051449604 -0.054690097 -0.021529378 -0.0804502 -0.02414398
-0.016514318 -0.07907811 -0.060457606 -0.006312169 0.0792634 -0.06063797 0.05318984 -0.020041589
0.02531508 -0.017137943 0.08021046 -0.08046859 0.016775716 -0.0803812 -0.005262477 -0.054139286
0.037861858 -0.013127909 0.06427901 -0.045327067 0.05406879 0.022830715 -0.036158353 0.013975119
0.05032821 -0.019047357 0.0519144 -0.015693566 0.05464149 0.07723865 0.016744284 0.06467959
0.043590736 0.0030609707 0.07900793 -0.06911709 0.028364465 -0.022210116 -0.062828355 -0.053429954
-0.07164826 -0.004952352 -0.06781725 -0.0290816 -0.078569524 0.009669122 -0.0415127 -0.05790303
-0.044209335 -0.03266379 -0.05245064 -0.055847347 -0.054721154 0.07780192 0.021123447 0.04082553
-0.083473705 0.026214894 -0.019052949 -0.048242107 -0.010912592 0.04150599 0.0041351933 0.0815038
-0.08202448 -0.06935198 0.012352407 -0.029584436 0.008928331 -0.08705842 -0.046463847 -0.0016966157
0.057632852 -0.08199071 0.025069768 -0.012482716 0.054215647 0.010565539 0.05779877 0.05003387
0.03691871 0.0093647335 0.06334465 -0.08816117 -0.087422006 -0.015628431 -0.055093862 0.084449224
-0.021328878 0.007497529 -0.034510277 -0.002320899 0.041267835 -0.059424676 0.06818744 0.060930785
-0.0055444795 -0.08643177 0.04204388 -0.00061885844 -0.06421345 0.06343791 -0.026654327 0.025002148
-0.07342414 0.07135982 0.07789358 0.03746868 -0.033899542 -0.05017069 -0.022096721 0.036242865
-0.033293895 -0.014711035 0.066237226 0.04227094 -0.076123685 0.03478243 -0.039614208 0.021605836
0.053796876 -0.026970712 0.008350951 0.054765556 0.009918754 0.071822114 -0.07073659 -0.086456396
-0.03866756 -0.04287976 0.087383054 0.019694021 -0.0056191 0.027936524 0.043832798 0.055419218
00000000: 6a66 2bbd bd3b 913d 07f4 75bd 7078 13bd
00000010: 8172 b1bd 31c8 84bc 1420 a3bb b065 883d
00000020: ceec 7dbd 4d60 0c3d 9f2a 5cbd 68f1 76bd
00000030: 9088 cd3c b8da 14bb 7e71 5b3d 6bb4 85bd
00000040: cc38 8dbd e65c 92bd acbc 8f3d fd6e 2b3c
00000050: 3d1e 8f3d 95dc 3ebb 1856 34bc 942a 80bc
00000060: 90a0 82bd 043d 4fbd 821c 363d 98bf be3b
00000070: 3653 243c 2055 4abd f7ab 6c3c e27f 4e3d
00000080: 6153 583d 906d fcbc 2720 acbd e551 803d
00000090: 0c49 143c c0dd 323d 16b3 44bd c58f 943d
000000a0: 3406 41bc cd00 503d 1344 5d3d 16c1 a93d
000000b0: cf77 96bd e843 4fbd 8d17 2a3d 4ec2 5ebd
000000c0: 8fa5 8abd c3a9 023d a2a9 3cbd 9084 b43d
000000d0: bbbb dabc d125 90bd 57ee 41bd 1c74 6f3b
000000e0: 8444 9e3d e843 b9bb 71bb 83bd 7f43 a9bd
000000f0: 1105 b23d 48a8 1fbd f5e3 853d 1bb7 6cbc
00000100: d58a 003d d316 bbba 4da6 943d 9e5c b0bd
00000110: 2592 2b3d 4973 92bd 2a8f c6bc 9529 a4bd
00000120: 40a6 fa3c 7dc9 67bd e284 913d 1088 3abd
00000130: 8916 98bd 66fd 9bbd 44df 243d d27c 39bd
00000140: 79fe a03d e642 803d f3b5 453d 8f94 293d
00000150: b898 29bd f101 a6bd f4cb 9d3d 27f8 50bd
00000160: d76e 873d 9c03 b2bd bb14 bebc 5500 d1bc
00000170: 39e7 65bd 2b2f 2a3d c021 4fbc 0c90 acbc
00000180: 40ba a4bd fb61 b9bc 2181 2cbd 65b9 97bb
00000190: d4f2 b33d 33ab afbd 1341 6abd 1773 733c
000001a0: 85eb 83bd 1d2b fabc c858 f9ba cfaf 10bb
000001b0: 8b9d 03bc 18e3 943a c535 543c e2ed 4bbd
000001c0: 4593 213d 7084 423d 5b48 8abd d2bc 523d
000001d0: b902 60bd 615e b0bc 13c3 a4bd 99c9 c5bc
000001e0: 0949 87bc b4f3 a1bd 65a2 77bd 50d6 cebb
000001f0: d954 a23d 855f 78bd 97dd 593d 422e a4bc
00000200: 9261 cf3c df64 8cbc 6245 a43d b7cc a4bd
00000210: 3a6d 893c e69e a4bd db70 acbb 28c1 5dbd
00000220: 0915 1b3d 7116 57bc b7a4 833d e0a8 39bd
00000230: 3c77 5d3d 7b07 bb3c c81a 14bd e6f7 643c
00000240: f424 4e3d 3409 9cbc 32a4 543d cb8f 80bc
00000250: c1cf 5f3d 4c2f 9e3d 4f2b 893c bc76 843d
00000260: 338c 323d 919a 483b e9ce a13d 438d 8dbd
00000270: 985c e83c fdf1 b5bc 27ac 80bd 5ed9 5abd
00000280: 53bc 92bd 5747 a2bb c5e3 8abd 893c eebc
00000290: 0fe9 a0bd 3d6b 1e3c 3909 2abd ba2b 6dbd
000002a0: d914 35bd 77ca 05bd 7bd6 56bd 30c0 64bd
000002b0: 4a23 60bd 9d56 9f3d 140b ad3c ac38 273d
000002c0: 43f4 aabd 9ec0 d63c ee14 9cbc 8499 45bd
000002d0: baca 32bc 2f02 2a3d 8480 873b 77eb a63d
000002e0: 73fc a7bd 6908 8ebd c061 4a3c 0f5b f2bc
000002f0: 2248 123c af4b b2bd e050 3ebd fa60 deba
00000300: 6d10 6c3d bfea a7bd 1d5f cd3c 4e84 4cbc
00000310: 3a11 5e3d 151b 2d3c 67be 6c3d 51f0 4c3d
00000320: 1338 173d 8a6e 193c d7ba 813d d88d b4bd
00000330: 4f0a b3bd 3207 80bc 1aaa 61bd b7f3 ac3d
00000340: e6b9 aebc d5ad f53b a65a 0dbd 391a 18bb
00000350: 7608 293d 4a67 73bd dba5 8b3d 8f92 793d
00000360: 77ae b5bb 2403 b1bd 3436 2c3d e33a 22ba
00000370: 5782 83bd bceb 813d 2d5a dabc 4ed1 cc3c
00000380: 655f 96bd 1925 923d ab86 9f3d c278 193d
00000390: 3fda 0abd c87f 4dbd 2f04 b5bc 6673 143d
000003a0: 2e5f 08bd 8e06 71bc 62a7 873d 4b24 2d3d
000003b0: bce6 9bbd 0578 0e3d 8242 22bd b9fe b03c
000003c0: 1d5a 5c3d aff1 dcbc 6dd2 083c d951 603d
000003d0: 4582 223c 7917 933d 58de 90bd 0d10 b1bd
000003e0: e061 1ebd b0a2 2fbd e3f5 b23d 5b55 a13c
000003f0: 6d20 b8bb 23db e43c 058a 333d 43ff 623d

attention.wq.weight f4 [128, 128]
0.00483427 -0.0687759 0.0012130846 -0.0654734 -0.04724749 -0.030925984 0.0054458976 -0.053319957
-0.028506909 0.08148194 0.07529218 -0.0077908756 0.019152654 -0.08730947 -0.045933634 -0.052263528
-0.060270786 0.052041102 -0.0103156185 -0.012082559 -0.07202314 0.041536395 0.061522096 -0.039413713
-0.08832373 0.00849909 -0.0013656389 0.021148466 -0.016761096 -0.08208464 -0.021605082 0.007411733
-0.087673515 -0.06947168 0.08851038 -0.08672672 0.0453194 -0.068784066 0.087612964 -0.07864637
-0.023242708 -0.011563769 0.07395798 -0.021737365 -0.05180062 0.049085528 -0.06992957 0.07620016
0.06989822 0.042753898 0.006592399 0.06089293 0.057189487 0.028702281 -0.0020851027 -0.03974737
0.013345158 0.0004466389 -0.046884123 -0.01492262 0.07663046 0.068209834 0.04946955 0.08578858
-0.036458023 0.04241197 0.004608755 0.08543335 0.009296483 -0.030780284 0.07971311 -0.026865773
-0.043869525 -0.027350627 0.05693202 -0.0136026265 -0.069783956 -0.08099422 0.0014194386 -0.064752825
0.00086547853 -0.024516698 -0.0069242045 0.07079706 0.0064867614 0.0030847648 0.06857957 -0.0037828372
-0.07033494 -0.049789745 0.03515704 -0.008584675 0.063541114 0.04269286 0.03717719 0.08399004
0.073084295 0.029310776 -0.0183142 -0.061015494 0.07667209 -0.076775305 -0.022069614 -0.060116824
-0.0057881586 0.038312297 -0.026477324 0.029562281 -0.013075797 0.036867462 -0.014474143 -0.044002537
-0.06280255 0.0304696 0.015667485 -0.04918584 -0.02909612 -0.07581348 -0.061852627 -0.08505904
0.086649425 -0.062581636 0.038583655 -0.07425668 0.021191338 0.043043263 -0.08197444 -0.082387574
0.014009399 0.03385014 -0.06381913 -0.069554366 -0.065689825 0.017453529 -0.056593087 -0.04353337
-0.035542764 0.050078645 0.032362178 0.080693044 0.086847425 0.038665276 0.06315016 0.06656647
-0.0595447 0.029318398 -0.00961193 0.026406823 -0.086279884 -0.03769067 0.0056783957 -0.041959066
-0.027395424 0.069170944 0.0047283797 0.014073674 0.08017581 0.028602194 0.03908811 -0.016820066
-0.06434981 -0.0037033595 0.0424714 0.030909283 -0.053543113 0.040300556 0.05317928 0.05136859
0.013505625 0.044951368 -0.03364572 0.067561775 0.07491751 0.07043581 0.014623803 0.063705735
0.018484708 0.021504866 -0.06539186 0.03137939 0.038485255 -0.0058331145 0.04507119 0.06232891
-0.045501456 -0.07238129 0.020614114 0.006863146 0.08093633 -0.029447775 0.007693458 -0.0055569853
-0.005384947 0.027252467 -0.020863635 -0.01045325 -0.078776464 0.0019244858 0.01748999 0.03267289
0.047161907 0.08499675 -0.016110169 0.04436748 -0.06872853 -0.053067148 -0.072632276 -0.010451155
-0.0674945 -0.06466142 -0.06254815 0.06439357 0.06842411 0.08848949 0.0058560153 0.005940818
0.040288832 0.05403516 0.06759401 0.0013075009 -0.04161592 0.0041408055 0.006189475 -0.014817911
0.02755589 0.033586748 0.030082094 -0.041101404 -0.07512651 0.0640775 -0.07920642 0.016235027
0.041030698 -0.010137762 -0.045643587 0.054452695 0.01631182 0.014533347 0.019208992 -0.020316225
0.08412997 0.054792415 0.006230008 -0.07607429 -0.036696423 0.04557114 0.0013107731 -0.030549128
0.06368306 0.0008510579 -0.04358195 -0.08633028 0.07872202 -0.03512254 0.042905327 -0.01575293
00000000: cc68 9e3b 61da 8cbd 5d00 9f3a eb16 86bd
00000010: 9686 41bd 7d58 fdbc 8073 b23b 0766 5abd
00000020: 5287 e9bc 01e0 a63d c932 9a3d 9a4a ffbb
00000030: 07e6 9c3c 4fcf b2bd e824 3cbd 4812 56bd
00000040: 80de 76bd 0d29 553d d702 29bc edf5 45bc
00000050: de80 93bd 1122 2a3d 98fe 7b3d 4670 21bd
00000060: 12e3 b4bd c43f 0b3c 3dff b2ba 8c3f ad3c
00000070: 914e 89bc fe1b a8bd 24fd b0bc 1fde f23b
00000080: 2c8e b3bd 2b47 8ebd ee44 b53d c79d b1bd
00000090: d6a0 393d a9de 8cbd 6d6e b33d 5911 a1bd
000000a0: 7e67 bebc f675 3dbc 4877 973d 8f12 b2bc
000000b0: e32c 54bd e80d 493d 3c37 8fbd d40e 9c3d
000000c0: cc26 8f3d b61e 2f3d 0d05 d83b dd6a 793d
000000d0: 863f 6a3d 0c21 eb3c 38a6 08bb 23ce 22bd
000000e0: a6a5 5a3c dc2a ea39 9109 40bd 017e 74bc
000000f0: 6ef0 9c3d 99b1 8b3d 95a0 4a3d ecb1 af3d
00000100: 0255 15bd 2db8 2d3d 0a05 973b aef7 ae3d
00000110: 4750 183c ef26 fcbc a140 a33d 9c15 dcbc
00000120: 88b0 33bd 6c0e e0bc 8d31 693d 8ddd 5ebc
00000130: e4ea 8ebd 4ce0 a5bd 750c ba3a 219d 84bd
00000140: 48e1 623a 3ed7 c8bc 70e4 e2bb 0dfe 903d
00000150: e68e d43b c429 4a3b 7273 8c3d 7ae9 77bb
00000160: c40b 90bd 55f0 4bbd d400 103d bda6 0cbc
00000170: d821 823d b5de 2e3d 1c47 183d f802 ac3d
00000180: 38ad 953d 271d f03c a907 96bc 62eb 79bd
00000190: 4206 9d3d 5f3c 9dbd 56cb b4bc 0f3d 76bd
000001a0: 98aa bdbb 5bed 1c3d f9e6 d8bc 992c f23c
000001b0: de3b 56bc 5602 173d f524 6dbc 013c 34bd
000001c0: a09e 80bd 629b f93c 1959 803c 1777 49bd
000001d0: fc5a eebc 1944 9bbd 2e59 7dbd 6f33 aebd
000001e0: 4175 b13d cd2a 80bd e509 1e3d e313 98bd
000001f0: 7599 ad3c 224e 303d 37e2 a7bd d1ba a8bd
00000200: ae87 653c 72a6 0a3d 9bb3 82bd 8572 8ebd
00000210: 6388 86bd b4fa 8e3c 27ce 67bd 0c50 32bd
00000220: 4a95 11bd 441f 4d3d 348e 043d 6542 a53d
00000230: 10dd b13d 7b5f 1e3d df54 813d 0054 883d
00000240: 25e5 73bd 232d f03c 5b7b 1dbc 1f53 d83c
00000250: 82b3 b0bd 8861 1abd d611 ba3b 45dd 2bbd
00000260: 5e6c e0bc 7fa9 8d3d 86f0 9a3b 4495 663c
00000270: 3733 a43d 264f ea3c db1a 203d 3cca 89bc
00000280: d5c9 83bd 10b4 72bb 7ef6 2d3d 7735 fd3c
00000290: 0650 5bbd 3212 253d 84d2 593d df67 523d
000002a0: b246 5d3c ed1e 383d 18d0 09bd d45d 8a3d
000002b0: 5a6e 993d a640 903d ad98 6f3c 2778 823d
000002c0: 3e6d 973c f92a b03c 2bec 85bd ad87 003d
000002d0: b7a2 1d3d b623 bfbb 919c 383d 994c 7f3d
000002e0: bc5f 3abd a43c 94bd eede a83c 3ee4 e03b
000002f0: f2c1 a53d 763c f1bc 6719 fc3b 5f17 b6bb
00000300: 3674 b0bb 9140 df3c 37ea aabc 1c44 2bbc
00000310: 8e55 a1bd 073f fc3a 2b47 8f3c 02d4 053d
00000320: d82c 413d c712 ae3d 79f9 83bc adba 353d
00000330: 8bc1 8cbd f05c 59bd 3bc0 94bd 523b 2bbc
00000340: 8e3a 8abd 356d 84bd 3f19 80bd c7e0 833d
00000350: f121 8c3d fa39 b53d d1e3 bf3b 32ab c23b
00000360: e705 253d f953 5d3d ba6e 8a3d 7360 ab3a
00000370: 7475 2abd 98af 873b 14d1 ca3b d3c6 72bc
00000380: e4bc e13c 4292 093d b96e f63c f259 28bd
00000390: eddb 99bd 103b 833d fa36 a2bd 52ff 843c
000003a0: ce0f 283d db18 26bc c5f4 3abd ca09 5f3d
000003b0: 5ea0 853c 471d 6e3c 2d5c 9d3c 366e a6bc
000003c0: 554c ac3d 036e 603d 1825 cc3b d6cc 9bbd
000003d0: fd4e 16bd cea8 3a3d 3fce ab3a 2a42 fabc
000003e0: 446c 823d 8719 5f3a fd82 32bd eecd b0bd
000003f0: 0339 a13d a7dc 0fbd 7fbd 2f3d 4a0c 81bc

attention.wq.bias f4 [128]
0.0677713 -0.0044966917 0.019030364 -0.020833729 -0.04745359 0.0015128314 0.060393423 0.060675114
0.025518782 0.07941578 0.062477242 0.054611295 -0.0884206 -0.0014494861 -0.07467681 -0.087587826
0.009670442 -0.023018904 -0.06530888 -0.066343576 0.020480298 -0.030998725 -0.07741732 0.07130488
-0.032378513 -0.047989488 -0.075606205 0.08331957 0.026962629 0.0043078684 -0.03623603 0.011374835
-0.03903923 -0.035248566 0.051353432 0.061264582 0.066659145 -0.016127385 0.016739247 0.08200235
0.051731873 -0.07015207 -0.00057224475 0.024117054 0.011015778 -0.03811236 0.016838998 0.020743579
0.0069204657 -0.010691457 0.01710227 0.055664122 -0.049350735 -0.049912937 0.04024912 0.047351427
0.018900814 0.08384037 -0.021904942 0.054173276 0.0017737463 -0.075129 -0.005787879 0.07947459
-0.0850856 0.02596412 -0.050098397 0.0224942 0.053407848 0.01849058 0.08299339 -0.06909554
-0.08546302 -0.011812506 -0.032031022 0.07955824 0.023235831 0.03915621 -0.04395786 -0.05870711
0.036814217 0.0780591 -0.024565246 -0.055375822 -0.08535698 0.050519854 0.049993247 -0.043420214
-0.01021277 0.04594521 0.033539176 0.032124836 -0.04468 0.08873961 0.04043181 -0.027390819
-0.026375035 0.034735307 0.019746503 -0.07666872 -0.052278113 0.023710504 0.018008482 -0.016789999
0.0012913112 -0.08627848 -0.008565061 0.021327656 -0.01751459 -0.010192827 -0.029111762 -0.0647941
-0.020061288 -0.021253752 -0.015024173 0.03409543 -0.048831902 -0.04155338 0.070829324 0.06721384
-0.011741474 0.05169211 -0.0019503054 -0.06555147 -0.07812775 -0.04469558 0.072855696 0.07899562
00000000: aecb 8a3d fc58 93bb 91e5 9b3c 7fab aabc
00000010: b25e 42bd 334a c63a 185f 773d 7886 783d
00000020: c40c d13c bea4 a23d 23e8 7f3d 18b0 5f3d
00000030: dc15 b5bd affc bdba 28f0 98bd 3f61 b3bd
00000040: c670 1e3c 2492 bcbc a9c0 85bd 24df 87bd
00000050: 4cc6 a73c 0af1 fdbc f98c 9ebd 4b08 923d
00000060: 559f 04bd a090 44bd 6dd7 9abd 73a3 aa3d
00000070: bbe0 dc3c 0529 8d3b 3b6c 14bd 845d 3a3c
00000080: 9ae7 1fbd cd60 10bd fa57 523d 92f0 7a3d
00000090: 9784 883d 941d 84bc bf20 893c d9f0 a73d
000000a0: cde4 533d e3ab 8fbd b202 16ba 2191 c53c
000000b0: 867b 343c b51b 1cbd f0f1 893c 70ee a93c
000000c0: 13c5 e23b 392b 2fbc 0f1a 8c3c 1000 643d
000000d0: ff23 4abd 8271 4cbd 43dc 243d 92f3 413d
000000e0: e1d5 9a3c 80b4 ab3d fe71 b3bc cce4 5d3d
000000f0: 0d7d e83a 3cdd 99bd 40a8 bdbb 93c3 a23d
00000100: 5c41 aebd b5b2 d43c fa33 4dbd c245 b83c
00000110: 30c2 5a3d 8f79 973c 70f8 a93d f681 8dbd
00000120: 3c07 afbd 3e89 41bc f632 03bd 6eef a23d
00000130: 1259 be3c 4362 203d 280d 34bd de76 70bd
00000140: 81ca 163d 73dd 9f3d 0e3d c9bc c2d1 62bd
00000150: a4cf aebd e8ed 4e3d b8c5 4c3d 65d9 31bd
00000160: 7653 27bc 0b31 3c3d 6060 093d 5595 033d
00000170: 6002 37bd 1dbd b53d d39b 253d b662 e0bc
00000180: 7510 d8bc 9c46 0e3d 6bc3 a13c 7d04 9dbd
00000190: 9321 56bd 883c c23c 8686 933c 2e8b 89bc
000001a0: 3741 a93a c6b2 b0bd 7854 0cbc 56b7 ae3c
000001b0: c27a 8fbc d1ff 26bc ca7b eebc c5b2 84bd
000001c0: 9257 a4bc 591c aebc f327 76bc a6a7 0b3d
000001d0: f603 48bd e133 2abd f70e 913d 69a7 893d
000001e0: 505f 40bc 1bbb 533d 64a1 ffba d93f 86bd
000001f0: 7101 a0bd b612 37bd 5e35 953d 75c8 a13d
