checkpoints/model_epoch_80_policy.pt (torch, 482024 bytes, 13 tensors)

customer_encoder.conv1d.weight f4 [128, 1, 14]
000000 1b 23 51 3e 8f 31 63 3e 63 1a 80 bd f8 ba 7d 3e
       0.20423548 0.22186874 -0.06255033 0.24778354
000010 25 2f 64 bd 99 e9 62 3d 48 21 07 be e2 a0 22 3e
       -0.055709023 0.055398557 -0.1319629 0.15881684
000020 f5 5b 6f 3e 20 14 4b be 30 81 6b 3e 3d eb 44 3d
       0.23374923 -0.19831896 0.229985 0.048075903
000030 85 a9 48 3e 2d e3 1d 3d 4f fd 03 3e d8 87 1a bd
       0.19595917 0.03854673 0.12889598 -0.037727207
000040 92 f7 52 3e ee 5d 1c 3d c7 8a 01 be d4 17 8c 3d
       0.20602253 0.038175516 -0.12650596 0.06840482
000050 4e 06 fc bd c9 28 04 bd 99 bb dd bd 4d 15 37 3e
       -0.1230589 -0.03226546 -0.10826797 0.1787922
000060 e7 af 57 be 02 cc fa bd 76 fa 9a bd a5 b5 24 be
       -0.21063195 -0.12245943 -0.07567303 -0.16084917
000070 3a a6 ce 3c ba 25 87 be e3 30 77 3e c6 c9 66 be
       0.025225747 -0.2639597 0.24139743 -0.22537908
000080 e6 74 55 3e 44 2f 39 3d 65 47 b4 bd 4d a1 2a 3e
       0.20845374 0.04521109 -0.0880268 0.16663094
000090 a0 20 27 3d 2b 43 5b 3e fb 79 e3 3c 50 11 af bd
       0.040802598 0.21412341 0.027768126 -0.08548224
0000a0 3d fc 90 3d e9 8c 91 bd 35 4d e6 3d 57 4d 74 3e
       0.07079361 -0.071069546 0.11245195 0.23857628
0000b0 9f 34 1e 3e b5 fd f4 bd 58 43 1a 3e ad fa 37 3d
       0.15449761 -0.11962453 0.15064752 0.044916797
0000c0 8c bc 0e 3e 89 93 29 be 17 34 85 be 9b 6d cd bd
       0.13939112 -0.16560186 -0.26016304 -0.10030671
0000d0 ca c1 4d be c8 5c 64 3e 2b 9f a2 3d ed 69 d9 3d
       -0.20093456 0.22301018 0.07940515 0.10615907
0000e0 c4 1f ad 3d ec 9c 98 bb 07 27 56 3e 93 a4 41 be
       0.084533244 -0.0046573784 0.20913325 -0.18910436
0000f0 ce 9d 93 3c 95 9b 3a be fa e4 a6 3d 86 9d b8 bd
       0.018019583 -0.18223412 0.081491426 -0.0901442
000100 4e cd a5 3d 4b 19 6a bd 1a 17 62 3e 53 72 23 be
       0.080957994 -0.057153028 0.22079125 -0.1596158
000110 a7 07 24 be d9 54 22 be 5c 1f 76 3e 76 46 b6 3d
       -0.16018544 -0.1585268 0.240354 0.08900158
000120 cd ad 83 3e ee 73 63 be 73 1a 89 be e0 00 57 be
       0.25718537 -0.22212192 -0.26777992 -0.20996428
000130 89 3e 37 be a6 8f dc 3d 35 70 c5 3d 0a c1 64 3e
       -0.17894949 0.10769586 0.096405424 0.22339264
000140 46 22 0c be 10 87 39 be ab ef 11 3e 91 5e e1 bd
       -0.1368495 -0.18117929 0.14251582 -0.11004365
000150 99 14 26 3e 3d e2 81 bd 88 91 1c 3e b7 00 55 be
       0.16218795 -0.0634198 0.15289891 -0.20801054
000160 e8 ef 09 be 7a ac a2 3d 00 5b 69 3d c7 73 8a bd
       -0.13470423 0.079430535 0.05697155 -0.06760364
000170 dd 98 24 3e 37 64 39 3e 2a 57 45 be bc 6d 11 be
       0.16073938 0.18104635 -0.19271532 -0.14202017
000180 c8 f8 7a 3e a9 1a bb bd b0 06 c2 bd 04 6d 84 be
       0.24508965 -0.091359444 -0.09473932 -0.25864422
000190 3c b3 1c be 7f 1b 8f 3d 8a 27 01 bd c3 e1 43 be
       -0.15302747 0.06987666 -0.031531848 -0.1912909
0001a0 fe 9f 37 3b 4e 09 38 be 50 13 6c be 31 bf 19 be
       0.0028018947 -0.179723 -0.23054242 -0.1501434
0001b0 23 6e 73 be 3f cc 31 be bc 71 87 3e 16 dc 5f 3d
       -0.23772483 -0.1736307 0.2645396 0.05465325
0001c0 a9 96 a8 3d 36 3b 7f be 7d bb 33 be dd 6a b3 bd
       0.08231861 -0.24924931 -0.1755199 -0.08760617
0001d0 cc 9f 2e 3d 61 fe 6d be 7f d8 f0 bd 80 70 22 be
       0.042632863 -0.23241569 -0.11760043 -0.15863228
0001e0 41 d0 0a bb 5f 80 cd bd 7c 07 b0 bc 3d 87 3b be
       -0.0021181258 -0.100342505 -0.021487944 -0.18313308
0001f0 97 8b 3d be 8a 23 1d be 42 4f bb bd c4 f1 57 be
       -0.1851028 -0.15345588 -0.091459766 -0.2108832
000200 91 71 65 3e f5 ed 4d bd e9 f7 6e 3e 18 18 af 3d
       0.22406603 -0.05027576 0.23336758 0.085495174
000210 00 60 6a be 09 b4 3f 3e c6 23 9c bd 8b 2f d7 bd
       -0.22888184 0.18721022 -0.07624011 -0.10507115
000220 31 5a 66 be 37 65 89 be 46 77 98 3d cf 43 61 bd
       -0.22495343 -0.26835033 0.074446246 -0.054996308
000230 60 04 d5 3d 7d ab 60 be b6 2f 4b 3e fc c9 4b be
       0.10401225 -0.21940418 0.19842419 -0.1990127
000240 b2 c3 4c bd dc 66 59 3d ae 50 11 3e a9 6b 5a 3e
       -0.049991317 0.05307661 0.14190933 0.21330132
000250 d3 73 7d 3e 66 1b 56 be 80 ea 91 3d bc 84 e4 bd
       0.24751215 -0.20908889 0.071248055 -0.111581296
000260 2e af dc bc b8 50 51 be cd 36 79 3e e7 d6 48 be
       -0.026939001 -0.20440948 0.24337311 -0.19613229
000270 9b 46 12 3e c6 4e bd 3d 78 a9 ad 3d 39 d6 13 be
       0.14284746 0.092435405 0.08479589 -0.14437188
000280 16 07 79 3e 34 2e 6d 3d 96 1e 0d 3d 85 91 6f be
       0.2431911 0.05790539 0.034452997 -0.23395355
000290 ef a9 e6 3d 4f 61 23 bd 99 f9 fa bd 77 c5 6a 3e
       0.11262881 -0.039887723 -0.12254638 0.2292689
0002a0 30 08 74 3d 43 6b 17 be 37 84 0a be 4e ad 5f bc
       0.05957812 -0.14787011 -0.13526998 -0.013652159
0002b0 bd 23 17 3e f2 bd 8a bd 43 d3 1b be 4d 40 bc bd
       0.14759727 -0.067745104 -0.15217309 -0.09191952
0002c0 42 06 4d be 34 85 c5 3d fc be 53 3e 40 c9 80 be
       -0.20021918 0.09644547 0.20678324 -0.25153542
0002d0 f9 6b 7e 3d ac 0f 0d 3e ff 74 46 3d 1c f1 c2 bd
       0.06211469 0.1377551 0.04845142 -0.09518644
0002e0 a4 cb 0e 3e d4 5c 0d 3e 6e 73 c6 3d 67 82 4b bd
       0.1394487 0.13804942 0.09689985 -0.04968491
0002f0 af 14 8b bd 17 9e d8 3c c8 aa 31 bd b9 31 9e bd
       -0.067910545 0.02644257 -0.04337576 -0.077243276
000300 56 98 32 3e 0a 39 6e 3e 69 75 c9 bc 60 cd 82 bd
       0.17440924 0.23263946 -0.024592118 -0.063868284
000310 3f 29 7f 3b 67 a7 82 bc b0 92 83 3d b0 d0 98 3d
       0.0038934497 -0.015948964 0.06424463 0.07461679
000320 9f 81 79 be bb 56 c8 bd c4 67 66 3e 8c ee d3 3d
       -0.24365853 -0.097821675 0.22500521 0.103482336
000330 8d 3a 68 bc 32 f1 23 be a0 0a 28 be c4 1b 75 be
       -0.014174116 -0.16009977 -0.16410303 -0.23936373
000340 3d d3 b2 bd 03 4b b9 3d f5 76 2e 3e 4b b5 fc 3d
       -0.08731697 0.090475105 0.17037566 0.123392664
000350 67 e7 71 be 62 ac 23 be 54 98 28 bd 4f b4 83 3e
       -0.23623429 -0.15983728 -0.041160896 0.25723502
000360 54 09 21 3d 54 e0 8c bd a4 48 e4 3d d0 71 d2 bd
       0.039315537 -0.06878725 0.111466676 -0.10275614
000370 90 7b 30 be c8 4b 48 3e 1d e0 f7 bd 31 46 5e bd
       -0.17234635 0.19560158 -0.12103293 -0.05426616
000380 8e 20 88 be 49 27 37 3e 33 59 4f 3e 22 9b ca 3d
       -0.26587337 0.1788608 0.2024887 0.098928705
000390 a2 f1 3c be e8 8f 86 be 0e 36 5f be 9a d2 4d 3e
       -0.1845155 -0.26281667 -0.21797964 0.2009987
0003a0 5c 65 01 3e 08 46 64 3e 71 ee 0d 3e f5 66 86 3d
       0.12636322 0.2229234 0.1386049 0.06562606
0003b0 ee c3 56 bb 1c 75 4e be ad 89 6a be 14 fa 7f be
       -0.0032770592 -0.20161861 -0.22904082 -0.24997741
0003c0 ec 0e e0 3d de b0 09 be 45 90 6c bd 1a ab 20 be
       0.10940346 -0.13446376 -0.057754774 -0.1569027
0003d0 42 0e 36 bd b9 94 43 be 78 1a 2e be 9f 27 bc 3d
       -0.04444719 -0.19099702 -0.17002285 0.091872446
0003e0 00 95 99 bd 22 1b 2d 3e 6e 7b a9 bd 7a d1 4d be
       -0.074991226 0.16904882 -0.082754955 -0.2009944
0003f0 5e 5c 41 bd 52 99 04 be 7c 96 a7 bd 71 e5 80 be
       -0.04720723 -0.12949112 -0.081829995 -0.2517505

customer_encoder.conv1d.bias f4 [128]
000000 7b 5d 78 be 0a a3 71 3e 06 10 a6 bc 25 66 07 be
       -0.2425441 0.2359735 -0.020271312 -0.13222559
000010 76 bc bb bd 4d c1 55 be a3 93 55 3e 30 3b 6d bd
       -0.091668054 -0.2087452 0.208571 -0.057917774
000020 8d d1 19 be a8 50 4f be 2b db 1f 3e 9e 83 17 bd
       -0.15021344 -0.20245612 0.1561095 -0.036990754
000030 94 52 e6 bc 24 b7 8e bd ac 1d 04 be 9f eb 42 3d
       -0.028115548 -0.06968525 -0.12901944 0.047587987
000040 b2 86 52 3e 68 cc 1e be 6a 2c 53 3c fc 30 50 be
       0.20559195 -0.15507662 0.012889007 -0.20331186
000050 63 59 00 be 4a 1c 70 3e bf 31 31 3b 2a d2 83 3e
       -0.12534098 0.23448291 0.0027037708 0.2574628
000060 0b fd 3f bd 60 58 15 be 40 bd 23 be ac a3 72 3e
       -0.04687218 -0.14584494 -0.15990162 0.23695248
000070 39 7b 52 be 3e b3 0f 3e 41 17 88 3d f8 e1 a1 3d
       -0.20554818 0.14033219 0.0664506 0.07904428
000080 06 71 1a 3e ac 7c 8f bd 77 62 29 3e cd f1 59 be
       0.15082178 -0.07006201 0.16541468 -0.21283646
000090 5a 6d c0 bd 67 3f 48 3e e0 d2 a2 3d 76 1d 11 bd
       -0.09395857 0.19555436 0.079503775 -0.035428487
0000a0 4c 6b 7f bd 03 2f 27 be 4b 90 26 3e 14 31 0a bc
       -0.062358186 -0.16326527 0.16265981 -0.008434553
0000b0 0e bf 11 bc 40 5e 81 3d 37 d6 49 3e 57 ba 0b be
       -0.008895649 0.06316805 0.19710623 -0.13645302
0000c0 ef 64 bc bd 8f 7d 39 3e 08 86 1a 3e db a1 06 be
       -0.09198939 0.18114303 0.15090191 -0.1314768
0000d0 7e 60 87 be 95 9e 4a 3d 96 e2 0f 3e b5 f2 82 3d
       -0.26440805 0.04946764 0.1405128 0.06393949
0000e0 2f 54 42 3e 15 04 59 be e3 1d 0a 3e 56 18 2a be
       0.18977426 -0.21192963 0.13487963 -0.16610846
0000f0 9a e1 19 3e 47 78 4b 3e 60 33 ad 3d 1f 67 5d 3e
       0.15027466 0.19870101 0.08457065 0.21621369
000100 a7 66 34 be 75 b8 74 be 42 95 83 be ad f9 2b 3e
       -0.17617284 -0.2389849 -0.25699812 0.16794463
000110 76 75 bf 3d ab 62 48 be d0 a3 04 3e 82 a3 79 3e
       0.09348576 -0.19568889 0.12953115 0.2437878
000120 38 e2 86 be 14 a6 46 3e 45 48 28 3d 28 6f cb 3c
       -0.26344466 0.19399291 0.041084547 0.024833277
000130 be 67 76 3e 62 da 77 3e 76 dc e6 3d 62 44 58 3e
       0.24063012 0.242044 0.11272518 0.21119836
000140 30 fd e3 3d d2 49 33 3d e1 90 70 be be 7c 4c 3d
       0.11132276 0.043771572 -0.23492767 0.04992365
000150 b4 b2 42 be ce a8 a8 3d a4 a5 40 3d ab 0b c4 3b
       -0.19013482 0.08235322 0.047032967 0.0059828362
000160 23 17 3b be 92 21 26 be 79 71 4a 3e fe 68 05 3e
       -0.18270545 -0.16223744 0.19769849 0.13028333
000170 c2 41 10 3e ec eb a2 bd c1 c9 3b bd 3f ea 8b bd
       0.14087585 -0.07955155 -0.045846704 -0.06831788
000180 15 4b 3c 3e 23 72 ec bd 96 8b 2c 3e 9b b5 3c 3e
       0.18388017 -0.11545207 0.16850123 0.18428652
000190 1d 5b 7a be 9b 59 f3 3a 34 df 4f bd 6b 5e 17 be
       -0.2444882 0.0018566133 -0.050749972 -0.14782111
0001a0 5c 2f ec 3d 93 58 05 bd 3d a6 6f 3e 07 62 2b be
       0.115324706 -0.032555174 0.23403259 -0.16736613
0001b0 b6 59 fe 3d 69 b5 69 be 69 03 09 be 0b d4 94 3c
       0.12419455 -0.22823109 -0.13380207 0.018167516
0001c0 f8 4c 58 3e 37 4d 10 3e 30 ba 60 be 9b 29 f2 3c
       0.21123111 0.14091955 -0.21946025 0.029560855
0001d0 e8 5c 21 be 08 d2 3d 3c f5 02 64 be 0c b2 a0 bd
       -0.15758097 0.01158572 -0.22266753 -0.0784646
0001e0 70 a7 3b 3e 26 23 7b be bb 80 82 be 22 33 47 3d
       0.18325591 -0.24525127 -0.2548884 0.04863275
0001f0 e2 b3 15 3d ae 22 48 bd 48 04 6f 3e 45 c3 24 be
       0.036548503 -0.048861198 0.23341477 -0.16090114

vehicle_encoder.lstm.weight_ih_l0 f4 [512, 2]
000000 50 80 47 bd 80 18 78 bd f3 29 70 bc 7d 3c a8 bc
       -0.048706353 -0.06057024 -0.014658439 -0.020536656
000010 fa a4 67 3d 8a 0f 4a bb 18 26 03 3d ef d3 04 bd
       0.05655382 -0.0030832016 0.03201875 -0.032428678
000020 f5 8d 9e 3d 01 0c a3 3d 52 8e a6 bd f3 bc ce bc
       0.0774192 0.07961274 -0.08132614 -0.025236582
000030 0e cc 94 bd 87 58 24 3d e1 d0 a0 bd f3 ee 2d bd
       -0.07265483 0.04012349 -0.078523405 -0.042464208
000040 11 e5 b2 3d 53 e8 ae bd 4b b4 84 3d 31 d4 f1 3b
       0.08735097 -0.08540406 0.06479701 0.0073800315
000050 50 27 95 3d 7a d7 2d bd 65 24 7d 3d 64 4c 6e 3c
       0.07282889 -0.042441823 0.061802287 0.01454458
000060 44 bc 31 3c 07 ed 83 3d fe 12 a8 bd e4 15 8d bd
       0.010848109 0.06441694 -0.082067475 -0.06888941
000070 74 82 ac 3d 6f 22 5e bd 25 99 85 bd 2e 80 bc bb
       0.084233195 -0.054232057 -0.065233506 -0.005752585
000080 97 eb eb bc 40 f9 52 bc a0 95 64 bd 45 99 14 3d
       -0.028798861 -0.012876809 -0.055806756 0.03627898
000090 c3 93 94 bd 8a 3e 30 3c 00 ff 44 3d fc 70 5a 3c
       -0.07254746 0.010757098 0.04809475 0.013332602
0000a0 89 2b 32 3c 4c 2e 64 3c 9a af cf bc 51 f7 82 bc
       0.010874637 0.013927054 -0.025352288 -0.01598707
0000b0 a6 db 03 bd 6e ef 5e bd d0 c0 43 bd c4 b7 b0 3d
       -0.032191895 -0.054427557 -0.047791302 0.086288005
0000c0 37 f5 2a bc e2 aa 11 3d 63 50 7a 3d f7 86 e5 bb
       -0.01043444 0.035563357 0.06111182 -0.0070046145
0000d0 1d 57 4b bd 68 65 7b bd 39 cd f5 bc 35 30 0a 3d
       -0.049643625 -0.061376005 -0.030005084 0.03373738
0000e0 86 c4 8d bd 06 59 ad bb ae 91 1e 3d 4a 94 9e 3d
       -0.069222495 -0.0052901534 0.03871315 0.07743128
0000f0 69 6e fe 3c 69 bb a4 3c d4 68 84 3d 3d 0f 3b 3d
       0.031058507 0.020108895 0.06465307 0.04566883
000100 11 4b e4 3c 04 ac f2 bc 70 a5 8d bd 85 3d 8e bc
       0.027867826 -0.029623039 -0.0691632 -0.01736332
000110 f8 9f 98 bc 37 e4 73 3b 38 71 19 bc bf f4 14 3d
       -0.018630967 0.0037214884 -0.009365372 0.03636622
000120 5d ed 80 3d 31 54 ff bc 98 c7 ab bd 43 f2 39 bd
       0.062952735 -0.031168075 -0.08387679 -0.045397054
000130 83 92 2f bd 47 bd 4a 3d 7c 1f 6e bd b4 08 29 bc
       -0.042864334 0.049496915 -0.058135495 -0.010317016
000140 84 5a 71 bc 35 fe 49 bd 63 86 32 3d 3c 31 06 bd
       -0.014731053 -0.049314696 0.043585192 -0.032761797
000150 b1 71 be bb 66 26 80 bd 67 e2 c1 bb e6 ec 7f 3c
       -0.005811893 -0.06257324 -0.005916882 0.015620446
000160 75 16 e4 bb a3 d9 10 bd cd 26 ec 3c a6 65 a5 bc
       -0.006960685 -0.035363805 0.028827095 -0.020190071
000170 53 9e 33 bd ec 6d 77 bd e6 63 8c bc f9 fe a6 bd
       -0.04385216 -0.060407564 -0.017137479 -0.08154101
000180 b1 b7 9b 3d 76 00 26 bd 45 b0 0b bd 8d 25 1d 3c
       0.07603396 -0.040527783 -0.03410365 0.009591472
000190 24 5c e4 3c fe ba a7 bb c2 44 85 3d ac fc 41 bd
       0.027875967 -0.0051187268 0.06507255 -0.047360107
0001a0 35 00 12 3d 82 a6 3d 3b e4 fc 92 bd 1b da 06 bd
       0.03564473 0.0028938358 -0.07177141 -0.032922845
0001b0 97 1b c3 3c 56 e7 93 3c a8 d0 8b 3d 78 1a 82 3d
       0.023816867 0.018054646 0.068269074 0.06352705
0001c0 cb a5 36 bd 3f 49 0a bd 9a c8 ba bc 74 2d 8a bd
       -0.044591706 -0.03376126 -0.022800732 -0.06746951
0001d0 5b 29 c4 bc f6 26 95 bd 8a eb 1d 3d 15 37 8b 3d
       -0.023945501 -0.07282822 0.038554706 0.067976154
0001e0 58 3f 28 3c af 2a 73 bd 98 2f 8b bd ec 96 10 bd
       0.010269009 -0.059366878 -0.06796187 -0.03530018
0001f0 3c 54 c0 3c a4 a3 c3 3a 98 ed 6b 3c 36 bd a6 3d
       0.023477666 0.0014926088 0.0143999085 0.08141558
000200 e9 af 2a 3d de 8a a3 3c 97 bf 51 bc 27 81 3f 3d
       0.041671667 0.019963678 -0.012802026 0.04675403
000210 11 b5 e7 3c 3a 4b ab bd 88 b0 5c bd 62 36 d3 3a
       0.028284581 -0.08363958 -0.05387929 0.001611423
000220 90 c4 f3 3c 22 94 23 3d 0e e9 54 bd f0 95 b1 bd
       0.029756814 0.039936192 -0.05198007 -0.086711764
000230 c8 3a ed bb ff bc 54 bc eb 40 e3 3c 62 62 b1 bc
       -0.0072396733 -0.012984513 0.027740916 -0.021653358
000240 97 d3 92 3d 24 68 23 3c 34 53 7c 3d 53 60 84 bd
       0.07169264 0.0099735595 0.061602786 -0.06463685
000250 80 65 18 3d 88 18 56 3c 08 69 3c bd 4f cb 2b 3d
       0.037206173 0.013067372 -0.045998603 0.041941937
000260 15 81 ad bd 27 91 95 3d e5 83 24 3c b4 5e 30 3c
       -0.08471886 0.07303076 0.010041212 0.0107647665
000270 24 52 2a 3d 5b 44 03 3c ac 02 1d 3d ee 4a 68 3d
       0.04158224 0.008011903 0.038332626 0.056712084
000280 80 b8 88 bd 83 97 7a 3d e5 46 19 bc 34 47 89 bc
       -0.066758156 0.06117965 -0.0093552815 -0.016757585
000290 c9 bb 9f 3c 26 67 90 3d 6e 9d 41 bd 87 81 71 bd
       0.019498723 0.07050924 -0.047269277 -0.058961418
0002a0 5d 0d 5d 3d e5 ae 2e bd 89 f8 d5 3c a2 97 78 bc
       0.053967822 -0.04264726 0.026119487 -0.015172871
0002b0 4f 6e b7 3c 57 d8 86 3d 91 09 32 bd bc 98 2a bd
       0.022391466 0.06584232 -0.043466154 -0.041649565
0002c0 7c c0 26 3d 8f d9 5e 3b ed 36 3c bc 46 eb a1 bd
       0.04071091 0.0034004187 -0.011487705 -0.07906203
0002d0 90 61 a1 3d c9 21 25 3a 39 70 4d bc 4a d7 03 bd
       0.07879937 0.0006299285 -0.012538963 -0.032187738
0002e0 84 37 a6 bc 8a e4 22 3d 57 db 4d bb e6 66 9b 3d
       -0.020290144 0.039768733 -0.0031411254 0.07587986
0002f0 77 99 42 ba a9 fa f6 bb d6 22 58 3d dd b6 96 3a
       -0.0007423381 -0.0075372052 0.052767597 0.0011498589
000300 f1 f8 a3 bc 4c 16 d7 3c 56 7f 98 3d 11 25 df 3c
       -0.020016165 0.02625575 0.074461624 0.027239354
000310 18 17 83 3d 13 ff 74 3d c4 49 e4 3c 2f 3d 09 3d
       0.06400889 0.05981357 0.027867205 0.033505615
000320 03 5f dd 3c 3b 08 08 3c b9 4d a0 3d 45 eb ac 3d
       0.027022844 0.008302744 0.078273244 0.084433116
000330 8d df 12 3d 7d b9 08 b8 ae d2 a1 3d 74 42 8d bd
       0.035857726 -3.2597676e-05 0.07901512 -0.068974406
000340 c8 29 8b 3d 1f 8a 4e 3d 09 45 77 3d 27 91 46 bb
       0.067950785 0.05042469 0.06036857 -0.003029892
000350 fc fe 87 bd 63 1c 81 3d 69 e8 1d bd ce 72 bd 3c
       -0.06640431 0.063042425 -0.03855172 0.023126032
000360 f7 87 54 3d 66 89 a4 bd d0 da 99 3b e6 2a 06 bd
       0.05188748 -0.08034019 0.004695274 -0.032755755
000370 4c 49 86 3d 6d e9 57 bd 3b 6c 55 3d 0b e9 5a 3d
       0.06556949 -0.052712847 0.05210517 0.053444903
000380 e0 af 56 3d 02 80 b5 3d 13 2e 52 3c 24 80 a5 bd
       0.05241382 0.08862306 0.012828368 -0.080810815
000390 ef 59 82 3d 73 d0 0e 3c 55 5f bc 3b 91 93 a3 bd
       0.0636481 0.00871669 0.005748669 -0.079871304
0003a0 8a d6 8f bc 83 c5 26 bd ee 6b af 3d 10 47 80 3d
       -0.017558355 -0.040715706 0.08565508 0.06263554
0003b0 fe 54 84 3d 8c aa 6f 3d 97 db 65 bd f1 c6 1b bd
       0.064615235 0.058512256 -0.05611762 -0.038031522
0003c0 af 3c 01 bd 13 68 03 bd 01 68 8c 3d 25 fc f9 3c
       -0.031552013 -0.032081675 0.06855775 0.03051574
0003d0 56 9d 8c 3d c2 93 c7 bb dd eb 96 bd 29 50 a6 bc
       0.06865947 -0.006090612 -0.07369206 -0.020301895
0003e0 84 43 75 3d 68 e8 53 3d 8b 39 df 3c 35 56 cd bc
       0.05987884 0.05173531 0.027249118 -0.02506552
0003f0 c4 ca a9 bd 70 8e 45 bd 4e ae 4b 3d b8 11 02 bd
       -0.082906276 -0.048231542 0.049726777 -0.03175518

vehicle_encoder.lstm.weight_hh_l0 f4 [512, 128]
000000 9c 21 87 3d f6 16 9c 3a 7c a2 9c ba 71 6c 97 3d
       0.06598207 0.0011908698 -0.001195028 0.073937304
000010 44 0f 07 3d e6 25 b3 3d 79 9e 9d 3d 5c c6 55 bd
       0.032973543 0.08747463 0.07696242 -0.052191123
000020 ae 9d 48 3d 10 aa 21 3d 41 ab 69 bd 72 94 16 3d
       0.0489785 0.039468825 -0.057048086 0.036762662
000030 bd c3 24 bd 15 ad 40 bd dc 1a e7 3b 7b bc ad bb
       -0.040225733 -0.047040064 0.0070527624 -0.0053020096
000040 f8 d8 e6 bc 92 ef 57 bd 50 64 4b 3d 92 75 ab 3d
       -0.02817963 -0.052718706 0.049656212 0.08372034
000050 24 91 70 bc 92 a3 85 bd 2a a9 ac 3a f2 5c 9e bd
       -0.014683042 -0.06525339 0.0013172973 -0.07732572
000060 1b e1 9e bd 9e d1 c9 bc 71 2e 5a 3d 79 a5 88 bd
       -0.07757779 -0.024636086 0.053266946 -0.066721864
000070 d5 26 09 bc ef 97 55 bd 76 6d b4 bd b3 58 ce bc
       -0.008371075 -0.05214685 -0.088099405 -0.02518878
000080 8a 79 64 b8 26 b7 21 bc 99 ff 8d 3d 13 75 fc 3c
       -5.4472628e-05 -0.009870326 0.06933517 0.030817544
000090 6e 6b 4a 3d d3 da f0 3c 55 73 74 3c b7 73 59 3d
       0.04941886 0.029401219 0.014920075 0.05308887
0000a0 d7 c8 7a bd 59 72 4e 3d b9 40 1d 3d 7a 51 02 bd
       -0.061226692 0.05040202 0.038391802 -0.031815983
0000b0 2f 0a 66 bb 9c 83 94 bd 1d 61 ab bd 88 ff d5 bb
       -0.0035101285 -0.07251665 -0.08368132 -0.006530706
0000c0 75 89 b1 3c 8b e1 b9 bc 28 ea ac 3c c6 50 7f bd
       0.02167199 -0.022690555 0.021107748 -0.06233289
0000d0 0a 45 2f bd da 05 62 3d 63 49 a5 bd 6e bb 0e 3c
       -0.04279045 0.05518136 -0.08070638 0.008711679
0000e0 66 b4 97 3d ea 87 79 3d 85 73 ce 3c a5 3f 9a bd
       0.07407455 0.060920633 0.025201568 -0.075316705
0000f0 ee 0a 83 3c f2 a0 ea bc c4 45 a3 bc e0 82 94 3d
       0.015996423 -0.028641198 -0.019930728 0.07251525
000100 8e 1d 0d bd 3a 46 6c bd b1 5d 9c bd 99 b5 78 3d
       -0.034452014 -0.05768416 -0.07635058 0.06072006
000110 27 7b 22 3c de 39 be 3d ba 58 c3 3c 1e b8 9e bd
       0.009917057 0.09288381 0.023846019 -0.07749961
000120 5b cb e6 3c 40 a7 9a 3d c1 2a 76 3d b9 42 fc 3c
       0.02817314 0.07551432 0.060099367 0.030793535
000130 2b 83 84 bd 66 0a 42 bd 14 2e 85 3d 58 fe 83 bd
       -0.06470331 -0.047373198 0.06502929 -0.064449966
000140 b8 73 cc 3c 9b b1 ac bb d5 b2 10 3d 17 a0 29 3c
       0.024957523 -0.0052701957 0.035326798 0.01035311
000150 f3 93 94 bd 69 fd f9 bc f1 03 a0 3d 0e 70 ce 3b
       -0.072547816 -0.030516343 0.07813252 0.006299979
000160 82 01 25 3d 2e f4 1f bd 66 f5 97 3d d2 8b cb bc
       0.04028464 -0.039051227 0.07419853 -0.024846945
000170 f8 d4 ca bc a9 6d 51 3c 3d df e7 bc 11 af 27 bd
       -0.024759755 0.012782493 -0.02830469 -0.04093844
000180 ad 42 4c bc 90 bd 2a bc 8d d5 39 bd 1d 43 12 3d
       -0.012467069 -0.010421172 -0.045369674 0.035708535
000190 c8 41 a4 bd 9c 3d 46 3d 1e 93 b3 3d 9d b4 0e 3c
       -0.08020359 0.0483986 0.08768295 0.008710054
0001a0 91 6d d3 bc a8 48 9a bd 67 20 1c 3d c6 f7 88 3d
       -0.025809081 -0.07533389 0.03811684 0.06687884
0001b0 b7 7a a6 3d f0 0c 18 3c 28 1d 10 3d ae 94 a2 3d
       0.08128875 0.009280428 0.035184056 0.07938515
0001c0 76 41 98 3c d7 fa 17 bd 7d 73 b7 bd 98 39 06 3d
       0.018585902 -0.037104454 -0.089575745 0.03276977
0001d0 44 af e9 3c 9f 76 98 3d 22 0b 27 bd 3a 71 32 3d
       0.028525956 0.074445 -0.0407821 0.043565013
0001e0 1e ac 0d bd 29 51 e3 bc 41 5b 3e 3d 2e 40 9c bd
       -0.034587972 -0.027748661 0.046473745 -0.07629429
0001f0 7d 69 8e 3d 66 3f 0f 3d b6 32 6d bd bf da 21 3d
       0.06953714 0.03497257 -0.05790969 0.039515253
000200 d5 59 c6 bc 33 75 cd 3b 0d 0a ae bc cc 0a ad bd
       -0.024212757 0.0062700748 -0.021245027 -0.08449325
000210 60 78 3d bc 22 c3 37 3d 4c f6 08 bc a0 8c 29 bd
       -0.011564344 0.044863828 -0.008359503 -0.041393876
000220 10 95 8a 3a 29 b9 63 3c 4e 89 b7 bc 14 46 91 bd
       0.0010572989 0.013899126 -0.02240434 -0.070934445
000230 93 8f 38 bd 37 bd 4a bc a7 88 0b 3d 31 67 a5 3d
       -0.045058798 -0.012374214 0.03406587 0.08076323
000240 ca 2e 82 38 aa ba 09 3d 7f 01 55 3d de 00 25 bd
       6.207598e-05 0.033625282 0.05200338 -0.04028403
000250 ec 71 e5 bc c5 cf 66 3d 48 93 86 3d cb d7 ac 3c
       -0.028008424 0.05635049 0.065710604 0.021098992
000260 3f d8 90 bd 72 3e 55 3d 76 12 98 bd 51 4e 33 3d
       -0.07072496 0.052061506 -0.07425396 0.04377586
000270 aa 50 50 3c 5c 86 d6 3c 42 ba b4 bd 19 41 07 bd
       0.012714544 0.026187114 -0.08824588 -0.033021066
000280 fd 7a 22 3d a8 35 8f 3d 61 a2 be bc 76 f4 9c 3d
       0.039668072 0.06992656 -0.023270788 0.07663815
000290 4a 2e b2 bc 58 49 63 bd c0 6f 14 bd 2d 5a dc 3b
       -0.021750588 -0.055489868 -0.036239386 0.006724617
0002a0 d8 4d 90 bc 4a f6 37 3d 5e 24 4e bd fb e3 ba bc
       -0.017615244 0.044912614 -0.05032765 -0.022813788
0002b0 9a f5 b1 bd 4c c9 8e 3d da 13 9d bc b8 80 93 bd
       -0.08689423 0.06971988 -0.019174505 -0.072022855
0002c0 5a 6f 03 bb b2 1b a6 ba a4 35 b4 3c 35 1b f0 bb
       -0.0020055384 -0.0012673049 0.021998234 -0.007327462
0002d0 07 84 6d 3d 9e 18 04 bd 83 69 c6 bc 52 7d bc bc
       0.05798724 -0.03225004 -0.024220234 -0.023008976
0002e0 32 52 92 3c 53 b2 8c 3d 88 2c c7 bb bb 33 8f 3d
       0.01786146 0.0686995 -0.0060783066 0.06992289
0002f0 5f ee 91 3d c7 ec 36 bd b1 b3 c4 bb dd 7b 22 bd
       0.07125544 -0.044659402 -0.006002866 -0.039668906
000300 8d 6b 10 3d 81 d3 ea bc 75 51 cc 3c 64 cc e2 3b
       0.03525882 -0.028665306 0.024941185 0.006921338
000310 68 e9 64 bd 63 34 6a bd 27 a1 ac bd 1c ca 42 bd
       -0.055886656 -0.057178866 -0.08429175 -0.047556028
000320 48 25 d9 3c 1a 16 62 3b 1a 2f 8c 3d 21 bb 9b bd
       0.026507035 0.0034498037 0.068449214 -0.076040514
000330 c9 e9 2f bb c6 7a 9d bd 0d 38 23 3b 1e 22 f8 3c
       -0.0026842228 -0.07689433 0.0024905235 0.030289706
000340 2e 48 9e bd d6 ad a4 3d 66 db cd bc de 43 a4 3d
       -0.07728611 0.08040969 -0.025129031 0.08020757
000350 7b ec 89 bc e0 55 55 3d cb 87 a3 3d 59 15 08 bd
       -0.016836395 0.05208385 0.07984885 -0.033223484
000360 0f 4d bc bc 7c e7 46 3d 04 ef 96 bd 3b 63 4d 3d
       -0.022985963 0.048560604 -0.07369807 0.05014346
000370 ec c4 5b bd db fc a4 3d f0 99 67 bd 62 6e 1d bd
       -0.053654596 0.08056041 -0.05654329 -0.038435347
000380 8d f4 85 3d 37 df 25 bd 9d 65 9f 3d 3a 4b 81 3d
       0.06540785 -0.040496077 0.07783053 0.063131765
000390 58 d2 a9 3d 6b 4d b4 bd f7 36 5d 3b 37 d4 ff bc
       0.08292073 -0.08803829 0.0033754685 -0.031229122
0003a0 a9 00 9c 3c 30 86 84 bd 9f 7d 0d 3d 72 12 cb bb
       0.019043284 -0.06470907 0.03454363 -0.006197267
0003b0 42 c3 21 bd 07 2f a3 bd 4b b7 45 3d 91 f7 0b bd
       -0.039492853 -0.07967954 0.048270505 -0.034171645
0003c0 0a 80 89 3d 08 36 92 3c 49 75 c9 3c a3 d4 7d bc
       0.06713875 0.01784803 0.024592059 -0.015492591
0003d0 03 9b 6d bc e0 c5 01 bd 24 36 9a bd 5c 42 6b 3d
       -0.01450229 -0.03168285 -0.07529858 0.057436332
0003e0 ed 92 6d bd aa c3 49 3d 84 54 01 bd 75 8c 6b 3d
       -0.058001447 0.049258865 -0.03157474 0.057506997
0003f0 5d 94 9e 3d d6 c9 66 bd fe d0 90 3d bc d6 a7 36
       0.07743142 -0.05634483 0.07071112 5.001986e-06

vehicle_encoder.lstm.bias_ih_l0 f4 [512]
000000 17 6b 81 bc 61 9d a6 bd d4 5f 35 3d df 36 a8 3a
       -0.015798135 -0.081354864 0.044280842 0.0012833736
000010 88 fc 1b 3d 42 fe f6 bc 75 63 42 bd 60 5f a1 3d
       0.03808263 -0.030150536 -0.04745813 0.078795195
000020 69 6e 9e 3c d7 ae af 3c aa 2a 83 3d 26 76 37 3d
       0.019339757 0.021445675 0.06404622 0.04479041
000030 5f c9 ab 3c 7e 6d 20 bd de db d8 3c 34 2d 83 3d
       0.020970045 -0.03916692 0.026472028 0.06405106
000040 f1 c6 95 3d d2 13 87 3b de 39 a1 bd 2b de 5f bd
       0.07313336 0.004122236 -0.078723654 -0.054655235
000050 7a a6 4d 3d 1a ef a6 3d 7b 72 76 3d 46 a9 47 3d
       0.050207593 0.08151074 0.06016777 0.048745416
000060 27 0d b6 3d e4 f7 cc bc b6 c8 7c 3d 73 b2 27 bc
       0.08889227 -0.025020547 0.06171485 -0.010235417
000070 58 5a 8f 3d 36 23 3d 3d 04 18 40 bb 18 e4 b8 bb
       0.069996536 0.046176158 -0.002931119 -0.0056424253
000080 35 c4 18 3d be c8 9a bc 0d 28 dd bb d2 91 02 3d
       0.037296493 -0.01889455 -0.006749159 0.031877346
000090 3b bf 1f bd c3 5b 94 bc 4d f7 3f 3d 56 b2 95 3c
       -0.03900073 -0.018110162 0.046866704 0.018273514
0000a0 66 49 8e 3d 9d b5 f3 3c 9a 23 37 3d 8c 31 d4 3b
       0.069475934 0.029749686 0.044711687 0.006475633
0000b0 b5 78 e0 bc 6a bc b6 bc 21 aa 51 3d 6f 74 20 3c
       -0.027401308 -0.02230664 0.05118764 0.009793385
0000c0 eb bc a4 bc c9 0b 8f bd a6 8e 25 bd 71 f9 8a 3d
       -0.020109614 -0.0698467 -0.040419243 0.067858584
0000d0 a3 ce 25 3c a2 fa 39 3d dc cc 8f bd a8 3a b0 3d
       0.010120067 0.045405038 -0.07021496 0.08604938
0000e0 50 e8 07 3d 10 7e 89 3d 87 a9 ca bc 3c c3 97 3d
       0.033180535 0.06713498 -0.02473904 0.07410285
0000f0 76 68 6c bd 93 d2 77 3c 1f 31 52 3c f1 4d 2c bd
       -0.05771681 0.015125888 0.012829094 -0.04206652
000100 86 4d d5 bb 78 4b 11 3d 9e 43 36 bd 74 68 05 3c
       -0.0065094857 0.035472363 -0.04449808 0.008142579
000110 09 7a a5 3c 70 d9 9e bd 6c 6d 0f bd bc 7f 75 3d
       0.020199792 -0.07756317 -0.035016462 0.05993627
000120 20 0c 6f bd 26 7a 5c ba c1 d2 85 3d 8f 32 d5 bc
       -0.058361173 -0.00084105355 0.06534339 -0.026025085
000130 c9 cb 71 3d ab 11 3e 3d 60 21 32 bd 52 65 9c 3d
       0.059032235 0.04640357 -0.04348886 0.07636513
000140 82 72 94 3d d1 20 96 3d 95 4c cd 3c df 8f 6e 3d
       0.07248403 0.07330478 0.025060931 0.058242675
000150 61 62 20 bd a9 7e a8 bb 8f d9 85 3d b1 96 98 bd
       -0.03915632 -0.005142052 0.06535637 -0.07450617
000160 17 a2 5c 3c a7 f2 9c 3d 4d 54 b5 3b 11 9c 0e bd
       0.01346638 0.0766347 0.005533731 -0.034816805
000170 05 84 8b bd 85 d7 35 bd c5 72 80 bc 57 f1 45 3c
       -0.0681229 -0.04439499 -0.015679726 0.012081466
000180 66 c5 05 3d db a3 3a bd 5d 08 95 bd ae de 59 bb
       0.032658957 -0.04556642 -0.07276986 -0.00332443
000190 6c 07 e2 bc f8 8d 0e bd 9b 76 66 bd f2 09 62 3b
       -0.02759143 -0.03480336 -0.056265455 0.003449079
0001a0 7f 7e 9b 3b 62 b5 d7 3c 58 49 54 3a 06 8a 2f bd
       0.004745304 0.026331607 0.0008098087 -0.04285624
0001b0 fa fa 23 bd 87 17 35 3b 2e ff b0 bc ae 53 88 bc
       -0.04003427 0.0027632432 -0.021606054 -0.016641464
0001c0 65 0a a8 bc 98 c0 d2 bc 7c a0 a4 3d c0 d8 89 3c
       -0.020512769 -0.025726601 0.080384225 0.016826987
0001d0 5c a3 8e 3d 3a a7 4c 3d e6 57 8b 3d 9b 11 40 bc
       0.06964752 0.049964167 0.06803875 -0.0117229475
0001e0 4e 5c 90 bd c7 09 48 bd a1 48 41 bc 53 f4 db 3c
       -0.07048856 -0.04883745 -0.011797101 0.026849901
0001f0 fd 02 c3 bc bc 74 a4 bd 48 9c 4a bd 65 3d 9d 3d
       -0.023805136 -0.08030078 -0.049465448 0.07677726
000200 66 12 43 bd 25 cf 65 bd 5c d6 80 3d 64 8a 1d bd
       -0.047624968 -0.05610575 0.06290886 -0.038462058
000210 37 67 2e 3a a9 f6 a3 3d 78 1f a2 3d 9e 9b 98 3d
       0.00066529535 0.08006031 0.079161584 0.074515566
000220 17 4d 70 bd 27 4e 14 3c 13 a8 b6 ba 51 43 ab 3b
       -0.05866727 0.009051836 -0.0013935588 0.0052265306
000230 30 48 b5 3d f1 a9 53 3d 9e b6 9f bd 76 d6 ad 3d
       0.08851659 0.05167574 -0.07798503 0.08488171
000240 f2 07 a6 3d 04 7c 85 bd 07 0e 94 bd 9d 31 8a 3d
       0.08106984 -0.06517795 -0.07229238 0.06747744
000250 d5 a7 cd bc 71 08 8c bd 9b 8d 2b 3d cc ec b0 3b
       -0.025104443 -0.068375476 0.041883092 0.005399322
000260 2f a7 6f 3d 1d a3 7c bd dd 6c a1 3d ab 3e e7 bc
       0.058509048 -0.061678994 0.07882092 -0.028228125
000270 ec 62 42 bd 60 ff 17 3d 83 da 8a bd 28 f6 86 bd
       -0.04745762 0.03710878 -0.06779959 -0.06589919
000280 f3 40 91 bc 37 2e 08 3c 1d 5c 0d bd d4 cb df bb
       -0.017731166 0.0083118 -0.034511674 -0.006829718
000290 0a 42 a2 bd 39 c9 7c 3d 5d f1 1f bc c8 ce 50 3c
       -0.07922752 0.06171534 -0.009762135 0.012744613
0002a0 6f 1d 68 3d d2 66 49 3d 55 93 93 3d 62 1f 5b 3d
       0.056668695 0.049170323 0.07205836 0.053496726
0002b0 96 85 b4 3c 6d 0c 4d bd 55 cb 8a 3d f8 6c 71 bc
       0.022036355 -0.05006068 0.06777064 -0.014735453
0002c0 4b 76 22 3d 2f 18 ae 3d fb fe 3e bd 50 a6 b7 bb
       0.039663594 0.085007064 -0.046629887 -0.005604543
0002d0 21 97 71 bd 6b d3 26 bb af 3e b1 bc c2 7c 6b bd
       -0.05898202 -0.0025455605 -0.021636335 -0.057492025
0002e0 ee a6 ca bc 80 b1 f3 3c bb aa 81 bd c4 46 ca bb
       -0.024737801 0.029747725 -0.063313924 -0.0061729867
0002f0 1c 9d 87 3d d8 30 97 3d bf 30 ac bd 80 fa 59 3d
       0.06621763 0.07382363 -0.08407735 0.05321741
000300 8b d5 4a 3c e1 bf 03 3d da a3 51 3d 5d 8d 8d 3d
       0.012380014 0.03216541 0.05118165 0.069117285
000310 44 4c 3f bd 2c 3e 93 3d b8 d0 db bb 1e b9 8a 3c
       -0.046703592 0.07189593 -0.006708231 0.016933974
000320 e5 ee 0f 3d 3e af a3 bd 83 9c 1c bd 2a d2 b7 bd
       0.035139937 -0.07992409 -0.0382352 -0.089756325
000330 88 03 70 3c f5 9a 49 3d 5b d0 0a bd db 89 c5 3c
       0.014649279 0.049220044 -0.03389011 0.024113586
000340 5e f8 5a bc 45 96 bc bc 58 10 7c bd 30 fe 03 3d
       -0.013364879 -0.023020873 -0.061539024 0.032224834
000350 09 3c 17 bc 8b 16 1a 3d f8 f3 a7 3d e2 6a 8e bd
       -0.009230622 0.037619155 0.0820083 -0.0695398
000360 e2 aa 06 bc 6f a1 d2 bc ce 15 6e 3d b2 9f a6 3d
       -0.008219453 -0.025711743 0.058126263 0.08135928
000370 1e 46 8e 3d 99 93 bc bb 66 a2 eb 3c 3d 00 fc bc
       0.069469675 -0.0057548997 0.028763961 -0.030761832
000380 fb d0 b2 bd 87 af ad bd b7 1b 0e 3d db e0 81 bd
       -0.08731266 -0.08480745 0.0346944 -0.06341716
000390 8c 64 51 bd b8 fc ec 3c 2a a2 9b bd d9 ed 61 3d
       -0.05112128 0.0289291 -0.0759929 0.05515847
0003a0 b6 d8 83 3d 4c 57 73 bb 15 0d cd 3c 8c fa 6d 3d
       0.06437819 -0.003713089 0.025030652 0.05810027
0003b0 e2 b2 13 3d 39 d8 ac bd cc 02 0f 3d 59 17 ba bd
       0.036059268 -0.08439679 0.034914777 -0.090864845
0003c0 7d 99 56 bd ad 88 b5 bd 9e f6 3e bd 59 b6 86 3b
       -0.05239247 -0.088639595 -0.04662191 0.004111093
0003d0 4d eb 0a 3c cb 5f 73 3b c3 d2 a3 3a 7a cf 9a bd
       0.008478952 0.0037135954 0.0012498725 -0.07559104
0003e0 4d d2 a0 3c f9 ca c8 bc 8c 16 5a 3d e7 7e a1 3d
       0.01963153 -0.024510847 0.05324416 0.07885533
0003f0 f3 2d 0e bc 51 37 16 3c f1 f9 52 bd 96 a1 22 3d
       -0.008677947 0.009168462 -0.051507894 0.03970488

vehicle_encoder.lstm.bias_hh_l0 f4 [512]
000000 52 39 86 bd e3 06 10 3c fe a7 b2 3d f0 1f b8 3d
       -0.06553902 0.008790704 0.08723448 0.089904666
000010 83 f6 94 3d 80 84 a6 bd e6 34 a1 3d ba df 95 ba
       0.07273581 -0.08130741 0.07871418 -0.0011434474
000020 f8 c5 a0 3d f5 61 a0 bc 27 b8 0a bd fe e8 5a 3d
       0.078502595 -0.01957796 -0.033867028 0.053444855
000030 df be ef 3b d8 ed 89 bd f2 3c bc bb 17 14 d9 3c
       0.007316455 -0.06734818 -0.00574457 0.026498837
000040 d8 b1 79 bc e4 28 47 bd a6 c9 26 bd 03 59 5e bc
       -0.015240155 -0.04862298 -0.04071965 -0.013571027
000050 bb b0 cc bc 82 23 b3 3d b2 84 64 bd 26 4d 30 3d
       -0.024986615 0.08747007 -0.05579061 0.043042324
000060 8c 5b 7b bd 84 03 bc bc e7 93 52 bd 33 ea 00 3c
       -0.061366603 -0.022950895 -0.051410582 0.007868337
000070 56 11 9a bd 6e 51 60 3d 7e 30 a3 bc 94 fc 57 3d
       -0.07522838 0.054765157 -0.019920584 0.05273111
000080 b4 3c 44 3b 95 66 53 bd 44 5f a1 3d b9 35 ab bd
       0.0029943408 -0.0516115 0.078794986 -0.08359856
000090 af 6e 58 bd 0b 5b 3a bd 27 67 91 3d 61 d8 30 bd
       -0.05283993 -0.04549698 0.07099753 -0.043175105
0000a0 69 d7 51 3d fa 71 a6 3d b1 6f 8b 3d ca 50 f9 3c
       0.05123082 0.08127208 0.06808413 0.030434031
0000b0 82 83 40 3d 45 5c 97 3d 6b 41 3c bd ed 3a 88 3d
       0.047000416 0.07390646 -0.045960825 0.06651864
0000c0 f0 ae a7 bd 99 4a 39 bd 5c e4 97 3a 53 0d b6 bc
       -0.081876636 -0.045237157 0.0011588442 -0.02222315
0000d0 89 ec 70 bc 96 26 43 3d 2b d6 d9 3b 02 9c d7 3c
       -0.014704832 0.04764422 0.0066478453 0.026319508
0000e0 77 b5 46 3c d8 5c 12 bd d3 56 aa 3d 3f 19 53 3d
       0.0121282255 -0.035733074 0.08317342 0.05153775
0000f0 24 93 1a bd cd 61 9a bd 7f 46 a5 bc 4c 45 5f bd
       -0.03773798 -0.07538185 -0.020175217 -0.054509446
000100 0e 4a 5d bd ba 73 85 bd 09 70 90 3d 5e d4 2d bd
       -0.054025702 -0.06516214 0.07052619 -0.042438857
000110 6b b6 62 bb b2 a0 89 bd 13 8a 9e 3d a4 e2 74 bd
       -0.0034593593 -0.06720103 0.07741179 -0.059786454
000120 64 5b f2 bb cf 1e b8 bd f6 41 56 3d 3c 4d 26 3d
       -0.0073961485 -0.08990251 0.052309 0.040601
000130 85 59 a1 3c 78 a8 8a 3d b6 d6 aa bd ac 68 f1 3c
       0.019696007 0.06770414 -0.08341734 0.029468857
000140 6c 44 de 3c d6 ba 4b bd 21 e4 7a 3d 70 65 95 bd
       0.027132235 -0.049738728 0.061252717 -0.07294738
000150 af f5 ac 3d 97 11 ce 3c 6f 4c 8b 3d 4c db 27 bd
       0.08445298 0.025154872 0.06801688 -0.040980622
000160 6b 03 af 3d 67 8e 59 bd ba 00 4e bc 5e f6 58 bd
       0.08545574 -0.05311432 -0.012573415 -0.05296933
000170 95 e9 7f 3d e5 73 0d bd 0a 4f af 3d 3f 37 0e 3c
       0.06247862 -0.034534354 0.085599974 0.008680164
000180 fb e5 8e 3d b7 2e d8 3c f7 29 e2 bc 61 9d 9c 3d
       0.06977459 0.026389463 -0.027607901 0.07647205
000190 7d 34 89 3d b1 75 99 ba 28 66 88 bc 59 26 65 3d
       0.066994645 -0.0011708048 -0.016650274 0.055944774
0001a0 f4 65 3f bd f8 51 12 3d 37 05 b4 bb c9 0d 22 3d
       -0.04672809 0.035722703 -0.0054937857 0.039563928
0001b0 00 f7 2f bd 15 76 82 bd 01 5a 91 3d 49 0e a0 bd
       -0.042960167 -0.063701786 0.07097245 -0.07815225
0001c0 b6 91 49 3d 2c 13 eb bc 66 96 c7 3c 2e a3 a4 bd
       0.049211226 -0.028695665 0.024363708 -0.080389366
0001d0 0c de 2b 3a 6e 10 2c 3d ab 68 d3 bc e3 bd 24 3b
       0.000655622 0.042007856 -0.025806746 0.0025137595
0001e0 15 1c 20 bd d8 de f4 3c a3 13 33 3d 2f 5f 44 3c
       -0.03908928 0.029891416 0.0437199 0.011985584
0001f0 f8 eb 0c 3c 64 41 8b bd 16 4f 41 3d f1 02 44 bd
       0.008601181 -0.06799582 0.047194563 -0.047854368
000200 d1 70 61 bd 15 01 80 3b 11 51 22 3b 31 22 94 bd
       -0.05503923 0.003906379 0.0024767558 -0.07233084
000210 f3 49 91 bd d0 11 79 bd 4b ed 9c bd 5f e1 98 bd
       -0.07094183 -0.060808003 -0.076624475 -0.07464861
000220 bf 3c 57 3d 14 3f 3f bd 82 fc b0 3d 4f 24 8a bd
       0.052548166 -0.046691015 0.08641912 -0.067452066
000230 7f 59 7f bc 9b d7 34 bc 49 10 94 3d 5f 09 1f 3d
       -0.015585302 -0.0110377325 0.07229669 0.038827296
000240 62 8a 59 3c ab 99 12 bd ab 63 39 3d 92 47 90 bd
       0.013277622 -0.03579108 0.045261066 -0.07044901
000250 35 c8 b3 3c 7c 11 6a 3d 9c 24 f7 3c d2 0b 40 3d
       0.021946052 0.05714558 0.030168824 0.046886273
000260 1a 48 7a bc 90 94 93 3d 7f 09 03 3b c4 3c 32 3d
       -0.015275979 0.072060704 0.0019994674 0.043514982
000270 60 d1 36 3c 2b ca 84 3c 3e 2f 81 bd ef d7 7a 3d
       0.011158317 0.016209682 -0.06307839 0.061241087
000280 23 a4 b0 bd f3 30 18 bd 77 1d 34 3c ee 48 f2 3c
       -0.086250566 -0.037156057 0.010993353 0.029575791
000290 93 09 3a bd 88 a6 0b bd 67 f6 1b bd df ca b3 bd
       -0.045419287 -0.034094363 -0.038076784 -0.08778929
0002a0 1f 80 98 bd c4 db e3 3c 44 33 7c 3b 72 00 9c bc
       -0.07446312 0.027814753 0.0038482705 -0.019043181
0002b0 c8 95 1d 3d 0f bf 06 3d a5 4c 91 bd 65 9d ff bb
       0.03847292 0.03289705 -0.07094697 -0.0078007453
0002c0 eb d2 0c 3c ec e9 9a bc e6 3c 96 3d 54 a6 59 bd
       0.008595209 -0.01891037 0.07335834 -0.05313714
0002d0 84 19 32 3d 40 8f 52 3d bc e9 8a bd 73 64 8c bd
       0.043481365 0.051406145 -0.067828625 -0.06855097
0002e0 7c 47 54 3d 3f 28 3f bd 02 99 86 3d c9 86 1d 3c
       0.051825985 -0.04666924 0.06572153 0.009614655
0002f0 d6 f1 db bb 4c 81 95 3d a7 da b0 bc 16 3a ce 3b
       -0.0067121787 0.07300052 -0.021588637 0.0062935455
000300 87 5f 78 bd d0 c4 ce ba ec 79 9b 3d 65 f8 a0 3d
       -0.060637977 -0.0015775207 0.07591614 0.078598775
000310 46 d4 28 bd 95 21 14 bd f9 19 9b 3d 0a 46 a2 3d
       -0.041218065 -0.03616484 0.07573313 0.07923515
000320 69 85 29 bc 80 67 3c bc 75 f3 75 bd 92 2b a3 bd
       -0.010346749 -0.011499286 -0.06004663 -0.07967295
000330 64 8f 92 3b 15 4b 86 bd b5 fa 1b 3d ef 89 8e 3d
       0.00447266 -0.065572895 0.03808089 0.069599025
000340 36 35 0c bd 7f 5a 53 bd c0 ac a8 bd be 69 f3 bb
       -0.034230433 -0.051599976 -0.082360744 -0.007428377
000350 f3 47 1e bd 6a 7f b2 3d 57 5c 31 3d df a2 8d 3d
       -0.038642835 0.087157086 0.043300953 0.06915831
000360 7a 7c 96 3d 36 01 ba 3b 6a fb 47 bd 89 e0 46 bc
       0.07347961 0.005676414 -0.04882375 -0.012138494
000370 65 f2 98 bd aa 80 4f bd ca 3c 9d bd f4 90 03 3d
       -0.07468108 -0.050659813 -0.0767761 0.03212066
000380 4a fb 8c bd f0 90 88 3b 5f 31 8b 3d 2f e8 1f bc
       -0.06883867 0.0041676685 0.06796526 -0.009759947
000390 dd 46 8a 3d df 8a 8e 3c f0 b1 ad bc 38 da ca 3c
       0.06751797 0.017400203 -0.021203011 0.024762258
0003a0 6a b7 a6 3d 3e 3c 37 3d 99 a3 9a bd 7d f7 b2 bc
       0.08140452 0.044735186 -0.07550735 -0.021846527
0003b0 c3 9e 9f bc e1 21 27 bd f1 9f 6b bb b6 a8 ab bd
       -0.019484883 -0.040803794 -0.0035953487 -0.083817884
0003c0 88 32 8c 3d 52 4c 6f bd 6c 1e 34 3d 09 79 ed 3c
       0.068455756 -0.058422394 0.043974325 0.028988378
0003d0 b3 88 ec 3c 7f a3 8f bd 5f 32 85 bd cf 00 92 bd
       0.028873777 -0.07013606 -0.06503748 -0.071290605
0003e0 58 60 59 3d 38 5a 78 3d a2 4b 8a 3c 75 c7 14 3d
       0.053070396 0.060632914 0.016881768 0.03632303
0003f0 2d ba 10 3d 7e 38 09 3d 4b ad 4f bd 80 46 cd 3c
       0.0353338 0.03350114 -0.050702374 0.025058031

attention.wq.weight f4 [128, 128]
000000 eb 72 15 bd 8c 3e 9e 3d 86 27 ab bd dd 90 20 3d
       -0.036486547 0.077267736 -0.08357148 0.039200652
000010 11 e2 67 bd 44 e5 28 bd 75 e0 2c bd 15 48 86 bd
       -0.056612078 -0.04123427 -0.042206246 -0.06556717
000020 38 42 a1 3c 3e 64 d8 3b 01 90 52 3d f5 33 2a bd
       0.019684896 0.0066037467 0.051406864 -0.041553456
000030 29 27 48 bc 6e 92 8b bd f1 b4 32 3d 0e c7 23 3c
       -0.012216368 -0.068150386 0.04362959 0.009996189
000040 de 30 2c bd 58 2c e0 3c 54 46 9c bd af d3 9e 3d
       -0.04203879 0.027364895 -0.076306015 0.07755219
000050 a2 6a 19 bd fc 23 64 3d 6c 7a 7c bd 47 8b 99 bd
       -0.03745521 0.05569838 -0.061640188 -0.07497268
000060 bc fc 91 ba 4e 8d 1f 3c ae 6b 35 3d 62 dd 7f 3c
       -0.0011137943 0.0097382795 0.044292144 0.015616747
000070 61 b3 af 3d a6 98 d1 3c 21 a0 9e bc 74 18 c5 3c
       0.08579136 0.025585484 -0.019363465 0.024059512
000080 78 b4 a0 bd 89 3a e7 3c 0d a0 c7 3b 6e 94 91 bd
       -0.07846922 0.028226154 0.0060920776 -0.07108389
000090 28 5d 26 3d a4 9a ec bc 2f 6a 25 bb 8b 8e df 39
       0.040616184 -0.028882332 -0.0025240292 0.00042640077
0000a0 4d bd 5f bc 0e 1c 91 3c 4b 86 a3 3d b7 aa 17 3c
       -0.013655973 0.017713573 0.07984599 0.00925701
0000b0 8a ea 1a 3c f7 61 61 bd f1 95 77 bb d3 84 d7 3c
       0.0094553325 -0.055025067 -0.003777858 0.026308453
0000c0 ac 61 74 3d 79 5b a7 3d a4 22 45 3c b5 31 63 3c
       0.05966346 0.08171744 0.012032185 0.013866832
0000d0 59 e8 e1 bc 8a 45 71 bd 48 6d 36 3d d1 42 22 3c
       -0.027576612 -0.05890421 0.044537812 0.009903626
0000e0 56 94 18 bd 37 b1 2d 3d 5b 8d 9a 3c bb 81 44 3d
       -0.03725084 0.042405333 0.018866232 0.047975283
0000f0 6c e5 c9 3b 10 1e 0b 3d 8f 45 49 bd 5a 36 79 bd
       0.0061613824 0.033964217 -0.049138602 -0.06084285
000100 6a d7 f0 bc 19 47 50 3d 04 27 fd bc 8b bf 79 3d
       -0.029399592 0.050849054 -0.030902393 0.060973685
000110 2a c4 0c 3d d8 51 6b bd ca b7 70 bd 0e b8 20 3d
       0.034366764 -0.0574511 -0.058769025 0.03923803
000120 46 5f 88 3c 11 ff 62 3c 96 44 3a bc 75 7b 40 3d
       0.016646992 0.013854758 -0.011368891 0.046992738
000130 3c 8e 0f bd b3 68 20 3d 7a d7 5e 3d 66 b0 24 3d
       -0.035047755 0.03916235 0.054404713 0.04020729
000140 02 10 ee bc b0 52 2b 3d f3 1b 9f 3c 62 09 84 bd
       -0.029060367 0.041826904 0.019422507 -0.06447102
000150 1b d8 91 3d f6 af ab bd 6f 80 4a 3d 15 d0 1a bd
       0.07121297 -0.08383171 0.04943889 -0.0377961
000160 32 db 89 3d 45 01 9c 3d 86 3d a0 3d 82 4a 2e bd
       0.06731261 0.0761743 0.07824235 -0.042551525
000170 1d c7 08 bd 3d 82 6c 3c 41 d3 41 bc 80 87 bc bd
       -0.033393014 0.014435348 -0.011830152 -0.09205532
000180 43 28 03 bd bb a2 9a bd c1 f9 d4 bc f9 05 bb 3d
       -0.03202082 -0.075505696 -0.025997998 0.091319986
000190 2e 54 ae 3d 94 ce 91 3d f1 d0 ab 3c 91 b6 9e bd
       0.0851215 0.0711948 0.020973654 -0.077496655
0001a0 65 69 fd bc 5a b0 6d 3d 71 9c a6 3c 5e 12 1e 3d
       -0.030934045 0.05802951 0.020338269 0.038591735
0001b0 7c 44 4b 3c 11 eb ab 3c 5a 1c aa bd fe ea 88 bc
       0.012406465 0.020986112 -0.08306189 -0.016713616
0001c0 12 86 b4 3c 99 4c b3 3c d2 1a 56 3c 2b a1 fd bc
       0.022036586 0.02188711 0.013067918 -0.03096064
0001d0 5e 31 46 3d 04 54 c4 3c ee 9b 02 3d 21 54 78 3d
       0.048386924 0.023965843 0.031886987 0.060627107
0001e0 66 56 ba bb b0 6a 77 3d 13 d3 62 3a c1 b4 a5 bd
       -0.005686569 0.06040448 0.00086526683 -0.08091117
0001f0 8e 9a 61 3d 96 4d 91 3d 6c 73 aa 38 6c 89 a0 3d
       0.055079035 0.070948765 8.127731e-05 0.07838711
000200 fc 64 4a bd 25 0d a6 3d 8c a6 cb bc 71 02 7b bd
       -0.049412712 0.08107976 -0.02485969 -0.061281625
000210 70 7e 39 bc 8d 5a 6e bd 32 4d 59 bd ec 21 b5 bc
       -0.011321649 -0.058191825 -0.053052135 -0.022110902
000220 b7 05 40 bd 71 d7 a6 bd 45 8a 08 bd 2a e6 05 3c
       -0.04688045 -0.08146561 -0.03333499 0.008172551
000230 72 b9 81 3d e5 c6 95 3d ef 87 6f 3c 6f 07 60 bd
       0.06334199 0.07313327 0.014619811 -0.05469459
000240 aa f9 ee 3c 9f c2 9e bd 40 9b c3 3c 05 95 cb bc
       0.029171783 -0.07751965 0.02387774 -0.024851331
000250 b9 8c 82 3a 37 e8 29 3d 1d 8c 4c 3c fd ff 08 3d
       0.0009960152 0.041481223 0.0124845775 0.033447254
000260 3d e3 44 bd 9e 35 8d 3d a6 36 9b bb 21 65 45 3d
       -0.048068274 0.06894992 -0.004736739 0.048192147
000270 ef 7d 93 bd a9 c2 9e 3d 0d a7 4c 3d ef 70 8b 3c
       -0.07201754 0.07751972 0.049964 0.017021624
000280 dd c7 58 3d cb f3 a2 3c db 2d c5 bc 62 02 a1 bd
       0.05292498 0.01989164 -0.024069717 -0.078617826
000290 74 fd 08 bc 1d 61 b6 bc 8f 0d 96 3d 4e 81 25 bc
       -0.008361209 -0.022263104 0.07326805 -0.010101629
0002a0 86 45 7f bd a1 2c 1f bc ff 1e 0d bc 34 73 a6 3d
       -0.062322162 -0.00971523 -0.008613347 0.08127442
0002b0 a1 f9 3b 3d 97 b8 86 bc ae 3c 9d bd de f4 a3 bd
       0.04589236 -0.016445441 -0.07677589 -0.08005689
0002c0 c8 5b a2 3d a8 06 bf 3c 30 5c 01 bd 73 2c 8f bc
       0.07927662 0.023318604 -0.031582057 -0.01747725
0002d0 10 f3 b2 3d 57 34 6e bc df a2 b6 3d 90 db fc 3c
       0.08737767 -0.014538846 0.08917784 0.030866414
0002e0 a1 41 c7 ba 84 4e 91 3c 30 25 d7 bc 4b 22 dc bb
       -0.0015202054 0.017737634 -0.02626285 -0.006717955
0002f0 27 28 ed 3c f2 0e 73 bd 60 55 0d bd 02 11 4f bd
       0.02894981 -0.059340425 -0.034505248 -0.05055333
000300 ef 6a 5b bd c4 a8 a1 3d 8e e2 9b 3d 3a 8f 96 3d
       -0.053568777 0.078935176 0.07611571 0.07351537
000310 5f 88 57 3d 64 9a aa 3c e8 01 92 3c d6 54 71 3c
       0.052620288 0.020825572 0.017823175 0.014729699
000320 3f 2e b0 3d 26 cc 99 3d 9b 3c c0 bb 65 61 89 bd
       0.08602571 0.07509641 -0.0058665997 -0.0670803
000330 39 5e 08 3d 35 f8 29 3d 72 63 51 bb 52 23 7b 3d
       0.033292983 0.041496474 -0.0031950143 0.06131298
000340 c2 ec 2a 3d 25 53 66 bd 4d 49 b1 3d 1e 6c 8f bd
       0.041729696 -0.056231637 0.08656559 -0.070030436
000350 b1 4d a7 3b 59 b0 76 bd 32 86 3f 3d c6 7f f2 bc
       0.005105697 -0.060226772 0.046758838 -0.029601943
000360 88 ab c4 3c 4d fc 1f bc 44 36 2e bd 86 27 83 3d
       0.024007574 -0.009764743 -0.04253222 0.06404023
000370 9a eb 55 bd 4b 64 92 3d 87 23 91 bd 7a 44 aa bd
       -0.05222664 0.071480356 -0.070868544 -0.08313842
000380 50 4d a4 bd 9f 7b d7 3c 32 2c 38 bb 58 c3 c0 bc
       -0.08022559 0.026304064 -0.0028102514 -0.023530647
000390 fa 5b 54 3c 50 86 8a bd 8f b6 8d bd c8 1b 64 3c
       0.012961382 -0.06763899 -0.06919586 0.013922639
0003a0 e6 69 68 bd 0f e7 74 bd 02 b1 17 bc ee 31 20 bd
       -0.056741618 -0.059790667 -0.009258511 -0.039110117
0003b0 3b 00 93 bc cb 42 18 3d 2d 8a 6c 3d cb 0c a3 3c
       -0.017944446 0.037173074 0.057748962 0.019903561
0003c0 3b 78 46 bd f4 01 74 3c e2 07 48 3d ab 6f 29 bd
       -0.048454504 0.014893044 0.048835643 -0.04136626
0003d0 37 5f 50 3d 85 3e e7 3c d6 29 a8 bd 53 94 88 3c
       0.050872054 0.028228054 -0.082111046 0.016672289
0003e0 8f b5 66 3c 65 cf 66 bd 48 3f fc bc 66 45 2a 3d
       0.014081373 -0.05635013 -0.030791894 0.04157009
0003f0 fc 64 ff 3c fe 81 9a 3d f3 fe 0b bd a7 b6 ab 3d
       0.031176083 0.07544325 -0.034178685 0.083844475

attention.wq.bias f4 [128]
000000 7b 5f 42 3d f0 1c 98 bd cb 43 fb bc b2 54 31 3d
       0.04745434 -0.074273944 -0.030671975 0.043293662
000010 38 19 7e bc db 2d 19 bc 17 07 47 bd 05 32 3c bd
       -0.015508942 -0.009349312 -0.048590746 -0.04594614
000020 53 f8 e5 bc b3 d1 de 3c a0 a8 09 3d 06 68 01 3d
       -0.028072512 0.027199602 0.03360808 0.031593345
000030 fc 20 15 3d da 6a 55 bd 10 3d 90 bd cf 0e 92 bd
       0.03640841 -0.052103855 -0.07042897 -0.07131731
000040 46 4e 04 bc 6f 0e 00 bd 46 d6 22 3d 53 9e ad 3d
       -0.0080753025 -0.031263765 0.03975513 0.084774636
000050 a8 40 5d bd b4 70 81 3d f6 d1 13 3d e0 c0 8c 3d
       -0.05401674 0.063203245 0.036088906 0.068727255
000060 69 c1 01 3d b5 1b 9a bd d2 1a fc bc 1f b4 79 3d
       0.03167859 -0.07524816 -0.030774508 0.060962792
000070 5c e2 7d 3c ca 02 5c bb 57 d5 6d 3d 00 84 b9 3b
       0.015495863 -0.0033570998 0.058064785 0.0056614876
000080 e8 31 75 3d 0b f7 cd bc d2 be 07 3b 0b b1 46 bd
       0.059862047 -0.025142213 0.0020713103 -0.048508685
000090 ae e0 d8 bb cc 23 0d 3c f2 06 77 bd 8a 18 ae 3d
       -0.006618581 0.008614492 -0.060309358 0.08500774
0000a0 ad 61 10 bd 25 9b 09 bb bf 57 0d 3d ed 81 52 3c
       -0.0352494 -0.0020997014 0.03450751 0.0128483595
0000b0 3a fc d8 3c 11 64 2a bd e5 ff a0 3d 9d a9 8e bc
       0.026487458 -0.041599337 0.07861308 -0.017414862
0000c0 db de 3f bd 12 a5 6b bd 7d 7c 57 3b 84 73 10 bd
       -0.04684339 -0.05753047 0.0032880597 -0.035266414
0000d0 bb 9e 84 3d ec 7a 71 bc d3 e2 10 3d 45 d0 37 bd
       0.06475588 -0.0147387795 0.035372566 -0.044876356
0000e0 b4 d4 a2 bd 1d 13 8a bd f9 42 58 3d 4a 83 28 bd
       -0.07950726 -0.06741927 0.052798245 -0.041140832
0000f0 51 57 30 3d 5b a9 df bc 0e c0 13 3d 9b 1d 5a bd
       0.04305202 -0.027302435 0.03607183 -0.05325089
000100 ea 3c 60 bd fd 28 d7 bc c9 12 00 3d f7 f7 4d bd
       -0.054745592 -0.026264662 0.031267915 -0.050285306
000110 4f fb bd bc 81 9c 5b bd f3 3d e6 3c 1f c8 4a 3d
       -0.023191122 -0.05361605 0.028105712 0.049507257
000120 37 58 8c 3d 9f 12 99 bc e2 8e 69 3d ba 1a 43 bd
       0.06852763 -0.018685637 0.05702103 -0.04763291
000130 7f e8 fd bc 95 d0 30 3d 08 a5 02 bd b0 35 a9 3c
       -0.030994652 0.04316767 -0.031895667 0.020655483
000140 47 56 86 bd bb 07 1f 3d 45 4e af bd f3 06 91 3d
       -0.06559425 0.03882573 -0.085598506 0.070814036
000150 49 c8 0d bb be 70 18 3d e0 3e 19 3d 14 c1 dd 3c
       -0.0021634272 0.037216894 0.037413478 0.027069606
000160 32 c7 f0 3c df 94 41 3c 33 cb 81 bd 73 52 32 bd
       0.029391859 0.011815279 -0.06337585 -0.04353566
000170 e4 cc 7d bc 5f 48 b1 bb f0 93 05 bb bd a0 b1 3d
       -0.015490744 -0.0054102386 -0.0020382367 0.086732365
000180 df 46 75 bd bf 9b 82 3c ff f4 6d 3d 98 f5 d8 bc
       -0.05988204 0.015943406 0.058094975 -0.026484296
000190 16 e6 b7 bc e6 83 7a 3d 2b 9d 5c bd ce 42 48 3c
       -0.02244858 0.061160944 -0.053860825 0.012222959
0001a0 45 99 3d 3c 06 42 07 3d 56 2f 82 bd 7b e2 96 bc
       0.011572187 0.03302195 -0.06356685 -0.018418541
0001b0 f9 17 c2 3c 68 75 56 bd 39 04 8b 3d 45 ca 91 bd
       0.023693072 -0.05235806 0.06787915 -0.07118658
0001c0 6f aa 22 3c 37 49 0e 3d cd d5 38 3c d1 a0 8e 3d
       0.00992833 0.034737792 0.011281443 0.06964267
0001d0 0d a3 62 bc ef 70 db bb 6a d0 a9 3d e5 5d 9e 3d
       -0.01383282 -0.0066968123 0.08291705 0.07732753
0001e0 31 08 35 bb e0 ae 52 bd ff 5e f9 bc 94 ba 98 bd
       -0.002762329 -0.051436305 -0.030440805 -0.07457462
0001f0 13 b2 a6 3d e3 c8 72 3d 58 80 77 3d fd 68 9f bd
       0.08139434 0.05927361 0.060425133 -0.07783697
