checkpoints/model_epoch_20_baseline.pt (torch, 65320 bytes, 5 tensors)

fc1.weight f4 [128, 56]
-0.10774498 -0.0667536 -0.052139945 0.05207708 0.04138122 0.091486685 0.030866317 -0.112038836
0.14523192 0.03611184 -0.09578961 0.1447683 0.14927493 -0.09732036 0.07077777 0.04286807
0.03292864 0.1526984 -0.024988927 0.11229976 -0.07409519 0.031869076 -0.09615006 0.14049254
0.0112044085 0.02323837 -0.09975672 -0.07448485 -0.03965106 -0.039701845 0.082164325 0.016049957
-0.10578073 0.040013827 -0.11170723 0.0063850554 -0.017767169 -0.03482513 -0.096216165 0.05859319
-0.06912059 0.06479376 0.13283843 0.1530173 0.09266243 -0.04378576 -0.087488145 -0.040788606
0.1115637 0.14437775 -0.040189072 -0.0013628784 -0.023295538 0.10862234 -0.10112414 0.06421899
0.025077775 0.06550822 -0.010440543 0.020126656 -0.027978003 -0.027898118 0.05089481 -0.06714363
-0.08446181 -0.11185639 0.08501096 -0.0073163956 0.1287774 -0.05728572 -0.110434815 -0.07710418
-0.068321235 -0.006079912 0.060467392 -0.10227414 0.011164263 -0.13176997 -0.09250747 -0.10890931
0.077197194 -0.033169597 -0.08885439 -0.025418147 0.021566361 -0.13158089 -0.07065278 0.09900954
0.02330774 -0.10990964 -0.0943663 0.08213729 0.0007571727 -0.1142632 0.098795936 -0.058441475
0.110209525 0.07333824 0.116715565 -0.0944625 -0.117683165 0.06630044 0.12936763 -0.007163435
-0.072400354 -0.088908166 0.063161746 -0.11882377 -0.03912454 0.0019351095 0.0065131932 -0.094999894
0.09689371 0.0140056675 -0.1298589 -0.055782024 -0.053561375 -0.038830005 0.07334418 0.097136065
-0.06474675 0.019420289 0.01042878 -0.087000124 0.107205525 0.062140197 0.00020024634 -0.10176725
0.021468861 -0.04449918 0.08086284 -0.04862356 0.004779602 -0.009588211 -0.038257334 -0.12267729
0.0779139 0.1413443 -0.057044104 -0.0711303 -0.11497586 -0.0624713 0.10645996 -0.034897804
0.12111738 0.0018977802 -0.08962643 0.08859689 -0.009811354 0.0972717 -0.031956114 0.11075476
-0.0734251 0.07813806 0.10073224 -0.059491362 -0.08599795 0.033561982 -0.10361047 -0.022035329
-0.0033051476 0.13829249 -0.002087289 0.030209828 0.049794726 0.061956514 0.07420556 -0.09098799
0.03920971 -0.1334184 0.014524505 -0.038673922 -0.0468468 0.05530645 -0.06525909 0.031992644
-0.045796983 0.13051198 -0.11612884 0.004244581 -0.10925452 -0.08351025 0.122049406 0.005213082
-0.044744037 -0.050637968 -0.01921688 -0.112507835 -0.11444085 0.0791488 0.019885272 0.12707044
-0.008654647 -0.039193496 -0.06589035 0.029299572 0.09485906 -0.12626559 -0.0022691637 -0.008598924
0.023529485 -0.0022235364 -0.026989311 -0.0011851937 0.026303992 0.010358736 0.08991404 -0.02827306
-0.11221804 -0.01932054 -0.064332284 -0.01941 0.010660544 -0.09608578 0.013432309 0.13082586
0.008452579 -0.05471822 -0.01524467 -0.07440719 -0.069847174 -0.02446714 -0.080852464 -0.04625167
-0.11735073 -0.037798624 0.10745526 -0.1267223 0.10586021 0.107985996 0.06281744 -0.09679323
-0.020081235 0.09083502 0.0024481488 -0.071259014 -0.00023123776 -0.090751104 0.11970682 0.08888236
0.10979017 0.1005474 0.07272033 -0.07791589 -0.015955746 0.040224377 0.04620595 -0.037958816
0.033740517 0.1105095 0.04971489 -0.14408036 -0.010218293 0.09730554 0.08060102 0.0058385334
00000000: 66a9 dcbd 1db6 88bd b290 55bd c74e 553d
00000010: 5b7f 293d 5f5d bb3d 5cdb fc3c 9e74 e5bd
00000020: adb7 143e 02ea 133d 582d c4bd 243e 143e
00000030: 87db 183e e64f c7bd eff3 903d 6e96 2f3d
00000040: 2ee0 063d f85c 1c3e 94b5 ccbc 6bfd e53d
00000050: 38bf 97bd 2689 023d 53ea c4bd 47dd 0f3e
00000060: b292 373c 655e be3c 404d ccbd 838b 98bd
00000070: 2669 22bd 679e 22bd c545 a83d 337b 833c
00000080: 91a3 d8bd 8ae5 233d c3c6 e4bd ba39 d13b
00000090: 748c 91bc cca4 0ebd fb0c c5bd 6aff 6f3d
000000a0: 198f 8dbd 97b2 843d cc06 083e 91b0 1c3e
000000b0: cdc5 bd3d b258 33bd fc2c b3bd f411 27bd
000000c0: 827b e43d c3d7 133e 4c9d 24bd 9ca2 b2ba
000000d0: 49d6 bebc 6475 de3d 2c1a cfbd 3f85 833d
000000e0: e86f cd3c 2c29 863d d00e 2bbc a8e0 a43c
000000f0: 2032 e5bc 988a e4bc 1477 503d 9982 89bd
00000100: 50fa acbd f714 e5bd 3a1a ae3d 60be efbb
00000110: 39de 033e 6ea4 6abd a62b e2bd cce8 9dbd
00000120: 01ec 8bbd 003a c7bb a8ac 773d 1b75 d1bd
00000130: 50ea 363c b5ee 06be 8e74 bdbd d80b dfbd
00000140: 9019 9e3d d8dc 07bd 4af9 b5bd b839 d0bc
00000150: f0ab b03c 24bd 06be 68b2 90bd 84c5 ca3d
00000160: e0ef be3c 4e18 e1bd 1e43 c1bd 9837 a83d
00000170: 007d 463a d302 eabd 8655 ca3d 5460 6fbd
00000180: 88b5 e13d 5c32 963d 9208 ef3d 8e75 c1bd
00000190: df03 f1bd 86c8 873d f378 043e 40bb eabb
000001a0: a346 94bd 7c15 b6bd f25a 813d e059 f3bd
000001b0: 0e41 20bd 80a3 fd3a a06c d53b 4e8f c2bd
000001c0: 3670 c63d 0778 653c bbf9 04be b17b 64bd
000001d0: 2c63 5bbd 360c 1fbd 7935 963d 46ef c63d
000001e0: f299 84bd 4c17 9f3c 79dd 2a3c 1f2d b2bd
000001f0: 928e db3d b886 7e3d 38f9 5139 596b d0bd
00000200: 77df af3c c644 36bd 6b9b a53d 8029 47bd
00000210: 359e 9c3b df17 1dbc b9b3 1cbd 3b3e fbbd
00000220: 5391 9f3d 8fbc 103e 14a7 69bd c3ac 91bd
00000230: 7778 ebbd e8e1 7fbd ae07 da3d 00f1 0ebd
00000240: 640c f83d f0be f83a 108e b7bd 4972 b53d
00000250: cdbf 20bc 6336 c73d 6ae4 02bd 64d3 e23d
00000260: e65f 96bd d906 a03d b44c ce3d 37ad 73bd
00000270: b11f b0bd 4a78 093d ba31 d4bd 6f83 b4bc
00000280: 2d9b 58bb 8c9c 0d3e e6ca 08bb 9a7a f73c
00000290: 8ef5 4b3d 1dc6 7d3d 16f9 973d e957 babd
000002a0: 5c9a 203d d59e 08be 30f8 6d3c 8c68 1ebd
000002b0: 6ee2 3fbd 0489 623d 8fa6 85bd b80a 033d
000002c0: 9e95 3bbd efa4 053e f5d4 edbd 2016 8b3b
000002d0: d5c0 dfbd 6c07 abbd 0af5 f93d 80d2 aa3b
000002e0: 8645 37bd c269 4fbd b86c 9dbc 826a e6bd
000002f0: f75f eabd c418 a23d 70e6 a23c c11e 023e
00000300: 38cc 0dbc 5c89 20bd 85f1 86bd a805 f03c
00000310: 7845 c23d c44b 01be 40b6 14bb 80e2 0cbc
00000320: e8c0 c03c c0b8 11bb b018 ddbc 8058 9bba
00000330: 787b d73c b0b7 293c da24 b83d e89c e7bc
00000340: 92d2 e5bd 1c46 9ebc a5c0 83bd b801 9fbc
00000350: 90a9 2e3c 9fc8 c4bd 3013 5c3c 37f7 053e
00000360: b07c 0a3c 3620 60bd c8c4 79bc cc62 98bd
00000370: 090c 8fbd 506f c8bc fa95 a5bd 6472 3dbd
00000380: 9455 f0bd bbd2 1abd 8111 dc3d 7ec3 01be
00000390: 3dcd d83d c327 dd3d 6ea6 803d 873b c6bd
000003a0: 6781 a4bc b607 ba3d 1f71 203b 3ff0 91bd
000003b0: 6a78 72b9 b7db b9bd d928 f53d f407 b63d
000003c0: abd9 e03d cceb cd3d 65ee 943d 5e92 9fbd
000003d0: a0b5 82bc 51c2 243d 7342 3d3d b47a 1bbd
000003e0: 7f33 0a3d ce52 e23d d7a1 4b3d cd89 13be
000003f0: a16a 27bc 2148 c73d 2612 a53d 2b51 bf3b

fc1.bias f4 [128]
0.09014871 -0.1027558 -0.008710146 -0.0529328 -0.034248218 0.07953978 -0.12257522 0.03703122
0.0280504 -0.025853826 -0.07930153 0.011491589 0.025966749 -0.03199141 -0.111874774 0.0817865
-0.01789644 0.11714167 0.14685242 0.056237474 0.0018838943 -0.13880366 0.120402694 0.09316305
-0.092273995 0.085681476 -0.092272334 0.08765194 -0.042817768 -0.07440798 -0.0013917629 0.08660362
-0.1011976 -0.08182603 -0.083490685 0.05185662 -0.037195463 -0.0172529 7.635355e-05 0.054100532
-0.053184677 -0.0935722 -0.034432825 0.12527223 -0.013037173 -0.031630218 0.124414906 0.12529165
0.007850599 0.0023206065 0.048759714 0.12160298 0.06468186 -0.09994982 -0.12374071 -0.053454284
0.12672858 0.14423098 0.041538376 0.046884287 -0.007721931 -0.105621785 0.1334016 0.123738356
-0.11521312 -0.07401797 0.12729847 -0.10033528 0.071047544 0.03863927 0.1263105 -0.12914774
-0.10325875 0.06883137 -0.049760077 0.10082817 -0.10284328 0.017743686 -0.05264229 -0.1019202
0.020837242 -0.033521987 0.00035992055 0.04962538 0.1221653 0.00053953624 0.010209925 0.07421056
0.031217508 0.13237016 -0.095355876 -0.10340635 0.07268295 0.10517773 0.11439938 -0.043838676
0.029531471 -0.0494893 0.08619589 -0.07503962 -0.050928053 0.08437952 -0.006103671 -0.02762299
-0.14021464 0.09010105 -0.12480068 -0.09334195 0.10847188 0.015168967 -0.08238255 0.017665684
0.13745731 -0.06540395 0.11802054 -0.10985624 0.11685641 -0.11098518 -0.0848962 -0.1053626
-0.075274855 -0.074621424 -0.009099843 -0.09341091 0.0500161 -0.0704401 -0.113373354 -0.030877266
00000000: e39f b83d a271 d2bd 00b5 0ebc 10d0 58bd
00000010: dc47 0cbd c1e5 a23d b808 fbbd 0cae 173d
00000020: f4c9 e53c 67cb d3bc d768 a2bd 3847 3c3c
00000030: 38b8 d43c 6d09 03bd 9a1e e5bd ae7f a73d
00000040: 8e9b 92bc f9e7 ef3d 7b60 163e 4459 663d
00000050: 01ed f63a 8c22 0ebe b095 f63d 45cc be3d
00000060: 26fa bcbd c579 af3d 47f9 bcbd dc82 b33d
00000070: af61 2fbd 3663 98bd d06b b6ba 3d5d b13d
00000080: b040 cfbd 6894 a7bd 2afd aabd 9b67 543d
00000090: 455a 18bd f455 8dbc 0020 a038 8598 5d3d
000000a0: 2dd8 59bd c8a2 bfbd 6f09 0dbd 5d47 003e
000000b0: de99 55bc b08e 01bd 3ecd fe3d 744c 003e
000000c0: cc9f 003c 5115 183b 44b8 473d fc0a f93d
000000d0: ec77 843d 7eb2 ccbd c56b fdbd e1f2 5abd
000000e0: 23c5 013e 49b1 133e 2524 2a3d bd09 403d
000000f0: 4108 fdbb 3c50 d8bd 6e9a 083e 896a fd3d
00000100: dbf4 ebbd bc96 97bd 885a 023e 957c cdbd
00000110: 6081 913d 3644 1e3d 8a57 013e 4e3f 04be
00000120: 5379 d3bd 76f7 8c3d 39d1 4bbd 007f ce3d
00000130: 7f9f d2bd 355b 913c 719f 57bd 8abb d0bd
00000140: ddb2 aa3c 5a4e 09bd b8b3 bc39 fc43 4b3d
00000150: cd31 fa3d aa6f 0d3a 8747 273c b5fb 973d
00000160: dcbb ff3c 0b8c 073e f149 c3bd b5c6 d3bd
00000170: ccda 943d 6c67 d73d 394a ea3d 2f90 33bd
00000180: fceb f13c 4bb5 4abd 7987 b03d 5fae 99bd
00000190: ef99 50bd 2bcf ac3d 4e01 c8bb 9c49 e2bc
000001a0: 6d94 0fbe e686 b83d 8097 ffbd 102a bfbd
000001b0: 8126 de3d 4287 783c 2fb8 a8bd a0b7 903c
000001c0: 9cc1 0c3e 82f2 85bd c1b4 f13d 4ffc e0bd
000001d0: 6a52 ef3d 334c e3bd 0fde adbd 59c8 d7bd
000001e0: b429 9abd 1ed3 98bd 8217 15bc 384e bfbd
000001f0: afdd 4c3d e642 90bd 4a30 e8bd 52f2 fcbc

fc2.weight f4 [64, 128]
0.07530039 0.016314045 -0.06526861 0.06377227 -0.03304378 -0.027433949 0.010088973 -0.012867771
-0.0020269356 -0.040459987 -0.030982474 0.096581526 0.071706496 0.05296161 0.08261725 0.046599653
0.08390578 -0.041453727 -0.047922976 0.04370635 0.09073475 0.07646931 -0.039249633 -0.025340348
0.009544903 -0.038638562 0.029194757 0.013033338 -0.027107093 -0.07255275 -0.042426568 -0.048706748
-0.07698418 0.0074303215 0.07990166 0.012385381 -0.0057284795 0.043354444 -0.055137634 -0.039265648
-0.0068155625 0.02846925 -0.008820864 -0.025725234 0.08326109 -0.0333647 0.011228688 0.0107978955
-0.029958269 -0.025752522 0.00833122 0.021643918 0.00952325 0.009039729 -0.0725915 -0.025424335
0.047502384 0.001896918 0.0143088475 -0.06481475 0.06160268 0.07758583 0.02015236 -0.019855104
0.08652716 0.07773772 0.06470321 -0.054910254 -0.029964218 -0.062906265 -0.02272727 0.029744325
-0.038973555 -0.019358248 0.027816461 -0.057025664 -0.07140334 0.038596086 0.0027143843 -0.06650885
-0.054533944 0.0060630664 0.03867494 -0.033395976 0.069181964 0.08518276 0.026801426 0.057406913
-0.056196153 0.019031718 0.025517967 0.1031815 0.018296704 0.025061628 -0.03542627 0.078800485
-0.045763075 -0.020048838 0.016309427 0.0756585 0.08047197 0.054621346 -0.07770824 0.07323519
0.072623715 -0.0647021 -0.07207112 0.025469888 -0.06856221 -0.06947438 0.020936897 -0.07380717
-0.0178827 -0.046055067 0.00127404 0.07298871 -0.015221054 -0.027070068 0.0067161894 -0.009415403
-0.03803437 0.016076513 0.002017525 0.040041022 -0.060586803 -0.075592786 0.0097000655 0.028915903
-0.036970053 -0.045008797 -0.07797623 -0.06552679 -0.065443546 0.0462467 0.038328998 0.06160917
-0.09032617 0.07501372 -0.0556154 0.016954495 0.04544067 -0.05765391 0.017093534 0.015269879
0.037492767 0.05767218 -0.04384689 0.050101317 0.058208894 0.045199975 -0.0049512666 0.038893007
-0.00954307 0.063858025 0.062357083 -0.08036138 -0.07642656 -0.015974868 -0.03960914 -0.050173037
-0.0319713 0.069080606 -0.039958026 -0.034615174 0.037033223 -0.06769768 -0.0080354735 0.061809517
0.05153025 0.05870832 -0.06311595 -0.079322405 -0.008524014 0.026302947 -0.07252949 -0.06178336
0.001242345 -0.0199368 0.0015840824 -0.006767106 -0.036207765 -0.018387813 0.03616419 -0.020734731
-0.099833846 0.012358428 -0.054240208 -0.0901624 -0.09331099 -0.014926272 0.07043747 0.045360282
0.0364217 -0.032129597 0.021288138 -0.027715426 0.06957235 0.01783666 0.009579903 0.035609234
-0.07222006 0.027552553 -0.010799963 -0.07364109 -0.032316014 -0.068766594 -0.017719613 -0.043701906
0.03031825 0.024992593 -0.07401381 0.008982258 0.03792164 -0.09754457 -0.075461745 -0.068959564
-0.073748365 -0.07377673 -0.01265593 -0.0026576854 -0.0024259016 0.06477636 -0.020048171 -0.04862222
-0.049317297 -0.061000627 -0.036185097 -0.068139024 -0.063222535 0.06702339 -0.0721348 -0.05529131
0.019549888 0.031867035 -0.06522974 0.04576784 0.057936125 0.0013772894 -0.0021104403 -0.031839352
0.028902493 -0.032039173 -0.007028426 -0.032076783 -0.02921304 -0.012017697 0.04170545 0.063923836
0.0116026355 0.050033044 0.034583963 0.04328721 0.021617023 0.050060745 -0.053146336 -0.023133008
00000000: 1737 9a3d 08a5 853c 8dab 85bd 099b 823d
00000010: ea58 07bd 29bd e0bc 384c 253c 58d3 52bc
00000020: 56d6 04bb 5fb9 25bd f5ce fdbc 89cc c53d
00000030: dbda 923d 46ee 583d 3c33 a93d 47df 3e3d
00000040: cbd6 ab3d 62cb 29bd e24a 44bd 6e05 333d
00000050: 24d3 b93d f19b 9c3d 39c4 20bd 9096 cfbc
00000060: 3a62 1c3c 7843 1ebd d829 ef3c c889 553c
00000070: b20f debc 8996 94bd 7bc7 2dbd ba80 47bd
00000080: e2a9 9dbd 0e7a f33b 7ba3 a33d 0eec 4a3c
00000090: f8b5 bbbb 6e94 313d 00d8 61bd 04d5 20bd
000000a0: 1555 dfbb 5838 e93c 6385 10bc babd d2bc
000000b0: ca84 aa3d 6ca9 08bd 88f8 373c a8e9 303c
000000c0: 0b6b f5bc f4f6 d2bc ab7f 083c 964e b13c
000000d0: 6807 1c3c 5f1b 143c daaa 94bd b246 d0bc
000000e0: dc91 423d 02a2 f83a a86f 6a3c 98bd 84bd
000000f0: 1753 7c3d 52e5 9e3d 9016 a53c 2ca7 a2bc
00000100: 2735 b13d f434 9f3d 1e83 843d 93e9 60bd
00000110: 8577 f5bc 00d5 80bd 8a2e babc 5faa f33c
00000120: bca2 1fbd 3095 9ebc 59df e33c be93 69bd
00000130: ea3b 92bd ee16 1e3d d0e3 313b cb35 88bd
00000140: fc5e 5fbd b0ac c63b 9d69 1e3d 38ca 08bd
00000150: 46af 8d3d 4d74 ae3d aa8e db3c 8323 6b3d
00000160: f02d 66bd 68e8 9b3c 0e0b d13c d350 d33d
00000170: f8e2 953c 0b4e cd3c 231b 11bd 2662 a13d
00000180: 1072 3bbd 763d a4bc 599b 853c d8f2 9a3d
00000190: 7dce a43d a2ba 5f3d 7f25 9fbd 55fc 953d
000001a0: bebb 943d 8982 84bd 069a 93bd 3aa6 d03c
000001b0: 586a 8cbd 9548 8ebd db83 ab3c 3728 97bd
000001c0: bd7e 92bc 3da4 3cbd b0fd a63a 1b7b 953d
000001d0: ba61 79bc 0cc2 ddbc 7b13 dc3b 1043 1abc
000001e0: edc9 1bbd e4b2 833c 7438 043b 0e02 243d
000001f0: de29 78bd 64d0 9abd 06ed 1e3c 0be1 ec3c
00000200: e96d 17bd 255b 38bd 00b2 9fbd e932 86bd
00000210: 4407 86bd 2e6d 3d3d defe 1c3d e659 7c3d
00000220: edfc b8bd cba0 993d f9cc 63bd 27e4 8a3c
00000230: ff1f 3a3d 8226 6cbd bd07 8c3c 842e 7a3c
00000240: 0492 193d aa39 6c3d cc98 33bd 0a37 4d3d
00000250: 736c 6e3d 9c23 393d 3c3e a2bb 464e 1f3d
00000260: 895a 1cbc ffc7 823d 246a 7f3d 8294 a4bd
00000270: 8785 9cbd badd 82bc 323d 22bd 3e82 4dbd
00000280: 56f4 02bd 227a 8d3d 07ab 23bd a4c8 0dbd
00000290: 26b0 173d 15a5 8abd 38a7 03bc fa2b 7d3d
000002a0: 6211 533d 2378 703d ef42 81bd c973 a2bd
000002b0: 4ea8 0bbc 4779 d73c 578a 94bd 8c10 7dbd
000002c0: 2ed6 a23a 8052 a3bc fca0 cf3a 99be ddbb
000002d0: 984e 14bd 0aa2 96bc e720 143d e2db a9bc
000002e0: b075 ccbd 017b 4a3c fb2a 5ebd 10a7 b8bd
000002f0: d519 bfbd 538d 74bc 8541 903d b4cb 393d
00000300: ec2e 153d 539a 03bd 7664 ae3c 760b e3bc
00000310: f37b 8e3d 301e 923c 07f5 1c3c fdda 113d
00000320: 1ce8 93bd e4b5 e13c 54f2 30bc 24d1 96bd
00000330: cc5d 04bd 80d5 8cbd b928 91bc c500 33bd
00000340: fb5d f83c 44bd cc3c 8d94 97bd 522a 133c
00000350: b953 1b3d 73c5 c7bd b08b 9abd ac3a 8dbd
00000360: 6209 97bd 4118 97bd d15a 4fbc 902c 2ebb
00000370: e0fb 1ebb 78a9 843d 103c a4bc 1828 47bd
00000380: ef00 4abd cbdb 79bd d336 14bd 798c 8bbd
00000390: d17a 81bd 8f43 893d 69bb 93bd 2479 62bd
000003a0: 1627 a03c 0287 023d 2c97 85bd 0f77 3b3d
000003b0: 6e4e 6d3d 2a86 b43a 504f 0abb fb69 02bd
000003c0: ecc4 ec3c 823b 03bd b64e e6bb f262 03bd
000003d0: 2f50 efbc e0e5 44bc 55d3 2a3d 80ea 823d
000003e0: fb18 3e3c 73ef 4c3d eaa7 0d3d ee4d 313d
000003f0: 2f16 b13c 7f0c 4d3d f9af 59bd 6f81 bdbc

fc2.bias f4 [64]
0.09609961 -0.04564366 -0.06492884 -0.07048922 0.0045537837 0.07442949 -0.03961582 -0.0040208325
0.0652011 -0.002597678 -0.04855987 0.02130012 0.0036403476 -0.04186218 -0.031897787 -0.015268519
0.01147373 0.08004442 0.0036026984 -0.06631779 -0.055193268 0.07304419 0.030138914 -0.05897586
0.06353835 0.0700479 -0.027365167 -0.07067123 0.05368388 0.00406179 0.022502683 0.025063945
0.05404884 -0.07655356 0.021731779 0.01969029 0.025721677 0.044111904 -0.08623239 0.049528413
0.011074606 -0.004065886 -0.055097014 -0.0019299984 -0.0063545927 -0.08726032 0.06597544 0.010230894
0.08080996 0.042884067 0.056104906 0.074639745 0.054395013 0.00040192157 0.081290774 -0.08773927
0.045806997 -0.06878389 0.007554029 0.08307825 -0.09036177 0.04963484 -0.06282838 -0.04464754
00000000: dfcf c43d d9f4 3abd 69f9 84bd a75c 90bd
00000010: e837 953b 7d6e 983d 3344 22bd 30c1 83bb
00000020: 2888 853d ce3d 2abb b7e6 46bd 977d ae3c
00000030: e692 6e3b ad77 2bbd 41a7 02bd cf28 7abc
00000040: 50fc 3b3c 54ee a33d 401b 6c3b 9fd1 87bd
00000050: 5612 62bd 3198 953d e2e5 f63c ac90 71bd
00000060: 6520 823d 4675 8f3d ea2c e0bc 14bc 90bd
00000070: a1e3 5b3d c418 853b 8c57 b83c e752 cd3c
00000080: 5162 5d3d 1dc8 9cbd d806 b23c 884d a13c
00000090: 44b6 d23c afae 343d 9b9a b0bd 4ede 4a3d
000000a0: 4472 353c 203b 85bb 68ad 61bd 00f8 fcba
000000b0: 303a d0bb 8ab5 b2bd 221e 873d 7b9f 273c
000000c0: b17f a53d 34a7 2f3d 42ce 653d b9dc 983d
000000d0: 4ecd 5e3d 00b9 d239 c77b a63d a5b0 b3bd
000000e0: 1ea0 3b3d 91de 8cbd ca87 f73b ee24 aa3d
000000f0: 970f b9bd e74d 4b3d 2aac 80bd 57e0 36bd

fc3.weight f4 [1, 64]
-0.12898004 0.108679116 0.09284419 -0.11832805 -0.110078275 0.10053394 -0.052223418 0.09718105
0.007065912 -0.12552744 -0.06880434 -0.11295436 0.07112004 -0.040008873 0.04067871 0.05879103
-0.03290595 -0.055853046 -0.11323257 -0.04405008 -0.10326494 -0.057050202 0.013993061 -0.07661314
-0.11897804 -0.11203645 -0.040864747 0.005737096 -0.12161887 0.0747948 0.12411532 -0.123832695
-0.08254407 -0.12268475 0.11113149 -0.011783287 -0.10154315 -0.120475985 -0.0029409677 0.0069097495
-0.11521927 0.11928226 0.061922073 0.009418368 -0.10270454 0.08713233 -0.085039556 0.052130383
0.035011232 -0.054312084 0.07694848 0.07570243 -0.03392169 0.124350846 -0.10547278 0.02581954
-0.1331564 0.003950997 -0.06343072 0.11797691 0.0664158 0.07909274 -0.13929693 0.09472551
00000000: 5813 04be 2893 de3d 1825 be3d fa55 f2bd
00000010: b870 e1bd bde4 cd3d 39e8 55bd dc06 c73d
00000020: 2a89 e73b 448a 00be 4ae9 8cbd 9e54 e7bd
00000030: 62a7 913d 58e0 23bd b89e 263d ddce 703d
00000040: 64c8 06bd 2ac6 64bd 7ae6 e7bd db6d 34bd
00000050: 927c d3bd 79ad 69bd 2743 653c 5ae7 9cbd
00000060: c2aa f3bd 5e73 e5bd cb61 27bd 40fe bb3b
00000070: 5013 f9bd 042e 993d 2c30 fe3d ff9b fdbd
00000080: de0c a9bd 2442 fbbd e898 e33d b00e 41bc
00000090: dbf5 cfbd 1dbc f6bd 40bd 40bb 2e6b e23b
000000a0: 15f8 ebbd 424a f43d 00a2 7d3d 804f 1a3c
000000b0: c256 d2bd 6f72 b23d 3829 aebd ab86 553d
000000c0: f067 0f3d 5976 5ebd 2a97 9d3d e009 9b3d
000000d0: 78f1 0abd a8ab fe3d 1d02 d8bd 8083 d33c
000000e0: 275a 08be 5d77 813b f7e7 81bd e19d f13d
000000f0: 0205 883d 60fb a13d dba3 0ebe 73ff c13d
