checkpoints/model_epoch_20_baseline.pt (torch, 44840 bytes, 5 tensors)

fc1.weight f4 [128, 16]
000000 a4 97 d0 bd 20 0f 8e 3c c0 d4 aa 3d 94 81 57 be
       -0.10185173 0.017341197 0.0834136 -0.21045524
000010 6c 9b 10 be a8 d8 c9 bd c8 64 90 3d 72 27 03 be
       -0.14121789 -0.09855777 0.070504725 -0.12808016
000020 a8 d7 f7 3d da b1 69 be 40 06 f9 3b 1c 6b ef bd
       0.1210168 -0.22821751 0.007599622 -0.11690351
000030 e4 3c 80 bd 34 12 a9 bd b0 71 af 3d 6e 23 42 be
       -0.06261614 -0.08255425 0.08566606 -0.18958828
000040 98 bd f2 3d ba 51 65 be 10 69 6c 3d b8 2e 6e bd
       0.118525684 -0.22394457 0.057717383 -0.058150023
000050 30 eb 16 be 60 09 fd bc 54 d6 38 3e d6 e8 68 3e
       -0.14738154 -0.03088826 0.1805051 0.2274507
000060 d8 3a 15 be 90 cd 06 3d a0 8d 13 be 4c ad 2c 3e
       -0.14573228 0.032910883 -0.14409494 0.16862983
000070 3c 41 cf 3d b4 c9 4c be 38 03 10 be 9c 90 06 be
       0.10119864 -0.19998819 -0.14063728 -0.13141102
000080 f6 13 6a 3e b0 51 60 be c8 39 04 3e 68 9e bf bd
       0.22859177 -0.21906161 0.12912667 -0.093563855
000090 0c 14 2d 3e a2 e7 32 3e 60 d6 d1 bd 12 97 69 be
       0.16902179 0.17471173 -0.10245967 -0.22811535
0000a0 90 0e 5e 3d a0 ba c0 bd b4 5d bd 3d 0e ef 54 be
       0.054213107 -0.09410596 0.09246388 -0.20794317
0000b0 d8 ab 72 3d 60 2c b4 bd 28 a8 cf 3d ca 0b 01 3e
       0.059245914 -0.08797526 0.10139495 0.12602153
0000c0 90 a7 6b 3e c6 99 46 3e b0 11 67 be c4 9f 0f 3e
       0.23013139 0.19394597 -0.22565341 0.1402579
0000d0 b6 be 0a be 90 88 a9 3d f2 c4 4d be 0a e1 4d be
       -0.13549313 0.08278 -0.2009466 -0.20105377
0000e0 9a 71 78 be 0e f0 00 3e f4 e4 fd 3d ce 60 7d 3e
       -0.24262086 0.12591574 0.12397185 0.2474396
0000f0 88 7d 39 bd fa 70 6a be 12 b1 4e be 0a ed 5e 3e
       -0.04528573 -0.2289466 -0.20184734 0.2177011
000100 c2 9a 67 3e 14 87 4a be 38 32 47 be 80 b0 3a 3b
       0.22617629 -0.1977809 -0.1945275 0.002848655
000110 84 e3 5a 3e cc d8 ca 3d da e1 52 3e c0 a1 36 3c
       0.21375853 0.09904632 0.20593968 0.011146963
000120 94 e8 7c 3e e8 1f 72 be d0 f1 98 3c 58 d1 d8 3d
       0.24698097 -0.23644984 0.018669993 0.10586804
000130 4c b6 2e 3e 48 94 9f 3d 3c e0 b2 3d a2 2f 0a be
       0.17061728 0.07791954 0.087341756 -0.13494733
000140 10 df 12 be 9a 0d 4e be 6c b0 14 be 5e a2 2d 3e
       -0.14342904 -0.20122376 -0.14520425 0.1695647
000150 5c 4e 54 3e 84 92 77 3e 5c 17 c9 3d 16 5d 05 be
       0.20733017 0.24176985 0.098189086 -0.1302379
000160 60 8e 2a bd d8 c3 09 bd e6 42 54 be 80 75 de bc
       -0.041639686 -0.033634037 -0.20728645 -0.027155638
000170 80 6a d8 3d 70 5a be bd 10 ee ce 3c da 1f 0e 3e
       0.10567188 -0.09294593 0.025260001 0.13879338
000180 60 b1 44 be ac b2 e1 3d e4 dd bb 3d 50 76 f7 bd
       -0.19208288 0.11020407 0.09173182 -0.12083113
000190 48 b6 1b bd 18 1d 1f 3e 7c a1 03 be c8 90 5a be
       -0.038015634 0.15538442 -0.1285457 -0.21344292
0001a0 40 d9 7b be 30 f7 fc 3d ac 80 b9 bd 48 ff 55 3e
       -0.24594593 0.12351835 -0.09057745 0.20898163
0001b0 ca 7e 76 be d4 04 05 3e 40 8e 15 3d 06 e1 42 3e
       -0.24071804 0.12990123 0.036512613 0.19031152
0001c0 18 82 bc 3d a0 3a 62 be 94 79 e7 3d 08 3f 53 3e
       0.09204501 -0.22092676 0.11302486 0.20629513
0001d0 3c f2 bb 3d 70 b7 d8 3c a0 60 dd bc d0 36 c8 bc
       0.09177062 0.026454657 -0.027023613 -0.0244402
0001e0 34 67 a9 3d 58 67 90 bd 38 a7 5e bd 1a 97 01 be
       0.082716376 -0.07050961 -0.05435869 -0.12655297
0001f0 d2 f3 1d be 72 a9 71 3e 40 e8 2c 3e c0 8d a1 bb
       -0.15425041 0.23599795 0.16885471 -0.004930228
000200 f4 af ab 3d 90 14 a6 bc f8 2b 9c bd 10 67 30 3d
       0.0838317 -0.020273477 -0.07625574 0.043067038
000210 c0 63 2b bc 98 89 37 3e 92 ff 2e 3e 08 d5 10 3e
       -0.010460794 0.17923582 0.1708968 0.14143765
000220 a4 4d a6 bd a4 91 7e 3e 58 a2 9e bd 80 13 f3 bb
       -0.081202775 0.24860245 -0.07745808 -0.007418096
000230 54 3d f9 3d 42 fe 29 3e 80 91 78 3e c0 5c e9 3c
       0.121699005 0.16600898 0.24274254 0.02848661
000240 8c ae e4 bd dc 4d 45 3e fc 05 87 3d 1c 82 cd bd
       -0.11166105 0.19267982 0.06592938 -0.10034582
000250 50 51 9c 3d 20 b0 68 be ee 35 09 3e bc 7f ae 3d
       0.07632697 -0.22723436 0.13399479 0.08520457
000260 c8 4c a4 3d 98 24 26 3e 68 7a fd bd 46 cb 51 3e
       0.08022457 0.16224897 -0.12376863 0.20487699
000270 7e 76 18 3e ec 75 f4 bd 50 1e d6 bc 80 19 c5 3c
       0.14888951 -0.11936554 -0.026137501 0.02406001
000280 00 e6 f5 ba 90 79 51 3e e4 38 02 3e d8 9e 41 3d
       -0.0018760562 0.20456529 0.12717015 0.047270626
000290 40 5b 76 3e b0 40 eb 3d 94 5e 21 3e 60 2c e3 bd
       0.24058247 0.114869475 0.15758735 -0.11092448
0002a0 00 7f 8a 3a d0 4d 2d bd 44 f4 93 3d 30 aa 0e be
       0.0010566413 -0.042310536 0.07224324 -0.13932109
0002b0 64 55 19 3e 76 45 56 be c8 59 1f 3e c0 28 08 bd
       0.1497398 -0.20924935 0.15561593 -0.033241987
0002c0 5c bc 56 3e 28 d5 75 3e 7e 70 26 3e 6a 88 0a be
       0.20970291 0.24007094 0.1625385 -0.135286
0002d0 14 8f 4d be f4 4d 8e bd 78 23 f5 3d 2c cd 56 be
       -0.20074111 -0.06948462 0.11969656 -0.20976704
0002e0 c6 1a 73 be 94 55 ad bd e4 65 2e be 80 80 d1 bc
       -0.23740682 -0.08463588 -0.17031056 -0.025573969
0002f0 08 cd 8e bd de 81 75 3e 58 44 6e be a0 c5 60 3d
       -0.069727 0.23975322 -0.23268259 0.05487597
000300 ac ad 1a be 90 c1 83 3c 6c ae 24 be f8 c0 82 3d
       -0.15105313 0.016083509 -0.16082162 0.06384462
000310 96 f7 00 be 78 26 97 bd 80 0f 46 3c 46 ff 74 3e
       -0.12594447 -0.07380384 0.012088656 0.23925504
000320 e4 1e 69 be 8c 29 6e 3e ea 3f 26 be 48 27 63 bd
       -0.2276569 0.23258036 -0.16235319 -0.055457383
000330 72 5b 6e 3e 80 08 57 3b 10 ff fc bc 56 e1 19 3e
       0.23277071 0.0032811463 -0.030883342 0.15027365
000340 78 dc 47 3d b2 ee 25 be 8c 1b 6d 3e 56 17 06 be
       0.04879424 -0.16204336 0.2315504 -0.1309484
000350 a0 84 28 3d e4 cf 4f be d2 7e 5d be 7c d6 3b 3e
       0.041142106 -0.20294148 -0.2163041 0.18343538
000360 00 f6 28 bb 40 90 3e 3c ac d0 da 3d a8 7a 01 3d
       -0.0025781393 0.011631072 0.10684332 0.031611115
000370 c0 05 e3 bc 5a 30 7b 3e d0 e4 79 be 68 e6 3a be
       -0.027712703 0.24530163 -0.24403691 -0.18251956
000380 3a 1f 3e be 2c 1d 2d 3e f0 1a 7a be 7c 10 00 3e
       -0.185666 0.1690566 -0.24424338 0.12506288
000390 3c 64 bd bd ce b8 7c be 52 65 47 3e 9a 84 14 3e
       -0.09247634 -0.24679872 0.19472244 0.14503708
0003a0 a4 e0 85 bd 50 6b 49 3d 40 dd f8 bb 5c ec 23 be
       -0.065369874 0.049174607 -0.0075947344 -0.16008133
0003b0 d8 e4 98 3d 20 0d 49 3e 40 31 d6 3d 08 f3 26 be
       0.074655235 0.19633913 0.104586124 -0.16303647
0003c0 04 c4 cc bd 42 26 15 3e f4 d0 fe bd 60 11 22 bc
       -0.099983245 0.14565375 -0.124421984 -0.009891838
0003d0 70 c1 2c 3d 38 f0 6b bd a0 a8 8d bc 10 4a 22 3e
       0.042176664 -0.057602137 -0.01729232 0.15848565
0003e0 78 e4 05 3d 0c 6f 31 be 14 e9 10 3e 20 9f 05 bd
       0.032688588 -0.17327517 0.14151412 -0.032622457
0003f0 00 de ae 3b 18 3d 11 3d b4 9a 4d be f4 fe f8 bd
       0.005336523 0.035458654 -0.20078546 -0.121580034

fc1.bias f4 [128]
000000 20 67 72 3c 14 8d b4 bd 4a 5d 0b be 00 b0 a5 3b
       0.014795095 -0.08815971 -0.13609806 0.005056381
000010 70 da 11 be aa 1f 1f 3e 58 93 18 3e 8e 46 0a 3e
       -0.14243484 0.15539423 0.14899957 0.13503477
000020 f0 59 00 3d 70 33 c3 bd bc 5e 0d be c2 56 3c 3e
       0.03133577 -0.09531295 -0.1380567 0.1839247
000030 0c 5d 05 3e 62 40 43 3e b2 57 74 3e a6 2c 45 be
       0.13023776 0.19067529 0.23861578 -0.19255313
000040 80 ab 2c 3d c8 cc ed bd 10 57 63 be cc 9f bc 3d
       0.042155743 -0.116113245 -0.2220118 0.09210166
000050 1c 29 72 3e 90 b3 c9 bd f0 c8 c6 bd 8e 29 67 be
       0.23648494 -0.09848702 -0.097062945 -0.22574446
000060 e6 52 77 be 00 e0 8a 38 fc 0a 75 be 2c 7f ae 3d
       -0.24152717 6.622076e-05 -0.23929971 0.0852035
000070 c4 4d 11 3e 1a d7 78 be da 5b 3d be c8 9b 17 bd
       0.14189821 -0.24300805 -0.1849207 -0.0370138
000080 1a 48 16 be 30 a4 4f be 80 b7 79 3c 38 6e 5e 3e
       -0.14675942 -0.20277476 0.015241504 0.21721733
000090 46 3f 53 3e 82 b2 69 be e8 d7 78 be 60 b8 05 bc
       0.20629606 -0.22822002 -0.24301112 -0.008161634
0000a0 c8 09 73 be f8 97 69 3d 98 79 42 3e 80 b3 00 bc
       -0.237342 0.057029694 0.18991697 -0.007855296
0000b0 c0 9f 93 3c e4 46 08 3e 9a 82 59 3e c0 1d 03 be
       0.01802051 0.13308293 0.21241227 -0.12804317
0000c0 90 01 42 3d 22 53 53 3e 40 1c 45 3d 80 1a 7b 3b
       0.04736477 0.20637181 0.048122644 0.0038315356
0000d0 1e 0c 29 be 00 2a b5 3b ea 96 7c be c6 e3 11 be
       -0.16508529 0.0055286884 -0.24666944 -0.14247045
0000e0 58 9b 7f be 1e ff 5d be a0 03 97 3c 44 99 be bd
       -0.24961603 -0.2167935 0.018434346 -0.09306577
0000f0 2c c0 e8 3d a8 ce 1f bd 02 cc 4d 3e c8 71 5d 3e
       0.11364779 -0.039015442 0.20097354 0.21625435
000100 5c 45 63 3e a4 e9 a2 bd c0 12 bd bc 18 be 33 bd
       0.22194427 -0.0795472 -0.02308023 -0.04388246
000110 38 52 7f 3d 48 15 e1 3d 14 fa 7e be 52 ab 6e 3e
       0.06233427 0.10990387 -0.24900085 0.23307541
000120 f0 43 c2 bc dc 50 79 3e a8 16 5e be 56 aa 27 be
       -0.023714036 0.24347252 -0.2168833 -0.16373572
000130 00 23 7c 3c 40 bc 71 bd d2 7c 53 3e d0 3f b2 bd
       0.015389204 -0.05901742 0.20653084 -0.087035775
000140 e0 0b 39 be 66 d0 0f 3e 8c 54 9c bd b6 b3 1e be
       -0.18070936 0.14044341 -0.076333135 -0.15498242
000150 40 37 ae bc 40 30 66 be 50 bc c0 bd bc 74 e7 bd
       -0.02126658 -0.22479343 -0.09410918 -0.11301562
000160 80 79 0c bd 60 93 4a 3e 60 a9 95 3c 68 3e a4 3d
       -0.03429556 0.19782782 0.01826924 0.080197155
000170 78 28 c1 3d 80 d2 32 3d b4 87 7c 3e 4c 9c ea 3d
       0.09431547 0.04365778 0.24661142 0.114555925
000180 50 4b dd bd 18 e7 1c bd 50 ae 49 3e 34 79 6d be
       -0.1080538 -0.038306326 0.19695401 -0.23190767
000190 00 4a c9 3b 86 42 70 3e 40 25 e1 bc 18 07 03 be
       0.0061428547 0.23462877 -0.027483582 -0.12795675
0001a0 40 d0 73 bc c4 3c ee 3d ee cc 1b be e8 37 dd bd
       -0.014881194 0.11632684 -0.15214893 -0.10801679
0001b0 12 04 55 be c6 77 2b be bc 42 61 be 60 d4 60 3c
       -0.20802334 -0.16744909 -0.21998113 0.013722509
0001c0 62 dc 73 3e f8 f5 12 3e e2 ec 3c be 80 1e 2f 3d
       0.23814538 0.14351642 -0.18449739 0.042753696
0001d0 e8 ac 2a be d0 8c 9a bc f8 64 94 3d c0 49 fc 3b
       -0.16667521 -0.018865973 0.07245821 0.0076992214
0001e0 e0 f1 0c bc 30 a0 5d be 1e 5f 3d 3e 10 b0 8b bc
       -0.008602589 -0.21643138 0.18493316 -0.017051727
0001f0 18 e8 bb 3d b4 eb f7 bd 40 70 2d 3d 2e f9 7f 3e
       0.09175128 -0.12105504 0.042343378 0.24997398

fc2.weight f4 [64, 128]
000000 dc 1c 48 bd ca 9d 82 3c cc 9d 8c 3d 56 0a 40 bd
       -0.048855647 0.01594438 0.06866035 -0.046884857
000010 8f bd 53 bd a4 bd 69 bd 9a 6d 0e bd d1 e0 ed 3c
       -0.05169445 -0.05706562 -0.034772493 0.029037865
000020 b1 d1 00 bd 6e 13 5c 3d 66 9e 6c 3c 01 64 9b 3c
       -0.031449977 0.053729467 0.014442062 0.018968584
000030 4c e3 47 3d 0a 5b b1 3d 0b c9 cb 3d a7 0b fe 3c
       0.04880075 0.086599424 0.09950455 0.031011416
000040 9c dd 49 3d a5 96 34 3c 50 92 31 3d e8 af 16 bd
       0.04928361 0.011022245 0.043352425 -0.03678885
000050 d3 df 9a 3c b9 1e 70 3d bc 27 08 bd e1 50 66 3c
       0.018905556 0.05862305 -0.03324102 0.014057369
000060 18 95 74 bc 23 1a 7f bd 92 58 b9 3d a6 f5 44 3d
       -0.014928125 -0.062280785 0.090500966 0.04808583
000070 39 98 15 bc 40 11 a8 ba 32 fe e0 bc aa 3b 56 3d
       -0.009130531 -0.0012822524 -0.02746496 0.052302994
000080 7c d1 92 bd 60 57 72 3b a8 2e cb 3c ee cb bf 3c
       -0.07168862 0.003697835 0.02480252 0.023412671
000090 26 88 46 3d 39 de 1a bd 9f a0 46 bd 39 0f 37 bd
       0.048469685 -0.037809584 -0.048493024 -0.04469225
0000a0 ae b3 cd 3d 48 e8 b8 bb 5b f7 77 3d 41 48 df bc
       0.10044037 -0.0056429245 0.06053863 -0.027256133
0000b0 d4 2b 4c 3d 62 f4 88 3b b0 3a f6 3c 1a 32 04 3d
       0.049846485 0.0041795233 0.030057281 0.032274343
0000c0 b0 70 a2 3d 60 d9 cf 3d 98 c2 ce 3c 05 e6 18 bd
       0.0793165 0.10148883 0.025239274 -0.03732874
0000d0 27 9d 77 3c 28 e5 a7 3d 25 64 93 3d bd 3a 32 3d
       0.015113152 0.08198005 0.071968354 0.04351305
0000e0 d7 2d 25 bd ce 13 e1 3c e7 3d d0 3d ea 10 81 bd
       -0.04032692 0.027475264 0.10168057 -0.06302054
0000f0 42 e5 8a bd ff 91 1f 3d 0c df b9 3d fe 61 d4 3d
       -0.06782009 0.038957592 0.09075746 0.10370253
000100 22 cf cb 3d db 0e 4d 3d f7 3b ba 3d 24 79 3d 3d
       0.09951617 0.050062995 0.09093469 0.046258107
000110 c6 4f 0f 3d 69 eb c0 3d d6 fc c1 bb ed be 2c 3d
       0.034988187 0.09419901 -0.005920033 0.04217427
000120 49 0e ce bc 37 e5 47 bd 99 5b 85 bd 87 78 7b 3d
       -0.025153296 -0.04880258 -0.065116115 0.06139424
000130 93 99 32 3d 98 ad a5 bc 76 53 7b bd a7 39 01 3d
       0.04360349 -0.020224378 -0.06135889 0.031549122
000140 66 21 d1 3d 16 0f 87 bd 8d 1b 8a 3d b7 21 92 3c
       0.10211448 -0.06594674 0.06743536 0.017838342
000150 4c 4b 23 bd b9 9d 89 bc 13 f9 46 bd 39 56 57 3d
       -0.03986673 -0.01679884 -0.04857738 0.052572463
000160 5d b6 0c 3c e2 2e 2c 3d ca 17 c5 3d 04 b8 7d bd
       0.008588401 0.0420369 0.09623678 -0.06194307
000170 e1 be 60 bd f4 5c 67 3c 0f 27 1e 3d 7f e3 1a 3c
       -0.054869536 0.014121283 0.038611468 0.009453653
000180 06 94 14 bd 77 3c 16 bd dd 85 f5 3c a3 a4 87 3d
       -0.03627398 -0.036678758 0.029971058 0.06623199
000190 e9 39 ef bc 6f f6 ce 3d 8d 29 0a 3d 2a 36 82 3d
       -0.029202418 0.10105597 0.033731032 0.06357987
0001a0 0e 1b 2c 3d e9 89 c8 3d 94 04 d8 3c 4b 09 76 bd
       0.04201799 0.09791929 0.02636937 -0.060067456
0001b0 01 22 4c 3d 32 a1 c1 3c e3 80 50 bd 32 fa 04 bd
       0.049837116 0.023636434 -0.050904166 -0.032465167
0001c0 e1 59 f6 bc 52 70 4d 3d e2 d1 36 bd 91 6a d9 bc
       -0.030072154 0.050155945 -0.044633754 -0.026540073
0001d0 47 a2 06 bd 70 85 c9 3d 9c 02 8a bd a5 0a 50 bd
       -0.032869603 0.09839904 -0.06738779 -0.0507914
0001e0 d1 fd 34 3b 26 a8 71 bc 2b 03 56 3d a3 60 5f 3c
       0.0027617107 -0.014749562 0.052249115 0.01363388
0001f0 42 ea 66 3d 82 62 ce 3c 60 de 01 3c 0e f7 e7 bb
       0.05637575 0.025193457 0.0079265535 -0.0070790118
000200 fb 80 97 bc 42 ae ab bc 93 12 5f 3d 91 8f a6 3d
       -0.01849412 -0.020957116 0.054461073 0.08132852
000210 d3 84 6d bd f5 0b 50 bd cc 0f cc 3d 64 aa 5e 3b
       -0.057988 -0.050792653 0.099639505 0.0033976072
000220 27 0b 0d bd c3 a7 66 bd 73 c4 5b 3d ee da b8 ba
       -0.034434464 -0.056312334 0.053654145 -0.0014103332
000230 4c 8a 9b 3d 27 a3 63 3d a8 c4 51 3c 36 8c d5 3d
       0.075947374 0.055575516 0.012803234 0.10427134
000240 da f1 4d 3d 48 b5 2e 3d 8b e1 3a bd 34 b6 93 3c
       0.050279476 0.042653352 -0.04562525 0.018031217
000250 86 6d 11 bb 95 0b 5b 3d 92 2f c1 3d bb a5 2f 3d
       -0.0022190525 0.053477842 0.094329014 0.042882662
000260 1b b1 0a bd 74 f4 a7 bb 0c ac 36 bc bd a4 19 bc
       -0.033860307 -0.0051255766 -0.011149418 -0.009377656
000270 4c 02 62 3d 04 36 93 3d 1a 7c c1 bc 78 14 11 bd
       0.05517797 0.07188037 -0.023618747 -0.03541991
000280 af 67 b7 ba a6 0f 60 3c 5f 8f 84 3d b6 a6 17 bb
       -0.0013992692 0.013675606 0.06472658 -0.002314014
000290 e3 08 5d bd 07 03 53 3d a0 50 6a bc 5d 63 d5 3d
       -0.053963553 0.05151656 -0.014301449 0.10419343
0002a0 ee 2e 44 bd dc a4 a2 3c a9 75 ec bc 26 24 a5 3d
       -0.04789632 0.019854002 -0.028864698 0.080635354
0002b0 b3 0d 93 3d 43 31 ae 3d 15 67 7c 3d 99 f1 0c 3b
       0.07180347 0.0850549 0.061621744 0.0021506308
0002c0 f5 4b 47 3d 45 14 1d bd 61 e3 d1 3d bc e6 84 bd
       0.048656423 -0.03834941 0.10248447 -0.064893216
0002d0 75 79 8f 3d c5 78 03 3d e4 e8 62 3c 0a 8c 7f 3d
       0.07005588 0.032097597 0.013849471 0.06238941
0002e0 8f 2d a7 3d 71 35 49 3d 37 44 c6 3d 91 ae 51 3d
       0.081629865 0.04912323 0.0968098 0.05119187
0002f0 fc 6a 30 bd 92 73 02 3d 01 c8 89 bd 26 28 0b 3a
       -0.04307078 0.031848498 -0.06727601 0.0005308412
000300 8d 3f 4f bc 42 6f 8b bd 41 f9 d4 bc cd 79 9a 3d
       -0.012649429 -0.0680833 -0.02599776 0.07542763
000310 9b 2c 36 bd be 15 33 bd a1 de 40 3d 1e 10 b2 3c
       -0.044476133 -0.043721907 0.047087315 0.0217362
000320 61 3e c2 bc 28 af 04 3d ed 7e 0e 3d 7c 7c 21 bd
       -0.023711385 0.032393605 0.034789015 -0.03942536
000330 a9 84 8b bd 94 36 a2 3d d3 39 58 bd 2e e4 ea bc
       -0.06812412 0.07920566 -0.05278952 -0.028673258
000340 63 f5 55 bd 7a e7 a1 3d 82 b3 9b 3d 10 5a 6a bc
       -0.052235972 0.07905479 0.07602598 -0.014303699
000350 30 4f 62 bd 69 47 7f bd 87 77 bf 3d af cc 1f bd
       -0.0552513 -0.06232396 0.0934897 -0.03901356
000360 9e 01 c4 3d e7 27 22 bd 43 30 aa 3d c2 59 93 bd
       0.09570621 -0.039588835 0.083099864 -0.07194854
000370 c0 a5 0d 3d 23 98 3b bd 22 bf 5a bd b1 36 89 3d
       0.0345819 -0.045799386 -0.053404935 0.06699885
000380 6f a6 b7 3d e9 c2 c3 bc b0 ec 8f bd fc 19 60 bc
       0.089672916 -0.023896651 -0.070275664 -0.01367807
000390 12 1f b8 bc 7a 75 5d 3c c5 7c f6 ba 33 f9 f1 3b
       -0.022475753 0.013516778 -0.0018805495 0.007384443
0003a0 63 43 01 3d 7d d5 6f 3d a6 46 1c 3b 9d d8 56 bd
       0.031558406 0.058553208 0.002384582 -0.052452672
0003b0 de 6d 86 bd 5f f5 9d 3d e1 ba 43 bd 95 28 55 3d
       -0.06563924 0.077128164 -0.047785643 0.052040655
0003c0 9e 5a 36 3d a3 5a 3c 3c 32 70 22 3d b4 73 8a bd
       0.044520013 0.011496219 0.03965778 -0.0676035
0003d0 cc 81 9c 3d 7f f2 8f bd 46 27 04 bc fc e3 52 3d
       0.07641944 -0.07028674 -0.008066004 0.051486954
0003e0 0d 68 16 bd 50 30 71 3d 4b c8 e4 bb f3 e6 0b bd
       -0.036720324 0.058883965 -0.0069818846 -0.034155797
0003f0 f0 a6 b9 bb 8a 72 3e 3c 6c 6b b8 3d ff a9 5c 3d
       -0.0056656525 0.011623988 0.09004864 0.05387306

fc2.bias f4 [64]
000000 70 e5 d9 3c 3f 32 39 bc 1d b9 a5 bc 90 42 9e bd
       0.026598662 -0.0113034835 -0.02022987 -0.077275395
000010 9f 66 89 bb 4e f2 3a 3d 41 3e f8 bc 79 4f 8b bd
       -0.0041931416 0.045641236 -0.030303122 -0.068022676
000020 67 0d 94 bc f3 a7 60 3c fc 49 ab bd 3a 28 a8 3c
       -0.018072797 0.013711917 -0.08363721 0.020526994
000030 ef 12 cd 3d 0a 35 04 bd 98 d1 8b 3d 42 4c d2 3c
       0.10013377 -0.032277144 0.06827086 0.025671128
000040 9f 9d 2f 3d 6a ec 1a 3c 32 6b 6e bd f0 24 8e 3d
       0.04287493 0.00945578 -0.0582077 0.06940639
000050 fd 7e 07 3d e6 d0 25 bd bf 8c 4a bd 44 2f ca 3d
       0.03308009 -0.040482424 -0.049450632 0.098722965
000060 13 07 b9 bc fc d2 98 3c e9 fd c2 bc ee d4 d6 3d
       -0.022586381 0.018655293 -0.023802714 0.10489832
000070 87 0d c9 bc b2 45 d1 3c 11 0f c2 bd a9 d0 62 3d
       -0.024542583 0.025545929 -0.0947553 0.055374775
000080 ee cb 84 3d 21 7c 3c bd 75 b5 c9 bd 25 60 84 3d
       0.06484209 -0.046016816 -0.09849063 0.064636506
000090 dc 9c ca bb bb 02 da 3c 71 aa 11 bd 47 f5 37 bd
       -0.00618325 0.02661263 -0.035562936 -0.04491165
0000a0 1f af 51 bd c1 86 da bc 24 3b 6e 3d 83 62 4b 3c
       -0.0511924 -0.026675584 0.05816187 0.012413624
0000b0 1c fe 3b 3c 82 e5 a8 bd b2 11 ae 3d c8 f0 cb bc
       0.011474159 -0.082469 0.08499469 -0.024895087
0000c0 64 d2 38 3d 25 bf 91 3d c9 f9 02 bd 6d 1a 27 bd
       0.04512252 0.07116536 -0.031976495 -0.040796686
0000d0 9f a1 84 3d a8 9a 8c bc 8a 28 b2 3c 16 52 3c 3d
       0.06476139 -0.01716359 0.021747846 0.04597672
0000e0 bf 84 dc bc 7e 7a 82 3d 86 88 88 bd 67 0f 13 bd
       -0.026918767 0.0637102 -0.06666665 -0.03590336
0000f0 38 b2 6a 3d d4 52 71 bd 65 d3 72 3d e1 71 16 bd
       0.05729887 -0.05891688 0.059283633 -0.036729697

fc3.weight f4 [1, 64]
000000 62 80 0f 3e b1 c5 d2 3d bd 72 2c bd f7 99 4c bc
       0.14013818 0.10291613 -0.04210161 -0.01248788
000010 71 e1 c8 bd d5 f7 17 3d 75 8d ba 3a 31 8d 48 3d
       -0.098086245 0.037101585 0.0014232831 0.048962776
000020 43 70 1c 3d 7c ed 11 3e 40 fe 32 bc 6c 00 9c bc
       0.038193 0.1425075 -0.010924876 -0.01904317
000030 54 36 f7 3d f4 74 54 3d 2b 56 d7 3c 95 b0 7e ba
       0.12070909 0.051869348 0.026286205 -0.0009715644
000040 94 d9 a3 3c 92 7d d6 3d 0b 8c d2 3d 8f fe 7e 3d
       0.02000121 0.104731694 0.10280617 0.062254485
000050 ee 41 90 bc 9b 4a 58 3d c8 99 cb 3d c6 1e ea 3c
       -0.017609563 0.052805524 0.09941441 0.028579127
000060 97 6c a5 3d 0c b2 15 3d 5c 1e c4 bd 11 ff 10 3e
       0.080773525 0.03654675 -0.09576103 0.141598
000070 23 60 d8 3d 1c 37 aa 3d de 10 a4 bd 95 88 07 bd
       0.105652116 0.083112925 -0.0801103 -0.03308924
000080 6c 82 ce bd 52 91 07 bd 4f 9f 9e bd ec 9c 98 3d
       -0.1008347 -0.033097573 -0.077452295 0.074518055
000090 f1 77 aa bd 48 3e a0 3d 78 93 79 3d ff 6a 8f bd
       -0.08323658 0.07824379 0.060931653 -0.0700283
0000a0 8d 83 bf 3d 93 88 b1 bd f9 f3 a6 3b 31 9a 32 bd
       0.09351263 -0.086686276 0.005095002 -0.04360408
0000b0 26 4e a5 bd ec 0e 77 ba 68 c0 a4 3d 7a d5 d0 3d
       -0.08071546 -0.0009424526 0.08044511 0.101969674
0000c0 31 40 ea bb 28 1f 81 bc 1e e8 06 3e 28 31 fb 3c
       -0.0071487655 -0.015761927 0.13174483 0.030663088
0000d0 56 29 8f 3d 3e 56 45 3d 84 b1 a9 3c 55 d5 b0 3d
       0.06990306 0.04817795 0.020714529 0.0863444
0000e0 1a a4 4a 3d 6f e6 cc bd d6 ee 95 3d f4 da fc 3d
       0.049472906 -0.10004889 0.07320945 0.123464495
0000f0 5d 0a 81 3d c9 0d 06 3e 39 86 06 bd 88 09 12 3e
       0.06300805 0.13091196 -0.03284285 0.14261448
